exp_local/bc_multimodal/weights/10000.pt (torch, 272392 bytes, 6 tensors)

weight f4 [256, 2]
000000 5b f8 10 be 7e 96 b4 3d 8d 8a 05 3e 2c f2 fc bc
       -0.1415724 0.088177666 0.13041134 -0.030877195
000010 d6 c5 6e be ec bf 5c 3e 90 42 6c bd 69 b5 07 3e
       -0.23317656 0.21557587 -0.057680666 0.13252796
000020 95 67 52 3e d6 57 48 3e bd 05 a8 3c e4 eb e1 bd
       0.20547326 0.19564757 0.020510549 -0.11031321
000030 4d f5 c7 bd 06 1a 4a 3e 23 bc 02 3c ec c4 36 bc
       -0.09763584 0.1973649 0.007979426 -0.011155348
000040 70 b5 03 be 91 9c a0 bd 32 cd 38 be 55 ad 1a 3b
       -0.12862182 -0.07842363 -0.18047026 0.002360185
000050 0a 11 c5 bd 3b 98 f4 bd dc cd 15 3c ec 11 a8 3e
       -0.096223906 -0.11943098 0.009143319 0.32826173
000060 32 84 65 be c2 bd 5a 3e 05 fb a1 3c d1 ab 86 3e
       -0.2241371 0.2136145 0.019773016 0.2630296
000070 2b cd 8f bd e8 41 eb bd 9e 29 5d 3e c3 94 a2 bd
       -0.070215546 -0.1148718 0.21597907 -0.0793853
000080 9a 7a 0b 39 ee 9e 9d 3e b4 d0 6a bd e7 89 49 bd
       0.00013301746 0.30785316 -0.05732794 -0.04920378
000090 82 3b df bd ea f8 49 3b e1 b4 e5 bd 54 54 a2 bd
       -0.10900022 0.003081853 -0.112161405 -0.079262406
0000a0 3d 33 b5 bd 38 15 06 bd e4 57 cc bb 23 d2 6d bc
       -0.088476636 -0.03273508 -0.0062360633 -0.0145154325
0000b0 22 74 20 bc 23 10 83 bd 9f 76 8f bc fa 75 44 bd
       -0.009793313 -0.06399562 -0.017512618 -0.047964074
0000c0 8a cf 04 3d 74 34 8d bd 47 02 58 bb 3d ca e6 bc
       0.032424487 -0.0689477 -0.0032960342 -0.028172607
0000d0 9a b1 85 3d 0e fc 0a 3d 44 0c 5e be 5c e2 c2 3d
       0.065280154 0.033931784 -0.21684366 0.09515831
0000e0 2a 9a 2b 3d 56 79 86 3d 9a 23 73 be 91 85 5d bc
       0.04189507 0.06566112 -0.2374405 -0.013520614
0000f0 f1 45 8e bd 04 3d 8f bc b9 52 09 be 9d c0 e2 3d
       -0.06946934 -0.01748515 -0.13410462 0.11071894
000100 32 d2 1d 3c ff 12 43 3e 3e a3 12 be c0 af a5 3e
       0.009632634 0.19050215 -0.14320084 0.3236065
000110 bc 72 85 bd 09 52 b1 bc 53 72 3f be 9f 04 5c bd
       -0.065160245 -0.021645563 -0.18695955 -0.053715345
000120 0b 8b e6 bc ec 40 aa bc 22 41 28 bd 81 b3 84 bd
       -0.028142473 -0.02078291 -0.04107774 -0.0647955
000130 f6 89 20 be 61 bd e4 3d e4 89 6b 3e 9c 52 6f be
       -0.15677628 0.11168934 0.2300182 -0.23371357
000140 9e 22 35 bf 8d b7 65 bd 7f 95 8e 3e 22 f8 14 be
       -0.70755947 -0.05608325 0.2784843 -0.1454778
000150 60 91 8d 3d ef 08 bc 3e 45 1f 82 3e cb 0e 08 be
       0.06912494 0.36725566 0.25414482 -0.13286893
000160 7c 80 1e be 18 d7 ad bd 41 8e 39 be e7 f0 64 3c
       -0.154787 -0.084882915 -0.18120672 0.013973451
000170 84 8a fe bd ea c4 91 3e 00 07 87 3d bd 84 23 be
       -0.124287635 0.28470546 0.06593132 -0.15968604
000180 c4 de d2 bd 08 cf 41 3e db 9a 97 bd 53 43 80 bc
       -0.102963954 0.18926632 -0.07402583 -0.015657103
000190 ad 37 40 be 3b 4a d6 3d e7 1c 09 3c 0d 01 de 3d
       -0.18771239 0.10463377 0.008368707 0.10840044
0001a0 de cf ff bc 2a f8 bb bd 6c b8 4a bd 8c 17 f6 bb
       -0.031227048 -0.09178193 -0.049492285 -0.007510131
0001b0 72 c1 15 be 07 c6 a7 bd ad 47 fe 3c 2f 79 55 3e
       -0.14624575 -0.081920676 0.031040037 0.20847009
0001c0 8e 9c 8b bc 28 96 fa bd 32 72 45 3e db 21 50 bd
       -0.017042425 -0.12235671 0.19281843 -0.050813537
0001d0 5b 80 7b bc 5a 7a 01 3b ec bf 65 be 80 9f 98 bc
       -0.015350427 0.0019756765 -0.22436494 -0.018630743
0001e0 92 38 de 3d 28 54 a3 bc 1b 3d 03 3e 5e 5f 36 3e
       0.10850634 -0.01993759 0.12816279 0.17809817
0001f0 4d ee 59 3b bb 8d 90 3e 53 30 b5 bc ed 1e 52 be
       0.003325361 0.28233132 -0.02211777 -0.2051961
000200 b1 33 6f 3e 58 11 72 3e 07 41 e5 be bb 68 ff bb
       0.23359562 0.23639429 -0.44776174 -0.0077944673
000210 bb 58 f6 3b f4 64 75 bb 2b c4 73 bc 2e 95 00 bd
       0.0075179017 -0.0037444206 -0.014878313 -0.03139227
000220 39 15 21 bd 34 0b ee bb 7f 32 81 bd d7 16 0f be
       -0.03932688 -0.007264519 -0.063084595 -0.13973556
000230 05 7a b0 bd 64 03 20 bd 0c 57 24 3e d5 2c e0 bd
       -0.086170234 -0.039065734 0.16048831 -0.10946051
000240 a6 af 61 be 46 d4 8c 3e 6e d7 bb bd 42 03 1f bd
       -0.22039661 0.27505702 -0.09171949 -0.038821466
000250 0d 5a 68 bd 9d 8b 0d 3e 68 76 48 bd 9e 79 91 3c
       -0.056726504 0.1382279 -0.048941046 0.017758187
000260 cd 77 38 be bc e9 e4 3d eb c8 5e bd 94 81 99 bd
       -0.1801445 0.11177394 -0.05439083 -0.07495418
000270 5d fc 24 be 94 f9 e5 3b 57 b0 52 3e 6d 91 54 be
       -0.16111894 0.0070182774 0.20575081 -0.207586
000280 c9 d3 0b be 90 88 65 bd a6 5e c6 bc f3 85 10 bd
       -0.13655008 -0.05603844 -0.024215054 -0.035283994
000290 cb 32 39 3e 65 38 49 be 51 29 cb 3c 4b 03 e8 bd
       0.18085782 -0.19650419 0.024799975 -0.11328753
0002a0 8d 24 a5 bd 7c 2f 78 bd 5c c5 b0 bd ff ca 22 bd
       -0.08063612 -0.06059216 -0.08631393 -0.039744373
0002b0 32 53 82 bc 59 9d 5c bd 1f 77 60 3e e4 fe 18 be
       -0.015908811 -0.053860996 0.21920441 -0.14940983
0002c0 02 0c 70 bd ce ab 60 3d ed 94 82 bd a5 93 8a bc
       -0.0586052 0.054851346 -0.063760616 -0.016916106
0002d0 f6 f2 a0 3a 07 73 da bd ea 69 9e 3e f4 47 b9 bd
       0.0012279439 -0.10666471 0.3094018 -0.09046927
0002e0 be c3 38 bd 6c 2d 40 be 88 9e b4 bc 3f a1 b0 bb
       -0.04510855 -0.18767327 -0.02204825 -0.005390316
0002f0 38 0c af bc 64 f6 7f bd a6 22 72 bd 52 6f 30 bb
       -0.021368131 -0.062490836 -0.059115075 -0.002692182
000300 60 4e 6b bd e4 cc 1e be c6 ae 08 bd ce 63 90 3b
       -0.05744779 -0.15507847 -0.033369802 0.004406429
000310 e5 64 64 bd 51 eb 0d be bb 44 71 bd 63 ae 5f bd
       -0.055760283 -0.13859297 -0.058903437 -0.054609668
000320 65 54 58 be ff 8b d8 bc 22 c5 e1 bb 75 af 19 3c
       -0.21125944 -0.026433943 -0.006889955 0.009380211
000330 e6 6e ec 3a 45 9c ec bd 37 f3 f3 bd e9 a3 4f 3b
       0.0018038421 -0.115532435 -0.11911624 0.0031683391
000340 9c 2c d0 3a b9 d5 6e 3e 3c 40 32 bc 22 e7 42 bb
       0.0015882435 0.23323716 -0.0108795725 -0.0029739817
000350 45 2f 8c be f4 99 01 bc c0 63 1b be fc c7 a5 bd
       -0.27379814 -0.00791024 -0.1517477 -0.080947846
000360 e0 fd c0 3d 00 17 b2 bd 6d 90 10 bd a1 8a 1f bd
       0.09423423 -0.08695793 -0.035293985 -0.038950566
000370 be 18 04 be a1 27 84 bc 10 70 4e bf 30 bd 70 bc
       -0.12900063 -0.016132178 -0.80639744 -0.014693543
000380 e8 31 32 bd f8 25 a8 3c 24 4f 3d 3e e9 0e 4d be
       -0.043504626 0.020525917 0.18487221 -0.20025219
000390 86 3d b8 bd 9e c2 48 bd 30 de b1 3e c5 19 43 3d
       -0.0899611 -0.049013726 0.34739828 0.047631998
0003a0 36 b5 21 bd f6 7c 0a be b5 c0 25 be 2e 37 49 bd
       -0.039479457 -0.13524231 -0.16186793 -0.04912489
0003b0 bc 78 69 be 95 c9 91 bc 43 df 88 3e 51 48 53 be
       -0.22799963 -0.017796317 0.26732835 -0.20633055
0003c0 10 0f 3e bd 32 8d 60 3c f9 d2 20 3c 30 29 e6 bd
       -0.046401083 0.013705539 0.009815925 -0.11238325
0003d0 ea f3 f5 3d 05 2e cf 3d 0b d5 51 3e 29 05 6d 3d
       0.120094135 0.101161994 0.20491426 0.05786625
0003e0 cc f9 04 3e d8 82 f0 bd cc 22 2a be 5c 57 b2 bd
       0.12985915 -0.117437065 -0.16614836 -0.08708069
0003f0 0d c1 14 3c 9f 37 24 3e 45 d5 03 3e 5e 1d b0 bc
       0.00907923 0.16036843 0.12874325 -0.021498378

bias f4 [256]
000000 2f a3 ca 3d 2c c5 27 bd 23 4e c0 3c 6a 19 b3 bb
       0.09894406 -0.040959522 0.023474758 -0.005465676
000010 a7 02 c7 bd a2 3d ce 3d c6 1f fb bc f1 80 c4 bb
       -0.09717303 0.10070349 -0.0306548 -0.0059968163
000020 0b 1b 23 3e 00 00 00 00 cf a3 22 3e a0 22 52 bd
       0.15928285 0.0 0.158828 -0.051302552
000030 b9 5e 86 3c 25 ed f3 bd 00 00 00 00 fe 51 fd 3c
       0.01640259 -0.11910466 0.0 0.030922886
000040 f5 10 22 be 00 00 00 00 00 00 00 00 00 00 00 00
       -0.15826781 0.0 0.0 0.0
000050 00 00 00 00 00 00 00 00 00 00 00 00 00 00 00 00
       0.0 0.0 0.0 0.0
000060 49 3e 5a 3d 00 00 00 00 82 54 06 bd 5f e0 cd 3d
       0.053282056 0.0 -0.032795437 0.10052561
000070 dd 45 3e bc 24 36 1a 3e 00 00 00 00 e3 26 a5 3d
       -0.011613336 0.15059716 0.0 0.08064058
000080 6f 5c 2a bc 0d f7 1b be 00 00 00 00 bc a9 48 3e
       -0.010398014 -0.15230961 0.0 0.19595999
000090 00 00 00 00 00 00 00 00 38 db d2 3d ad 08 25 3c
       0.0 0.0 0.10295719 0.010072869
0000a0 b7 0f 15 3e db e7 fa 3c b2 72 5e be a3 4e ba 3c
       0.14556776 0.030628135 -0.2172344 0.022742575
0000b0 79 78 71 3e 95 72 7a 3e e3 be 42 bc 9d 8b 95 3d
       0.23581113 0.24457772 -0.011886331 0.0730202
0000c0 32 72 83 bc 00 00 00 00 a7 b8 6a 3d 93 a5 95 bb
       -0.016045664 0.0 0.057305004 -0.004566857
0000d0 00 00 00 00 00 00 00 00 00 00 00 00 d7 49 c3 bd
       0.0 0.0 0.0 -0.09535568
0000e0 00 00 00 00 fb ac 12 bc d6 a1 2a bc 93 a1 21 3e
       0.0 -0.008952375 -0.010414561 0.15784292
0000f0 70 8b f7 bc a7 2b 4e bc eb 62 0f be 5a 4b 0a 3e
       -0.030217856 -0.01258365 -0.14002578 0.13505307
000100 55 75 e5 bd 2f f5 64 3e d4 c3 04 bc 00 00 00 00
       -0.1120402 0.22359155 -0.00810333 0.0
000110 00 00 00 00 00 00 00 00 00 00 00 00 f9 f5 2a 3c
       0.0 0.0 0.0 0.010434621
000120 61 0d cc 3b 00 00 00 00 28 c2 18 bc 25 56 5b bc
       0.006227181 0.0 -0.009323634 -0.013387238
000130 11 a7 40 3d 00 00 00 00 6a 28 ee 3d 6c d3 c9 3b
       0.047034327 0.0 0.11628802 0.0061592367
000140 00 00 00 00 00 00 00 00 f8 d6 1c 3c e0 d4 8e bc
       0.0 0.0 0.009572737 -0.017435491
000150 00 00 00 00 00 00 00 00 00 00 00 00 85 e7 35 3d
       0.0 0.0 0.0 0.044410247
000160 29 8d 02 3d 00 00 00 00 cb c9 c4 bb 70 7d 03 bc
       0.031872902 0.0 -0.006005501 -0.008025512
000170 36 74 19 3e 00 00 00 00 00 00 00 00 00 00 00 00
       0.14985737 0.0 0.0 0.0
000180 00 00 00 00 f8 ac 3f bc b7 e9 1d 3e 00 00 00 00
       0.0 -0.011698954 0.15421186 0.0
000190 00 6f 30 3e 3d 23 82 bc 06 61 09 bc 23 69 d7 bb
       0.17229843 -0.015885944 -0.008384949 -0.0065738126
0001a0 4a 90 ee bd fa fa 29 bc b0 93 0b 3e 8b e9 6b 3e
       -0.11648615 -0.010374779 0.13630557 0.23038308
0001b0 9e 42 2e 3d 00 00 00 00 00 00 00 00 e6 c3 ab 3d
       0.042544 0.0 0.0 0.08386974
0001c0 cc f3 29 bc 9f c9 14 3c 00 00 00 00 7a 5d 08 bd
       -0.010373067 0.009081273 0.0 -0.03329227
0001d0 00 00 00 00 cf e6 32 3e fe d2 a7 3e 36 7e 1a 3c
       0.0 0.17470859 0.32778162 0.009429505
0001e0 62 e3 10 bc 1f 35 00 3e d1 ed 04 bc 0f 5c 0e bc
       -0.008843275 0.12520264 -0.0081133405 -0.008688941
0001f0 8d b6 ce 3b 6d b6 84 3e 25 9b 11 bc 13 fc 00 bd
       0.006308383 0.2592043 -0.008887087 -0.031490397
000200 dc 42 34 bb 90 76 14 bc 00 00 00 00 75 7c 6c 3e
       -0.0027505672 -0.009061471 0.0 0.23094352
000210 00 00 00 00 bc 48 2b 3e d9 2a c9 bc 00 00 00 00
       0.0 0.16726965 -0.024556564 0.0
000220 d6 c9 c4 bb f8 f2 73 bc 6b a5 0f bd 13 3b 23 3e
       -0.006005506 -0.014889471 -0.035069864 0.15940504
000230 f0 ac c5 3d ae 00 ff bb aa a1 82 3e 26 a3 0e 3d
       0.09652126 -0.0077820634 0.25513965 0.03482356
000240 00 00 00 00 22 95 bc 3c 00 00 00 00 00 00 00 00
       0.0 0.02302033 0.0 0.0
000250 00 00 00 00 f4 31 37 3e 88 b0 3d 3e 69 27 9b 3d
       0.0 0.1789015 0.18524373 0.07575876
000260 f8 ff 72 3e 00 00 00 00 3f de 21 be 00 00 00 00
       0.23730457 0.0 -0.15807436 0.0
000270 e1 b5 21 bc 00 00 00 00 34 de ee 3d 8c a1 b0 bd
       -0.0098700235 0.0 0.11663476 -0.086245626
000280 94 17 6d bd 00 00 00 00 8c 77 01 bb 10 67 75 3b
       -0.057883814 0.0 -0.0019755093 0.0037445463
000290 81 1d bb bb 77 47 42 3e 00 00 00 00 24 b4 f7 bd
       -0.0057103042 0.18972574 0.0 -0.12094906
0002a0 a2 17 04 be 01 b9 51 3c 57 a7 15 be 00 00 00 00
       -0.1289964 0.012800456 -0.14614616 0.0
0002b0 e9 51 29 3e 00 00 00 00 8f 49 0e 3e a1 25 4f bc
       0.16535152 0.0 0.13895248 -0.012643249
0002c0 60 e7 8f bb 04 43 48 3e 00 00 00 00 78 04 09 bc
       -0.0043915957 0.19556814 0.0 -0.008362882
0002d0 4a b7 30 ba 8e a2 92 3e 16 de 5d 3d 26 86 0f bc
       -0.00067411794 0.28639644 0.054166876 -0.008760011
0002e0 24 41 4b bc 4c 9c 73 bd 00 00 00 00 0e ac 06 bc
       -0.012405667 -0.05947523 0.0 -0.008219732
0002f0 47 b8 3d 3d 00 00 00 00 a1 67 90 3c 00 00 00 00
       0.04631832 0.0 0.01762754 0.0
000300 47 2e b3 3d 4a 9d b3 bb 00 00 00 00 00 00 00 00
       0.08749061 -0.005481397 0.0 0.0
000310 cc 87 49 bd 0a 5f f1 bc 00 00 00 00 90 29 97 bc
       -0.04920177 -0.029464263 0.0 -0.018452436
000320 16 16 18 bc 01 7e a1 3b 00 00 00 00 a8 01 de bd
       -0.009282609 0.004928351 0.0 -0.1084016
000330 00 00 00 00 0e 9c 3e bc bc 84 cc bc e4 6a 83 3e
       0.0 -0.011633886 -0.024965636 0.2566749
000340 7b cf 3c 3e 92 73 0e 3e 46 df 1e bd 4c 1d 2f 3d
       0.18438523 0.13911274 -0.03878715 0.04275255
000350 00 00 00 00 3c 7f 40 3e 00 00 00 00 0a 35 f4 bb
       0.0 0.18798536 0.0 -0.007452612
000360 00 00 00 00 00 00 00 00 18 5f 2b 3c b4 fd 0b 3d
       0.0 0.0 0.010459684 0.034177497
000370 00 00 00 00 00 00 00 00 00 00 00 00 69 74 20 be
       0.0 0.0 0.0 -0.15669407
000380 e3 c4 9d 3d d9 f2 bf bc 00 00 00 00 92 16 19 3e
       0.07703569 -0.023431228 0.0 0.14950016
000390 00 00 00 00 9e 66 6e 3d 00 00 00 00 88 15 8c bc
       0.0 0.058203332 0.0 -0.01710011
0003a0 9c 9f 16 3e 2a ae ef bb 00 00 00 00 74 50 ff bb
       0.14709324 -0.007314463 0.0 -0.007791573
0003b0 36 1a 03 bd 3e d0 6b bc 38 3b d5 bd 00 00 00 00
       -0.03200742 -0.0143929105 -0.10411686 0.0
0003c0 65 9d 32 bc 00 00 00 00 00 00 00 00 91 3a c2 bb
       -0.010901784 0.0 0.0 -0.005927392
0003d0 ed 7b ae bb 4e 1b b0 3c 00 00 00 00 00 00 00 00
       -0.0053248317 0.021497395 0.0 0.0
0003e0 91 05 b9 3b 5a 41 b6 bc 67 8f c3 3c cd 16 0a 3e
       0.0056464155 -0.022247959 0.02387209 0.1348526
0003f0 a7 1e 2a 3e 02 36 21 3e f6 8c 87 3c 77 36 3d bd
       0.16613255 0.15743259 0.016546708 -0.04619452

weight f4 [256, 256]
000000 16 d2 98 bc e3 66 59 bd 03 91 ae 3e 74 9d 66 3d
       -0.018654864 -0.053076636 0.3409501 0.056302503
000010 71 71 cf bd 49 cb ba 3d d3 89 af be ac b5 f7 3c
       -0.10129059 0.09120805 -0.3428484 0.030237995
000020 7e 3c 25 be b4 99 e8 3b 75 ba 79 3e 9c 2e 61 3d
       -0.16136357 0.007098401 0.24387534 0.05497609
000030 fe ee a4 3e 5a a0 0e 3e 2b 59 5d bd 8b d5 40 bc
       0.32213587 0.13928357 -0.054040115 -0.011769663
000040 4b 4c ef 3d 4d bd be bd 50 0b bf bd e9 63 3b bb
       0.116844736 -0.0931345 -0.093283296 -0.0028593487
000050 68 a1 9b bd de a8 5e bd 12 c4 cc bc 11 e6 a9 bd
       -0.07599145 -0.054360263 -0.024995837 -0.08295835
000060 f0 53 44 3d 13 30 ca 3d 6b 14 d8 3d ed 51 82 be
       0.04793161 0.09872451 0.105507694 -0.2545313
000070 88 51 d4 3c dc 38 a1 be eb b2 a7 3d b5 7f f2 3d
       0.025917783 -0.31488693 0.08188423 0.118407644
000080 f0 17 77 bd 21 03 17 bf ba fa a1 bc b0 ca 94 be
       -0.060325563 -0.5898915 -0.019772876 -0.29060888
000090 23 15 a4 3d 3c c7 79 3d 57 f3 01 3d ea 38 42 3e
       0.08011844 0.06098102 0.031726208 0.18967023
0000a0 c4 c2 3a bf 4e ca 68 bd 6c 44 1c 3d b4 8a 8d bd
       -0.7295344 -0.056833558 0.03815119 -0.06911221
0000b0 50 04 b8 3d 66 63 30 3a d1 1a 10 bd 07 2f 78 be
       0.089851975 0.00067286787 -0.035181824 -0.2423669
0000c0 b8 f1 10 be 9c 52 77 bd bb c0 0e be 42 59 48 3d
       -0.14154708 -0.060381517 -0.13940708 0.048913248
0000d0 ae b2 d1 3c be e0 7f 3d 76 45 7c 3d 91 66 1c 3d
       0.025597896 0.06247019 0.06158968 0.038183752
0000e0 50 ad 05 3d 6a f2 12 3d 7e 59 a6 3d c0 ba d5 be
       0.032635987 0.035875715 0.08122538 -0.4174404
0000f0 6f dc 28 bc db 25 fd 3d b8 93 00 bd b8 38 0a 3e
       -0.010306462 0.12360736 -0.031390876 0.13498199
000100 99 c9 58 3b 35 6b 43 3f 8c a4 a9 3d 8d 22 d8 3c
       0.0033079146 0.7633546 0.08283338 0.026383663
000110 32 47 09 3d 6a 3c b5 3d 4c 7a 07 3c a4 6a 7d be
       0.033515163 0.08849414 0.008268904 -0.24747711
000120 2d eb b7 be fc 84 db 3c e5 96 ee bb bd a6 eb bc
       -0.35921612 0.02679681 -0.0072811716 -0.02876603
000130 fd 96 0a 3b d2 cc d0 bd 1c a9 d7 bd e1 b9 82 3e
       0.0021147125 -0.101953164 -0.10530302 0.2553244
000140 26 ee ad 3b 9c e6 d9 3c 1d 9d da 3d a8 ba 11 3b
       0.0053079305 0.026599221 0.10674498 0.00222365
000150 92 14 77 3d 82 f6 6c bd c2 c7 2e bd 46 38 76 bd
       0.06032235 -0.057852276 -0.042670973 -0.06011226
000160 0d 96 8e 3b 5d 6c 00 bd ce 9b 44 bd f0 6f 18 bd
       0.0043513835 -0.031353343 -0.04800015 -0.037216127
000170 86 ad c9 3d e5 43 de 3d 1f ad 7e bd 4c f5 b6 3d
       0.0984755 0.108527936 -0.06217682 0.089335054
000180 aa 43 51 3d 33 b6 c5 bd 72 47 c7 bd ee 28 5e 3e
       0.05108992 -0.09653892 -0.09730424 0.21695301
000190 e9 6b c4 be 9f 78 fb 3c 5c ec 94 3d b6 24 f6 bc
       -0.3836358 0.030697165 0.072716445 -0.030046802
0001a0 77 51 d2 bc 19 fd 87 bd 73 3c e4 3e de 85 2c 3d
       -0.025673611 -0.066400714 0.4457737 0.042119853
0001b0 3e e9 12 3e 00 86 14 bc f0 47 b0 bc ff d0 65 bf
       0.14346787 -0.009065151 -0.021518677 -0.8977203
0001c0 75 d2 95 3d de bf 22 3d c6 49 18 bc 53 62 ee bc
       0.07315532 0.03973376 -0.009294933 -0.029099619
0001d0 82 d8 f3 bb bf c5 96 be b3 62 3c 3e 77 b3 52 be
       -0.007441581 -0.29447743 0.18397026 -0.20576273
0001e0 6e 9c 03 bb 10 ef a9 bc 71 8c 79 3d cb fc 24 be
       -0.0020082253 -0.020743877 0.06092495 -0.16112058
0001f0 99 71 90 bd 66 21 96 bc af fa c7 3c bc af 78 3c
       -0.07052917 -0.018326472 0.024411527 0.015178617
000200 7e 2a 88 3d 67 09 11 3e 56 c7 d5 bc e5 a1 09 bd
       0.0664873 0.14163743 -0.026096027 -0.03360166
000210 a5 42 ca bd 22 6d 3c 3e ef 51 d2 3e e5 83 91 3d
       -0.09875993 0.18401006 0.41078135 0.07105235
000220 d5 87 81 bc 2a f2 54 be ef 8e b9 3c 72 5f 85 3d
       -0.01581184 -0.20795503 0.022651164 0.065123454
000230 8f c2 7f bf 92 d2 36 bd 48 8f 81 3d 16 02 03 bd
       -0.9990625 -0.04463441 0.06326157 -0.03198441
000240 cc 35 ed bc 3c 1c 4d bd 7a ee 1f 3b ee 1a b3 bc
       -0.028956316 -0.050075755 0.0024403618 -0.021863427
000250 54 df 75 3d ab b4 dd bc e1 96 89 be 9c 5a 8f bc
       0.060027435 -0.027063688 -0.26872924 -0.01749926
000260 44 bd 57 3e 20 0c a7 3c f5 bb f6 bc fc ca 90 3d
       0.21068293 0.020391524 -0.030118922 0.07069966
000270 c5 0b 05 3d 48 39 2f ba 6b 21 0b bf 41 47 c1 3d
       0.032481927 -0.0006684256 -0.54347867 0.09437419
000280 6a a7 47 bc 90 ec 93 3d d6 2f ab 3e a9 07 09 3e
       -0.012185911 0.07222855 0.33434933 0.13381828
000290 b6 ec 0d 3e ef 40 ad be 1c d3 cb bd f7 63 4f bd
       0.1385983 -0.33838603 -0.09952375 -0.050632443
0002a0 8c 33 b2 3d 1c 84 0c be 71 73 8a bc 8d bf e1 bc
       0.08701238 -0.1372227 -0.01690075 -0.027557159
0002b0 c3 27 f1 bd 1e 48 9a 3d 34 b1 f2 3d 10 8b d3 3b
       -0.11775162 0.075332865 0.11850205 0.0064557865
0002c0 d1 d9 8d 3d b5 fe 38 3d 84 13 8b 3b 44 57 ca ba
       0.06926311 0.045164783 0.00424427 -0.0015437384
0002d0 57 2d 6a bd bb d0 a3 3d 59 3e 4b 3d 40 59 88 3a
       -0.057172146 0.079987966 0.049620006 0.0010402575
0002e0 cd b4 69 3d 07 70 e9 bd 66 7f 3f bd dd 03 a4 3d
       0.05705719 -0.11398321 -0.046752356 0.08008549
0002f0 d6 ca b9 3d e2 a8 f1 bc e8 3d 9e 3d be 20 ff bc
       0.09071891 -0.029499475 0.077266514 -0.031143542
000300 ef 35 44 bc a0 6b 80 3c 03 e8 c0 bd 74 c3 67 bd
       -0.011975749 0.01567632 -0.09419253 -0.056582883
000310 75 7d f9 3c 3d af 2f 3c a6 5c 1b 3d 7b 0e 00 3f
       0.03045533 0.010722932 0.037930153 0.50022095
000320 cc 87 30 3d cc 0e 91 3b d2 90 52 bd bf a3 b5 3c
       0.043098256 0.0044268128 -0.051407643 0.022172807
000330 2a 79 50 bd 9f 10 7a 3d a8 f8 84 be bc c8 1c 3e
       -0.0508968 0.061051007 -0.2597096 0.15310949
000340 40 5d 44 be 25 aa 07 be 6c 4c 93 3d fb 59 bf 3d
       -0.19176197 -0.13248499 0.07192311 0.09343334
000350 ae c7 92 3c a0 ff 9c 3d 06 77 1f bc 39 12 3e 3d
       0.01791748 0.07665944 -0.009732967 0.046404097
000360 1f 57 7e bd bf 89 e0 bc a9 82 4e 3e bf b6 2c 3d
       -0.062094804 -0.027409432 0.2016703 0.042166468
000370 bc 0a 4c 3d 04 7f fe 3b 75 88 21 bd 61 38 f0 be
       0.049814925 0.0077666063 -0.039436776 -0.46918014
000380 1c 5b 40 bf 00 d9 4a be dc e8 83 bd b5 f5 0e 3f
       -0.7513902 -0.19809341 -0.06440899 0.5584367
000390 90 f4 d5 3b d7 bc 94 3d 6a ab e8 bc 69 78 9c 3d
       0.0065293983 0.07262581 -0.02840205 0.07640154
0003a0 37 c7 97 3d 09 29 6b 3b 8a f2 1c 3e d3 50 f5 bd
       0.07411044 0.0035882613 0.15326896 -0.119783066
0003b0 51 ec 33 bd 55 ce 60 bd c1 ff 13 bd 45 31 79 bd
       -0.04392654 -0.054884274 -0.036132578 -0.060838003
0003c0 be ce 85 3c 62 cc 6e 3d 74 da 36 bc f4 f7 90 bd
       0.016333934 0.058300383 -0.011160482 -0.07078543
0003d0 fa 58 da bc f0 31 b5 3b 64 c5 31 bd b2 5e a2 3d
       -0.026653755 0.0055296347 -0.043401137 0.07928218
0003e0 a2 ed a5 be 9d d5 7f bc 0a 0d e5 3c 9f 81 f1 bc
       -0.32407862 -0.015614894 0.02796032 -0.029480753
0003f0 e6 31 24 3f 55 a3 96 be 14 c0 f0 bd 47 a8 9c bc
       0.6413864 -0.29421487 -0.11755386 -0.01912321

bias f4 [256]
000000 97 a9 15 3d e3 ec 9b 3d 00 00 00 00 14 32 20 be
       0.036538687 0.07613542 0.0 -0.15644103
000010 2f 61 d1 3c 02 b0 93 bd d2 0f 74 bc 22 f2 3e 3d
       0.025559036 -0.07211305 -0.01489635 0.046617635
000020 2f 85 94 bc 39 d7 39 bc 5d 57 d5 bb e6 dd 59 bc
       -0.018129913 -0.011342817 -0.0065106587 -0.013297534
000030 00 00 00 00 91 84 5d bc ee 86 0d bc 17 8a 38 bd
       0.0 -0.013520376 -0.008638127 -0.045053568
000040 61 e6 00 3c c0 11 cf 3c d0 a3 42 3d 81 03 1a 3d
       0.007867427 0.025277019 0.047519505 0.037600998
000050 a9 c9 24 3d de 4a c3 3d bd b8 13 3e 16 8d 59 3d
       0.04023138 0.09535764 0.14425941 0.053113066
000060 94 f8 71 bc 5a e0 98 3d fc 41 a6 3d 8f 6d 3c bc
       -0.014768738 0.07464667 0.08118054 -0.01150073
000070 25 f5 d0 bb ef 4c 0b 3d 91 75 82 3d 6b 86 20 3d
       -0.0063768798 0.034008916 0.0637008 0.03919069
000080 4f 2f 31 bc 71 52 a0 bc 00 00 00 00 3b cf 0b 3d
       -0.010814502 -0.019570561 0.0 0.034133177
000090 79 c3 b8 3d 78 9e 2e 3d 9f ff ee bb 22 41 06 3d
       0.090216585 0.042631596 -0.007293656 0.03277696
0000a0 8a 7d 0f 3d c6 34 0f 3d 83 da 0f 3d aa 2f 00 bd
       0.035031833 0.034962438 0.0351205 -0.031295456
0000b0 4b ac be bc 48 33 52 3c 3f e4 01 bc 31 1f c0 bd
       -0.023275515 0.012829609 -0.007927953 -0.09380949
0000c0 dc 7d 92 bc ef 08 3f 3e 73 cb 07 3d d1 aa e7 3d
       -0.01788228 0.18655752 0.03315301 0.113118775
0000d0 d4 7d 65 bc 8d 17 12 bd 2f bc da bb b1 a1 f8 3b
       -0.014007051 -0.03566699 -0.0066752653 0.0075876345
0000e0 a1 aa 0f bc 5f b8 ea 3c 93 c0 2c 3e 2b 5d 4d bc
       -0.008768708 0.028652368 0.16870336 -0.01253442
0000f0 26 1b ca bc 7b cd 5d bc 89 de 00 3d 52 11 ae bc
       -0.024671149 -0.01353776 0.031462226 -0.021248493
000100 00 00 00 00 fe 7f 72 3d da eb 1c 3d bd 92 46 bc
       0.0 0.059204094 0.038310863 -0.012119946
000110 d2 2c d2 bb 17 49 2b 3d 7c 9e 65 bc 67 4a c9 3d
       -0.0064140344 0.04181775 -0.014014836 0.09828644
000120 00 00 00 00 cc a8 84 3c 5c 4e 9e bd e8 09 00 3d
       0.0 0.01619377 -0.077297896 0.031259447
000130 f0 65 61 3d 31 8f 0a bc c1 a9 9c 3c a9 e6 ff bc
       0.055028856 -0.008456991 0.019123914 -0.031237917
000140 47 94 12 3d 7b af a4 3d a7 bc 4b 3d c8 44 1c 3e
       0.03578594 0.08041283 0.04974046 0.15260613
000150 8c 5d 0f bc 00 00 00 00 15 c0 0c 3d b8 03 73 3d
       -0.008750331 0.0 0.03436287 0.05932972
000160 00 00 00 00 8d eb e2 3c 28 e0 00 3d 15 84 d8 3c
       0.0 0.02770021 0.031463772 0.02643017
000170 7c 8c 8d bc 35 34 2b 3d 00 00 00 00 e7 b2 80 bc
       -0.017278902 0.041797835 0.0 -0.015710307
000180 01 00 0f 3d e9 0c 09 bc 90 69 1d bc c3 cf 9c bc
       0.034912113 -0.008364894 -0.009607688 -0.019142037
000190 1a db 77 3d df c5 1e 3c 00 00 00 00 67 1d 30 bc
       0.060511686 0.009690731 0.0 -0.010749198
0001a0 6c 6a 0c bc 33 d5 30 3d b8 6e dd 3d f5 40 1b bc
       -0.008570295 0.043172073 0.108121336 -0.009475936
0001b0 46 00 81 bc 4c 6d 42 bc 17 7d 3e 3e 92 5d 64 bc
       -0.0157472 -0.011866879 0.18602405 -0.0139383245
0001c0 3e 41 28 bc ee 0f 2b bc af 93 3b bc ed 8f 65 3d
       -0.010269461 -0.01044081 -0.011448785 0.05604546
0001d0 71 df 11 3c 4e c5 92 3c 5d af 17 3d 5f 7d df 3c
       0.00890337 0.017916348 0.037032474 0.027281461
0001e0 a1 ee 81 bc 8f 21 30 bc 00 00 00 00 8d 83 63 bc
       -0.015860857 -0.0107501885 0.0 -0.013886345
0001f0 00 00 00 00 00 00 00 00 6c 14 5f bc 0c 02 2b bc
       0.0 0.0 -0.013615709 -0.0104375
000200 32 8a d8 bb 6b fd 23 bc 92 22 2a bc c4 fa 01 bd
       -0.006608271 -0.01000915 -0.010384219 -0.03173329
000210 09 27 7e bc a5 ac d8 3c cc 8d 85 bc bf da df bb
       -0.015512236 0.02644951 -0.016302966 -0.0068314965
000220 53 83 1e bc 00 00 00 00 7f 2f 16 bc 29 1f 1c 3d
       -0.009674865 0.0 -0.009166597 0.038115654
000230 00 00 00 00 d7 05 2e bc da c9 c4 bb 6b a6 11 3d
       0.0 -0.0106215095 -0.006005508 0.0355591
000240 ba 62 55 bc 96 60 ca bb 6b f8 13 bc 2b 14 b0 bc
       -0.0130240265 -0.0061760647 -0.009031395 -0.021493992
000250 d2 64 7a bc 56 5b 49 bc f4 de f8 3c ef 2e 21 3c
       -0.0152828265 -0.012289843 0.03037975 0.00983785
000260 05 b6 be 3b 0e a1 d1 3a b6 3a 82 3c 23 52 06 3d
       0.0058200383 0.0015993433 0.015897136 0.032793175
000270 b3 4c 1a 3c 7b 83 be 3d 03 0a 27 3d fe 5f 27 3d
       0.009417701 0.09302422 0.040781032 0.04086303
000280 9b b9 3d 3d cf 46 60 bc 66 1d 82 bc 00 00 00 00
       0.046319585 -0.013688757 -0.015883159 0.0
000290 06 a9 44 bc 98 46 65 bc f8 16 ee 3c ed 9a 31 bb
       -0.012003189 -0.013993882 0.029063687 -0.00271004
0002a0 59 91 3d bc a1 00 1d 3d eb b2 01 3d 5f 20 7a 3c
       -0.011570298 0.038330678 0.03166477 0.015266507
0002b0 05 10 02 bc c4 63 7a 3d a9 0c 29 3d f7 fd 95 3d
       -0.00793839 0.0611303 0.04127184 0.073238306
0002c0 7f 48 40 3c 63 fa 77 bc 00 00 00 00 84 d2 2f bc
       0.011736034 -0.01513538 0.0 -0.010731343
0002d0 40 cb a1 bc 0d e6 b6 3c f8 a3 f5 3d 43 e5 14 3d
       -0.019750237 0.022326494 0.11994165 0.036351454
0002e0 e8 d1 15 3d 7e d7 b8 bc eb 72 cd bc 2d 0c d3 3d
       0.036577135 -0.022563692 -0.025079211 0.10305057
0002f0 59 b3 61 3d 5c bc 09 bc eb 4c 17 3d 74 0b 4d bc
       0.05510268 -0.008406725 0.03693859 -0.012514938
000300 40 b4 d4 3c ca 03 64 bc 2d 30 f9 bb 57 c7 81 3c
       0.025964856 -0.013916919 -0.00760462 0.015842123
000310 93 12 60 bc f8 e2 1e 3d 90 33 90 3c ff 5d aa 3c
       -0.013676303 0.038790673 0.017602712 0.020796774
000320 c4 0f c5 bb 7e 01 07 bc aa a1 56 bc cc 85 8d 3d
       -0.0060138423 -0.008240102 -0.013100067 0.06910285
000330 e1 50 c7 3c de c4 1c bc 6c 01 38 bc c6 2f 24 3d
       0.024330558 -0.009568421 -0.011230808 0.040084623
000340 9d f2 cd 3c 94 b7 1c 3d ad e6 e0 3c 76 f6 3e bc
       0.025140101 0.03826101 0.027453745 -0.011655441
000350 4c 64 69 3c 17 bd 4a 3d d2 d9 0a 3d cc 4f 14 bc
       0.014245104 0.049496736 0.033899136 -0.009052228
000360 08 56 ab bb d1 c9 c4 bb 88 4e e1 ba 3e cf 38 bc
       -0.0052287616 -0.0060055037 -0.0017189542 -0.011279879
000370 e0 21 fa 3c 46 55 b5 bb c1 f6 9b bc cb 14 33 bc
       0.030533731 -0.005533847 -0.01903856 -0.01093025
000380 00 00 00 00 00 00 00 00 fe 53 78 3d 00 00 00 00
       0.0 0.0 0.060626976 0.0
000390 bc 41 06 bc 2e 29 c3 3c a0 bc 50 bc 65 e7 27 bd
       -0.008194383 0.023823347 -0.012740284 -0.04099216
0003a0 e8 72 34 bc 36 28 de 3d 3d a4 39 3d 7e 9e 1e 3c
       -0.011013724 0.108475134 0.045322645 0.009681342
0003b0 5f ac 03 3e a7 e9 9b 3d 77 45 15 bc ee a5 67 bc
       0.12858723 0.07612925 -0.0091108 -0.014138682
0003c0 c6 29 8c 3c de df 24 3e 69 7a f2 bc 01 3a 9e 3c
       0.017109763 0.16101024 -0.029599385 0.019314768
0003d0 56 aa 10 bc 11 49 8f bc 56 df 0e bc 76 1c 52 bc
       -0.008829674 -0.017490895 -0.00872024 -0.012824168
0003e0 a8 ad d6 3d 10 f9 09 3d 44 76 06 bc 90 88 4b bc
       0.10482341 0.03368479 -0.008206908 -0.012422696
0003f0 00 00 00 00 0a f7 19 bc ed 80 17 3d a0 76 01 3d
       0.0 -0.009397278 0.036988188 0.03160727

weight f4 [2, 256]
000000 0b 6c e0 3e 89 39 4e 3f ad 9c c5 bd 0b 9d 8a bf
       0.4383243 0.8055654 -0.09649024 -1.0829176
000010 e7 94 e2 bd e8 db 9d be 3c 67 3f bd 52 53 a9 be
       -0.11063557 -0.30831838 -0.04672931 -0.3307138
000020 77 1e f8 3c 58 da 9e bd 6d 59 d9 bd c3 62 7d bd
       0.030287964 -0.077564895 -0.1061276 -0.061861765
000030 86 d6 da bc 94 e2 4e bd 82 ce ad bd fc 0f 33 bf
       -0.02671362 -0.05050905 -0.08486654 -0.69946265
000040 15 44 8c 3e 85 67 bc be 84 ff 39 3f ee 37 dc be
       0.27395692 -0.3679773 0.7265551 -0.4301142
000050 5f 67 3e 3f 9c 55 28 bf 68 a3 f5 3d 60 62 02 bd
       0.7437648 -0.6575563 0.11994058 -0.0318321
000060 56 24 52 bd 72 6e 12 bf 40 ac 0d be df 2c d3 bd
       -0.051304184 -0.57199776 -0.1383524 -0.10311293
000070 03 1a 83 3d c3 22 9f bd 0b 16 0e 3f 34 4d 49 3f
       0.06401446 -0.07770302 0.55502385 0.7863343
000080 62 fd fe bd 77 f4 17 3f c7 81 bb bd bc 1d 90 3f
       -0.12450673 0.593574 -0.091556124 1.1259074
000090 83 67 83 3e f6 3c 8b be 6c 67 45 bd 41 d8 88 be
       0.2566491 -0.27194947 -0.048194334 -0.2672749
0000a0 f1 d5 90 3f 70 0a cd 3a c2 0e e9 3f a7 ed 54 3b
       1.131529 0.0015643369 1.8207629 0.0032490285
0000b0 c8 ba c8 3c 76 08 81 3e 77 bb b8 3c e5 bd 6e bf
       0.024503127 0.25201768 0.022550328 -0.93258506
0000c0 61 69 51 bd df e7 bc 3e 8c 70 ec 3e df d6 0b bf
       -0.051125888 0.36895654 0.46179616 -0.5462474
0000d0 60 69 eb 3c 1f 43 e6 bd 8b f7 25 3c b7 39 ec be
       0.02873677 -0.11243271 0.01012982 -0.46137783
0000e0 37 c0 bf 3d 53 bb 06 3f e1 8d ef 3e f3 3e 3b bc
       0.09362834 0.52629584 0.46787933 -0.0114285825
0000f0 74 09 e1 3d 41 af fe 3c 05 1e a4 be db 55 bb bb
       0.10988131 0.031089427 -0.32054153 -0.005717022
000100 16 3e 95 3d 0e 80 35 3f 06 92 71 be 3e a4 73 3b
       0.072872326 0.7089852 -0.2359086 0.0037176753
000110 e5 35 37 bd 99 27 94 be 1b ab b0 bd 51 35 26 3f
       -0.044729132 -0.2893646 -0.08626386 0.64925104
000120 92 e1 af 3d b5 76 8c 3e cc 7b 54 bf 23 54 0e be
       0.08587946 0.27434316 -0.830014 -0.13899283
000130 89 6b 12 3f d8 7d 59 3c 3a 28 0b 3f 24 00 27 3d
       0.57195336 0.013274632 0.54358256 0.04077162
000140 ef 52 59 be 62 cd 96 be b2 9b 85 3e 5e d0 87 3e
       -0.21223043 -0.2945357 0.2609535 0.2652616
000150 1b 6c 8f bd 11 1f 10 be bd fa 1c be f4 4b 27 3f
       -0.07003041 -0.14074351 -0.15330024 0.6535027
000160 e8 cf f0 bc c8 a5 52 3f 62 5b 85 be 37 2d 7b bc
       -0.029396012 0.8228421 -0.26046282 -0.015330604
000170 5a 73 51 bc af 89 a8 3d 0b e9 6d 3d 78 77 01 bd
       -0.01278385 0.08229386 0.058083575 -0.031608075
000180 f3 cc a4 3f a3 19 30 3d 55 f3 bc bc 23 d3 1c bd
       1.2875046 0.0429932 -0.023065249 -0.038287293
000190 c5 86 89 3e b0 3c 90 3e 1b 79 86 bd a2 95 3a 3b
       0.26860633 0.281713 -0.06566068 0.0028470536
0001a0 f0 36 4e bd 92 66 9c be fc ef 24 bf 89 03 3d bd
       -0.05034536 -0.30547005 -0.6442869 -0.04614595
0001b0 8c 3b 4f bd b8 3e 8d bc e6 6e 56 3e 63 c7 86 bd
       -0.050593898 -0.01724182 0.20940742 -0.06580999
0001c0 aa 66 13 bd a5 ad 27 3b d3 b4 42 3c 0d d9 1d 3f
       -0.03598658 0.0025585678 0.011883932 0.6165932
0001d0 b7 18 c9 be a4 6d e8 3e b8 0e 9a be c4 77 8e be
       -0.39276668 0.4539615 -0.30089355 -0.2782575
0001e0 73 d4 ae bc e7 43 13 bd d6 c6 a1 3c 7e f3 0a bd
       -0.021341538 -0.03595343 0.019748133 -0.03392362
0001f0 d6 3f ca bb 50 a7 91 bb 28 7f 51 3d ec 6e 20 bd
       -0.0061721606 -0.004444994 0.051146656 -0.039168283
000200 11 10 c8 bd 37 01 86 bd 2a 39 42 bd a6 16 35 bc
       -0.097686894 -0.065432005 -0.047417797 -0.011052763
000210 a7 e8 44 bd d4 ca e0 3e ac d2 0f bd 29 c8 2a bc
       -0.048073437 0.43904746 -0.03511302 -0.010423698
000220 37 28 56 bd d4 03 06 3d 2a 36 29 bc 58 0a 51 be
       -0.052284446 0.032718495 -0.010327855 -0.20414102
000230 5d de dc bd 6a 8f 02 be 82 57 fb bd 85 bb 1a 3f
       -0.107846 -0.1275002 -0.1227255 0.6044238
000240 c1 e4 b9 bb c4 63 fd 3c d5 5d 46 bc ab 70 b3 be
       -0.0056730215 0.030931361 -0.012107332 -0.35046896
000250 65 9d 8d bd 3a 75 dc bd 69 06 54 3f 4a cc d8 be
       -0.06914786 -0.10764547 0.8282228 -0.4234336
000260 be 9b 80 3e 1d 40 05 bf 59 0c 83 3f 24 9f 77 3d
       0.25118822 -0.52050954 1.0238143 0.060454503
000270 fc 79 c3 be b7 9e 16 3f b9 4a 8c 40 af e9 f7 3e
       -0.38179004 0.5883593 4.3841214 0.48420474
000280 38 0f 54 3e 09 28 61 3d fe f3 32 3d 02 7f 6b bd
       0.2070893 0.05496982 0.04368972 -0.05749417
000290 ef 85 01 bd a5 3f 8b bc ee f3 92 3d dc 1a 26 3d
       -0.03162187 -0.016998122 0.07175432 0.04055296
0002a0 76 c4 8f 3c 00 bd a9 be 82 7e 4c be d9 12 bd be
       0.017549735 -0.33152008 -0.19970134 -0.36928442
0002b0 8d 83 8f bd d3 c6 58 3f 66 a7 bd be ba 51 04 be
       -0.07007513 0.8467838 -0.37041777 -0.12921801
0002c0 c0 e1 c2 3e f3 a0 87 bd 58 8e a7 bb 2f ec 81 bd
       0.3806286 -0.066224955 -0.0051134042 -0.063438766
0002d0 dc 18 a9 3a 77 b4 e9 bd 25 06 92 3e a4 67 ce be
       0.0012901085 -0.11411374 0.28520313 -0.40313447
0002e0 49 44 2e be ee 72 aa 3d 19 fb 03 3d de 29 0e bf
       -0.17018236 0.08322702 0.032221887 -0.55532634
0002f0 18 04 f7 3e db fc 0d 3d 23 96 0f 40 db 33 63 bb
       0.4824531 0.03466497 2.2435386 -0.003466836
000300 19 13 d1 3b 70 65 85 bd 7d 1c ea bc f6 3f bc 3e
       0.0063804504 -0.06513488 -0.028578037 0.36767548
000310 45 0c 1f bd 32 b5 e8 3f f3 33 28 3f 5e e4 d7 3f
       -0.03883006 1.8180296 0.6570427 1.6866567
000320 b0 22 98 3b bb e0 ad 3c 05 e1 32 bd ea fc 12 3f
       0.004642807 0.021225324 -0.043671627 0.57417166
000330 55 a4 06 3f c2 c3 a4 bc bb a1 b2 3d a6 c6 50 be
       0.525945 -0.020112876 0.08722254 -0.20388278
000340 3c d4 fc 3f 2a 58 94 be ca fb 58 be ec 75 22 bd
       1.9752269 -0.28973514 -0.211898 -0.03966324
000350 01 6f 9d 3e 06 4f cb bc bb 10 0c 3f 1b 84 ba 3b
       0.30748752 -0.024817955 0.5471303 0.0056920177
000360 c4 a9 db bc 24 7c 0e bd 19 dc 45 3e 3b b5 bc bd
       -0.026814349 -0.03478636 0.19322242 -0.092142545
000370 88 a2 c7 3d be 65 db bd 68 60 50 bd 52 aa 73 3c
       0.09747797 -0.10712765 -0.05087319 0.0148721505
000380 9e 2c a7 3d 37 3c 22 3b 61 b9 de be ff c3 db bc
       0.08162807 0.002475513 -0.43500808 -0.026826857
000390 13 96 43 bd c7 b7 08 3f 3d c0 d1 3c 69 e8 a9 bc
       -0.047750544 0.5340542 0.025604362 -0.020740705
0003a0 8b 05 5d bd e4 e4 44 3f 4e 29 1f 3f e9 eb 8e 3e
       -0.053960364 0.7691176 0.621724 0.2791436
0003b0 24 5c f9 be 32 87 2f be d5 86 d1 bb 39 28 93 bd
       -0.4870311 -0.17141417 -0.006394247 -0.07185406
0003c0 28 b6 99 3f 6b 2f b9 3e 1a 50 72 bc e2 05 40 3f
       1.2008715 0.3616899 -0.0147896055 0.75008976
0003d0 17 7b 3b 3c ff 00 04 bf 6f b6 9e bd b3 21 d3 bd
       0.011442921 -0.5156402 -0.0774964 -0.10309162
0003e0 f4 f4 25 bf 37 62 31 3f af 02 06 be f7 1f 90 3c
       -0.64826894 0.6929049 -0.13086961 0.017593367
0003f0 2c 30 84 3d a4 c9 89 bd a8 cc 45 bd c3 cc 8d be
       0.064545006 -0.06727913 -0.04829088 -0.27695283

bias f4 [2]
000000 8e 90 a5 bc 07 c1 80 bc
       -0.02021053 -0.015717043
