exp_local/bc_multimodal/weights/14000.pt (torch, 272392 bytes, 6 tensors)

weight f4 [256, 2]
0	0xbe1209ee	-0.142616
1	0x3dba6ec7	0.0910316
2	0x3dcb0819	0.09913654
3	0xbd6dc0d5	-0.058045227
4	0xbe7b372a	-0.24532762
5	0x3e67db3f	0.2264223
6	0xbd72a154	-0.059235886
7	0x3e0a0800	0.13479614
8	0x3e49fcf7	0.19725405
9	0x3e4a5e06	0.1976243
10	0x3c83800e	0.016052272
11	0xbddcd308	-0.107824385
12	0xbdced54f	-0.10099279
13	0x3e5051c3	0.2034369
14	0x3c02bc23	0.007979426
15	0xbc36c4ec	-0.011155348
16	0xbe08a46d	-0.13343973
17	0xbd9c77d3	-0.07640042
18	0xbe38cd32	-0.18047026
19	0x3b1aad55	0.002360185
20	0xbdcecf8e	-0.10098182
21	0xbdfd3a15	-0.12364594
22	0x3b8b8706	0.0042580394
23	0x3eaa22f2	0.33229786
24	0xbe7600ba	-0.24023715
25	0x3e648455	0.22316106
26	0x3c8e5a5e	0.017377075
27	0x3e89b243	0.26893815
28	0xbd8fcd2b	-0.070215546
29	0xbdeb41e8	-0.1148718
30	0x3e56ef79	0.20989789
31	0xbdb02c75	-0.086022295
32	0xbb316054	-0.0027065473
33	0x3ea7458e	0.32670254
34	0xbd6ad0b4	-0.05732794
35	0xbd4989e7	-0.04920378
36	0xbddf3b82	-0.10900022
37	0x3b49f8ea	0.003081853
38	0xbde5b4e1	-0.112161405
39	0xbda25454	-0.079262406
40	0xbdb5333d	-0.088476636
41	0xbd061538	-0.03273508
42	0xbbcc57e4	-0.0062360633
43	0xbc6dd223	-0.0145154325
44	0xbc207422	-0.009793313
45	0xbd831023	-0.06399562
46	0xbc8f769f	-0.017512618
47	0xbd4475fa	-0.047964074
48	0x3c8ea942	0.017414693
49	0xbd313322	-0.043261655
50	0xbb580247	-0.0032960342
51	0xbce6ca3d	-0.028172607
52	0x3d15d234	0.03657742
53	0x3aba22ad	0.0014201008
54	0xbe664a3b	-0.22489254
55	0x3dcfc15c	0.10144302
56	0x3ce640cf	0.028107075
57	0x3d2eb8f9	0.042656872
58	0xbe79619c	-0.24353641
59	0xbc4bb6c2	-0.01243371
60	0xbd8e45f1	-0.06946934
61	0xbc8f3d04	-0.01748515
62	0xbe086692	-0.13320377
63	0x3de63081	0.1123972
64	0x3c220b2b	0.009890358
65	0x3e4039c6	0.18772039
66	0xbe1dbece	-0.15404817
67	0x3eb194a9	0.3468373
68	0xbd8572bc	-0.065160245
69	0xbcb15209	-0.021645563
70	0xbe4084d7	-0.18800674
71	0xbd525560	-0.05135095
72	0xbce68b0b	-0.028142473
73	0xbcaa40ec	-0.02078291
74	0xbd284122	-0.04107774
75	0xbd84b381	-0.0647955
76	0xbe22afe7	-0.15887414
77	0x3debf341	0.115210064
78	0x3e74458b	0.23854654
79	0xbe777616	-0.2416614
80	0xbf36db8d	-0.7142876
81	0xbd2940bc	-0.0413215
82	0x3e8ea632	0.27861172
83	0xbe1c2409	-0.15248121
84	0x3da1c73b	0.07899328
85	0x3ebe2ca9	0.37143448
86	0x3e8154fb	0.25260147
87	0xbe0d8ff1	-0.1382444
88	0xbe1db714	-0.1540187
89	0xbda44c35	-0.08022348
90	0xbe43015b	-0.19043486
91	0x3c5141c6	0.012772029
92	0xbe01d10c	-0.12677401
93	0x3e9425eb	0.2893518
94	0x3d934dd5	0.0719258
95	0xbe279a0f	-0.16367362
96	0xbdcf8df7	-0.101344995
97	0x3e4a2dae	0.19743988
98	0xbd979adb	-0.07402583
99	0xbc804353	-0.015657103
100	0xbe4aa41c	-0.19789165
101	0x3dde660f	0.1085931
102	0xbb4cfcfc	-0.003127872
103	0x3dacf801	0.084457405
104	0xbcffcfde	-0.031227048
105	0xbdbbf82a	-0.09178193
106	0xbd4ab86c	-0.049492285
107	0xbbf6178c	-0.007510131
108	0xbe15c172	-0.14624575
109	0xbda7c607	-0.081920676
110	0x3cf91fc5	0.030410657
111	0x3e5a4fa7	0.21319447
112	0xbc8b9c8e	-0.017042425
113	0xbdfa9628	-0.12235671
114	0x3e3c8e86	0.18413743
115	0xbd5caacb	-0.05387382
116	0xbc7b805b	-0.015350427
117	0x3b017a5a	0.0019756765
118	0xbe6b9f3b	-0.2300996
119	0xbc8f88fb	-0.017521372
120	0x3db5210e	0.08844195
121	0xbc1be0c1	-0.009514035
122	0x3df3c366	0.11902504
123	0x3e321eba	0.17394534
124	0x3b847e4d	0.0040433765
125	0x3e938763	0.2881423
126	0xbcdb6f73	-0.026786542
127	0xbe507aea	-0.20359388
128	0x3e6252b7	0.22101866
129	0x3e70ab5e	0.23502871
130	0xbee9d17a	-0.4566763
131	0xbc396e43	-0.011317792
132	0x3bf658bb	0.0075179017
133	0xbb7564f4	-0.0037444206
134	0xbc73c42b	-0.014878313
135	0xbd00952e	-0.03139227
136	0xbd211539	-0.03932688
137	0xbbee0b34	-0.007264519
138	0xbd81327f	-0.063084595
139	0xbe0f16d7	-0.13973556
140	0xbdb07a05	-0.086170234
141	0xbd200364	-0.039065734
142	0x3e29c2b1	0.16578175
143	0xbde60883	-0.11232092
144	0xbe646e70	-0.22307754
145	0x3e8e0ae3	0.2774268
146	0xbdbbd76e	-0.09171949
147	0xbd1f0342	-0.038821466
148	0xbd62ee01	-0.05540276
149	0x3e121698	0.14266431
150	0xbd487668	-0.048941046
151	0x3c91799e	0.017758187
152	0xbe42bf69	-0.1901833
153	0x3ded057e	0.11573313
154	0xbd5ec8eb	-0.05439083
155	0xbd998194	-0.07495418
156	0xbe26512a	-0.16241899
157	0x3c170410	0.009217277
158	0x3e5ab24f	0.21357082
159	0xbe5ba3d2	-0.21449211
160	0xbe0bd3c9	-0.13655008
161	0xbd658890	-0.05603844
162	0xbcc65ea6	-0.024215054
163	0xbd1085f3	-0.035283994
164	0x3e400e26	0.18755397
165	0xbe50fc2c	-0.20408696
166	0x3ccb2951	0.024799975
167	0xbde8034b	-0.11328753
168	0xbda5248d	-0.08063612
169	0xbd782f7c	-0.06059216
170	0xbdb0c55c	-0.08631393
171	0xbd22caff	-0.039744373
172	0xbc825332	-0.015908811
173	0xbd5c9d59	-0.053860996
174	0x3e63b3df	0.22236584
175	0xbe18d104	-0.14923483
176	0xbd83a439	-0.06427807
177	0x3cfa0ed1	0.030524643
178	0xbd8294ed	-0.063760616
179	0xbc8a93a5	-0.016916106
180	0x3aa0f2f6	0.0012279439
181	0xbdda7307	-0.10666471
182	0x3e9ae633	0.30253753
183	0xbdc7bcce	-0.097528085
184	0xbd586a9b	-0.052836042
185	0xbe343bec	-0.17600983
186	0xbcb49e88	-0.02204825
187	0xbbb0a13f	-0.005390316
188	0xbcaf0c38	-0.021368131
189	0xbd7ff664	-0.062490836
190	0xbd7222a6	-0.059115075
191	0xbb306f52	-0.002692182
192	0xbd6b4e60	-0.05744779
193	0xbe1ecce4	-0.15507847
194	0xbd08aec6	-0.033369802
195	0x3b9063ce	0.004406429
196	0xbd5f1642	-0.054464586
197	0xbe12b868	-0.14328158
198	0xbd7144bb	-0.058903437
199	0xbd5fae63	-0.054609668
200	0xbe5b5137	-0.214177
201	0xbcc179a7	-0.023617579
202	0xbbe1c522	-0.006889955
203	0x3c19af75	0.009380211
204	0x3aec6ee6	0.0018038421
205	0xbdec9c45	-0.115532435
206	0xbdf3f337	-0.11911624
207	0x3b4fa3e9	0.0031683391
208	0xba350dfb	-0.00069066853
209	0x3e76bd83	0.2409573
210	0xbc32403c	-0.0108795725
211	0xbb42e722	-0.0029739817
212	0xbe927c43	-0.2861043
213	0xbbcc9b62	-0.006244109
214	0xbe207a8e	-0.15671751
215	0xbd9ecd78	-0.07754034
216	0x3dbec12b	0.093141876
217	0xbdad7924	-0.08470371
218	0xbd10906d	-0.035293985
219	0xbd1f8aa1	-0.038950566
220	0xbe0418be	-0.12900063
221	0xbc8427a1	-0.016132178
222	0xbf5b6b54	-0.85710645
223	0xbc7b1aaf	-0.015326186
224	0xbd3231e8	-0.043504626
225	0x3ca825f8	0.020525917
226	0x3e4311cc	0.19049758
227	0xbe543d5a	-0.20726529
228	0xbdb83d86	-0.0899611
229	0xbd48c29e	-0.049013726
230	0x3eaa3bee	0.33248848
231	0x3d2a3acf	0.04155999
232	0xbd21b536	-0.039479457
233	0xbe0a7cf6	-0.13524231
234	0xbe2a0b6e	-0.16605923
235	0xbd442f5d	-0.04789673
236	0xbe7211bb	-0.23639576
237	0xbc85a000	-0.016311646
238	0x3e8ce13c	0.2751559
239	0xbe508bd4	-0.2036584
240	0xbd3e0f10	-0.046401083
241	0x3c608d32	0.013705539
242	0x3a0e80ca	0.0005436061
243	0xbdf5f28e	-0.12009154
244	0x3db49148	0.08816773
245	0x3da8e654	0.082470566
246	0x3e2bebe8	0.1678921
247	0x3d0a822a	0.03381554
248	0x3e06b616	0.13155398
249	0xbe00a0ca	-0.12561336
250	0xbe32a19f	-0.17444466
251	0xbdb6727b	-0.08908554
252	0x3c1773c4	0.009243909
253	0x3e158611	0.14601924
254	0x3e04fa00	0.12985992
255	0xbcd26f9e	-0.025687989

bias f4 [256]
0	0x3dc945c3	0.09827759
1	0xbd727b40	-0.05919957
2	0x3cb0ced2	0.021582995
3	0xbbb7cb10	-0.0056089237
4	0xbdc972d3	-0.09836354
5	0x3dcc3c8b	0.09972485
6	0xbd0b503d	-0.034012068
7	0xbbc480f1	-0.0059968163
8	0x3e267210	0.16254449
9	0x00000000	0.0
10	0x3e29a4fa	0.1656684
11	0xbd595fc0	-0.05306983
12	0x3ca13b50	0.019681603
13	0xbdfa498b	-0.122210585
14	0x00000000	0.0
15	0x3d0cc5b1	0.03436822
16	0xbe2b8688	-0.16750538
17	0x00000000	0.0
18	0x00000000	0.0
19	0x00000000	0.0
20	0x00000000	0.0
21	0x00000000	0.0
22	0x00000000	0.0
23	0x00000000	0.0
24	0x3d166b73	0.036723565
25	0x00000000	0.0
26	0xbd2e9e66	-0.04263153
27	0x3dd4b606	0.10386281
28	0xbc65ad0b	-0.014018307
29	0x3e1c51de	0.15265605
30	0x00000000	0.0
31	0x3da01c91	0.078179486
32	0xbc288c71	-0.01028739
33	0xbe268aa9	-0.16263832
34	0x00000000	0.0
35	0x3e4d84b7	0.20070158
36	0x00000000	0.0
37	0x00000000	0.0
38	0x3dd2178a	0.10258396
39	0x3c06cd1f	0.008227616
40	0x3e22f15f	0.15912388
41	0x3d0034b7	0.031300273
42	0xbe658480	-0.22413826
43	0x3cc808b5	0.024418214
44	0x3e6b398c	0.22971171
45	0x3e761ce6	0.24034461
46	0xbc3dd3a9	-0.011586108
47	0x3d98de6f	0.07464301
48	0xbca3eb7a	-0.020009745
49	0x00000000	0.0
50	0x3d813035	0.06308023
51	0xbc812cee	-0.015768494
52	0x00000000	0.0
53	0x00000000	0.0
54	0x00000000	0.0
55	0xbdc9645f	-0.098335974
56	0x00000000	0.0
57	0xbc376b2e	-0.011194987
58	0xbc2aa1d6	-0.010414561
59	0x3e240f89	0.16021551
60	0xbd1cac1d	-0.038250078
61	0xbc5357fc	-0.012899395
62	0xbe12ec0e	-0.1434786
63	0x3e0ca827	0.1373602
64	0xbddcc71a	-0.10780163
65	0x3e6975ce	0.22798845
66	0xbc04c3d4	-0.00810333
67	0x00000000	0.0
68	0x00000000	0.0
69	0x00000000	0.0
70	0x00000000	0.0
71	0x3c157584	0.009122256
72	0x3a342691	0.0006872202
73	0x00000000	0.0
74	0xbc5026ff	-0.01270461
75	0xbc5b5625	-0.013387238
76	0x3d50f8b2	0.051018424
77	0x00000000	0.0
78	0x3dfc052f	0.12305676
79	0x3bd75a79	0.0065720645
80	0x00000000	0.0
81	0x00000000	0.0
82	0x3c15cda6	0.009143269
83	0xbc8ed4e0	-0.017435491
84	0x00000000	0.0
85	0x00000000	0.0
86	0x00000000	0.0
87	0x3d30f656	0.043203674
88	0x3c5e236f	0.013558253
89	0x00000000	0.0
90	0xbbc4c9cb	-0.006005501
91	0xbc150894	-0.009096283
92	0x3e21e5bd	0.15810294
93	0x00000000	0.0
94	0x00000000	0.0
95	0x00000000	0.0
96	0x00000000	0.0
97	0xbc3facf8	-0.011698954
98	0x3e244b36	0.16044316
99	0x00000000	0.0
100	0x3e344aeb	0.17606704
101	0xbc82233d	-0.015885944
102	0xbc096106	-0.008384949
103	0xbbd76923	-0.0065738126
104	0xbdf200df	-0.118165724
105	0xbc29fafa	-0.010374779
106	0x3e121e67	0.1426941
107	0x3e68a8a0	0.22720575
108	0x3d260f2f	0.040541824
109	0x00000000	0.0
110	0x00000000	0.0
111	0x3db805e8	0.089855015
112	0xbc29f3cc	-0.010373067
113	0x3c24b354	0.010052521
114	0x00000000	0.0
115	0xbcff91d4	-0.031197466
116	0x00000000	0.0
117	0x3e362c4e	0.17790338
118	0x3ea78911	0.3272176
119	0x3bb924bc	0.005650131
120	0xbc10e362	-0.008843275
121	0x3df79198	0.12088317
122	0xbcf330eb	-0.029686412
123	0xbcd10e38	-0.025519475
124	0x3bb27869	0.005446483
125	0x3e824a8e	0.25447506
126	0xbc163ef5	-0.009170284
127	0xbd08fa5d	-0.03344189
128	0xbb3442dc	-0.0027505672
129	0xbc147690	-0.009061471
130	0x00000000	0.0
131	0x3e6967bb	0.22793476
132	0x00000000	0.0
133	0x3e3107e7	0.17288171
134	0xbcd90b6c	-0.026494704
135	0x00000000	0.0
136	0xbbc4c9d6	-0.006005506
137	0xbc8fbb52	-0.017545376
138	0xbd29597e	-0.041345112
139	0x3e1d624e	0.15369532
140	0x3dd7571c	0.10514662
141	0xbc882740	-0.016620278
142	0x3e81421e	0.25245756
143	0x3d076b1d	0.033061136
144	0x00000000	0.0
145	0x3c3918aa	0.011297384
146	0x00000000	0.0
147	0x00000000	0.0
148	0x00000000	0.0
149	0x3e3e31a8	0.1857363
150	0x3e4198c7	0.18905936
151	0x3d9444f3	0.072397135
152	0x3e715e20	0.23571062
153	0x00000000	0.0
154	0xbe25cce7	-0.16191445
155	0x00000000	0.0
156	0xbc37b592	-0.011212723
157	0x00000000	0.0
158	0x3df41385	0.119177856
159	0xbdb5ce0b	-0.0887719
160	0xbd5f0172	-0.054444738
161	0x00000000	0.0
162	0xbb3d0bcc	-0.0028846143
163	0x3b8fde90	0.004390545
164	0xbc7da39d	-0.015480903
165	0x3e46187b	0.19345276
166	0x00000000	0.0
167	0xbdfc7f4c	-0.123289675
168	0xbe06bd34	-0.13158113
169	0x3c3391ec	0.010960083
170	0xbe203328	-0.15644515
171	0x00000000	0.0
172	0x3e292454	0.16517764
173	0x00000000	0.0
174	0x3e1441c2	0.1447821
175	0xbc4f25a1	-0.012643249
176	0xbc345a81	-0.011007906
177	0x3e4490bc	0.19195837
178	0x00000000	0.0
179	0xbc090478	-0.008362882
180	0xba30b74a	-0.00067411794
181	0x3e8fc415	0.28079286
182	0x3d5667d4	0.052345112
183	0xbc085fbd	-0.008323607
184	0xbc4b21f6	-0.012398234
185	0xbd99ba75	-0.07506267
186	0x00000000	0.0
187	0xbc401ace	-0.011725141
188	0x3d2fa018	0.042877287
189	0x00000000	0.0
190	0x3c848eb5	0.01618133
191	0x00000000	0.0
192	0x3db1fca8	0.086907685
193	0xbbb8909c	-0.005632473
194	0x00000000	0.0
195	0x00000000	0.0
196	0xbd6c5114	-0.05769451
197	0xbd41c32b	-0.047305267
198	0x00000000	0.0
199	0xbc862392	-0.016374383
200	0xbc575f31	-0.013145254
201	0xb8fc12b8	-0.00012019783
202	0x00000000	0.0
203	0xbde2cec3	-0.11074593
204	0x00000000	0.0
205	0xbc2deb86	-0.010615235
206	0xbcdf5ba3	-0.027265375
207	0x3e815e2d	0.25267163
208	0x3e404ffd	0.18780513
209	0x3e11a283	0.1422215
210	0xbce863c2	-0.02836788
211	0x3d211b55	0.039332706
212	0x00000000	0.0
213	0x3e45ecdf	0.1932864
214	0x00000000	0.0
215	0xbbed909c	-0.007249905
216	0x00000000	0.0
217	0x00000000	0.0
218	0x3c429517	0.011876366
219	0x3cfdda52	0.030987892
220	0x00000000	0.0
221	0x00000000	0.0
222	0x00000000	0.0
223	0xbe2b4d37	-0.16728674
224	0x3db31a9d	0.087453105
225	0xbcd766d9	-0.026294159
226	0x00000000	0.0
227	0x3e1f338d	0.15547009
228	0x00000000	0.0
229	0x3d70e7ea	0.05881492
230	0x00000000	0.0
231	0xbc9d1641	-0.01917565
232	0x3e1245f9	0.14284505
233	0xbbefae2a	-0.007314463
234	0x00000000	0.0
235	0xbbff5074	-0.007791573
236	0xbd05bc73	-0.032650422
237	0xbc6bd03e	-0.0143929105
238	0xbdd75359	-0.10513944
239	0x00000000	0.0
240	0xbc4701d7	-0.012146435
241	0x00000000	0.0
242	0x00000000	0.0
243	0xbbd866e3	-0.006604062
244	0xbc076472	-0.008263694
245	0x3c43dad5	0.011954029
246	0x00000000	0.0
247	0x00000000	0.0
248	0x3c01ec8b	0.007929931
249	0xbd22270c	-0.03958802
250	0x3cd7a6aa	0.026324589
251	0x3e01efce	0.12689134
252	0x3e30dae2	0.17270997
253	0x3e21cfc5	0.15801914
254	0x3c94bf1c	0.018157534
255	0xbd45f959	-0.0483335

weight f4 [256, 256]
0	0xbd0668b5	-0.0328147
1	0xbd3d615e	-0.046235435
2	0x3ebe6c4e	0.37192005
3	0x3d733a00	0.059381485
4	0xbdc0f8d7	-0.094224624
5	0x3d99b664	0.075054914
6	0xbeb40598	-0.35160518
7	0x3cf7b5ac	0.030237995
8	0xbe2e6e58	-0.1703428
9	0x3be899b4	0.007098401
10	0x3e823bfe	0.25436395
11	0x3d782e2b	0.060590904
12	0x3eb47ba0	0.35250568
13	0x3e1b6729	0.15176071
14	0xbd5d592b	-0.054040115
15	0xbc336946	-0.010950392
16	0x3e111b7a	0.14170638
17	0xbdbebd4d	-0.0931345
18	0xbdbf0b50	-0.093283296
19	0xbb3b63e9	-0.0028593487
20	0xbd9ba168	-0.07599145
21	0xbd5ea8de	-0.054360263
22	0xbcccc412	-0.024995837
23	0xbda9e611	-0.08295835
24	0x3d396fc4	0.045272604
25	0x3dca3013	0.09872451
26	0x3dd34206	0.10315327
27	0xbe92ac0e	-0.28646892
28	0x3c9649f4	0.01834581
29	0xbea73099	-0.32654265
30	0x3da7b2eb	0.08188423
31	0x3dd862a6	0.10565691
32	0xbd6b9db5	-0.057523448
33	0xbf30ad08	-0.69014025
34	0xbca1faba	-0.019772876
35	0xbe9c5b73	-0.3053852
36	0x3da41523	0.08011844
37	0x3d79c73c	0.06098102
38	0x3cb11b30	0.02161941
39	0x3e4bdaf4	0.19907743
40	0xbf1b75d9	-0.60726696
41	0xbd5b3f4f	-0.053527173
42	0x3d68ebda	0.05686555
43	0xbd88b807	-0.066757254
44	0x3d8c0fb5	0.068389334
45	0xbc43fa42	-0.011961522
46	0xbcdfd513	-0.027323281
47	0xbe90b929	-0.28266266
48	0xbe1314a4	-0.14363343
49	0xbd77529c	-0.060381517
50	0xbe2f9162	-0.17145303
51	0x3d3a0fdd	0.045425285
52	0x3cd1b2ae	0.025597896
53	0x3d7fe0be	0.06247019
54	0x3d7c4576	0.06158968
55	0x3d483592	0.048879214
56	0x3d05ad50	0.032635987
57	0x3d2b319f	0.04179537
58	0x3da6597e	0.08122538
59	0xbeddbd0c	-0.43308294
60	0x3a8124de	0.0009852906
61	0x3e02a0b7	0.1275662
62	0xbc2ef4a4	-0.010678444
63	0x3e0af09f	0.13568352
64	0x3c1d9c2f	0.009619757
65	0x3f478b43	0.7794687
66	0x3da9a48c	0.08283338
67	0x3cd8228d	0.026383663
68	0x3d094732	0.033515163
69	0x3db53c6a	0.08849414
70	0x3c077a4c	0.008268904
71	0xbe6cc3c4	-0.23121554
72	0xbebddfb2	-0.37084728
73	0x3cdb84fc	0.02679681
74	0x38e49778	0.000109001005
75	0xbceba6bd	-0.02876603
76	0xbcda9f8b	-0.026687404
77	0xbdd0ccd2	-0.101953164
78	0xbe0423d2	-0.1290429
79	0x3e84cbe0	0.25936794
80	0x3badee26	0.0053079305
81	0x3cd9e69c	0.026599221
82	0x3df893b8	0.1213755
83	0x3b11baa8	0.00222365
84	0x3d771492	0.06032235
85	0xbd6cf682	-0.057852276
86	0xbd2ec7c2	-0.042670973
87	0xbd6d20c6	-0.057892583
88	0xbc4371eb	-0.011929016
89	0xbd006c5d	-0.031353343
90	0xbd449bce	-0.04800015
91	0xbd04096d	-0.03223555
92	0x3da8a446	0.08234458
93	0x3dde43e5	0.108527936
94	0xbd7ead1f	-0.06217682
95	0x3db6f54c	0.089335054
96	0x3d5143aa	0.05108992
97	0xbdc5b633	-0.09653892
98	0xbe0b1cbf	-0.13585185
99	0x3e5e28ee	0.21695301
100	0xbece7cd7	-0.4032962
101	0x3cfb789f	0.030697165
102	0x3d94ec5c	0.072716445
103	0xbcf624b6	-0.030046802
104	0xbb9741b8	-0.0046159886
105	0xbd87fd19	-0.066400714
106	0x3eedb785	0.46429077
107	0x3c9bf43b	0.019037357
108	0x3e102e1c	0.1408009
109	0xbc148600	-0.009065151
110	0xbcb047f0	-0.021518677
111	0xbf6e68e7	-0.9312882
112	0x3d95d275	0.07315532
113	0x3d73b9e1	0.05950344
114	0xbc1849c6	-0.009294933
115	0xbcd3a512	-0.025835548
116	0xbbf3d882	-0.007441581
117	0xbe9e0b0e	-0.3086781
118	0x3e303565	0.17207868
119	0xbe44f2a8	-0.19233191
120	0xbb039c6e	-0.0020082253
121	0xbd131222	-0.035905965
122	0x3d809d52	0.062800065
123	0xbe221f92	-0.15832356
124	0xbd6b8572	-0.05750031
125	0xbd28c88f	-0.041206893
126	0x3cdd938c	0.027047895
127	0x3cf30591	0.02966574
128	0x3d882a7e	0.0664873
129	0x3e110967	0.14163743
130	0xbcd5c756	-0.026096027
131	0xbd76406f	-0.060120042
132	0xbdca42a5	-0.09875993
133	0x3e2e9e6f	0.17052625
134	0x3f001dbf	0.5004539
135	0x3d9183e5	0.07105235
136	0xbc8187d5	-0.01581184
137	0xbe5c83ed	-0.215347
138	0x3cdd3b50	0.027005821
139	0x3d3f5d0f	0.046719607
140	0xbf818809	-1.011964
141	0xbd57d4e7	-0.052693274
142	0x3d2beb8f	0.041972693
143	0xbd163b6d	-0.036677767
144	0xbced35cc	-0.028956316
145	0xbd3c5ee6	-0.04598894
146	0x3b1fee7a	0.0024403618
147	0xbcb31aee	-0.021863427
148	0x3d75df54	0.060027435
149	0xbc8e4af3	-0.017369723
150	0xbe91e74d	-0.2849678
151	0xbcef8541	-0.029238345
152	0x3e4264a2	0.18983701
153	0x3ca70c20	0.020391524
154	0xbccc13a5	-0.024911711
155	0x3d90cafc	0.07069966
156	0x3d076578	0.033055753
157	0xba2f3948	-0.0006684256
158	0xbf133af7	-0.5751185
159	0x3dd773cf	0.105201356
160	0xbc134e85	-0.0089908885
161	0x3d93ec90	0.07222855
162	0x3ec005a0	0.37504292
163	0x3e113bbc	0.14182943
164	0x3e106846	0.14102277
165	0xbeb30147	-0.34961912
166	0xbdcbd31c	-0.09952375
167	0xbd3349ea	-0.04377166
168	0x3dcab82e	0.09898411
169	0xbe01bae3	-0.12668948
170	0x3c0296a2	0.007970484
171	0xbce1bf8d	-0.027557159
172	0xbdbf8b31	-0.093527205
173	0x3d9a481e	0.075332865
174	0x3dee299f	0.11629032
175	0x3bd38b10	0.0064557865
176	0x3d900d8c	0.07033834
177	0x3cd501a5	0.02600176
178	0x3b8b1384	0.00424427
179	0xbaca5744	-0.0015437384
180	0xbd6a2d57	-0.057172146
181	0x3d869b68	0.0657261
182	0x3d1dc27c	0.038515553
183	0x3b8272dc	0.0039809775
184	0x3d728444	0.05920817
185	0xbdc6fe0f	-0.097164266
186	0xbd3f7f66	-0.046752356
187	0x3da9bb97	0.08287733
188	0x3d7b7347	0.061389234
189	0xbcf1a8e2	-0.029499475
190	0x3da2a331	0.079412825
191	0xbcff20be	-0.031143542
192	0xbcc05297	-0.023476882
193	0x3ca1afc8	0.01973714
194	0xbdc0e803	-0.09419253
195	0xbd67c374	-0.056582883
196	0x3cf492c6	0.029855143
197	0x3c3ebfb6	0.011642387
198	0x3d1b5ca6	0.037930153
199	0x3f132245	0.57474166
200	0x3d5a3b67	0.053279307
201	0x3c3749b5	0.011187007
202	0xbd5290d2	-0.051407643
203	0x3d0524bc	0.032505736
204	0xbd50792a	-0.0508968
205	0x3d7bcd74	0.061475232
206	0xbe889fab	-0.26684317
207	0x3e102551	0.14076735
208	0xbe54c93d	-0.20779891
209	0xbe117765	-0.14205702
210	0x3d8b1d5f	0.067927115
211	0x3da069ba	0.07832666
212	0x3c92c7ae	0.01791748
213	0x3d9da73c	0.07697913
214	0xbc1f7706	-0.009732967
215	0x3d4b795e	0.04967629
216	0xbd7e571f	-0.062094804
217	0xbce089bf	-0.027409432
218	0x3e53c54c	0.20680732
219	0x3d412e97	0.047163572
220	0x3d4c0abc	0.049814925
221	0x3bfe7f04	0.0077666063
222	0xbd218875	-0.039436776
223	0xbf12cab5	-0.57340556
224	0xbf429e89	-0.76023155
225	0xbe59b700	-0.21261215
226	0xbd83e8dc	-0.06440899
227	0x3f13e9c0	0.5777855
228	0x3bd5f490	0.0065293983
229	0x3d854751	0.06507743
230	0xbce8ab6a	-0.02840205
231	0x3da8c9e2	0.08241631
232	0x3d455af5	0.048182447
233	0x3b6b2909	0.0035882613
234	0x3e1cf28a	0.15326896
235	0xbdf550d3	-0.119783066
236	0xbcf7ca22	-0.030247752
237	0xbd60ce55	-0.054884274
238	0xbd062666	-0.032751463
239	0xbd793145	-0.060838003
240	0x3c952523	0.018206185
241	0x3d6ecc62	0.058300383
242	0xbc36da74	-0.011160482
243	0xbd929cc2	-0.071588054
244	0xbcb9d991	-0.022686752
245	0xbcbe7716	-0.023250144
246	0xbd31c564	-0.043401137
247	0x3da25eb2	0.07928218
248	0xbea390df	-0.31946465
249	0xbc11d2ed	-0.008900386
250	0x3cabac47	0.020956172
251	0xbd41da19	-0.047327135
252	0x3f2905c2	0.6602441
253	0xbe99e816	-0.3005988
254	0xbddfbaa5	-0.109242715
255	0xbbd01073	-0.006349617

bias f4 [256]
0	0x3d0dbaa3	0.03460182
1	0x3da50b48	0.08058792
2	0x00000000	0.0
3	0xbe2664da	-0.1624941
4	0x3cbf7ba2	0.023374382
5	0xbd9a1322	-0.075231805
6	0xbc740fd2	-0.01489635
7	0x3d4b6f3e	0.049666636
8	0xbc94852f	-0.018129913
9	0xbc39d739	-0.011342817
10	0xbbd5575d	-0.0065106587
11	0xbc59dde6	-0.013297534
12	0x00000000	0.0
13	0xbc5d8491	-0.013520376
14	0xbc0d86ee	-0.008638127
15	0xbd6324a7	-0.055454876
16	0x3be66dcc	0.007032132
17	0x3cf62991	0.030049117
18	0x3d4c2d2b	0.049847763
19	0x3d28d2a4	0.041216508
20	0x3d4181f9	0.047243092
21	0x3db12c88	0.08651072
22	0x3e20aca9	0.15690865
23	0x3d688abb	0.05677293
24	0xbc71f894	-0.014768738
25	0x3d94f9ff	0.072742455
26	0x3daa8efb	0.083280526
27	0xbc3c6d8f	-0.01150073
28	0xbbd0f525	-0.0063768798
29	0x3d19baca	0.03753165
30	0x3d87e786	0.066359565
31	0x3d1cb1ab	0.038255375
32	0xbc312f4f	-0.010814502
33	0xbc983567	-0.018580152
34	0x00000000	0.0
35	0x3d140910	0.036141455
36	0x3db73f9b	0.08947679
37	0x3d3ff153	0.046861004
38	0xbbeeff9f	-0.007293656
39	0x3d0dcb35	0.03461762
40	0x3d201c98	0.03908977
41	0x3d1eed0a	0.038800277
42	0x3d2559cc	0.04036884
43	0xbd002faa	-0.031295456
44	0xbcbeac4b	-0.023275515
45	0x3c801022	0.015632693
46	0xbc01e43f	-0.007927953
47	0xbddc6b8b	-0.107627
48	0xbc927ddc	-0.01788228
49	0x3e4cc750	0.19997907
50	0x3d076a2e	0.033060245
51	0x3def0072	0.11670007
52	0xbc657dd4	-0.014007051
53	0xbd12178d	-0.03566699
54	0xbbdabc2f	-0.0066752653
55	0x3b9e458c	0.004830068
56	0xbc0faaa1	-0.008768708
57	0x3d165a9d	0.03670751
58	0x3e389300	0.18024826
59	0xbc4d5d2b	-0.01253442
60	0xbcca1b26	-0.024671149
61	0xbc5dcd7b	-0.01353776
62	0x3d07f620	0.033193707
63	0xbcae1152	-0.021248493
64	0x00000000	0.0
65	0x3d82d192	0.063876286
66	0x3d2f6af3	0.042826604
67	0xbc4692bd	-0.012119946
68	0xbbd22cd2	-0.0064140344
69	0x3d3b6f80	0.04576063
70	0xbc659e7c	-0.014014836
71	0x3dd2e12b	0.10296854
72	0x00000000	0.0
73	0x3c9200ad	0.017822588
74	0xbdc3d4a8	-0.09562045
75	0x3d0ef433	0.034900855
76	0x3d7025b5	0.05862971
77	0xbc0a8f31	-0.008456991
78	0x3ccd950d	0.025095487
79	0xbcffe6a9	-0.031237917
80	0x3d1fcf5f	0.039016124
81	0x3d9e85cd	0.07740364
82	0x3d4b0f09	0.049574886
83	0x3e28bbde	0.16477916
84	0xbc0f5d8c	-0.008750331
85	0x00000000	0.0
86	0x3d1b84dd	0.037968505
87	0x3d7fbb4b	0.062434476
88	0x00000000	0.0
89	0x3cfd0d0b	0.030890008
90	0x3d061011	0.032730166
91	0x3cf4ce9b	0.029883673
92	0xbc8d8c7c	-0.017278902
93	0x3d3425d7	0.0439814
94	0x00000000	0.0
95	0xbc80b2e7	-0.015710307
96	0x3d1dca94	0.03852327
97	0xbc090ce9	-0.008364894
98	0xbc1d6990	-0.009607688
99	0xbc9ccfc3	-0.019142037
100	0x3d7a1565	0.06105556
101	0x3c293ee2	0.010329934
102	0x00000000	0.0
103	0xbc301d67	-0.010749198
104	0xbc0c6a6c	-0.008570295
105	0x3d3b6c41	0.045757536
106	0x3dec74f9	0.11545748
107	0xbc1b40f5	-0.009475936
108	0xbc810046	-0.0157472
109	0xbc426d4c	-0.011866879
110	0x3e4ee5a3	0.20204787
111	0xbd12213b	-0.035676222
112	0xbc28413e	-0.010269461
113	0xbc2b0fee	-0.01044081
114	0xbc3b93af	-0.011448785
115	0x3d56d4a4	0.052448884
116	0x3c88fcc5	0.016722092
117	0x3ca1e928	0.019764498
118	0x3d21219a	0.039338686
119	0x3cdfae42	0.027304772
120	0xbc81eea1	-0.015860857
121	0xbc30218f	-0.0107501885
122	0x00000000	0.0
123	0xbc63838d	-0.013886345
124	0x00000000	0.0
125	0x00000000	0.0
126	0xbc5f146c	-0.013615709
127	0xbc2b020c	-0.0104375
128	0xbbd88a32	-0.006608271
129	0xbc23fd6b	-0.01000915
130	0xbc2a2292	-0.010384219
131	0xbd01fac4	-0.03173329
132	0xbc7e2709	-0.015512236
133	0x3d045ed6	0.032317005
134	0xbc858dcc	-0.016302966
135	0xbbdfdabf	-0.0068314965
136	0xbc1e8353	-0.009674865
137	0x00000000	0.0
138	0xbc162f7f	-0.009166597
139	0x3d2ab961	0.041680697
140	0x00000000	0.0
141	0xbc2e05d7	-0.0106215095
142	0xbbc4c9da	-0.006005508
143	0x3d18ff9c	0.037353143
144	0xbc5562ba	-0.0130240265
145	0xbbca6096	-0.0061760647
146	0xbc13f86b	-0.009031395
147	0xbd03968c	-0.032125995
148	0xbc7a64d2	-0.0152828265
149	0xbc495b56	-0.012289843
150	0x3d1a4664	0.037664786
151	0x3c9ea7ac	0.019367062
152	0x3bbeca37	0.0058224457
153	0xba0e1ee3	-0.00054214726
154	0x3c97ee59	0.01854627
155	0x3d124d91	0.035718504
156	0x3c965e7b	0.018355599
157	0x3dc6ad10	0.09700978
158	0x3d3d6a6b	0.046244066
159	0x3d3a5e57	0.045500126
160	0x3d41fa43	0.04735781
161	0xbc6046cf	-0.013688757
162	0xbc821d66	-0.015883159
163	0xbcdce0e9	-0.026962714
164	0xbc44a906	-0.012003189
165	0xbc654698	-0.013993882
166	0x3d00d3b5	0.0314519
167	0xbb319aed	-0.00271004
168	0xbc3d9159	-0.011570298
169	0x3d202c7a	0.039104916
170	0x3d13b075	0.036056954
171	0x3cb5a5e9	0.022173839
172	0xbc021005	-0.00793839
173	0x3d3f02c5	0.0466335
174	0x3d31526f	0.043291505
175	0x3d9acc81	0.07558537
176	0x3c5157f6	0.012777319
177	0xbc77fa63	-0.01513538
178	0x00000000	0.0
179	0xbc2fd284	-0.010731343
180	0xbcacf34f	-0.021112112
181	0x3cd02e0c	0.025412582
182	0x3dfdb082	0.12387182
183	0x3d22d36b	0.039752405
184	0x3d26cc9b	0.04072247
185	0xbcb8d77e	-0.022563692
186	0xbccd72eb	-0.025079211
187	0x3dc2a702	0.095045105
188	0x3d6d8b19	0.057993982
189	0xbc09bc5c	-0.008406725
190	0x3d37655e	0.044774406
191	0xbc4d0b74	-0.012514938
192	0x3ce776b2	0.02825484
193	0xbc6403ca	-0.013916919
194	0xbbf9302d	-0.00760462
195	0x3c96e54a	0.01841988
196	0xbd1dacdc	-0.03849493
197	0x3d48398a	0.048883
198	0x3cc42ac4	0.023946173
199	0x3cc814fd	0.02442407
200	0xbbc50fc4	-0.0060138423
201	0xbc07017e	-0.008240102
202	0xbc56a1aa	-0.013100067
203	0x3d84341a	0.0645525
204	0x3cd35137	0.025795562
205	0xbc1cc4de	-0.009568421
206	0xbc38016c	-0.011230808
207	0x3d33bd40	0.043881655
208	0x3cf4dd20	0.029890597
209	0x3d2ab2f2	0.04167456
210	0x3ceccb5b	0.028905561
211	0xbc3ef676	-0.011655441
212	0x3c6791a6	0.014133846
213	0x3d576725	0.0525886
214	0x3d0cfe4f	0.034422215
215	0xbc144fcc	-0.009052228
216	0xbbab5608	-0.0052287616
217	0xbbc4c9d1	-0.0060055037
218	0xba953587	-0.001138375
219	0xbc38cf3e	-0.011279879
220	0x3d08cc5e	0.033398025
221	0xbbb55546	-0.005533847
222	0xbc9bf6c1	-0.01903856
223	0xbc3314cb	-0.01093025
224	0x00000000	0.0
225	0x00000000	0.0
226	0x3d79fc8c	0.061031863
227	0x00000000	0.0
228	0xbc0641bc	-0.008194383
229	0x3ce20813	0.02759174
230	0xbc50bca0	-0.012740284
231	0xbd27e765	-0.04099216
232	0xbc3472e8	-0.011013724
233	0x3ddadf7e	0.10687159
234	0x3d498515	0.049199183
235	0x3c44299d	0.011972812
236	0x3df7a6b5	0.12092344
237	0x3da69971	0.081347354
238	0xbc154577	-0.0091108
239	0xbc67a5ee	-0.014138682
240	0x3cb01a5f	0.02149695
241	0x3e3237ca	0.17404094
242	0xbcf27a69	-0.029599385
243	0x3cacbad2	0.021085177
244	0xbc10aa56	-0.008829674
245	0xbca5d785	-0.02024437
246	0xbc0edf56	-0.00872024
247	0xbc521c76	-0.012824168
248	0x3dccfdb6	0.10009329
249	0x3cf7c8ad	0.030247057
250	0xbd2398c3	-0.039940607
251	0xbc4b8890	-0.012422696
252	0x00000000	0.0
253	0xbc19f70a	-0.009397278
254	0x3d259d6e	0.04043334
255	0x3d0791c4	0.033097997

weight f4 [2, 256]
0	0x3ed5fd35	0.41794744
1	0x3f43a004	0.7641604
2	0xbdc59cad	-0.09649024
3	0xbf549bb7	-0.830501
4	0xbdc6bb3a	-0.097036794
5	0xbe99b872	-0.30023533
6	0xbd3f673c	-0.04672931
7	0xbe9df516	-0.30851048
8	0x3cf81e77	0.030287964
9	0xbd9eda58	-0.077564895
10	0xbdd9596d	-0.1061276
11	0xbd7d62c3	-0.061861765
12	0xbcdad686	-0.02671362
13	0xbd4ee294	-0.05050905
14	0xbdadce82	-0.08486654
15	0xbf30a648	-0.69003725
16	0x3e5d4d54	0.2161153
17	0xbe9af519	-0.3026512
18	0x3f2d6020	0.677248
19	0xbecf8dd8	-0.40537906
20	0x3f3ed58f	0.74544615
21	0xbf294a34	-0.6612885
22	0x3db22d94	0.087000996
23	0xbb2de874	-0.0026536258
24	0xbd522456	-0.051304184
25	0xbf1bbc18	-0.60833883
26	0xbe0c2db7	-0.13689314
27	0xbdd32cdf	-0.10311293
28	0x3d831a03	0.06401446
29	0xbd3278f6	-0.04357239
30	0x3f00ab66	0.50261533
31	0x3f4e8d17	0.80684036
32	0xbdfefd62	-0.12450673
33	0x3f1f8a32	0.62320244
34	0xbdbb81c7	-0.091556124
35	0x3f906802	1.1281741
36	0x3e8459ed	0.25849858
37	0xbe7f7900	-0.24948502
38	0xbd45676c	-0.048194334
39	0xbe7c31bd	-0.24628349
40	0x3f8fabd5	1.1224314
41	0x3d00db6c	0.031459257
42	0x40408580	3.0081482
43	0x3b54eda7	0.0032490285
44	0x3cc8bac8	0.024503127
45	0x3e43fcea	0.19139448
46	0x3cb8bb77	0.022550328
47	0xbf6c0fe8	-0.9221177
48	0xbd516961	-0.051125888
49	0x3eba2500	0.36356354
50	0x3ebf3a54	0.37349188
51	0xbf0bfc7b	-0.5468213
52	0x3ceb6960	0.02873677
53	0xbde6431f	-0.11243271
54	0x3c25f78b	0.01012982
55	0xbee5c4d4	-0.4487673
56	0x3dbfc037	0.09362834
57	0x3f6dc21c	0.9287431
58	0x3ef0bd84	0.4701959
59	0xbc3b3ef3	-0.0114285825
60	0x3de10974	0.10988131
61	0x3cfeaf41	0.031089427
62	0xbe9e55dc	-0.3092488
63	0xbbbb55db	-0.005717022
64	0x3d953e16	0.072872326
65	0x3f1fb8a9	0.62391144
66	0xbe5db5f3	-0.2165144
67	0x3b73a43e	0.0037176753
68	0xbd3735e5	-0.044729132
69	0xbe88374b	-0.26604685
70	0xbdb0ab1b	-0.08626386
71	0x3f22e66e	0.6363286
72	0x3dafe192	0.08587946
73	0x3e59cb4e	0.21268961
74	0xbf51c15c	-0.8193567
75	0xbdde5f21	-0.10857988
76	0x3efb15a2	0.49039942
77	0x3c597dd8	0.013274632
78	0x3f05da26	0.52285993
79	0x3d270024	0.04077162
80	0xbe3dfba7	-0.18553029
81	0xbe95aa86	-0.29231662
82	0x3e9028e5	0.281562
83	0x3e83c129	0.25733307
84	0xbd8f6c1b	-0.07003041
85	0xbe101f11	-0.14074351
86	0xbdf7a5a6	-0.12092142
87	0x3f19e647	0.60117
88	0xbcf0cfe8	-0.029396012
89	0x3f4ef27c	0.8083875
90	0xbe73bdf0	-0.23802924
91	0x3c2e2554	0.010629017
92	0xbc51735a	-0.01278385
93	0x3dcb05f6	0.09913246
94	0x3d6de90b	0.058083575
95	0xbd017778	-0.031608075
96	0x3fa65d53	1.299723
97	0x3d3019a3	0.0429932
98	0xbcbcf355	-0.023065249
99	0xbd1cd323	-0.038287293
100	0x3e8c8b71	0.27450135
101	0x3e4d860d	0.20070668
102	0xbd86791b	-0.06566068
103	0x3b3a95a2	0.0028470536
104	0xbd4e36f0	-0.05034536
105	0xbe8b83bd	-0.27248946
106	0xbf267004	-0.6501467
107	0xbd3d0389	-0.04614595
108	0xbd4f3b8c	-0.050593898
109	0xbc8d3eb8	-0.01724182
110	0x3e4abd27	0.19798718
111	0xbdb9a6ff	-0.09065055
112	0xbd1366aa	-0.03598658
113	0x3b27ada5	0.0025585678
114	0x3c42b4d3	0.011883932
115	0x3f1f2850	0.62170887
116	0xbecb5589	-0.39713696
117	0x3ece4091	0.40283635
118	0xbe8cd183	-0.27503595
119	0xbe5f93e1	-0.21833755
120	0xbcaed473	-0.021341538
121	0xbd1343e7	-0.03595343
122	0x3ca1c6d6	0.019748133
123	0xbd0af37e	-0.03392362
124	0xbbca3fd6	-0.0061721606
125	0xbb91a750	-0.004444994
126	0x3d517f28	0.051146656
127	0xbd206eec	-0.039168283
128	0xbdc81011	-0.097686894
129	0xbd860137	-0.065432005
130	0xbd42392a	-0.047417797
131	0xbc3516a6	-0.011052763
132	0xbd44e8a7	-0.048073437
133	0x3ee1e820	0.4412241
134	0xbd0fd2ac	-0.03511302
135	0xbc2ac829	-0.010423698
136	0xbd562837	-0.052284446
137	0x3d0603d4	0.032718495
138	0xbc29362a	-0.010327855
139	0xbe31bfc4	-0.17358309
140	0xbddcde5d	-0.107846
141	0xbe028f6a	-0.1275002
142	0xbdfb5782	-0.1227255
143	0x3f092ec3	0.5358698
144	0xbbb9e4c1	-0.0056730215
145	0x3cfd63c4	0.030931361
146	0xbc465dd5	-0.012107332
147	0xbea734b9	-0.32657412
148	0xbd8d9d65	-0.06914786
149	0xbddc753a	-0.10764547
150	0x3f553790	0.83287907
151	0xbedac18e	-0.42725796
152	0x3e2b6f94	0.16741782
153	0xbf011968	-0.5042939
154	0x3ff42b60	1.9075737
155	0x3db53e50	0.08849776
156	0xbec5b7bb	-0.38616738
157	0x3f13802b	0.57617444
158	0x40c1a27c	6.0510845
159	0x3edddd17	0.4333274
160	0x3e611c89	0.21983542
161	0x3d612809	0.05496982
162	0x3d32f3fe	0.04368972
163	0xbd42fb1c	-0.047602758
164	0xbd0185ef	-0.03162187
165	0xbc8b3fa5	-0.016998122
166	0x3dba4233	0.09094658
167	0x3d261adc	0.04055296
168	0x3c8fc476	0.017549735
169	0xbea07335	-0.31337896
170	0xbe34896c	-0.17630547
171	0xbebf143a	-0.3732012
172	0xbd8f838d	-0.07007513
173	0x3f5d20a9	0.8637796
174	0xbeb59551	-0.35465482
175	0xbe037c0b	-0.12840287
176	0x3ea98187	0.33106634
177	0xbd87a0f3	-0.066224955
178	0xbba78e58	-0.0051134042
179	0xbd81ec2f	-0.063438766
180	0xb98efc80	-0.00027272478
181	0xbdad4734	-0.084608465
182	0x3e948b47	0.2901251
183	0xbec0bbfe	-0.37643427
184	0xbe1ad7ab	-0.15121333
185	0x3daa72ee	0.08322702
186	0x3d03fb19	0.032221887
187	0xbf0f14ae	-0.5589093
188	0x3ede83bd	0.43459883
189	0x3d0dfcdb	0.03466497
190	0x4065d541	3.591141
191	0xbb6333db	-0.003466836
192	0x3d166cf1	0.03672499
193	0xbd856570	-0.06513488
194	0xbcea1c7d	-0.028578037
195	0x3e8feae3	0.28108892
196	0xbd1e99bf	-0.038720842
197	0x405f9893	3.4936874
198	0x3f8e58f8	1.1120901
199	0x4010e233	2.263806
200	0x3b9822b0	0.004642807
201	0x3cade0bb	0.021225324
202	0xbd32e105	-0.043671627
203	0x3f144aef	0.5792684
204	0x3efa3b82	0.48873526
205	0xbca4c3c2	-0.020112876
206	0x3db2a1bb	0.08722254
207	0xbe3456c5	-0.17611225
208	0x404b2f0c	3.1747465
209	0xbe840af6	-0.25789613
210	0xbe42125e	-0.18952319
211	0xbd2275ec	-0.03966324
212	0x3e8af2fa	0.271385
213	0xb9914948	-0.00027711154
214	0x3f013187	0.504662
215	0x3bba841b	0.0056920177
216	0xbcdba9c4	-0.026814349
217	0xbd0e7c24	-0.03478636
218	0x3e2f8c28	0.17143309
219	0xbdbcb53b	-0.092142545
220	0x3df7da69	0.12102205
221	0xbddb65be	-0.10712765
222	0xbd506068	-0.05087319
223	0x3c73aa52	0.0148721505
224	0x3da72c9e	0.08162807
225	0x3b223c37	0.002475513
226	0xbee0e218	-0.43922496
227	0xbcdbc3ff	-0.026826857
228	0xbd439613	-0.047750544
229	0x3efaf90b	0.4901813
230	0x3cd1c03d	0.025604362
231	0xbca9e869	-0.020740705
232	0xbd5d058b	-0.053960364
233	0x3f43dc4b	0.76508015
234	0x3f187dd2	0.59566987
235	0x3e6f345e	0.2335982
236	0xbefb13ce	-0.49038547
237	0xbe240873	-0.16018848
238	0xbbd186d5	-0.006394247
239	0xbd932839	-0.07185406
240	0x400e7e65	2.2264645
241	0x3eb59265	0.35463253
242	0xbc72501a	-0.0147896055
243	0x3f6c6f0e	0.92356956
244	0x3c3b7b17	0.011442921
245	0xbefe3e83	-0.49657068
246	0xbd9eb66f	-0.0774964
247	0xbdd321b3	-0.10309162
248	0xbf26ea33	-0.6520111
249	0x3f600a03	0.87515277
250	0xbdcdd8cd	-0.10051117
251	0x3c901ff7	0.017593367
252	0x3d84302c	0.064545006
253	0xbd89c9a4	-0.06727913
254	0xbce8adf6	-0.028403264
255	0xbe86bb16	-0.2631461

bias f4 [2]
0	0xbcea95e2	-0.028635923
1	0xbca317f3	-0.01990888
