exp_local/bc_multimodal/weights/16000.pt (torch, 272392 bytes, 6 tensors)

weight f4 [256, 2]
0	0xbe115e73	-0.14196186
1	0x3dbb623b	0.09149595
2	0x3dd860b1	0.105653174
3	0xbd68e7ef	-0.056861814
4	0xbe7e64ca	-0.24843135
5	0x3e6beeaa	0.23040262
6	0xbd746b81	-0.059672836
7	0x3e0a9d0f	0.13536476
8	0x3e51ffc9	0.2050773
9	0x3e4aeb52	0.1981633
10	0x3c549ddd	0.012977091
11	0xbdd8310e	-0.105562314
12	0xbdd1c3b2	-0.10242404
13	0x3e52fe9b	0.20604937
14	0x3c02bc23	0.007979426
15	0xbc36c4ec	-0.011155348
16	0xbe0b5fad	-0.13610716
17	0xbd995550	-0.07486975
18	0xbe38cd32	-0.18047026
19	0x3b1aad55	0.002360185
20	0xbdd2170e	-0.102583036
21	0xbe00dec9	-0.12584986
22	0x3ad57ca9	0.0016287762
23	0x3eab3472	0.3343845
24	0xbe799fa8	-0.2437731
25	0x3e68ad4e	0.2272236
26	0x3c8791c5	0.016549
27	0x3e8b87ee	0.27252144
28	0xbd8fcd2b	-0.070215546
29	0xbdeb41e8	-0.1148718
30	0x3e53bb16	0.20676836
31	0xbdb61ebe	-0.08892582
32	0xbb5d6885	-0.0033784222
33	0x3eac3d48	0.33640504
34	0xbd6ad0b4	-0.05732794
35	0xbd4989e7	-0.04920378
36	0xbddf3b82	-0.10900022
37	0x3b49f8ea	0.003081853
38	0xbde5b4e1	-0.112161405
39	0xbda25454	-0.079262406
40	0xbdb5333d	-0.088476636
41	0xbd061538	-0.03273508
42	0xbbcc57e4	-0.0062360633
43	0xbc6dd223	-0.0145154325
44	0xbc207422	-0.009793313
45	0xbd831023	-0.06399562
46	0xbc8f769f	-0.017512618
47	0xbd4475fa	-0.047964074
48	0x3b50410f	0.003177706
49	0xbd2ea96d	-0.042642046
50	0xbb580247	-0.0032960342
51	0xbce6ca3d	-0.028172607
52	0x3d15d234	0.03657742
53	0x3aba22ad	0.0014201008
54	0xbe6a98fc	-0.22909921
55	0x3dd48ca4	0.103783876
56	0x3ca53417	0.02016644
57	0x3cf24c82	0.029577497
58	0xbe7e0245	-0.24805553
59	0xbc3fa14a	-0.011696169
60	0xbd8e45f1	-0.06946934
61	0xbc8f3d04	-0.01748515
62	0xbe06b633	-0.13155441
63	0x3de5e8d9	0.11226053
64	0x3c330d0d	0.0109284045
65	0x3e3efdf8	0.18651569
66	0xbe21b55a	-0.15791836
67	0x3eb654ab	0.35611472
68	0xbd8572bc	-0.065160245
69	0xbcb15209	-0.021645563
70	0xbe426aa6	-0.18985996
71	0xbd4e93bb	-0.050433856
72	0xbce68b0b	-0.028142473
73	0xbcaa40ec	-0.02078291
74	0xbd284122	-0.04107774
75	0xbd84b381	-0.0647955
76	0xbe225a9f	-0.15854882
77	0x3dee9ab0	0.11650598
78	0x3e77c326	0.24195537
79	0xbe7a69b1	-0.2445438
80	0xbf3af635	-0.7303193
81	0xbd14ae76	-0.03629919
82	0x3e8e9a66	0.27852172
83	0xbe1e6f11	-0.15472056
84	0x3da941dd	0.082645155
85	0x3ebe7bab	0.37203726
86	0x3e80c689	0.2515147
87	0xbe111e7d	-0.14171787
88	0xbe1c97d0	-0.15292287
89	0xbd9d9dbd	-0.07696102
90	0xbe488164	-0.19580609
91	0x3c204c2f	0.009783789
92	0xbe025dba	-0.12731066
93	0x3e955402	0.29165655
94	0x3d920384	0.07129577
95	0xbe2984f4	-0.16554624
96	0xbdd3a68b	-0.103345
97	0x3e4c1923	0.19931464
98	0xbd979adb	-0.07402583
99	0xbc804353	-0.015657103
100	0xbe4d032e	-0.20020744
101	0x3de5276c	0.1118916
102	0xbc517c61	-0.012786002
103	0x3d963566	0.07334404
104	0xbcffcfde	-0.031227048
105	0xbdbbf82a	-0.09178193
106	0xbd4ab86c	-0.049492285
107	0xbbf6178c	-0.007510131
108	0xbe15c172	-0.14624575
109	0xbda7c607	-0.081920676
110	0x3cf3ccab	0.02976068
111	0x3e5d0fe6	0.21588096
112	0xbc8b9c8e	-0.017042425
113	0xbdfa9628	-0.12235671
114	0x3e39ef58	0.18157709
115	0xbd529b71	-0.05141777
116	0xbc7b805b	-0.015350427
117	0x3b017a5a	0.0019756765
118	0xbe6f1c19	-0.23350562
119	0xbc892022	-0.016738955
120	0x3d9dbe9c	0.077023715
121	0xbc311857	-0.010809026
122	0x3deb1c22	0.11479975
123	0x3e3111fc	0.17292017
124	0x3bae0366	0.0053104637
125	0x3e94a66a	0.29033214
126	0xbcf8190b	-0.030285379
127	0xbe4cea24	-0.20011193
128	0x3e614cc9	0.22001947
129	0x3e7012b6	0.23444638
130	0xbeec3f38	-0.46141982
131	0xbc7cbe67	-0.015426255
132	0x3bf658bb	0.0075179017
133	0xbb7564f4	-0.0037444206
134	0xbc73c42b	-0.014878313
135	0xbd00952e	-0.03139227
136	0xbd211539	-0.03932688
137	0xbbee0b34	-0.007264519
138	0xbd81327f	-0.063084595
139	0xbe0f16d7	-0.13973556
140	0xbdb07a05	-0.086170234
141	0xbd200364	-0.039065734
142	0x3e2d3f85	0.16918762
143	0xbde60ed7	-0.11233299
144	0xbe62c919	-0.22147025
145	0x3e8f8273	0.28029212
146	0xbdbbd76e	-0.09171949
147	0xbd1f0342	-0.038821466
148	0xbd5c55a0	-0.053792596
149	0x3e13e8fd	0.14444347
150	0xbd487668	-0.048941046
151	0x3c91799e	0.017758187
152	0xbe4700b5	-0.19433863
153	0x3df0f6f8	0.117658556
154	0xbd5ec8eb	-0.05439083
155	0xbd998194	-0.07495418
156	0xbe261882	-0.16220286
157	0x3c2e0e8d	0.010623586
158	0x3e5d61bc	0.21619314
159	0xbe5f2950	-0.21793103
160	0xbe0bd3c9	-0.13655008
161	0xbd658890	-0.05603844
162	0xbcc65ea6	-0.024215054
163	0xbd1085f3	-0.035283994
164	0x3e42052e	0.18947288
165	0xbe5462bb	-0.20740788
166	0x3ccb2951	0.024799975
167	0xbde8034b	-0.11328753
168	0xbda5248d	-0.08063612
169	0xbd782f7c	-0.06059216
170	0xbdb0c55c	-0.08631393
171	0xbd22caff	-0.039744373
172	0xbc825332	-0.015908811
173	0xbd5c9d59	-0.053860996
174	0x3e637ddf	0.22215985
175	0xbe18208a	-0.14856163
176	0xbd6fb866	-0.058525465
177	0x3cac7431	0.021051498
178	0xbd8294ed	-0.063760616
179	0xbc8a93a5	-0.016916106
180	0x3aa0f2f6	0.0012279439
181	0xbdda7307	-0.10666471
182	0x3e99a01c	0.30004966
183	0xbdcaabfb	-0.09896084
184	0xbd633059	-0.05546603
185	0xbe2f5b6f	-0.17124723
186	0xbcb49e88	-0.02204825
187	0xbbb0a13f	-0.005390316
188	0xbcaf0c38	-0.021368131
189	0xbd7ff664	-0.062490836
190	0xbd7222a6	-0.059115075
191	0xbb306f52	-0.002692182
192	0xbd6b4e60	-0.05744779
193	0xbe1ecce4	-0.15507847
194	0xbd08aec6	-0.033369802
195	0x3b9063ce	0.004406429
196	0xbd57da1e	-0.052698247
197	0xbe16426f	-0.1467378
198	0xbd7144bb	-0.058903437
199	0xbd5fae63	-0.054609668
200	0xbe5f15ee	-0.2178571
201	0xbcbef010	-0.02330783
202	0xbbe1c522	-0.006889955
203	0x3c19af75	0.009380211
204	0x3aec6ee6	0.0018038421
205	0xbdec9c45	-0.115532435
206	0xbdf3f337	-0.11911624
207	0x3b4fa3e9	0.0031683391
208	0xbb0d39e0	-0.0021549389
209	0x3e796f6e	0.24358913
210	0xbc32403c	-0.0108795725
211	0xbb42e722	-0.0029739817
212	0xbe95f028	-0.29284787
213	0xbc2aefad	-0.01043312
214	0xbe216023	-0.1575933
215	0xbd9bd65e	-0.07609247
216	0x3dbea672	0.09309091
217	0xbda5d2de	-0.0809686
218	0xbd10906d	-0.035293985
219	0xbd1f8aa1	-0.038950566
220	0xbe0418be	-0.12900063
221	0xbc8427a1	-0.016132178
222	0xbf60fe08	-0.8788762
223	0xbc699142	-0.014255824
224	0xbd3231e8	-0.043504626
225	0x3ca825f8	0.020525917
226	0x3e4549bb	0.19266407
227	0xbe571f08	-0.21007931
228	0xbdb83d86	-0.0899611
229	0xbd48c29e	-0.049013726
230	0x3ea6fa1c	0.32612693
231	0x3d2edaa3	0.042688977
232	0xbd21b536	-0.039479457
233	0xbe0a7cf6	-0.13524231
234	0xbe2bebd9	-0.16789187
235	0xbd3f6f06	-0.04673674
236	0xbe76f50e	-0.24116918
237	0xbc92527f	-0.017861603
238	0x3e8dc899	0.27692106
239	0xbe51650d	-0.20448704
240	0xbd3e0f10	-0.046401083
241	0x3c608d32	0.013705539
242	0xbc1c4fd4	-0.009540517
243	0xbdee3097	-0.116303615
244	0x3d91bd12	0.071161404
245	0x3d96a953	0.07356515
246	0x3e1a9fe1	0.15100051
247	0x3cd1f08c	0.025627397
248	0x3e09403b	0.13403408
249	0xbe03bed9	-0.12865771
250	0xbe32fbde	-0.17478892
251	0xbdb28ec5	-0.087186374
252	0x3c0ebf8a	0.008712659
253	0x3e0d9a1a	0.13828316
254	0x3e0521c2	0.13001159
255	0xbcdbbd0d	-0.026823545

bias f4 [256]
0	0x3dc85dc3	0.09783509
1	0xbd84d5e5	-0.0648611
2	0x3cb2d6cf	0.021830944
3	0xbbc199a1	-0.0059082066
4	0xbdc5c2f1	-0.09656323
5	0x3dc9656c	0.09833798
6	0xbd0f11bc	-0.034929022
7	0xbbc480f1	-0.0059968163
8	0x3e27bfb1	0.16381718
9	0x00000000	0.0
10	0x3e2c2f28	0.16814864
11	0xbd5d3cd0	-0.054013073
12	0x3ca93fff	0.020660399
13	0xbdfbf294	-0.123021275
14	0x00000000	0.0
15	0x3d13073f	0.035895582
16	0xbe2ea11e	-0.17053649
17	0x00000000	0.0
18	0x00000000	0.0
19	0x00000000	0.0
20	0x00000000	0.0
21	0x00000000	0.0
22	0x00000000	0.0
23	0x00000000	0.0
24	0x3c616525	0.013757025
25	0x00000000	0.0
26	0xbd2e9e66	-0.04263153
27	0x3dd714e0	0.105020285
28	0xbc467559	-0.012112939
29	0x3e1c642b	0.15272586
30	0x00000000	0.0
31	0x3d9d9aab	0.07695516
32	0xbc303218	-0.010754131
33	0xbe2aaeb2	-0.16668203
34	0x00000000	0.0
35	0x3e4f28b0	0.20230365
36	0x00000000	0.0
37	0x00000000	0.0
38	0x3dd15941	0.10222102
39	0x3c120040	0.008911192
40	0x3e274aae	0.16337082
41	0x3cfb7d14	0.03069929
42	0xbe690b3c	-0.22758192
43	0x3cb73a0e	0.02236655
44	0x3e662844	0.22476298
45	0x3e72008f	0.23633026
46	0xbc3bc8e2	-0.011461468
47	0x3d99ff7f	0.07519435
48	0xbcbdaa06	-0.023152363
49	0x00000000	0.0
50	0x3d87eff3	0.066375636
51	0xbcece1ee	-0.028916325
52	0x00000000	0.0
53	0x00000000	0.0
54	0x00000000	0.0
55	0xbdcc0a4c	-0.099629015
56	0x00000000	0.0
57	0xbc43eb7e	-0.011958001
58	0xbc2aa1d6	-0.010414561
59	0x3e24d197	0.16095577
60	0xbd7707f8	-0.060310334
61	0xbc457c92	-0.012053626
62	0xbe13ff60	-0.14452887
63	0x3e0e4ec3	0.13897233
64	0xbdd3e7a7	-0.103469186
65	0x3e6b7957	0.22995506
66	0xbc04c3d4	-0.00810333
67	0x00000000	0.0
68	0x00000000	0.0
69	0x00000000	0.0
70	0x00000000	0.0
71	0x3c0cf7ce	0.008604003
72	0xbad5a993	-0.0016301147
73	0x00000000	0.0
74	0xbc75e775	-0.015008797
75	0xbc5b5625	-0.013387238
76	0x3d556ed4	0.052107647
77	0x00000000	0.0
78	0x3e013d29	0.12620987
79	0x3bef7cd5	0.0073085823
80	0x00000000	0.0
81	0x00000000	0.0
82	0x3c399090	0.01132597
83	0xbc8ed4e0	-0.017435491
84	0x00000000	0.0
85	0x00000000	0.0
86	0x00000000	0.0
87	0x3d3cc8f6	0.04609009
88	0x3a79b868	0.0009526075
89	0x00000000	0.0
90	0xbbc4c9cb	-0.006005501
91	0xbc10cc9c	-0.008837845
92	0x3e24eb63	0.16105418
93	0x00000000	0.0
94	0x00000000	0.0
95	0x00000000	0.0
96	0x00000000	0.0
97	0xbc3facf8	-0.011698954
98	0x3e26571c	0.16244167
99	0x00000000	0.0
100	0x3e34bfdc	0.17651314
101	0xbc82233d	-0.015885944
102	0xbc096106	-0.008384949
103	0xbbd76923	-0.0065738126
104	0xbdf33036	-0.1187443
105	0xbc29fafa	-0.010374779
106	0x3e1454aa	0.14485422
107	0x3e663e19	0.22484626
108	0x3d1d9a86	0.038477443
109	0x00000000	0.0
110	0x00000000	0.0
111	0x3dbe278e	0.09284888
112	0xbc29f3cc	-0.010373067
113	0x3c3179ce	0.010832263
114	0x00000000	0.0
115	0xbce57309	-0.028008955
116	0x00000000	0.0
117	0x3e37c3a1	0.1794572
118	0x3ea68bf1	0.32528642
119	0x3b64c687	0.003490837
120	0xbc10e362	-0.008843275
121	0x3df62963	0.12019613
122	0xbd050a76	-0.03248068
123	0xbd098798	-0.033576578
124	0x3b9e471e	0.004830255
125	0x3e81caf5	0.25350156
126	0xbc1c4c45	-0.009539668
127	0xbd0b33e4	-0.033985034
128	0xbb3442dc	-0.0027505672
129	0xbc147690	-0.009061471
130	0x00000000	0.0
131	0x3e679627	0.22615872
132	0x00000000	0.0
133	0x3e3304a4	0.17482239
134	0xbcecdf9e	-0.028915223
135	0x00000000	0.0
136	0xbbc4c9d6	-0.006005506
137	0xbc975d1c	-0.018477015
138	0xbd4d0a9c	-0.050058946
139	0x3e1926a5	0.14956148
140	0x3de03c85	0.10949043
141	0xbc882745	-0.016620288
142	0x3e800309	0.25002316
143	0x3d04b886	0.032402538
144	0x00000000	0.0
145	0x3bf306d0	0.0074165836
146	0x00000000	0.0
147	0x00000000	0.0
148	0x00000000	0.0
149	0x3e40bb37	0.18821417
150	0x3e43321f	0.19062088
151	0x3d8e3199	0.06943054
152	0x3e7088c3	0.2348967
153	0x00000000	0.0
154	0xbe29bfec	-0.16577119
155	0x00000000	0.0
156	0xbca7583c	-0.020427816
157	0x00000000	0.0
158	0x3df6b19e	0.120455965
159	0xbdb89e0f	-0.09014522
160	0xbd55c56f	-0.05219024
161	0x00000000	0.0
162	0xbb68a12a	-0.0035496452
163	0x3bafcbb8	0.0053648613
164	0xbc4dc827	-0.012559927
165	0x3e481586	0.1953946
166	0x00000000	0.0
167	0xbdfc28a0	-0.12312436
168	0xbe0827f7	-0.13296495
169	0x3c3def43	0.011592689
170	0xbe24b170	-0.16083312
171	0x00000000	0.0
172	0x3e29031c	0.16505092
173	0x00000000	0.0
174	0x3e145618	0.14485967
175	0xbc4f25a1	-0.012643249
176	0xbce3b9e7	-0.027798606
177	0x3e4337cb	0.19064252
178	0x00000000	0.0
179	0xbc090478	-0.008362882
180	0xba30b74a	-0.00067411794
181	0x3e8daa6b	0.2766908
182	0x3d4db39c	0.050220117
183	0xbc0cad5e	-0.008586256
184	0xbc931a46	-0.017956864
185	0xbda3353e	-0.079691395
186	0x00000000	0.0
187	0xbbfe11f8	-0.007753607
188	0x3d17fb26	0.03710475
189	0x00000000	0.0
190	0x3c78b5cd	0.015180063
191	0x00000000	0.0
192	0x3db0652c	0.08613047
193	0xbc10a742	-0.00882894
194	0x00000000	0.0
195	0x00000000	0.0
196	0xbd64f4ee	-0.055897646
197	0xbd41c32b	-0.047305267
198	0x00000000	0.0
199	0xbc91b240	-0.017785192
200	0xbc73d8d8	-0.014883243
201	0xbb4884db	-0.0030596766
202	0x00000000	0.0
203	0xbde63930	-0.112413764
204	0x00000000	0.0
205	0xbc2fb208	-0.010723598
206	0xbcfcfebd	-0.030883187
207	0x3e7ea5a3	0.24867873
208	0x3e41b568	0.18916857
209	0x3e12b011	0.14324977
210	0xbcd117b1	-0.025523992
211	0x3d1803b1	0.037112895
212	0x00000000	0.0
213	0x3e476f50	0.19476056
214	0x00000000	0.0
215	0xbbed5e28	-0.0072438903
216	0x00000000	0.0
217	0x00000000	0.0
218	0x3c2988cb	0.010347555
219	0x3cf0492d	0.029331768
220	0x00000000	0.0
221	0x00000000	0.0
222	0x00000000	0.0
223	0xbe317876	-0.17331108
224	0x3dbcd65b	0.092205726
225	0xbce3f6ed	-0.027827704
226	0x00000000	0.0
227	0x3e2152ba	0.15754214
228	0x00000000	0.0
229	0x3d6f9736	0.058493815
230	0x00000000	0.0
231	0xbca66205	-0.020310411
232	0x3e0e8bfb	0.13920586
233	0xbbefae2a	-0.007314463
234	0x00000000	0.0
235	0xbbff5074	-0.007791573
236	0xbd045521	-0.032307748
237	0xbc6bd03e	-0.0143929105
238	0xbdcf709a	-0.10128899
239	0x00000000	0.0
240	0xbc341d2d	-0.010993284
241	0x00000000	0.0
242	0x00000000	0.0
243	0xbbd9a8ab	-0.0066424212
244	0xbc2119f6	-0.00983285
245	0xba04b211	-0.00050619344
246	0x00000000	0.0
247	0x00000000	0.0
248	0x3bf5d34c	0.007501995
249	0xbd28d371	-0.04121727
250	0x3cdd9dc9	0.027052777
251	0x3dfdd612	0.12394346
252	0x3e32e09a	0.17468491
253	0x3e228353	0.15870409
254	0x3c843132	0.01613674
255	0xbd4757ac	-0.048667595

weight f4 [256, 256]
0	0xbd16333d	-0.03666996
1	0xbd470664	-0.04859008
2	0x3ec958b6	0.39325494
3	0x3d7b5e60	0.0613693
4	0xbdc025fd	-0.09382246
5	0x3d8407dc	0.064468116
6	0xbeb8b6b6	-0.36076897
7	0x3cf7b5ac	0.030237995
8	0xbe27686c	-0.16348428
9	0x3be899b4	0.007098401
10	0x3e8aefd1	0.2713609
11	0x3d800edf	0.062528364
12	0x3ebef315	0.37294832
13	0x3e1c6b10	0.15275216
14	0xbd5d592b	-0.054040115
15	0xbc52769e	-0.012845663
16	0x3e16feb6	0.14745602
17	0xbdbebd4d	-0.0931345
18	0xbdbf0b50	-0.093283296
19	0xbb3b63e9	-0.0028593487
20	0xbd9ba168	-0.07599145
21	0xbd5ea8de	-0.054360263
22	0xbcccc412	-0.024995837
23	0xbda9e611	-0.08295835
24	0x3d0d03e5	0.034427542
25	0x3dca3013	0.09872451
26	0x3dd34206	0.10315327
27	0xbe94b16b	-0.2904161
28	0x3c163d54	0.009169895
29	0xbe9fb9b2	-0.31196362
30	0x3da7b2eb	0.08188423
31	0x3dd0c80c	0.10194406
32	0xbd66b4e0	-0.05632484
33	0xbf4507f4	-0.7696526
34	0xbca1faba	-0.019772876
35	0xbe9b81b7	-0.30372402
36	0x3da41523	0.08011844
37	0x3d79c73c	0.06098102
38	0x3ca71331	0.020394893
39	0x3e46a690	0.19399476
40	0xbf008de3	-0.502165
41	0xbd5be34e	-0.05368357
42	0x3d7434d6	0.0596207
43	0xbd8a43c8	-0.067512095
44	0x3d6ceeb5	0.057844836
45	0xbc8784c4	-0.0165428
46	0xbcb7295d	-0.02235859
47	0xbe9fb474	-0.31192362
48	0xbe15144a	-0.14558521
49	0xbd77529c	-0.060381517
50	0xbe2f5cfc	-0.17125314
51	0x3d24d8a7	0.04024568
52	0x3cd1b2ae	0.025597896
53	0x3d7fe0be	0.06247019
54	0x3d7c4576	0.06158968
55	0x3d4ba02f	0.04971331
56	0x3d05ad50	0.032635987
57	0x3d2f2311	0.04275805
58	0x3da6597e	0.08122538
59	0xbed8410d	-0.4223713
60	0x3b0bf98b	0.0021358456
61	0x3e03d577	0.12874399
62	0xbc04a5c2	-0.00809616
63	0x3e088863	0.13333277
64	0x3c2a2de7	0.0103869205
65	0x3f4e29ba	0.8053242
66	0x3da9a48c	0.08283338
67	0x3cd8228d	0.026383663
68	0x3d094732	0.033515163
69	0x3db53c6a	0.08849414
70	0x3c077a4c	0.008268904
71	0xbe657b0a	-0.22410217
72	0xbec21121	-0.37903693
73	0x3cdb84fc	0.02679681
74	0x3bb2fd0d	0.005462295
75	0xbceba6bd	-0.02876603
76	0xbcc6bbfa	-0.024259556
77	0xbdd0ccd2	-0.101953164
78	0xbe0714a7	-0.13191472
79	0x3e80e176	0.25172013
80	0x3badee26	0.0053079305
81	0x3cd9e69c	0.026599221
82	0x3df8f2e0	0.121557
83	0x3b11baa8	0.00222365
84	0x3d771492	0.06032235
85	0xbd6cf682	-0.057852276
86	0xbd2ec7c2	-0.042670973
87	0xbd7227f2	-0.059120126
88	0x3acc6e2b	0.0015596797
89	0xbd006c5d	-0.031353343
90	0xbd449bce	-0.04800015
91	0xbd01ef94	-0.03172262
92	0x3d821e33	0.06353416
93	0x3dde43e5	0.108527936
94	0xbd7ead1f	-0.06217682
95	0x3db6f54c	0.089335054
96	0x3d5143aa	0.05108992
97	0xbdc5b633	-0.09653892
98	0xbe22c0ae	-0.15893814
99	0x3e5e28ee	0.21695301
100	0xbecc2c62	-0.3987761
101	0x3cfb789f	0.030697165
102	0x3d94ec5c	0.072716445
103	0xbcf624b6	-0.030046802
104	0xbad8fbc2	-0.0016554522
105	0xbd87fd19	-0.066400714
106	0x3efb2e2b	0.4905866
107	0x3bf3b6aa	0.0074375467
108	0x3e0b9d7f	0.13634299
109	0xbc148600	-0.009065151
110	0xbcb047f0	-0.021518677
111	0xbf7b6326	-0.98198164
112	0x3d95d275	0.07315532
113	0x3d80bf1d	0.06286452
114	0xbc1849c6	-0.009294933
115	0xbcd82fb8	-0.026389942
116	0xbbf3d882	-0.007441581
117	0xbe9d4649	-0.30717686
118	0x3e2cb2e9	0.16865124
119	0xbe3fdfae	-0.18737671
120	0xbb039c6e	-0.0020082253
121	0xbd32f945	-0.043694753
122	0x3d7f1657	0.062277164
123	0xbe22c9f2	-0.15897349
124	0xbd628856	-0.0553058
125	0xbd5cea9a	-0.05393467
126	0x3cea1a36	0.028576951
127	0x3d0d931b	0.03456412
128	0x3d882a7e	0.0664873
129	0x3e110967	0.14163743
130	0xbcd5c756	-0.026096027
131	0xbd941bfd	-0.07231901
132	0xbdca42a5	-0.09875993
133	0x3e260140	0.16211414
134	0x3f080dad	0.5314587
135	0x3d9183e5	0.07105235
136	0xbc8187d5	-0.01581184
137	0xbe6013d3	-0.21882562
138	0x3cd0c13f	0.025482772
139	0x3d148376	0.036258183
140	0xbf6d5de2	-0.9272138
141	0xbd57d4e7	-0.052693274
142	0x3d03353c	0.03203319
143	0xbd2e73d5	-0.042590935
144	0xbced35cc	-0.028956316
145	0xbd3a94b9	-0.04555199
146	0x3b1fee7a	0.0024403618
147	0xbcb31aee	-0.021863427
148	0x3d75df54	0.060027435
149	0xba7a694a	-0.00095524325
150	0xbe92332d	-0.2855467
151	0xbd20a670	-0.039221227
152	0x3e3740d4	0.17895824
153	0x3ca70c20	0.020391524
154	0xbcc9b301	-0.024621489
155	0x3d90cafc	0.07069966
156	0x3d017951	0.031609837
157	0xba2f3948	-0.0006684256
158	0xbf144979	-0.5792461
159	0x3dd7d096	0.105378315
160	0xbc2cb51f	-0.0105412295
161	0x3d93ec90	0.07222855
162	0x3ec87f36	0.39159554
163	0x3e0b793e	0.13620469
164	0x3e0d8538	0.1382035
165	0xbeb05820	-0.34442234
166	0xbdcbd31c	-0.09952375
167	0xbd2fcb1b	-0.042918306
168	0x3dcca150	0.099917054
169	0xbe008d03	-0.12553792
170	0x3c69a327	0.01426009
171	0xbce1bf8d	-0.027557159
172	0xbde57831	-0.11204565
173	0x3d9a481e	0.075332865
174	0x3df1498d	0.11781607
175	0x3bd38b10	0.0064557865
176	0x3d8c99a2	0.06865241
177	0x3c6743c6	0.01411528
178	0x3b8b1384	0.00424427
179	0xbaca5744	-0.0015437384
180	0xbd6a2d57	-0.057172146
181	0x3d794042	0.060852297
182	0x3d12fb3e	0.035884134
183	0x3bb19069	0.0054188264
184	0x3d706218	0.0586873
185	0xbdc59917	-0.0964834
186	0xbd3f7f66	-0.046752356
187	0x3dab8f65	0.0837696
188	0x3d331c49	0.043728147
189	0xbcf1a8e2	-0.029499475
190	0x3d9fb925	0.077989854
191	0xbcff20be	-0.031143542
192	0xbcd3cb71	-0.025853844
193	0x3ca56ff4	0.020194985
194	0xbdc0e803	-0.09419253
195	0xbd67c374	-0.056582883
196	0x3cd49cc5	0.02595366
197	0x3c3ebfb6	0.011642387
198	0x3d1b5ca6	0.037930153
199	0x3f1950fa	0.59889185
200	0x3d64df09	0.055876765
201	0x3c330e4f	0.010928704
202	0xbd5290d2	-0.051407643
203	0x3d0854bb	0.03328393
204	0xbd50792a	-0.0508968
205	0x3d79d0de	0.060990207
206	0xbe8c110d	-0.2735676
207	0x3e0b67f5	0.13613875
208	0xbe553a6b	-0.20823066
209	0xbe0b40eb	-0.13598983
210	0x3d7bb49d	0.061451543
211	0x3d975db1	0.07390917
212	0x3c92c7ae	0.01791748
213	0x3dac0581	0.08399487
214	0xbc1f7706	-0.009732967
215	0x3d5677d5	0.052360374
216	0xbd7e571f	-0.062094804
217	0xbce089bf	-0.027409432
218	0x3e4cba14	0.19992858
219	0x3d3fdfd6	0.046844326
220	0x3d4c0abc	0.049814925
221	0x3bfe7f04	0.0077666063
222	0xbd218875	-0.039436776
223	0xbf270d44	-0.65254617
224	0xbf27c657	-0.6553702
225	0xbe65123b	-0.22370236
226	0xbd83e8dc	-0.06440899
227	0x3f1a873f	0.6036262
228	0x3bd5f490	0.0065293983
229	0x3d83c2fe	0.06433676
230	0xbce8ab6a	-0.02840205
231	0x3daea02c	0.08526644
232	0x3d080ae6	0.03321352
233	0x3b6b2909	0.0035882613
234	0x3e1cf28a	0.15326896
235	0xbdf550d3	-0.119783066
236	0xbcd3830e	-0.025819328
237	0xbd60ce55	-0.054884274
238	0xbd0c1af4	-0.034205392
239	0xbd793145	-0.060838003
240	0x3c98c686	0.01864935
241	0x3d6ecc62	0.058300383
242	0xbc36da74	-0.011160482
243	0xbd95452e	-0.072885856
244	0xbce890ba	-0.028389324
245	0xbcc6ec17	-0.024282498
246	0xbd31c564	-0.043401137
247	0x3da25eb2	0.07928218
248	0xbea475df	-0.32121179
249	0xbbd77cda	-0.0065761628
250	0x3c8b064e	0.01697078
251	0xbd65de81	-0.0561204
252	0x3f2fac3f	0.686222
253	0xbe915bb2	-0.2839027
254	0xbde20580	-0.11036205
255	0xbb1c62b9	-0.0023862554

bias f4 [256]
0	0x3d0ca59d	0.03433763
1	0x3da80bef	0.08205401
2	0x00000000	0.0
3	0xbe2a6862	-0.16641381
4	0x3cbe8fb1	0.023261877
5	0xbd9e3737	-0.07725375
6	0xbc740fd2	-0.01489635
7	0x3d531854	0.051536873
8	0xbc94852f	-0.018129913
9	0xbc39d739	-0.011342817
10	0xbbd5575d	-0.0065106587
11	0xbc59dde6	-0.013297534
12	0x00000000	0.0
13	0xbc5d8491	-0.013520376
14	0xbc0d86ee	-0.008638127
15	0xbd711cc6	-0.05886533
16	0x3be0e17a	0.0068628164
17	0x3cfeeab5	0.031117776
18	0x3d52dcab	0.051479977
19	0x3d3159cd	0.04329853
20	0x3d488ee3	0.048964392
21	0x3dac6bb3	0.084189795
22	0x3e25b96c	0.16184014
23	0x3d70469b	0.058661085
24	0xbc71f894	-0.014768738
25	0x3d8f0505	0.06983379
26	0x3dae8e6f	0.08523261
27	0xbc3c6d8f	-0.01150073
28	0xbbd0f525	-0.0063768798
29	0x3d21c388	0.039493114
30	0x3d896b18	0.0670988
31	0x3d1ab818	0.03777322
32	0xbc312f4f	-0.010814502
33	0xbca8265d	-0.020526106
34	0x00000000	0.0
35	0x3d11bba4	0.03557934
36	0x3db3687a	0.08760162
37	0x3d486c9c	0.048931703
38	0xbbeeff9f	-0.007293656
39	0x3d0e24fe	0.034703247
40	0x3d1dde46	0.038542055
41	0x3d27a3e2	0.040927775
42	0x3d2a7411	0.041614596
43	0xbd002faa	-0.031295456
44	0xbcbeac4b	-0.023275515
45	0x3c827df3	0.015929198
46	0xbc01e43f	-0.007927953
47	0xbde8db1c	-0.11369917
48	0xbc927ddc	-0.01788228
49	0x3e52bd96	0.20580134
50	0x3d08126d	0.033220697
51	0x3df31434	0.11869088
52	0xbc657dd4	-0.014007051
53	0xbd12178d	-0.03566699
54	0xbbdabc2f	-0.0066752653
55	0x39eb098d	0.0004482981
56	0xbc0faaa1	-0.008768708
57	0x3d1d5bb8	0.038417548
58	0x3e3d948f	0.18513702
59	0xbc4d5d2b	-0.01253442
60	0xbcca1b26	-0.024671149
61	0xbc5dcd7b	-0.01353776
62	0x3d0d35c9	0.03447512
63	0xbcae1152	-0.021248493
64	0x00000000	0.0
65	0x3d854f66	0.06509285
66	0x3d396c7a	0.045269467
67	0xbca14fef	-0.019691436
68	0xbbd22cd2	-0.0064140344
69	0x3d4536da	0.048148014
70	0xbc659e7c	-0.014014836
71	0x3dd5d378	0.10440725
72	0x00000000	0.0
73	0x3c932775	0.01796315
74	0xbdcf5e58	-0.101254165
75	0x3d16ca62	0.0368141
76	0x3d721b38	0.05910799
77	0xbc0a8f31	-0.008456991
78	0x3ca4cc4d	0.02011695
79	0xbcffe6a9	-0.031237917
80	0x3d28279a	0.041053392
81	0x3d9bab0f	0.07600986
82	0x3d4b77c6	0.04967477
83	0x3e2d44eb	0.16920821
84	0xbc0f5d8c	-0.008750331
85	0x00000000	0.0
86	0x3d24db67	0.0402483
87	0x3d811f81	0.06304837
88	0x00000000	0.0
89	0x3d004077	0.03131148
90	0x3d0aa9cc	0.033853337
91	0x3d01f16e	0.031724386
92	0xbc8d8c7c	-0.017278902
93	0x3d398a39	0.045297835
94	0x00000000	0.0
95	0xbc80b2e7	-0.015710307
96	0x3d21385e	0.039360397
97	0xbc090ce9	-0.008364894
98	0xbc1d6990	-0.009607688
99	0xbc9ccfc3	-0.019142037
100	0x3d7a08f1	0.061043683
101	0x3c16c67a	0.009202594
102	0x00000000	0.0
103	0xbc301d67	-0.010749198
104	0xbc0c6a6c	-0.008570295
105	0x3d42cb41	0.04755712
106	0x3df3856c	0.118906826
107	0xbc1b40f5	-0.009475936
108	0xbc810046	-0.0157472
109	0xbc426d4c	-0.011866879
110	0x3e55102a	0.20806947
111	0xbd12213b	-0.035676222
112	0xbc28413e	-0.010269461
113	0xbc2b0fee	-0.01044081
114	0xbc3b93af	-0.011448785
115	0x3d44d136	0.04805108
116	0x3cad8e93	0.021186149
117	0x3ca05a3a	0.019574273
118	0x3d26df6f	0.040740427
119	0x3ce58211	0.028016122
120	0xbc81eea1	-0.015860857
121	0xbc30218f	-0.0107501885
122	0x00000000	0.0
123	0xbc63838d	-0.013886345
124	0x00000000	0.0
125	0x00000000	0.0
126	0xbc5f146c	-0.013615709
127	0xbc2b020c	-0.0104375
128	0xbbd88a32	-0.006608271
129	0xbc23fd6b	-0.01000915
130	0xbc2a2292	-0.010384219
131	0xbd01fac4	-0.03173329
132	0xbc7e2709	-0.015512236
133	0x3d1113c3	0.035419237
134	0xbc858dcc	-0.016302966
135	0xbbdfdabf	-0.0068314965
136	0xbc1e8353	-0.009674865
137	0x00000000	0.0
138	0xbc162f7f	-0.009166597
139	0x3d33b324	0.043872014
140	0x00000000	0.0
141	0xbc2e05d7	-0.0106215095
142	0xbbc4c9da	-0.006005508
143	0x3d1dc96f	0.03852218
144	0xbc5562ba	-0.0130240265
145	0xbbca6096	-0.0061760647
146	0xbc13f86b	-0.009031395
147	0xbd2432c6	-0.040087484
148	0xbc7a64d2	-0.0152828265
149	0xbc495b56	-0.012289843
150	0x3d22455d	0.03961693
151	0x3cc5fd24	0.024168558
152	0x3bac8f8f	0.005266137
153	0xbb99c0eb	-0.004692187
154	0x3cb1be01	0.021697046
155	0x3d18a900	0.037270546
156	0x3cc0a941	0.023518207
157	0x3dcbea8f	0.09956848
158	0x3d44a42d	0.048008133
159	0x3d45cae3	0.04828919
160	0x3d3edbcc	0.046596333
161	0xbc6046cf	-0.013688757
162	0xbc821d66	-0.015883159
163	0xbd269245	-0.040666837
164	0xbc44a906	-0.012003189
165	0xbc654698	-0.013993882
166	0x3d02922f	0.031877693
167	0xbb319aed	-0.00271004
168	0xbc3d9159	-0.011570298
169	0x3d23eaa8	0.040018708
170	0x3d1d8740	0.038459063
171	0x3cceaab6	0.025227886
172	0xbc021005	-0.00793839
173	0x3d1f2fba	0.038863875
174	0x3d32e73c	0.043677554
175	0x3d9db77b	0.07701012
176	0x3c567df7	0.013091556
177	0xbcfd1278	-0.030892596
178	0x00000000	0.0
179	0xbc2fd284	-0.010731343
180	0xbcacf34f	-0.021112112
181	0x3cdd6b84	0.027028807
182	0x3e011078	0.12603939
183	0x3d2b6a54	0.04184945
184	0x3d2f03c8	0.042728215
185	0xbcb8d77e	-0.022563692
186	0xbccd72eb	-0.025079211
187	0x3db881a5	0.09009103
188	0x3d6f14ee	0.05836957
189	0xbc09bc5c	-0.008406725
190	0x3d4b92d0	0.04970056
191	0xbc4d0b74	-0.012514938
192	0x3cf2902f	0.029609768
193	0xbc6403ca	-0.013916919
194	0xbbf9302d	-0.00760462
195	0x3c9d3a9b	0.019192984
196	0xbd1dacdc	-0.03849493
197	0x3d576bc7	0.05259302
198	0x3ccaeb50	0.024770409
199	0x3cc6755a	0.02422588
200	0xbbc50fc4	-0.0060138423
201	0xbc07017e	-0.008240102
202	0xbc56a1aa	-0.013100067
203	0x3d748312	0.05969531
204	0x3cd79474	0.026315905
205	0xbc1cc4de	-0.009568421
206	0xbc38016c	-0.011230808
207	0x3d3be615	0.04587372
208	0x3d03c039	0.03216574
209	0x3d3210ba	0.043472983
210	0x3cf76a87	0.030202163
211	0xbc3ef676	-0.011655441
212	0x3c713590	0.014722243
213	0x3d5de9b2	0.054177947
214	0x3d009282	0.03138972
215	0xbc144fcc	-0.009052228
216	0xbbab5608	-0.0052287616
217	0xbbc4c9d1	-0.0060055037
218	0xbaa62374	-0.0012675361
219	0xbc38cf3e	-0.011279879
220	0x3d0750cf	0.03303605
221	0xbbb55546	-0.005533847
222	0xbc9bf6c1	-0.01903856
223	0xbc3314cb	-0.01093025
224	0x00000000	0.0
225	0x00000000	0.0
226	0x3d779065	0.06044044
227	0x00000000	0.0
228	0xbc0641bc	-0.008194383
229	0x3cf27566	0.029596996
230	0xbc50bca0	-0.012740284
231	0xbd27e765	-0.04099216
232	0xbc3472e8	-0.011013724
233	0x3ddaebc2	0.106894985
234	0x3d50574c	0.050864503
235	0x3c3ec051	0.0116425315
236	0x3dedc4ac	0.11609778
237	0x3dac38c8	0.08409268
238	0xbc154577	-0.0091108
239	0xbc67a5ee	-0.014138682
240	0x3cd6c1cf	0.026215462
241	0x3e382446	0.17982587
242	0xbcf27a69	-0.029599385
243	0x3ca3db83	0.020002132
244	0xbc10aa56	-0.008829674
245	0xbcba4ccc	-0.022741698
246	0xbc0edf56	-0.00872024
247	0xbc521c76	-0.012824168
248	0x3dc238da	0.094835
249	0x3cdf740a	0.027277011
250	0xbd2398c3	-0.039940607
251	0xbc4b8890	-0.012422696
252	0x00000000	0.0
253	0xbc19f70a	-0.009397278
254	0x3d2da236	0.042391025
255	0x3d0d0ac5	0.0344341

weight f4 [2, 256]
0	0x3ec60dfa	0.38682538
1	0x3f3b9f59	0.7329002
2	0xbdc59cad	-0.09649024
3	0xbf2c7954	-0.6737263
4	0xbdb4d536	-0.08829729
5	0xbe977566	-0.29581755
6	0xbd3f673c	-0.04672931
7	0xbe98ac5a	-0.29818994
8	0x3cf81e77	0.030287964
9	0xbd9eda58	-0.077564895
10	0xbdd9596d	-0.1061276
11	0xbd7d62c3	-0.061861765
12	0xbcdad686	-0.02671362
13	0xbd4ee294	-0.05050905
14	0xbdadce82	-0.08486654
15	0xbf2d765a	-0.67758715
16	0x3e4590ce	0.1929352
17	0xbe8ec98c	-0.27888143
18	0x3f225938	0.63417387
19	0xbec99ff8	-0.3937986
20	0x3f32b20b	0.6980292
21	0xbf297195	-0.6618894
22	0x3d90af1f	0.07064652
23	0x3bd35c44	0.006450208
24	0xbd522456	-0.051304184
25	0xbf1eb068	-0.61987925
26	0xbe0c78ac	-0.13717908
27	0xbdd32cdf	-0.10311293
28	0x3d831a03	0.06401446
29	0xbd057b2f	-0.03258818
30	0x3eefcd8c	0.46836507
31	0x3f509f07	0.81492656
32	0xbdfefd62	-0.12450673
33	0x3f22a815	0.6353772
34	0xbdbb81c7	-0.091556124
35	0x3f8dcc09	1.1077892
36	0x3e8653f8	0.26235938
37	0xbe76b07d	-0.24090762
38	0xbd45676c	-0.048194334
39	0xbe6fd0d9	-0.23419513
40	0x3f8bcd5d	1.0922047
41	0x3d23b873	0.039970826
42	0x40608b20	3.5084915
43	0x3b54eda7	0.0032490285
44	0x3cc8bac8	0.024503127
45	0x3e2c8620	0.1684804
46	0x3cb8bb77	0.022550328
47	0xbf6885bf	-0.9082908
48	0xbd516961	-0.051125888
49	0x3eb897cf	0.3605332
50	0x3e98ea6f	0.2986636
51	0xbf0bf4f1	-0.54670626
52	0x3ceb6960	0.02873677
53	0xbde6431f	-0.11243271
54	0x3c25f78b	0.01012982
55	0xbee42dac	-0.44566095
56	0x3dbfc037	0.09362834
57	0x3f920f19	1.1410857
58	0x3ef0c363	0.47024068
59	0xbc3b3ef3	-0.0114285825
60	0x3de10974	0.10988131
61	0x3cfeaf41	0.031089427
62	0xbe9bc980	-0.3042717
63	0xbbbb55db	-0.005717022
64	0x3d953e16	0.072872326
65	0x3f1146b4	0.5674851
66	0xbe558256	-0.208505
67	0x3b8220a2	0.0039711753
68	0xbd3735e5	-0.044729132
69	0xbe836840	-0.25665474
70	0xbdb0ab1b	-0.08626386
71	0x3f1f4f43	0.6223032
72	0x3dafe192	0.08587946
73	0x3e3eddb3	0.18639259
74	0xbf4f9e13	-0.8110058
75	0xbdc8521c	-0.09781286
76	0x3edfb94d	0.4369606
77	0x3c597dd8	0.013274632
78	0x3ef4f889	0.47845867
79	0x3d270024	0.04077162
80	0xbe334735	-0.17507632
81	0xbe940d59	-0.28916433
82	0x3e91082c	0.28326547
83	0x3e81721c	0.2528237
84	0xbd8f6c1b	-0.07003041
85	0xbe101f11	-0.14074351
86	0xbde17987	-0.110095076
87	0x3f111177	0.56667274
88	0xbcf0cfe8	-0.029396012
89	0x3f46f516	0.7771772
90	0xbe6a85ff	-0.22902678
91	0x3c95db33	0.018292999
92	0xbc51735a	-0.01278385
93	0x3dcb7f8d	0.09936438
94	0x3d6de90b	0.058083575
95	0xbd017778	-0.031608075
96	0x3fa40af5	1.2815844
97	0x3d3019a3	0.0429932
98	0xbcbcf355	-0.023065249
99	0xbd1cd323	-0.038287293
100	0x3e8b5ce7	0.27219316
101	0x3e30e153	0.17273454
102	0xbd86791b	-0.06566068
103	0x3b3a95a2	0.0028470536
104	0xbd4e36f0	-0.05034536
105	0xbe84251d	-0.25809565
106	0xbf273681	-0.6531754
107	0xbd3d0389	-0.04614595
108	0xbd4f3b8c	-0.050593898
109	0xbc8d3eb8	-0.01724182
110	0x3e43bbde	0.19114634
111	0xbdb9a6ff	-0.09065055
112	0xbd1366aa	-0.03598658
113	0x3b27ada5	0.0025585678
114	0x3c42b4d3	0.011883932
115	0x3f1fc534	0.62410283
116	0xbec9269c	-0.3928727
117	0x3ec557b6	0.3854348
118	0xbe86d07f	-0.26330945
119	0xbe45826c	-0.19288033
120	0xbcaed473	-0.021341538
121	0xbd1343e7	-0.03595343
122	0x3ca1c6d6	0.019748133
123	0xbd0af37e	-0.03392362
124	0xbbca3fd6	-0.0061721606
125	0xbb91a750	-0.004444994
126	0x3d517f28	0.051146656
127	0xbd206eec	-0.039168283
128	0xbdc81011	-0.097686894
129	0xbd860137	-0.065432005
130	0xbd42392a	-0.047417797
131	0xbc3516a6	-0.011052763
132	0xbd44e8a7	-0.048073437
133	0x3edbde45	0.42943016
134	0xbd0fd2ac	-0.03511302
135	0xbc2ac829	-0.010423698
136	0xbd562837	-0.052284446
137	0x3d0603d4	0.032718495
138	0xbc29362a	-0.010327855
139	0xbe24be97	-0.1608833
140	0xbddcde5d	-0.107846
141	0xbe028f6a	-0.1275002
142	0xbdfb5782	-0.1227255
143	0x3ef79044	0.48352253
144	0xbbb9e4c1	-0.0056730215
145	0x3cfd63c4	0.030931361
146	0xbc465dd5	-0.012107332
147	0xbea1096d	-0.31452504
148	0xbd8d9d65	-0.06914786
149	0xbddc753a	-0.10764547
150	0x3f5012e5	0.8127883
151	0xbed839c3	-0.4223157
152	0x3e02998d	0.12753887
153	0xbf001faa	-0.50048316
154	0x40148f36	2.321241
155	0x3dc06d91	0.09395898
156	0xbec3714e	-0.38172382
157	0x3f103694	0.5633328
158	0x40d8e863	6.7783675
159	0x3ec92bcb	0.39291224
160	0x3e5e317e	0.21698567
161	0x3d612809	0.05496982
162	0x3d32f3fe	0.04368972
163	0xbda51228	-0.08060104
164	0xbd0185ef	-0.03162187
165	0xbc8b3fa5	-0.016998122
166	0x3dc17b89	0.094473906
167	0x3d261adc	0.04055296
168	0x3c8fc476	0.017549735
169	0xbe9b3f6e	-0.3032183
170	0xbe2ae2ce	-0.16688082
171	0xbebc71b1	-0.3680549
172	0xbd8f838d	-0.07007513
173	0x3f5deaf2	0.86686623
174	0xbeb13e7f	-0.34617993
175	0xbe04002f	-0.12890695
176	0x3e9f4a87	0.31111547
177	0xbcaf5a3d	-0.021405334
178	0xbba78e58	-0.0051134042
179	0xbd81ec2f	-0.063438766
180	0xb98efc80	-0.00027272478
181	0xbd986ecb	-0.07443007
182	0x3e9945f9	0.29936197
183	0xbeba60ed	-0.36402074
184	0xbe135816	-0.14389071
185	0x3daa72ee	0.08322702
186	0x3d03fb19	0.032221887
187	0xbf0f3430	-0.55939007
188	0x3ecdc583	0.40189752
189	0x3d0dfcdb	0.03466497
190	0x4085c94c	4.1808224
191	0xbb6333db	-0.003466836
192	0x3d336f02	0.043807037
193	0xbd856570	-0.06513488
194	0xbcea1c7d	-0.028578037
195	0x3e768412	0.24073818
196	0xbd1e99bf	-0.038720842
197	0x40894980	4.290222
198	0x3fb2310b	1.3921217
199	0x40257d87	2.5857866
200	0x3b9822b0	0.004642807
201	0x3cade0bb	0.021225324
202	0xbd32e105	-0.043671627
203	0x3f14d14e	0.58131874
204	0x3f19d0b7	0.600841
205	0xbca4c3c2	-0.020112876
206	0x3db2a1bb	0.08722254
207	0xbe29f8b3	-0.16598777
208	0x4068f35e	3.639854
209	0xbe7bc5c3	-0.24587159
210	0xbe381f4e	-0.17980692
211	0xbd2275ec	-0.03966324
212	0x3e84fcc1	0.25974086
213	0x3bd2d0e0	0.0064335912
214	0x3eeb8a02	0.4600373
215	0x3bba841b	0.0056920177
216	0xbcdba9c4	-0.026814349
217	0xbd0e7c24	-0.03478636
218	0x3e2b21ff	0.16712187
219	0xbdbcb53b	-0.092142545
220	0x3e027615	0.12740357
221	0xbddb65be	-0.10712765
222	0xbd506068	-0.05087319
223	0x3c73aa52	0.0148721505
224	0x3da72c9e	0.08162807
225	0x3b223c37	0.002475513
226	0xbee2693b	-0.4422091
227	0xbcdbc3ff	-0.026826857
228	0xbd439613	-0.047750544
229	0x3ef16474	0.47146952
230	0x3cd1c03d	0.025604362
231	0xbca9e869	-0.020740705
232	0xbd5d058b	-0.053960364
233	0x3f43c128	0.7646661
234	0x3f0e7b29	0.5565668
235	0x3e60eed8	0.21966112
236	0xbefb3263	-0.4906188
237	0xbe1fc950	-0.15604138
238	0xbbd186d5	-0.006394247
239	0xbd932839	-0.07185406
240	0x402a9177	2.6651285
241	0x3eb3c3c0	0.35110283
242	0xbc72501a	-0.0147896055
243	0x3f7ff6f5	0.999862
244	0x3c3b7b17	0.011442921
245	0xbefba155	-0.49146524
246	0xbd9eb66f	-0.0774964
247	0xbdd321b3	-0.10309162
248	0xbf270fd3	-0.6525852
249	0x3f600a03	0.87515277
250	0xbdcdd8cd	-0.10051117
251	0x3c901ff7	0.017593367
252	0x3d84302c	0.064545006
253	0xbd89c9a4	-0.06727913
254	0xbcbd289f	-0.023090659
255	0xbe83ad07	-0.25717947

bias f4 [2]
0	0xbcfb2d54	-0.030661263
1	0xbca49e7a	-0.020095099
