exp_local/bc_multimodal/weights/6000.pt (torch, 272392 bytes, 6 tensors)

weight f4 [256, 2]
-0.138019 0.08443873 0.14643234 -0.024039248 -0.21043962 0.19646418 -0.056016795 0.12794375
0.19772127 0.18742706 0.02577542 -0.1092795 -0.09780058 0.18639578 0.007979426 -0.011155348
-0.12499311 -0.07721613 -0.18047026 0.002360185 -0.08934406 -0.11359685 0.015740149 0.32402012
-0.19787776 0.19272414 0.023545733 0.25631812 -0.070215546 -0.1148718 0.21787603 -0.07102764
-0.004057982 0.2879587 -0.05732794 -0.04920378 -0.10900022 0.003081853 -0.112161405 -0.079262406
-0.088476636 -0.03273508 -0.0062360633 -0.0145154325 -0.009793313 -0.06399562 -0.017512618 -0.047964074
0.050042413 -0.0787033 -0.0032960342 -0.028172607 0.09768244 0.060424197 -0.20158611 0.08597096
0.06830032 0.08504227 -0.22855929 -0.016553858 -0.06946934 -0.01748515 -0.13261525 0.10701819
0.019608872 0.19260594 -0.123464346 0.29566848 -0.065160245 -0.021645563 -0.18758097 -0.057936586
-0.028142473 -0.02078291 -0.04107774 -0.0647955 -0.15235573 0.10679275 0.21275964 -0.21759991
-0.6821745 -0.06908052 0.27774915 -0.13409692 0.053340416 0.36044434 0.25370055 -0.12590908
-0.14008583 -0.07616278 -0.17227851 0.012849042 -0.1217106 0.27840194 0.06320256 -0.15161335
-0.10301874 0.17549846 -0.07402583 -0.015657103 -0.17274196 0.1083901 0.006198708 0.12249772
-0.031227048 -0.09178193 -0.049492285 -0.007510131 -0.14624575 -0.081920676 0.03038348 0.20170431
-0.017042425 -0.12235671 0.19470096 -0.044151254 -0.015350427 0.0019756765 -0.21863067 -0.01999611
0.11401716 -0.01841066 0.13519032 0.18228965 0.0037754648 0.27266333 -0.021878952 -0.2052804
0.22785681 0.23077467 -0.4349551 -0.0026282026 0.0075179017 -0.0037444206 -0.014878313 -0.03139227
-0.03932688 -0.007264519 -0.063084595 -0.13973556 -0.086170234 -0.039065734 0.14567684 -0.10566263
-0.21661118 0.26645437 -0.09171949 -0.038821466 -0.05729125 0.13179803 -0.048941046 0.017758187
-0.16515017 0.11369064 -0.05439083 -0.07495418 -0.15428641 0.0034004021 0.19149773 -0.19328262
-0.13655008 -0.05603844 -0.024215054 -0.035283994 0.16872881 -0.18165247 0.024799975 -0.11328753
-0.08063612 -0.06059216 -0.08631393 -0.039744373 -0.015908811 -0.053860996 0.20930733 -0.14702517
-0.06153136 0.058159474 -0.063760616 -0.016916106 0.0012279439 -0.10666471 0.3078106 -0.08131626
-0.032795336 -0.19863512 -0.02204825 -0.005390316 -0.021368131 -0.062490836 -0.059115075 -0.002692182
-0.05744779 -0.15507847 -0.033369802 0.004406429 -0.049334925 -0.15906271 -0.058903437 -0.054609668
-0.20782183 -0.0296388 -0.006889955 0.009380211 0.0018038421 -0.115532435 -0.11911624 0.0031683391
0.003941617 0.22348109 -0.0108795725 -0.0029739817 -0.2510322 -0.008837281 -0.13854909 -0.07675895
0.093800016 -0.08661964 -0.035293985 -0.038950566 -0.12900063 -0.016132178 -0.76796556 -0.02056032
-0.043504626 0.020525917 0.17435783 -0.1890371 -0.0899611 -0.049013726 0.35421944 0.05301033
-0.039479457 -0.13524231 -0.15754344 -0.05090171 -0.21756282 -0.02068762 0.2563605 -0.2024401
-0.046401083 0.013705539 0.016353874 -0.104268156 0.1501424 0.11792562 0.23639962 0.071176395
0.12602547 -0.105996735 -0.15236859 -0.08281468 0.007826665 0.17279671 0.12696074 -0.013136011
00000000: da54 0dbe 36ee ac3d 5cf2 153e f5ed c4bc
00000010: 7c7d 57be e82d 493e de71 65bd b003 033e
00000020: 7277 4a3e e1ec 3f3e f926 d33c eecd dfbd
00000030: ac4b c8bd 89de 3e3e 23bc 023c ecc4 36bc
00000040: 63fc ffbd 7e23 9ebd 32cd 38be 55ad 1a3b
00000050: 05fa b6bd 77a5 e8bd 7cf1 803c f7e5 a53e
00000060: 78a0 4abe 7a59 453e fbe2 c03c 213c 833e
00000070: 2bcd 8fbd e841 ebbd e51a 5f3e f076 91bd
00000080: d2f8 84bb 536f 933e b4d0 6abd e789 49bd
00000090: 823b dfbd eaf8 493b e1b4 e5bd 5454 a2bd
000000a0: 3d33 b5bd 3815 06bd e457 ccbb 23d2 6dbc
000000b0: 2274 20bc 2310 83bd 9f76 8fbc fa75 44bd
000000c0: 46f9 4c3d 322f a1bd 4702 58bb 3dca e6bc
000000d0: bb0d c83d 5d7f 773d 976c 4ebe 8b11 b03d
000000e0: 0ae1 8b3d a42a ae3d 720b 6abe f59b 87bc
000000f0: f145 8ebd 043d 8fbc 4bcc 07be 5a2c db3d
00000100: c9a2 a03c 7e3a 453e e0da fcbd dc61 973e
00000110: bc72 85bd 0952 b1bc 3a15 40be ea4e 6dbd
00000120: 0b8b e6bc ec40 aabc 2241 28bd 81b3 84bd
00000130: 2403 1cbe 28b6 da3d aadd 593e 83d2 5ebe
00000140: fda2 2ebf 167a 8dbd 2335 8e3e b450 09be
00000150: 7b7b 5a3d 298c b83e 0ae5 813e 4fee 00be
00000160: a972 0fbe 3bfb 9bbd c769 30be ca84 523c
00000170: 6843 f9bd b38a 8e3e 5870 813d 8840 1bbe
00000180: 7dfb d2bd deb5 333e db9a 97bd 5343 80bc
00000190: 45e3 30be a1fb dd3d 881e cb3b 16e0 fa3d
000001a0: decf ffbc 2af8 bbbd 6cb8 4abd 8c17 f6bb
000001b0: 72c1 15be 07c6 a7bd c7e6 f83c 938b 4e3e
000001c0: 8e9c 8bbc 2896 fabd b05f 473e f2d7 34bd
000001d0: 5b80 7bbc 5a7a 013b b8e0 5fbe e2ce a3bc
000001e0: d481 e93d f4d1 96bc 556f 0a3e 23aa 3a3e
000001f0: ca6d 773b 879a 8b3e 7d3b b3bc 0635 52be
00000200: 4c53 693e 3250 6c3e 6fb2 debe ec3d 2cbb
00000210: bb58 f63b f464 75bb 2bc4 73bc 2e95 00bd
00000220: 3915 21bd 340b eebb 7f32 81bd d716 0fbe
00000230: 057a b0bd 6403 20bd 4f2c 153e a665 d8bd
00000240: 52cf 5dbe b56c 883e 6ed7 bbbd 4203 1fbd
00000250: 3baa 6abd 10f6 063e 6876 48bd 9e79 913c
00000260: 201d 29be a3d6 e83d ebc8 5ebd 9481 99bd
00000270: 42fd 1dbe 48d9 5e3b fb17 443e e1eb 45be
00000280: c9d3 0bbe 9088 65bd a65e c6bc f385 10bd
00000290: 3fc7 2c3e 1b03 3abe 5129 cb3c 4b03 e8bd
000002a0: 8d24 a5bd 7c2f 78bd 5cc5 b0bd ffca 22bd
000002b0: 3253 82bc 599d 5cbd a954 563e c48d 16be
000002c0: 4f08 7cbd a138 6e3d ed94 82bd a593 8abc
000002d0: f6f2 a03a 0773 dabd 5a99 9d3e 2489 a6bd
000002e0: 6754 06bd 0167 4bbe 889e b4bc 3fa1 b0bb
000002f0: 380c afbc 64f6 7fbd a622 72bd 526f 30bb
00000300: 604e 6bbd e4cc 1ebe c6ae 08bd ce63 903b
00000310: 6b13 4abd 56e1 22be bb44 71bd 63ae 5fbd
00000320: 3fcf 54be 12cd f2bc 22c5 e1bb 75af 193c
00000330: e66e ec3a 459c ecbd 37f3 f3bd e9a3 4f3b
00000340: ae28 813b 3ad8 643e 3c40 32bc 22e7 42bb
00000350: 4b87 80be 3eca 10bc d0df 0dbe cc33 9dbd
00000360: 391a c03d a365 b1bd 6d90 10bd a18a 1fbd
00000370: be18 04be a127 84bc 6499 44bf 1e6e a8bc
00000380: e831 32bd f825 a83c dc8a 323e f192 41be
00000390: 863d b8bd 9ec2 48bd 405c b53e 5c21 593d
000003a0: 36b5 21bd f67c 0abe 1153 21be 507e 50bd
000003b0: cac8 5ebe 1579 a9bc af41 833e 754c 4fbe
000003c0: 100f 3ebd 328d 603c 8ff8 853c 8b8a d5bd
000003d0: eebe 193e fd82 f13d be12 723e eec4 913d
000003e0: d20c 013e d114 d9bd 8306 1cbe be9a a9bd
000003f0: 6a3b 003c 9ff1 303e ff01 023e 6c38 57bc

bias f4 [256]
0.09789311 -0.0209759 0.021342088 -0.0049379407 -0.0901316 0.09724407 -0.026150273 -0.0059968163
0.15361837 0.0 0.1493576 -0.044853214 0.012952794 -0.113748156 0.0 0.026110042
-0.14436208 0.0 0.0 0.0 0.0 0.0 0.0 0.0
0.057139847 0.0 -0.023648648 0.08987834 -0.006145632 0.14708932 0.0 0.08182659
-0.009992687 -0.1368508 0.0 0.18792753 0.0 0.0 0.10168439 0.008735786
0.13115087 0.025336917 -0.20739068 0.018009726 0.23777883 0.2412987 -0.010926422 0.070275776
-0.0086714495 0.0 0.045094825 -0.0056549446 0.0 0.0 0.0 -0.09166046
0.0 -0.008377222 -0.010414561 0.15245806 -0.008541438 -0.012483841 -0.13602999 0.13137116
-0.105530635 0.21771774 -0.00810333 0.0 0.0 0.0 0.0 0.009975748
0.0068944558 0.0 -0.005261495 -0.013387238 0.0379526 0.0 0.1076595 0.0065099867
0.0 0.0 0.008332696 -0.017435491 0.0 0.0 0.0 0.047773335
0.033348743 0.0 -0.006005501 -0.0072246594 0.14057705 0.0 0.0 0.0
0.0 -0.011698954 0.13833705 0.0 0.16576484 -0.015885944 -0.008384949 -0.0065738126
-0.111371264 -0.010374779 0.12600686 0.23061992 0.04184674 0.0 0.0 0.07018567
-0.010373067 0.009101552 0.0 -0.033218596 0.0 0.16875641 0.32227796 0.018255617
-0.008843275 0.121129386 -0.009975937 -0.009538911 0.0091891 0.2583748 -0.008430814 -0.024689766
0.012833487 -0.009061471 0.0 0.22758868 0.0 0.16093409 -0.011770209 0.0
-0.006005506 -0.015008401 -0.019298412 0.15937307 0.083285354 -0.004760521 0.2555784 0.041406587
0.0 0.02668037 0.0 0.0 0.0 0.16920216 0.1788903 0.073548734
0.2310689 0.0 -0.14599632 0.0 -0.011030563 0.0 0.11010123 -0.08087624
-0.057772756 0.0 0.0012100574 0.004817139 -0.0074496698 0.18321574 0.0 -0.11270901
-0.12353048 0.013769125 -0.13662763 0.0 0.16165009 0.0 0.13142724 -0.012643249
-0.0030034683 0.19325793 0.0 -0.008362882 0.015118604 0.28434527 0.054612793 -0.008155185
-0.013143865 -0.030826757 0.0 -0.008021405 0.046119217 0.0 0.009493086 0.0
0.08669572 -0.0046497094 0.0 0.0 -0.03831894 -0.027348706 0.0 -0.012074586
-0.0044081938 0.0064055845 0.0 -0.103607595 0.0 -0.011692397 -0.018350743 0.2519515
0.1775464 0.13382982 -0.022086158 0.043792028 0.0 0.18245617 0.0 -0.007009766
0.0 0.0 0.010617083 0.03256182 0.0 0.0 0.0 -0.14194672
0.06362029 -0.010365824 0.0 0.13866626 0.0 0.057876803 0.0 -0.012210675
0.14843436 -0.007314463 0.0 -0.007791573 -0.024466503 -0.0143929105 -0.10135047 0.0
-0.010871598 0.0 0.0 -0.0058527654 -0.004684895 0.01843266 0.0 0.0
0.004514902 -0.00851225 0.02075056 0.135109 0.1559042 0.15547334 0.015443194 -0.04357122
00000000: 2f7c c83d a7d5 abbc 9ad5 ae3c 73ce a1bb
00000010: eb96 b8bd e627 c73d 1939 d6bc f180 c4bb
00000020: 224e 1d3e 0000 0000 33f1 183e 01b8 37bd
00000030: f537 543c cbf4 e8bd 0000 0000 bae4 d53c
00000040: a7d3 13be 0000 0000 0000 0000 0000 0000
00000050: 0000 0000 0000 0000 0000 0000 0000 0000
00000060: 790b 6a3d 0000 0000 cfba c1bc 2312 b83d
00000070: 4c61 c9bb 959e 163e 0000 0000 b394 a73d
00000080: 5eb8 23bc 9e22 0cbe 0000 0000 1370 403e
00000090: 0000 0000 0000 0000 e83f d03d 8b20 0f3c
000000a0: 6a4c 063e 5e8f cf3c 395e 54be 2289 933c
000000b0: 4b7c 733e 0217 773e bc04 33bc bfec 8f3d
000000c0: b212 0ebc 0000 0000 5ab5 383d 1d4d b9bb
000000d0: 0000 0000 0000 0000 0000 0000 7bb8 bbbd
000000e0: 0000 0000 9e40 09bc d6a1 2abc f71d 1c3e
000000f0: 63f1 0bbc 0689 4cbc 724b 0bbe 2986 063e
00000100: 7220 d8bd 66f1 5e3e d4c3 04bc 0000 0000
00000110: 0000 0000 0000 0000 0000 0000 5271 233c
00000120: e3ea e13b 0000 0000 9e68 acbb 2556 5bbc
00000130: 2f74 1b3d 0000 0000 957c dc3d ba51 d53b
00000140: 0000 0000 0000 0000 dc85 083c e0d4 8ebc
00000150: 0000 0000 0000 0000 0000 0000 f9ad 433d
00000160: b198 083d 0000 0000 cbc9 c4bb d6bc ecbb
00000170: 6ef3 0f3e 0000 0000 0000 0000 0000 0000
00000180: 0000 0000 f8ac 3fbc 3aa8 0d3e 0000 0000
00000190: 42be 293e 3d23 82bc 0661 09bc 2369 d7bb
000001a0: 9e16 e4bd fafa 29bc f107 013e a127 6c3e
000001b0: 7d67 2b3d 0000 0000 0000 0000 81bd 8f3d
000001c0: ccf3 29bc ad1e 153c 0000 0000 3910 08bd
000001d0: 0000 0000 7bce 2c3e 9e01 a53e ce8c 953c
000001e0: 62e3 10bc af12 f83d 1d72 23bc 1849 1cbc
000001f0: e18d 163c b449 843e 6621 0abc 3142 cabc
00000200: 8c43 523c 9076 14bc 0000 0000 020d 693e
00000210: 0000 0000 e8cb 243e d6d7 40bc 0000 0000
00000220: d6c9 c4bb cce5 75bc b417 9ebc b232 233e
00000230: 8391 aa3d 25fe 9bbb 2cdb 823e f499 293d
00000240: 0000 0000 cb90 da3c 0000 0000 0000 0000
00000250: 0000 0000 5543 2d3e 052f 373e b8a0 963d
00000260: 539d 6c3e 0000 0000 0f80 15be 0000 0000
00000270: 89b9 34bc 0000 0000 c17c e13d 71a2 a5bd
00000280: 20a3 6cbd 0000 0000 ca9a 9e3a 17d9 9d3b
00000290: 5c1c f4bb e89c 3b3e 0000 0000 fbd3 e6bd
000002a0: 8cfd fcbd e597 613c 1de8 0bbe 0000 0000
000002b0: 9a87 253e 0000 0000 dd94 063e a125 4fbc
000002c0: d6d5 44bb 68e5 453e 0000 0000 7804 09bc
000002d0: 05b4 773c b495 913e aab1 5f3d 539d 05bc
000002e0: 5e59 57bc 6588 fcbc 0000 0000 366c 03bc
000002f0: 81e7 3c3d 0000 0000 e388 1b3c 0000 0000
00000300: 878d b13d 975c 98bb 0000 0000 0000 0000
00000310: 52f4 1cbd 650a e0bc 0000 0000 7cd4 45bc
00000320: 9c72 90bb f0e5 d13b 0000 0000 3830 d4bd
00000330: 0000 0000 7891 3fbc 4c54 96bc c9ff 803e
00000340: b9ce 353e af0a 093e 08ee b4bc 455f 333d
00000350: 0000 0000 cad5 3a3e 0000 0000 2eb2 e5bb
00000360: 0000 0000 0000 0000 46f3 2d3c 8b5f 053d
00000370: 0000 0000 0000 0000 0000 0000 7b5a 11be
00000380: 5b4b 823d 6bd5 29bc 0000 0000 87fe 0d3e
00000390: 0000 0000 3a10 6d3d 0000 0000 480f 48bc
000003a0: 2dff 173e 2aae efbb 0000 0000 7450 ffbb
000003b0: fa6d c8bc 3ed0 6bbc d690 cfbd 0000 0000
000003c0: c91e 32bc 0000 0000 0000 0000 8ec8 bfbb
000003d0: bf83 99bb 1700 973c 0000 0000 0000 0000
000003e0: bef1 933b f776 0bbc 14fd a93c 045a 0a3e
000003f0: 5aa5 1f3e 6734 1f3e 7305 7d3c bc77 32bd

weight f4 [256, 256]
-0.016345738 -0.054417208 0.2891477 0.053602654 -0.10411504 0.09653782 -0.32654917 0.030237995
-0.17227186 0.007098401 0.21557575 0.051320493 0.2627825 0.12089552 -0.054040115 -0.010773792
0.0874889 -0.0931345 -0.093283296 -0.0028593487 -0.07599145 -0.054360263 -0.024995837 -0.08295835
0.049805377 0.09872451 0.10231245 -0.19795269 0.03350426 -0.3314293 0.08188423 0.12114811
-0.05945853 -0.47177076 -0.019772876 -0.28278002 0.08011844 0.06098102 0.03209858 0.15948315
-0.70878303 -0.055600498 0.014845025 -0.06706225 0.09471695 0.0019242871 -0.043930445 -0.1931452
-0.13154356 -0.060381517 -0.109916106 0.054308865 0.025597896 0.06247019 0.06158968 0.023510616
0.032635987 0.035330363 0.08122538 -0.4164507 -0.013282606 0.12336071 -0.06196872 0.12416239
-0.0015693508 0.73569053 0.08283338 0.026383663 0.033515163 0.08849414 0.008268904 -0.24399923
-0.35047287 0.02679681 -0.013508051 -0.02876603 0.030123467 -0.101953164 -0.09660038 0.23215258
0.0053079305 0.026599221 0.07262448 0.00222365 0.06032235 -0.057852276 -0.042670973 -0.059462775
0.019447075 -0.031353343 -0.04800015 -0.036395483 0.11396316 0.108527936 -0.06217682 0.089335054
0.05108992 -0.09653892 -0.0533211 0.21695301 -0.37304235 0.030697165 0.072716445 -0.030046802
-0.057130136 -0.066400714 0.38730398 0.04649813 0.14386812 -0.009065151 -0.021518677 -0.89916843
0.07315532 0.0017856497 -0.009294933 -0.02818214 -0.007441581 -0.29442757 0.18419935 -0.19974864
-0.0020082253 -0.020067615 0.06341737 -0.15905315 -0.07438486 -0.014857433 0.025332933 0.007364235
0.066056564 0.14163743 -0.026096027 -0.024421291 -0.09875993 0.18492429 0.28340596 0.07105235
-0.01581184 -0.19316389 0.02510581 0.06731794 -1.0290884 -0.03703719 0.067190245 -0.029063469
-0.028956316 -0.049243573 0.0024403618 -0.021863427 0.060027435 -0.055526555 -0.25846827 -0.015875902
0.21346375 0.020391524 -0.03223543 0.07069966 0.034951948 -0.0006684256 -0.48486552 0.079698354
-0.012910939 0.07222855 0.26553962 0.10748558 0.13982333 -0.34184572 -0.09952375 -0.054206464
0.069996476 -0.13383538 -0.04564693 -0.027557159 -0.1551829 0.075332865 0.11813602 0.0064557865
0.07005116 0.04809486 0.00424427 -0.0015437384 -0.052359827 0.0809275 0.053991765 0.003148923
0.058441386 -0.08809165 -0.046752356 0.08131374 0.104114644 -0.029499475 0.07862197 -0.031143542
-0.010315399 0.012909417 -0.09419253 -0.056582883 0.033158228 0.0053770673 0.037930153 0.39103904
0.04098474 0.0015495588 -0.051407643 0.009451094 -0.0508968 0.062530294 -0.24541956 0.15498003
-0.18110618 -0.14573866 0.07533852 0.10074627 0.01791748 0.067186415 -0.009732967 0.04261708
-0.062094804 -0.027409432 0.17661698 0.035949383 0.049814925 0.0077666063 -0.039436776 -0.35617864
-0.73833877 -0.19094402 -0.06440899 0.49785015 0.0065293983 0.07354137 -0.02840205 0.07028337
0.08251274 0.0035882613 0.15326896 -0.119783066 -0.04979571 -0.054884274 -0.036469784 -0.060838003
0.016885208 0.058300383 -0.011160482 -0.06647699 -0.029368304 0.019255636 -0.043401137 0.07928218
-0.31953382 -0.015874874 0.03418318 -0.025096724 0.57923967 -0.32172355 -0.1149591 -0.021525225
00000000: 7fe7 85bc 94e4 5ebd 2b0b 943e 758e 5b3d
00000010: 443a d5bd 9fb5 c53d 7431 a7be acb5 f73c
00000020: 0968 30be b499 e83b e4bf 5c3e 7035 523d
00000030: 6e8b 863e 1298 f73d 2b59 5dbd 8f84 30bc
00000040: 612d b33d 4dbd bebd 500b bfbd e963 3bbb
00000050: 68a1 9bbd dea8 5ebd 12c4 ccbc 11e6 a9bd
00000060: b900 4c3d 1330 ca3d 3189 d13d 1cb4 4abe
00000070: c33b 093d 1ab1 a9be ebb2 a73d 801c f83d
00000080: ca8a 73bd f08b f1be bafa a1bc 8bc8 90be
00000090: 2315 a43d 3cc7 793d cd79 033d 8d4f 233e
000000a0: ce72 35bf 59bd 63bd 8c38 733c ef57 89bd
000000b0: f6fa c13d 5c38 fc3a 69f0 33bd dbc7 45be
000000c0: 5bb3 06be 9c52 77bd b21b e1bd f972 5e3d
000000d0: aeb2 d13c bee0 7f3d 7645 7c3d 5699 c03c
000000e0: 50ad 053d 92b6 103d 7e59 a63d 0739 d5be
000000f0: 4a9f 59bc 8aa4 fc3d ead2 7dbd da48 fe3d
00000100: adb2 cdba 3756 3c3f 8ca4 a93d 8d22 d83c
00000110: 3247 093d 6a3c b53d 4c7a 073c efda 79be
00000120: 2e71 b3be fc84 db3c df50 5dbc bda6 ebbc
00000130: 7dc5 f63c d2cc d0bd 6cd6 c5bd 68b9 6d3e
00000140: 26ee ad3b 9ce6 d93c 25bc 943d a8ba 113b
00000150: 9214 773d 82f6 6cbd c2c7 2ebd 3d8f 73bd
00000160: 794f 9f3c 5d6c 00bd ce9b 44bd 6e13 15bd
00000170: 8465 e93d e543 de3d 1fad 7ebd 4cf5 b63d
00000180: aa43 513d 33b6 c5bd 3a67 5abd ee28 5e3e
00000190: 68ff bebe 9f78 fb3c 5cec 943d b624 f6bc
000001a0: 4a01 6abd 19fd 87bd b54c c63e d374 3e3d
000001b0: 2a52 133e 0086 14bc f047 b0bc e72f 66bf
000001c0: 75d2 953d 760c ea3a c649 18bc 3bde e6bc
000001d0: 82d8 f3bb 36bf 96be c19e 3c3e e88a 4cbe
000001e0: 6e9c 03bb d764 a4bc f7e0 813d d4de 22be
000001f0: 1757 98bd 976c 73bc 0387 cf3c ae4f f13b
00000200: aa48 873d 6709 113e 56c7 d5bc 290f c8bc
00000210: a542 cabd cb5c 3d3e 961a 913e e583 913d
00000220: d587 81bc c1cc 45be b3aa cd3c fddd 893d
00000230: 2bb9 83bf 4fb4 17bd 0a9b 893d 8316 eebc
00000240: cc35 edbc a1b3 49bd 7aee 1f3b ee1a b3bc
00000250: 54df 753d d06f 63bd f455 84be 2e0e 82bc
00000260: 3e96 5a3e 200c a73c 4c09 04bd fcca 903d
00000270: c629 0f3d 4839 2fba 4b40 f8be e438 a33d
00000280: 6788 53bc 90ec 933d cff4 873e 6621 dc3d
00000290: d92d 0f3e 6706 afbe 1cd3 cbbd 9907 5ebd
000002a0: 505a 8f3d 240c 09be 46f8 3abd 8dbf e1bc
000002b0: 44e8 1ebe 1e48 9a3d 4cf1 f13d 108b d33b
000002c0: fc76 8f3d 1eff 443d 8413 8b3b 4457 caba
000002d0: 4277 56bd 51bd a53d 7826 5d3d 295e 4e3b
000002e0: 3c60 6f3d 6569 b4bd 667f 3fbd d187 a63d
000002f0: 0f3a d53d e2a8 f1bc 8e04 a13d be20 ffbc
00000300: eb01 29bc 0582 533c 03e8 c0bd 74c3 67bd
00000310: ecd0 073d 1c32 b03b a65c 1b3d 4536 c83e
00000320: 9ddf 273d 911a cb3a d290 52bd c3d8 1a3c
00000330: 2a79 50bd e20f 803d 444f 7bbe 16b3 1e3e
00000340: e673 39be 843c 15be 154b 9a3d 0f54 ce3d
00000350: aec7 923c 0899 893d 0677 1fbc 3f8f 2e3d
00000360: 1f57 7ebd bf89 e0bc 15db 343e a93f 133d
00000370: bc0a 4c3d 047f fe3b 7588 21bd 0c5d b6be
00000380: c503 3dbf d486 43be dce8 83bd 37e6 fe3e
00000390: 90f4 d53b dc9c 963d 6aab e8bc baf0 8f3d
000003a0: 70fc a83d 0929 6b3b 8af2 1c3e d350 f5bd
000003b0: 96f6 4bbd 55ce 60bd 5761 15bd 4531 79bd
000003c0: d952 8a3c 62cc 6e3d 74da 36bc 1725 88bd
000003d0: cc95 f0bc ffbd 9d3c 64c5 31bd b25e a23d
000003e0: f099 a3be 060c 82bc aa03 0c3d a597 cdbc
000003f0: 0d49 143f f3b8 a4be ad6f ebbd ab55 b0bc

bias f4 [256]
0.03532374 0.07041105 0.0 -0.15036316 0.027865173 -0.06319844 -0.01489635 0.04390734
-0.018129913 -0.011342817 -0.0065106587 -0.013297534 0.0 -0.013520376 -0.008638127 -0.032861695
0.008088384 0.023155006 0.044454206 0.03499169 0.03275722 0.10466494 0.12672499 0.049498446
-0.014768738 0.0745707 0.07491258 -0.01150073 -0.0063768798 0.030051464 0.057825547 0.037882764
-0.010814502 -0.021377519 0.0 0.028776353 0.09569134 0.037930176 -0.007293656 0.030742733
0.02804548 0.031036755 0.031968873 0.0 -0.023275515 0.0143692205 -0.007927953 -0.07591522
-0.01788228 0.17124666 0.030334549 0.108834736 -0.014007051 -0.035153903 -0.0066752653 0.011143111
-0.008768708 0.02808387 0.15433885 -0.01253442 -0.024671149 -0.01353776 0.028141333 -0.021248493
0.0 0.05339421 0.03366214 -0.012119946 -0.0064140344 0.03777352 -0.014014836 0.09282148
0.0 0.0133406585 -0.06126169 0.02683751 0.05017513 -0.008456991 0.013255908 -0.031237917
0.031593964 0.081915095 0.04499234 0.13775799 -0.008750331 0.0 0.030339641 0.05527094
0.0 0.02480372 0.02837356 0.022423008 -0.017278902 0.03965636 0.0 -0.015710307
0.030298932 -0.008364894 -0.009607688 -0.019142037 0.057867587 0.0101094 0.0 -0.010749198
-0.008570295 0.04222879 0.099188246 -0.009475936 -0.0157472 -0.011866879 0.16249527 -0.0139383245
-0.010269461 -0.01044081 -0.011448785 0.058426723 -0.0026534325 0.016327923 0.03636458 0.026078524
-0.015860857 -0.0107501885 0.0 -0.013886345 0.0 0.0 -0.013615709 -0.0104375
-0.006608271 -0.01000915 -0.010384219 0.0 -0.015512236 0.019751545 -0.016302966 -0.0068314965
-0.009674865 0.0 -0.009166597 0.036347058 0.0 -0.0106215095 -0.006005508 0.031175224
-0.0130240265 -0.0061760647 -0.009031395 -0.0050765774 -0.0152828265 -0.012289843 0.024149276 -0.0009987146
0.0109326085 0.005180376 0.011120439 0.030123323 0.00056411827 0.0867724 0.035042975 0.036338925
0.043612823 -0.013688757 -0.015883159 0.0 -0.012003189 -0.013993882 0.027276667 -0.00271004
-0.011570298 0.035797518 0.026675077 0.0029627054 -0.00793839 0.0709104 0.03912531 0.06732948
0.010784651 -0.01513538 0.0 -0.010731343 -0.019750237 0.018951703 0.112961605 0.03487151
0.031891204 -0.022563692 -0.025079211 0.10925924 0.05138391 -0.008406725 0.031322226 -0.012514938
0.023482863 -0.013916919 -0.00760462 0.01433667 -0.013676303 0.027638765 0.016653134 0.019480154
-0.0060138423 -0.008240102 -0.013100067 0.07121094 0.018032989 -0.009568421 -0.011230808 0.035395272
0.020854414 0.038515568 0.025228085 -0.011655441 0.014970404 0.046121936 0.027735505 -0.009052228
-0.0052287616 -0.0060055037 -0.0038765986 -0.011279879 0.028528234 -0.005533847 -0.01903856 -0.01093025
0.0 0.0 0.04828011 0.0 -0.008194383 0.019182708 -0.012740284 0.0
-0.011013724 0.10263567 0.04255321 0.010573095 0.13375917 0.07072173 -0.0091108 -0.014138682
0.012231742 0.14605512 -0.029599385 0.017885296 -0.008829674 -0.014365788 -0.00872024 -0.012824168
0.10137085 0.029414687 -0.008206908 -0.012422696 0.0 -0.009397278 0.03304961 0.029213302
00000000: a0af 103d ab33 903d 0000 0000 cdf8 19be
00000010: 8145 e43c 2f6e 81bd d20f 74bc 2fd8 333d
00000020: 2f85 94bc 39d7 39bc 5d57 d5bb e6dd 59bc
00000030: 0000 0000 9184 5dbc ee86 0dbc fc99 06bd
00000040: 2485 043c 91af bd3c 9d15 363d 7253 0f3d
00000050: 6f2c 063d 925a d63d 32c4 013e e2be 4a3d
00000060: 94f8 71bc 86b8 983d c46b 993d 8f6d 3cbc
00000070: 25f5 d0bb 7d2e f63c 7bda 6c3d f52a 1b3d
00000080: 4f2f 31bc e81f afbc 0000 0000 63bc eb3c
00000090: d2f9 c33d ac5c 1b3d 9fff eebb 2fd8 fb3c
000000a0: a2bf e53c cb40 fe3c cbf1 023d 0000 0000
000000b0: 4bac bebc e16c 6b3c 3fe4 01bc 7079 9bbd
000000c0: dc7d 92bc 495b 2f3e 2980 f83c bfe4 de3d
000000d0: d47d 65bc 8afd 0fbd 2fbc dabb 9891 363c
000000e0: a1aa 0fbc 2510 e63c 010b 1e3e 2b5d 4dbc
000000f0: 261b cabc 7bcd 5dbc a788 e63c 5211 aebc
00000100: 0000 0000 e3b3 5a3d 50e1 093d bd92 46bc
00000110: d22c d2bb 68b8 1a3d 7c9e 65bc 3019 be3d
00000120: 0000 0000 c792 5a3c 8aed 7abd 56da db3c
00000130: 7084 4d3d 318f 0abc 4f2f 593c a9e6 ffbc
00000140: ac68 013d 1ac3 a73d e349 383d 6e10 0d3e
00000150: 8c5d 0fbc 0000 0000 d78a f83c c863 623d
00000160: 0000 0000 2c31 cb3c ab6f e83c 75b0 b73c
00000170: 7c8c 8dbc b56e 223d 0000 0000 e7b2 80bc
00000180: 7735 f83c e90c 09bc 9069 1dbc c3cf 9cbc
00000190: 9006 6d3d e6a1 253c 0000 0000 671d 30bc
000001a0: 6c6a 0cbc 18f8 2c3d 3523 cb3d f540 1bbc
000001b0: 4600 81bc 4c6d 42bc 2965 263e 925d 64bc
000001c0: 3e41 28bc ee0f 2bbc af93 3bbc dc50 6f3d
000001d0: 36e5 2dbb 23c2 853c 07f3 143d a1a2 d53c
000001e0: a1ee 81bc 8f21 30bc 0000 0000 8d83 63bc
000001f0: 0000 0000 0000 0000 6c14 5fbc 0c02 2bbc
00000200: 328a d8bb 6bfd 23bc 9222 2abc 0000 0000
00000210: 0927 7ebc fecd a13c cc8d 85bc bfda dfbb
00000220: 5383 1ebc 0000 0000 7f2f 16bc a7e0 143d
00000230: 0000 0000 d705 2ebc dac9 c4bb 2f63 ff3c
00000240: ba62 55bc 9660 cabb 6bf8 13bc 6b59 a6bb
00000250: d264 7abc 565b 49bc b4d4 c53c 4de7 82ba
00000260: af1e 333c 25c0 a93b 8032 363c 30c5 f63c
00000270: 56e1 133a bab5 b13d 3989 0f3d 20d8 143d
00000280: 5ca3 323d cf46 60bc 661d 82bc 0000 0000
00000290: 06a9 44bc 9846 65bc 5173 df3c ed9a 31bb
000002a0: 5991 3dbc 6ba0 123d b185 da3c f329 423b
000002b0: 0510 02bc 7939 913d dc41 203d 0ae4 893d
000002c0: 1bb2 303c 63fa 77bc 0000 0000 84d2 2fbc
000002d0: 40cb a1bc 9a40 9b3c 6a58 e73d 6ed5 0e3d
000002e0: 5aa0 023d 7ed7 b8bc eb72 cdbc 4fc3 df3d
000002f0: ef77 523d 5cbc 09bc bc4b 003d 740b 4dbc
00000300: 225f c03c ca03 64bc 2d30 f9bb 5ae4 6a3c
00000310: 9312 60bc b16a e23c 276c 883c d894 9f3c
00000320: c40f c5bb 7e01 07bc aaa1 56bc 0bd7 913d
00000330: ebb9 933c dec4 1cbc 6c01 38bc a2fa 103d
00000340: e0d6 aa3c 80c2 1d3d 21ab ce3c 76f6 3ebc
00000350: 6d46 753c 5bea 3c3d 9235 e33c cc4f 14bc
00000360: 0856 abbb d1c9 c4bb 880e 7ebb 3ecf 38bc
00000370: 0bb4 e93c 4655 b5bb c1f6 9bbc cb14 33bc
00000380: 0000 0000 0000 0000 5dc1 453d 0000 0000
00000390: bc41 06bc 0e25 9d3c a0bc 50bc 0000 0000
000003a0: e872 34bc a632 d23d 464c 2e3d c63a 2d3c
000003b0: 2af8 083e 8ed6 903d 7745 15bc eea5 67bc
000003c0: a567 483c 798f 153e 697a f2bc 2f84 923c
000003d0: 56aa 10bc 7b5e 6bbc 56df 0ebc 761c 52bc
000003e0: 859b cf3d 12f7 f03c 4476 06bc 9088 4bbc
000003f0: 0000 0000 0af7 19bc 075f 073d bc50 ef3c

weight f4 [2, 256]
0.3759774 0.79187495 -0.09649024 -1.1213956 -0.12764242 -0.31488568 -0.04672931 -0.34318534
0.030287964 -0.077564895 -0.1061276 -0.061861765 -0.02671362 -0.05050905 -0.08486654 -0.69272166
0.3029739 -0.42294246 0.6555312 -0.4426885 0.55689496 -0.6494704 0.16120243 -0.061059166
-0.051304184 -0.52525026 -0.13644025 -0.10311293 0.06401446 -0.11008548 0.5296711 0.74209297
-0.12450673 0.52826405 -0.091556124 0.92348367 0.26601073 -0.289026 -0.048194334 -0.27594903
0.90567774 -0.029480912 0.79851145 -0.025318984 0.024503127 0.27853808 0.022550328 -0.8532586
-0.051125888 0.37550816 0.43887806 -0.5363957 0.02873677 -0.1125237 0.01012982 -0.45956028
0.09362834 0.48422486 0.4630996 -0.0114285825 0.10988131 0.031089427 -0.32042474 -0.005717022
0.072872326 0.7051601 -0.24868363 0.0037176753 -0.044729132 -0.30703574 -0.08626386 0.6222943
0.08587946 0.29624522 -0.82301027 -0.16500196 0.5584625 0.013274632 0.39403167 0.04077162
-0.23442245 -0.2850693 0.22244555 0.27401698 -0.07003041 -0.14074351 -0.18436182 0.6377031
-0.029396012 0.7416027 -0.26878732 -0.042996805 -0.01278385 0.055390894 0.058083575 -0.031608075
1.0204972 0.0429932 -0.023065249 -0.038287293 0.23489517 0.3288919 -0.06566068 0.0028470536
-0.05034536 -0.32354695 -0.62089604 -0.04614595 -0.050593898 -0.01724182 0.22404194 -0.06580999
-0.03598658 0.0025585678 0.011883932 0.5982539 -0.36152136 0.48573205 -0.31516892 -0.3245236
-0.021341538 -0.03595343 0.019748133 -0.03392362 -0.0061721606 -0.004444994 0.051146656 -0.039168283
-0.097686894 -0.065432005 -0.047417797 -0.04244222 -0.048073437 0.34961876 -0.03511302 -0.010423698
-0.052284446 0.032718495 -0.010327855 -0.22723915 -0.107846 -0.1275002 -0.1227255 0.6299784
-0.0056730215 0.030931361 -0.012107332 -0.37396947 -0.06914786 -0.10764547 0.6417576 -0.39187038
0.28927583 -0.51476264 0.49855202 0.025121877 -0.35286152 0.545833 2.3009963 0.44419515
0.17714104 0.05496982 0.04368972 -0.05749417 -0.03162187 -0.016998122 0.050316386 0.04055296
0.017549735 -0.3376839 -0.21715832 -0.33187172 -0.07007513 0.8138727 -0.37674266 -0.12639628
0.40434346 -0.066224955 -0.0051134042 -0.063438766 0.0012901085 -0.14073823 0.29729939 -0.4184467
-0.18519378 0.08322702 0.032221887 -0.5485726 0.46324664 0.03466497 1.0436502 -0.003466836
-0.027262865 -0.06513488 -0.028578037 0.4035302 -0.03883006 0.6295677 0.5533981 1.1189919
0.004642807 0.021225324 -0.043671627 0.55625814 0.37607887 -0.020112876 0.08722254 -0.22764194
0.82277435 -0.3139839 -0.22188142 -0.03966324 0.33830112 -0.04886361 0.44477475 0.0056920177
-0.026814349 -0.03478636 0.22025599 -0.092142545 0.064400434 -0.10712765 -0.05087319 0.0148721505
0.08162807 0.002475513 -0.41476843 -0.026826857 -0.047750544 0.5539283 0.025604362 0.012705429
-0.053960364 0.76099133 0.5067879 0.31711018 -0.48025474 -0.17677635 -0.006394247 -0.07185406
0.5062758 0.36994404 -0.0147896055 0.63236195 0.011442921 -0.5120693 -0.0774964 -0.10309162
-0.6399362 0.51229805 -0.13086961 0.017593367 0.064545006 -0.06727913 -0.066667184 -0.27856627
00000000: 1c80 c03e 51b8 4a3f ad9c c5bd e489 8fbf
00000010: b2b4 02be b238 a1be 3c67 3fbd fdb5 afbe
00000020: 771e f83c 58da 9ebd 6d59 d9bd c362 7dbd
00000030: 86d6 dabc 94e2 4ebd 82ce adbd 3556 31bf
00000040: 651f 9b3e ea8b d8be e5d0 273f 11a8 e2be
00000050: ab90 0e3f b143 26bf 4012 253e 2d19 7abd
00000060: 5624 52bd cd76 06bf feb6 0bbe df2c d3bd
00000070: 031a 833d 7f74 e1bd 8698 073f cef9 3d3f
00000080: 62fd febd 503c 073f c781 bbbd 6d69 6c3f
00000090: 8f32 883e 37fb 93be 6c67 45bd 3149 8dbe
000000a0: 7fda 673f f481 f1bc 3f6b 4c3f c269 cfbc
000000b0: c8ba c83c 8b9c 8e3e 77bb b83c 286f 5abf
000000c0: 6169 51bd 9b42 c03e a0b4 e03e 3b51 09bf
000000d0: 6069 eb3c d372 e6bd 8bf7 253c 7c4b ebbe
000000e0: 37c0 bf3d 52ec f73e 641b ed3e f33e 3bbc
000000f0: 7409 e13d 41af fe3c b60e a4be db55 bbbb
00000100: 163e 953d 5f85 343f eca6 7ebe 3ea4 733b
00000110: e535 37bd ca33 9dbe 1bab b0bd ae4e 1f3f
00000120: 92e1 af3d 74ad 973e cdb0 52bf 46f6 28be
00000130: 66f7 0e3f d87d 593c 85be c93e 2400 273d
00000140: 700c 70be 9af4 91be c4c8 633e f44b 8c3e
00000150: 1b6c 8fbd 111f 10be 58c9 3cbe 8340 233f
00000160: e8cf f0bc add9 3d3f 7e9e 89be 6b1d 30bd
00000170: 5a73 51bc 90e1 623d 0be9 6d3d 7877 01bd
00000180: a79f 823f a319 303d 55f3 bcbc 23d3 1cbd
00000190: 5c88 703e 8564 a83e 1b79 86bd a295 3a3b
000001a0: f036 4ebd f2a7 a5be 0bf3 1ebf 8903 3dbd
000001b0: 8c3b 4fbd b83e 8dbc 406b 653e 63c7 86bd
000001c0: aa66 13bd a5ad 273b d3b4 423c 2b27 193f
000001d0: 5419 b9be dfb1 f83e d25d a1be f527 a6be
000001e0: 73d4 aebc e743 13bd d6c6 a13c 7ef3 0abd
000001f0: d63f cabb 50a7 91bb 287f 513d ec6e 20bd
00000200: 1110 c8bd 3701 86bd 2a39 42bd e5d7 2dbd
00000210: a7e8 44bd 3b01 b33e acd2 0fbd 29c8 2abc
00000220: 3728 56bd d403 063d 2a36 29bc 61b1 68be
00000230: 5dde dcbd 6a8f 02be 8257 fbbd 4446 213f
00000240: c1e4 b9bb c463 fd3c d55d 46bc ed78 bfbe
00000250: 659d 8dbd 3a75 dcbd 3a4a 243f 3ca3 c8be
00000260: f61b 943e 7cc7 03bf 3642 ff3e 65cc cd3c
00000270: 44aa b4be b6bb 0b3f 8643 1340 8c6d e33e
00000280: 7664 353e 0928 613d fef3 323d 027f 6bbd
00000290: ef85 01bd a53f 8bbc 8e18 4e3d dc1a 263d
000002a0: 76c4 8f3c e7e4 acbe c05e 5ebe 17eb a9be
000002b0: 8d83 8fbd f659 503f 6ae4 c0be 076e 01be
000002c0: 1b06 cf3e f3a0 87bd 588e a7bb 2fec 81bd
000002d0: dc18 a93a af1d 10be a037 983e a53e d6be
000002e0: 70a3 3dbe ee72 aa3d 19fb 033d 416f 0cbf
000002f0: aa2e ed3e dbfc 0d3d 5496 853f db33 63bb
00000300: 5f56 dfbc 7065 85bd 7d1c eabc 839b ce3e
00000310: 450c 1fbd 592b 213f 7fab 0d3f 203b 8f3f
00000320: b022 983b bbe0 ad3c 05e1 32bd ef66 0e3f
00000330: 698d c03e c2c3 a4bc bba1 b23d f81a 69be
00000340: 57a1 523f 7fc2 a0be e234 63be ec75 22bd
00000350: ce35 ad3e 3525 48bd 84b9 e33e 1b84 ba3b
00000360: c4a9 dbbc 247c 0ebd c98a 613e 3bb5 bcbd
00000370: 60e4 833d be65 dbbd 6860 50bd 52aa 733c
00000380: 9e2c a73d 373c 223b 875c d4be ffc3 dbbc
00000390: 1396 43bd 3fce 0d3f 3dc0 d13c 6f2a 503c
000003a0: 8b05 5dbd 54d0 423f dabc 013f 445c a23e
000003b0: f3e3 f5be dc04 35be d586 d1bb 3928 93bd
000003c0: 4a9b 013f 4e69 bd3e 1a50 72bc 79e2 213f
000003d0: 177b 3b3c f916 03bf 6fb6 9ebd b321 d3bd
000003e0: dcd2 23bf f725 033f af02 06be f71f 903c
000003f0: 2c30 843d a4c9 89bd ce88 88bd 3da0 8ebe

bias f4 [2]
-0.008181119 -0.0055423398
00000000: 1a0a 06bc 849c b5bb
