exp_local/bet_fixed/weights/22000.pt (torch, 296700 bytes, 9 tensors)

weight f4 [256, 2]
00000000: 8004 6abc bcb6 9fbd 47c5 2dbd 923e afba
00000010: 92f6 aabc c141 663c 2e07 eebd 128a 4abd
00000020: ebbd 00bd 2bba 0abd e318 a5bf 1e0c 823f
00000030: d2d6 8b3d bad3 dabd 5613 dcbd a78e 1dbd
00000040: 7b7b 2cbd 31ad fbbd 4a78 a9bd 1f53 0ebe
00000050: f01b 51bc 4759 07bd 9364 01bd 767a 693c
00000060: 0adb 1dbd 99c1 193d 98e1 863c 4765 c3bd
00000070: c4ac 16bd 8421 9bbd db67 1abc 3125 5bbd
00000080: 92df ea3c 1ade b3bd 5fe8 bfbf 0739 13be
00000090: 668e 86bc 9459 52bd fa72 a2be d267 ad3f
000000a0: 3be5 43bd 3e25 f2bd d3ac 97bc 38ae e0bd
000000b0: 84b5 24bc de5f 90bd 959c 4abd 62cb 5fbc
000000c0: 20f2 563d 5fb5 a2bd 79ee 76bc 6ca2 27be
000000d0: eb9c 2ac0 c802 1b3f 5cdf 59bc 714d 1ebd
000000e0: 62e6 20bf 385c 553e 1b38 8bbc 9807 24bd
000000f0: 1173 2fbc efd4 1cbd 3dd6 71bd d4ea 3ebc
00000100: 8610 8fbd c288 e93c 757d e2bc 5f5d 62bd
00000110: bca7 aabd 1258 a6bd b90f 9a3f b976 233f
00000120: 6aa7 abbd e697 8cbc e595 c8bb f2bb 28be
00000130: f42a 82bd e165 b0bd 0d85 b4bc 13d9 5ebc
00000140: 8377 95bc fe6a 25bd 64b2 7fbd 4eaa 6fbd
00000150: 3c17 86be c575 3a3f 49bb d1bd 4c73 69bd
00000160: af6a 933f 0e37 c43d b4fa 3bbe b962 a0bd
00000170: bc2b 02be cce9 253d 2c41 2f3d a0ba dfbc
00000180: cb19 6cbd a8ce 21bd 6eaa c2bb f730 c8bd
00000190: 3ef8 d1bd 8619 39bd f5ea 19bd 0227 593d
000001a0: 619a 0bbe aaa1 19bd 68ba b6bd 3cc7 7abb
000001b0: 3865 c8bd 3dad 223d b890 a1bd 553f a73c
000001c0: 8846 c8be aa7b b03d 24ad eebd 84af 40ba
000001d0: 9938 2dbe 1c1c dbbb 1d81 9dbd 9669 4abd
000001e0: 5fac 55be 1651 da3c df34 84bd 3486 b1bc
000001f0: cf6c 233d c6c0 56bd 5069 c7bc 6ce8 a7bd
00000200: e976 b3bc 9698 fabd 4906 603b 311b d0bc
00000210: a3da f7bc 527d 1f3d d5a9 843b 220d 6ebc
00000220: 05d1 783c f634 09be 9caf 99bd dde9 c6bc
00000230: b911 06c0 a4a2 a73d 98ff ffbd 94d5 1ebd
00000240: 684d dfbc d3d4 cabc b78a 3c3d d320 083b
00000250: a893 0ebd ca04 bfbd 0cc5 1cbd dd82 94bc
00000260: 2f2a 11bc 4bee afbd 77e0 cabf 7925 8e3e
00000270: 52a0 98bd a5a3 04bd aa77 e0bd a3fd 3cbd
00000280: 11b6 b4bd 0135 0ebd c57b 72bd 754d f3bc
00000290: d826 a1bc 525b f9bd 5e5b 473e 47c3 2b3f
000002a0: a7fd abb9 66f0 b4bd a732 97bb c899 bcbb
000002b0: ff5f 393d e6c8 cdbd f1f9 e13b 33f0 ec3c
000002c0: bdd3 353e 1bd8 0fbe 39bc ca3c 87d7 ebbd
000002d0: 7c3b 49bc 4791 bbbd 1878 b0bd b183 073c
000002e0: 0783 d5bd eef2 c4b8 5475 45bd 2420 bcbd
000002f0: 5a76 a2bd 1acf 1bbd ed27 e6bc 4742 a8bd
00000300: 9d3f 313d 3341 d7bd bf59 6ebd b0e3 a0bc
00000310: 550f 7abd f1d7 15bd 360e 693f 0605 963f
00000320: 160e cb3e 9fdf b5bf 6bbd 9cbc 8e72 babd
00000330: adf1 33be 2df4 d5bb 6c83 18bc 6ba1 053e
00000340: 57f7 61bc 4117 2ebe 7d4a 95bd d610 48bd
00000350: 6875 333c 6c5c 20bd c012 4bbc 51c7 ecbd
00000360: 899e fa3e 6878 e7bf 4bda a2bd 75c1 3dbd
00000370: b25f 883f 44a6 ebbe 48bf 05be 8142 323c
00000380: 80d9 72bd 842f 15bd 2f57 2bbd 3bfe 54bd
00000390: 671f 7fbd 6de3 003d 6d24 90bd 064c cf3c
000003a0: d3b7 1d3c d033 59bd 2e9e 26bd 15d6 a2bd
000003b0: 5de9 0abd 49c3 31bd 964c 92be 98c8 993f
000003c0: daa6 4ebc f910 5dbd 133e 833c f94f 8fbd
000003d0: 0db8 1cbd f54f a2bd 7aa0 273d dd53 86bd
000003e0: e00d 38be 941b 9a3d 47c7 cfbc 8e3d 83bd
000003f0: 5684 f1bd 9a2a 6ebd b100 24bb 9a43 e4bb
-0.014283299 -0.07798526 -0.042424466 -0.0013370088 -0.020869527 0.014053763 -0.11622463 -0.04944808
-0.03143112 -0.03386895 -1.289822 1.0159948 0.06828083 -0.10684915 -0.107458755 -0.038466122
-0.042109948 -0.12288893 -0.082748964 -0.13898896 -0.0127630085 -0.033044126 -0.031590056 0.014250388
-0.03853897 0.037538145 0.016464993 -0.095408015 -0.036785856 -0.07574752 -0.009424175 -0.053502265
0.02867106 -0.08782597 -1.4992789 -0.14377223 -0.016425323 -0.05135496 -0.31728345 1.3547308
-0.047826033 -0.1182351 -0.018515026 -0.109707296 -0.010053042 -0.07049535 -0.049465735 -0.01365933
0.052477002 -0.0794475 -0.015071505 -0.16370553 -2.6658275 0.6055112 -0.013297882 -0.038648073
-0.62851536 0.2083596 -0.016994527 -0.040046304 -0.010708586 -0.038289007 -0.059042204 -0.011652667
-0.069855735 0.028507594 -0.027647713 -0.055264827 -0.08332774 -0.08122267 1.2036048 0.6385303
-0.08381541 -0.017162275 -0.0061213844 -0.16477945 -0.06355849 -0.08613182 -0.0220361 -0.013601559
-0.018245464 -0.04038524 -0.062425986 -0.058512025 -0.261896 0.7283595 -0.102408 -0.05699472
1.1516932 0.09580813 -0.18357354 -0.0783133 -0.12711996 0.04050617 0.042786762 -0.02731067
-0.057641786 -0.039503723 -0.005940727 -0.09774964 -0.102524266 -0.045190357 -0.037577588 0.053015716
-0.1363311 -0.03750769 -0.08922273 -0.0038265726 -0.09784931 0.039715994 -0.07888931 0.020415941
-0.3911631 0.08617337 -0.11654118 -0.00073503726 -0.16916122 -0.0066867005 -0.07690642 -0.0494171
-0.20866536 0.026649993 -0.06455397 -0.021670438 0.03989869 -0.052429937 -0.02434221 -0.08198628
-0.021907287 -0.12236135 0.0034183434 -0.02540359 -0.030255621 0.038937874 0.004048566 -0.014529498
0.015186553 -0.13399109 -0.07504198 -0.024281437 -2.0948317 0.08185318 -0.124999225 -0.038777903
-0.02725859 -0.024759686 0.046030726 0.0020771518 -0.034808785 -0.09327085 -0.038273856 -0.018128807
-0.008860155 -0.08590373 -1.5849751 0.27762964 -0.07452454 -0.032382626 -0.10960324 -0.046140324
-0.08823789 -0.034718517 -0.059200067 -0.02970002 -0.019671842 -0.12175621 0.19468448 0.67094845
-0.00032804647 -0.08834915 -0.0046141925 -0.005755637 0.045257565 -0.10048084 0.0068962504 0.02892313
0.17756553 -0.14047281 0.024747955 -0.11515718 -0.012282249 -0.09158569 -0.08616656 0.008271144
-0.10425382 -9.3912575e-05 -0.048207596 -0.09185818 -0.0793273 -0.038039304 -0.02809521 -0.082157664
0.043273557 -0.10510483 -0.058191057 -0.01963982 -0.061049778 -0.03658289 0.9103731 1.1720283
0.39659184 -1.4208869 -0.01913329 -0.09103881 -0.1757266 -0.006529352 -0.009308677 0.13049857
-0.013791881 -0.17001058 -0.07289598 -0.04884418 0.010953285 -0.03915064 -0.012394607 -0.11561454
0.48949078 -1.808362 -0.07951792 -0.046327073 1.0654204 -0.46025288 -0.1306125 0.010880114
-0.059289455 -0.036422268 -0.04183119 -0.052000266 -0.062285807 0.03146689 -0.07038198 0.025304805
0.009626347 -0.053027928 -0.040678196 -0.07950989 -0.03391396 -0.04339913 -0.28574055 1.2014341
-0.012613023 -0.053971265 0.01602081 -0.069976754 -0.038261462 -0.07925407 0.040924527 -0.065589644
-0.17974043 0.07524791 -0.025363578 -0.06408225 -0.11792819 -0.058146097 -0.0025024826 -0.0069660665

bias f4 [256]
00000000: 0000 0000 3575 6ebd 67b3 c6bd 59a6 98bd
00000010: e0a4 8fbd 03c4 333e 75b0 82bd fa3d b1bd
00000020: cef0 91bd 0000 0000 0000 0000 29c7 7bbd
00000030: 5eb1 7abd c902 47bd afcc 32bd 2f06 91bd
00000040: 56e0 42bd 2dc1 3c3f 0000 0000 268d a4be
00000050: 3afc 75bd 3b26 75bd 9912 8bbd 1743 70bd
00000060: 2a10 6cbd 9d37 52bd 716d bcbd 0000 0000
00000070: 6059 63be 26dd 70bd 475b 91bd d133 8dbd
00000080: 1c4b 8fbd c4aa 8fbd 0000 0000 ec25 84bf
00000090: 0000 0000 0000 0000 0000 0000 0000 0000
000000a0: 0000 0000 31fc 75bd e3c0 b3be 0000 0000
000000b0: c395 fbbe 0000 0000 3000 f3bd c828 3bbd
000000c0: 25ec 74bd f1c2 01bd 35fc 75bd fab2 afbd
000000d0: 270d a3bd 4c8c 1fbd 9899 83bd 8664 85bd
000000e0: 83f6 51be 0000 0000 0000 0000 dd2b 52bd
000000f0: 0002 a4bd 0000 0000 c31e 34bd 0858 a4bd
00000100: ee02 8abd 0374 48bd b4ff b1bd fb4a 80bd
00000110: 76e5 3dbd 0000 0000 9528 df3e ae14 31bd
00000120: 0000 0000 1bec 7bbd fbd8 8bbd 45d6 19bd
00000130: 877e 9abd f7db 7ebe 0000 0000 fc10 34bd
00000140: fc42 39bd 8b4f 63bd d977 a3bd d002 5fbf
00000150: 0000 0000 0000 0000 8c2f 4fbd 50bf 10bd
00000160: 9142 2cbe 4fff 1abd 0000 0000 de01 88bd
00000170: 0000 0000 38fc 75bd c6c0 3cbd 0000 0000
00000180: b84a aabd 0000 0000 9113 4bbd 93d6 35bf
00000190: 9bb0 a63e 98ff 24bd d0a2 77bd 7539 0bbe
000001a0: 76c1 75bd 42fc 75bd 16c3 86bd 0000 0000
000001b0: e8a0 dd3e 0000 0000 6fe5 8fbe 7e1d 26bc
000001c0: 7fa4 8fbd 1ee9 8fbd d29e 5cbd 8e27 85bd
000001d0: 3d5b 17bd 3afc 75bd 5f16 78bd ecee 93be
000001e0: 93a1 a4bd 10bf 96bd 0000 0000 601e 24bd
000001f0: 2496 90bd 0000 0000 0d66 29bd 0000 0000
00000200: cbbb 8bbd 2a7a 72bd cdd4 69bd f112 56bd
00000210: c958 8ebd 8524 a3bd 0000 0000 8313 3ebd
00000220: 44fc 75bd e586 64bd ef0a 07bf 16dc 87bd
00000230: 1ed5 27bd 6c36 963e 0000 0000 0000 0000
00000240: 0000 0000 0000 0000 fcb1 9abd d4ce 76bd
00000250: 9820 f33e af4f 4cbf 9b54 5abd 14e0 22bd
00000260: 9501 70bd 8e3a 3ebd 10ef f0bd f7ca 93bd
00000270: 38fc 75bd 5432 0bbf 0000 0000 b36f 30bd
00000280: e07d 94bd 0000 0000 8ced 47bd 2cfc 75bd
00000290: c4b0 63bd 0000 0000 0000 0000 da03 c6bd
000002a0: ec74 97bd 2db6 3dbf 0000 0000 0000 0000
000002b0: 2fac 57bd 9fb1 153f 0000 0000 4eb2 88bd
000002c0: f661 86bd 0000 0000 7a4a 96bd 4d42 71bd
000002d0: 0000 0000 0ac0 17bd 7be4 48bd a7fe 6bbd
000002e0: 820a 8cbd 0000 0000 0000 0000 41fc 75bd
000002f0: e46a 78bd 0000 0000 0000 0000 6d86 b8bd
00000300: 0000 0000 54cb a2bd 0000 0000 0000 0000
00000310: 44fc 75bd d9f6 37bd e5a0 a9bd 2020 cb3e
00000320: 2cf2 73be 63b8 9cbe 0000 0000 0000 0000
00000330: cdae 2bbd 3570 ca3d 5c16 a1bd a2b5 b1bd
00000340: 0000 0000 0000 0000 551a 18be 33fc 75bd
00000350: 0000 0000 051a 72bd f6ab 29bd e426 8cbd
00000360: 9938 9dbd 0ea1 9fbd f162 c4bd 17df 67bf
00000370: 42fc 75bd cd71 3bbd 0e51 95bd 3cfc 75bd
00000380: a2e9 b2bd bf36 343e fed6 a8bd 0000 0000
00000390: 3a2e d43e 8543 1dbf 28fc 26bf e5a5 42bd
000003a0: 0000 0000 4514 82bd 12fc 75bd de31 aabd
000003b0: 4073 87bd 1afc 75bd f71d 2bbd 03ca 31bd
000003c0: 3ebe 6bbd e9fb 75bd 36fc 75bd 5f49 a0bd
000003d0: 0000 0000 0000 0000 0000 0000 9797 09bf
000003e0: b78d d7bc caac a7be bff7 35bd ffd0 48bd
000003f0: 9b3e 33bd 0000 0000 0000 0000 3d53 70bd
0.0 -0.058217246 -0.09702187 -0.07453603 -0.07013869 0.17555241 -0.06381313 -0.08654399
-0.07126008 0.0 0.0 -0.06146923 -0.061204307 -0.04858664 -0.043652233 -0.070812576
-0.047577225 0.7373226 0.0 -0.32138938 -0.060054995 -0.059850913 -0.067906566 -0.05865773
-0.057632603 -0.05132257 -0.09200562 0.0 -0.22202063 -0.058804654 -0.07097488 -0.06894649
-0.06996748 -0.07014993 0.0 -1.0324073 0.0 0.0 0.0 0.0
0.0 -0.06005496 -0.35108098 0.0 -0.49137697 0.0 -0.1186527 -0.04569319
-0.059795517 -0.03168005 -0.060054976 -0.08579059 -0.07961493 -0.038952157 -0.0642578 -0.06513314
-0.20504193 0.0 0.0 -0.051311363 -0.08008194 0.0 -0.04397465 -0.08024603
-0.0673884 -0.048938762 -0.086913496 -0.062643014 -0.04636141 0.0 0.4358565 -0.043232612
0.0 -0.061504465 -0.06828495 -0.03755786 -0.075436644 -0.24888597 0.0 -0.04396151
-0.045229897 -0.05549578 -0.079818435 -0.87113667 0.0 0.0 -0.050582454 -0.0353387
-0.16822268 -0.037841137 0.0 -0.06640981 0.0 -0.060054988 -0.04608228 0.0
-0.08315033 0.0 -0.049579207 -0.7103054 0.32556614 -0.040282816 -0.060458004 -0.13596137
-0.05999895 -0.060055025 -0.065801784 0.0 0.43286824 0.0 -0.2810473 -0.010138867
-0.07013797 -0.070268854 -0.0538624 -0.06501685 -0.036952246 -0.060054995 -0.06056821 -0.2889322
-0.0803863 -0.07360661 0.0 -0.04006803 -0.07059887 0.0 -0.04135709 0.0
-0.06822928 -0.059198536 -0.05708771 -0.052264158 -0.06950528 -0.0796595 0.0 -0.046405327
-0.060055032 -0.055792708 -0.5275106 -0.06633775 -0.04097473 0.29338396 0.0 0.0
0.0 0.0 -0.07553479 -0.06025584 0.47485805 -0.7980909 -0.053303342 -0.03976448
-0.05859526 -0.04644256 -0.117643476 -0.07216447 -0.060054988 -0.5437367 0.0 -0.043075275
-0.07250571 0.0 -0.048810527 -0.060054943 -0.0555885 0.0 0.0 -0.096687034
-0.07395348 -0.74106103 0.0 0.0 -0.05265444 0.58474153 0.0 -0.06674634
-0.06561653 0.0 -0.07338424 -0.05890112 0.0 -0.037048377 -0.04904602 -0.057615902
-0.06837942 0.0 0.0 -0.06005502 -0.060648814 0.0 0.0 -0.09010015
0.0 -0.07948938 0.0 0.0 -0.060055032 -0.044913147 -0.08282641 0.39672947
-0.2382285 -0.30609426 0.0 0.0 -0.04191475 0.09884683 -0.07865593 -0.08677222
0.0 0.0 -0.14853795 -0.06005497 0.0 -0.059106845 -0.04142376 -0.06843355
-0.07676811 -0.077943906 -0.09589184 -0.90574783 -0.060055025 -0.045762826 -0.072908506 -0.060055003
-0.08735968 0.17599009 -0.082441315 0.0 0.41441518 -0.6143115 -0.6522851 -0.04752149
0.0 -0.06351522 -0.060054846 -0.08310293 -0.06613779 -0.060054876 -0.041776624 -0.043405544
-0.057554476 -0.060054693 -0.06005498 -0.078264944 0.0 0.0 0.0 -0.5374693
-0.026312692 -0.32749015 -0.044425722 -0.04902744 -0.043760877 0.0 0.0 -0.058673132

weight f4 [256, 256]
00000000: 0056 293c ae8a 86bd 9857 14be 0d15 673d
00000010: 19a7 b53c 9885 d2bd d9dd 9dbd b188 123e
00000020: e83e 9f3d 77c7 18be bb72 a33d e515 9b3d
00000030: faeb 153e 622c 25be 2bb8 1fbd 06eb d9bd
00000040: 3a5a 173c 6ca7 34be 7a64 cdbc f34f d43c
00000050: e5c8 f73d 07cc fc3d 8df8 1e3c 7150 f6bc
00000060: 6833 8fbd e6ee 4b3d deae 18bd 665e 353d
00000070: b991 12be d461 ddbd b3a1 98bd 761e eb3c
00000080: d1cc 38bd d8ca 153d 82d5 3dbd 0e6d f3bc
00000090: 722e a7bd 7949 963c bb96 0cbd 17fa f2bb
000000a0: 449b 463b f870 99bd 662f 40bd 68ce ac3c
000000b0: e702 6dbe fecd 863d bc77 24be 8001 05bd
000000c0: 8314 d0bd 78e6 1b3e 0859 383b 4f70 2bbe
000000d0: 6416 b03d fb32 a53c ec9f 89bc 9a14 c5bc
000000e0: 750a 80bd ec4d 413d 8615 8fbb 0042 08be
000000f0: cd55 7fbd d7cf bc3c 3c07 08bd 9037 8e3b
00000100: 417d ecbb f076 afbd 4f57 15be 9aed b63c
00000110: eb67 99ba 7f8a 36bd 9032 48bd a20f 163d
00000120: ce2a 81bd 0118 1c3b ff86 da3d da86 d9bd
00000130: b8f1 463d d7c6 adbd b265 d13d 4f02 06be
00000140: 6957 0abe a683 19bd 3cdb 2fbd ba93 01be
00000150: c3a0 05be 0eba 9f3d bd58 213d f90b babd
00000160: a82b 1ebd 2bf8 bbbd e7e7 22bd d2c5 efbd
00000170: 1efc cdbc c69a b9bb efb9 18bd bb57 87bd
00000180: 13a0 c8bd 44ac 9b3d 508b ca3c 60bc c9bd
00000190: 7108 12be 01b7 723d 5fc6 533d 41ba b0bd
000001a0: 3ebc 4a3d 58c3 a83b e2d2 993d 30cf aa3b
000001b0: 4c0b c1bb cecf da3c 2c4d d8bd 9a7c 86bd
000001c0: c213 07be 331b 443c 15c3 d9bd 2ee3 f6bd
000001d0: 848a f8bc 0ebc 11bd 5e9b 9abd 5231 03be
000001e0: f985 c63c c10c 4fbd 2b8c a2bd dc0a 2e3d
000001f0: c56d 9abd e3a0 243d dada 9d3d 40db 7d3b
00000200: cbf2 24bd 8cef d4bd 0b23 8fbd e10b 7ebd
00000210: 9c9e 30ba 4779 86bc bfd9 87bb 4a11 06be
00000220: 2923 843d 36ef 24be dc8a 12be 0c7f 80bd
00000230: b411 1dbd 349b 26be 80e3 5fbd 4a88 59bd
00000240: a861 133e 1657 563d 5a32 23be 1e72 48bd
00000250: ed2c 0d3c ce2f ecbd db77 8bbd 5706 f9bd
00000260: a64c bebd 7da7 b7bd dee4 a9bd 9c0e f3bc
00000270: 74f9 dd3d eb70 3abe 042b 38bc 6b34 7ebd
00000280: 2745 28bc 844f 42bd 4f61 4dbd 1e66 67bb
00000290: dc88 673d 1424 813b 227a 10be eb0c 513b
000002a0: b9c3 c53d faee 85bd 8c04 54bd deeb b93d
000002b0: 0e12 55bd 8252 a4bd 34cc 243c 9cec fd3c
000002c0: 08b3 c73c 1a9a 48bd 3bdb 1dbd 9e94 9abc
000002d0: a0a2 3b3d 3420 1cbc 44b7 70bd 2858 2cbd
000002e0: dfc7 f03d e5ab a2bc 9ca1 ab3d ddf5 edbd
000002f0: a3b7 dabd d832 913c 5c0a 6bbd 50eb b8bb
00000300: d3d0 69bc 6c0a 5dbd 769f 92bd 1113 a4bd
00000310: 0577 d63d 815f 00be 916d 62be 184f cbbd
00000320: 615e 6bbd fca1 853d 374e 8b3c 12fc 273c
00000330: 1788 6bbd 3cd5 a3bd eaff 6d3d f6c4 fa3c
00000340: be37 063d 8219 41bd 1e72 8dbc eb70 933c
00000350: 3d3a bc3c fffa 84bd 95fd 77bc 2b3e d23c
00000360: 8609 bcbd 0513 60bd 09df 363b 69da 3fbd
00000370: e84d 8c3d b962 78bd d3e3 d4bd 3074 9d3d
00000380: e3f9 dfbc 3436 59bd 0d3a 3b3d 1011 92ba
00000390: 9c25 ccbc 9411 e0bd 0c13 a0bd 48c9 2dbd
000003a0: be28 2fbd 678d 9cbd d021 9c3c c825 efbb
000003b0: cda6 8f3c b384 ef3d 9cf2 973b a0af d8bd
000003c0: c53e 2ebd f353 953d ce82 0fbe 7e55 b3bd
000003d0: b569 2bbd a7d0 96bc 6a9a f53c ed54 7dbc
000003e0: b745 f6bd 32f1 87bc 4121 91bc 912c 873c
000003f0: 52b3 84bd d97a c03c 65ba aabd 4df6 06be
0.010335445 -0.0656942 -0.1448654 0.05641656 0.022174405 -0.10279387 -0.0770833 0.14309956
0.0777567 -0.1491984 0.079808675 0.075725354 0.14640799 -0.16130212 -0.038993996 -0.1064053
0.00923782 -0.17641991 -0.025072325 0.025917029 0.120988645 0.12343603 0.009702814 -0.030067654
-0.06992227 0.04978838 -0.03727614 0.04427948 -0.14313401 -0.10809675 -0.07452717 0.028701048
-0.045117203 0.0365704 -0.046346195 -0.029715087 -0.081631556 0.018345581 -0.034323435 -0.007415067
0.0030304948 -0.0749225 -0.046920203 0.021094516 -0.23145638 0.06582259 -0.160613 -0.032472134
-0.10160162 0.15224636 0.0028129239 -0.16742061 0.08598021 0.020165911 -0.01679989 -0.024057675
-0.062519945 0.047193453 -0.0043665795 -0.13306427 -0.062337685 0.023048325 -0.033210024 0.0043401197
-0.00721708 -0.085676074 -0.14584087 0.022330094 -0.0011703944 -0.044565674 -0.048876345 0.036636002
-0.063069925 0.0023818018 0.1067028 -0.10621424 0.048570365 -0.08485191 0.10224475 -0.13086818
-0.13509907 -0.037479065 -0.042933688 -0.1265401 -0.13049607 0.07799159 0.039391268 -0.09084315
-0.038615853 -0.09178194 -0.03977194 -0.11707653 -0.025144633 -0.0056642024 -0.037286695 -0.0660853
-0.09796157 0.076012164 0.024724633 -0.09850383 -0.14261033 0.059256557 0.051702853 -0.08629275
0.049495928 0.00515024 0.07510926 0.005212687 -0.0058912393 0.026710417 -0.10561594 -0.065667346
-0.13191131 0.011969375 -0.10632912 -0.1205505 -0.030339487 -0.035579734 -0.07549165 -0.12811783
0.024233805 -0.050549272 -0.07936891 0.042490825 -0.07540468 0.040192496 0.07707758 0.003873542
-0.040270608 -0.103972524 -0.06989106 -0.062023047 -0.0006737502 -0.016415251 -0.0041458304 -0.13092533
0.06452019 -0.16106877 -0.14310783 -0.06274232 -0.03834696 -0.16270143 -0.05466032 -0.05310849
0.14392722 0.052329145 -0.15937176 -0.048936956 0.008616668 -0.115325555 -0.0680997 -0.12159412
-0.09291963 -0.08967493 -0.08295606 -0.029670052 0.10838595 -0.18207137 -0.0112407245 -0.06206171
-0.010270393 -0.047439113 -0.05014163 -0.003530867 0.056527004 0.0039410684 -0.1410909 0.003189857
0.09656472 -0.06539722 -0.05176215 0.09078191 -0.05201917 -0.080235496 0.010058451 0.030996613
0.024377361 -0.048975088 -0.038539153 -0.018869694 0.04580939 -0.009529162 -0.058768526 -0.04207626
0.117568724 -0.019857356 0.08380434 -0.1161916 -0.10679557 0.01772444 -0.057382926 -0.005643286
-0.014270979 -0.053965017 -0.07159321 -0.08011449 0.1047192 -0.12536432 -0.22112109 -0.09927195
-0.057463054 0.06525037 0.01700507 0.010252969 -0.057502832 -0.079996556 0.058105387 0.030611496
0.032768004 -0.047143467 -0.01726633 0.01799818 0.022976989 -0.06493186 -0.015136142 0.02566441
-0.09181504 -0.05470564 0.0027903935 -0.04683915 0.06850797 -0.060641024 -0.103950165 0.07688177
-0.027340835 -0.053030208 0.04570966 -0.0011144001 -0.024920277 -0.10940853 -0.07816133 -0.042428285
-0.042763464 -0.07644158 0.019059092 -0.007298205 0.017535591 0.11695232 0.0046370756 -0.10580373
-0.04254033 0.07291403 -0.14014742 -0.08756541 -0.041848857 -0.01841004 0.029980857 -0.015462142
-0.12025016 -0.016594503 -0.017716052 0.016500743 -0.06479515 0.023496078 -0.08336333 -0.13179894

bias f4 [256]
00000000: 10ca 6bbd 93f5 cd3e 713b 43bd 70ae ecbd
00000010: f233 f9bd d5dd a7be 0e2a bdbe df26 80bd
00000020: 16c0 92bd f358 30be 40fc 75bd ea0a 1ebd
00000030: caa9 d8be 44fc 75bd 42fc 75bd 1041 93bc
00000040: 1d33 a23e ceff 38bd 8f2a 53bd 6654 82bd
00000050: 68e2 a5be 6d4b 35bd a7bf 90be 31fc 75bd
00000060: df2f 52bd a358 fdbe 10fc 75bd 18a7 adbd
00000070: e62f 473d 44fc 75bd 3ae0 44bd 5e9e 2f3f
00000080: 0000 0000 759a 1e3e 1566 593e 45fc 75bd
00000090: 54c9 65bd 42fc 75bd af0a 3ebd 5ca5 73bd
000000a0: 3a39 3ebd 44fc 75bd 47c3 87be 5ef6 37bd
000000b0: 0636 6abd 4ec3 6dbd 41fc 75bd 42fc 75bd
000000c0: e202 5bbd e7aa 87bd 0ce4 58bd 6e5e f3bd
000000d0: d976 fd3d 80e6 20be 7f0d d1be 727a 44bd
000000e0: 0ea6 53bd 46df 35bd 13d6 44bd 42fc 75bd
000000f0: 7ef0 1f3d d3f7 c0be c266 bebe 4a03 5bbd
00000100: 725e 38bd d973 92bd 9d11 7cbd 349a 75bd
00000110: 385e efbd 0978 1fbd 6ea4 08be 50cf 14bd
00000120: 3dd3 c1be c67a aa3d 6f2b 52bd 0000 0000
00000130: 6d41 cdbe 2213 ed3e 0382 363e 3442 9a3e
00000140: 41fc 75bd e41a 103f 87ed a2be 0723 65bd
00000150: 49e5 4abc c677 61bd eb8f 22bd 50d2 acbe
00000160: d82c 95bd 2513 d6bc bd5d 05bd fe33 35bd
00000170: 4079 89bd 62bd 7cbd 15b8 1abe df03 5bbd
00000180: 42fc 75bd 8067 53bd e64a 9fbe d210 313e
00000190: ffa5 abbe 49e6 bdbe 42fc 75bd 2cd9 dbbc
000001a0: aa02 41bd 59b5 f93e 42fc 75bd c947 25bd
000001b0: a947 83be 30af 59bd d81f 45bd 8ef2 bebb
000001c0: a02a 56bd 3dfc 75bd 14a7 003f 832b 56bd
000001d0: 1ce5 a1bd 783d e0bc 3dfc 75bd 9c46 62bd
000001e0: bdc4 123f 4103 72be d582 86bd 40fc 75bd
000001f0: 44fc 75bd 24ef 84bd dd6b 96bd f48f 30bd
00000200: 08e4 4abe 34b1 63bd 47fc 75bd 3ee3 ebbc
00000210: 3dfc 75bd f18d 51bd 8723 6abd 9fb0 63bd
00000220: aac6 1dbe 0d61 8bbd 446f 51bd c4a0 82bd
00000230: 44fc 75bd 9c0e 053f 9793 a2be 3cfc 75bd
00000240: f8e1 3abd 50f4 c43e 21ed bdbd adeb b1bd
00000250: 100a 75bd feb5 c0be 4bf4 d8bc b89d 2bbd
00000260: f87b 54bd 42fc 75bd ee8b 143e a4fe 903e
00000270: 46fc 75bd 24b1 63bd ad2e 33bd aef3 263f
00000280: c0bd 3dbb 42fc 75bd b7e2 78bd ac46 43bd
00000290: 51c1 8ebe 6426 8f3e a786 083e d583 b9bd
000002a0: f07f 31bd 21cd df3e 3afc 75bd df73 6cbd
000002b0: dd7b 433d 6a9f f4bd 5c32 3cbd 607c 54bd
000002c0: 0772 6cbd 1209 0cbd 6b39 3cbd b6e6 c93d
000002d0: 5971 58bd 634c 8fbd b95d b2be fe06 54bd
000002e0: fa07 b8be 7165 1dbd 17e9 243f c3a1 8abe
000002f0: 0e5a 74bd 1efc 75bd 7cfa 87bd 35c9 fabe
00000300: 392b 56bd fa25 05bd b460 31bd 40fc 75bd
00000310: 0815 37bd bc03 5bbd 7614 9fbc 42fc 75bd
00000320: a840 943e 822a 56bd 3cfc 75bd a1bd bbbe
00000330: 42fc 75bd 3c02 f33b 9714 9abd 9e21 1bbd
00000340: 6058 46bd d8b6 21bd 8f63 7bbd 19ad 1cbe
00000350: 276d ae3e 079a 8cbd 2303 5bbd 1b51 3cbd
00000360: 7130 42be 46fc 75bd 4bba ecbd 1dc4 81bd
00000370: 1ac7 b5bd 3f4f 8abd 8415 42bd cb39 ddbd
00000380: 33bb 06bd 71a5 30bd 4f1b 84bd e34a c1be
00000390: edd8 43bd 90cc 66bd fb94 bebe 3962 1dbd
000003a0: 42fc 75bd 722e 5bbe 99fe 37bd 46fc 75bd
000003b0: 14ef 2fbe 9037 32bd ee1e 88bd 7b6c adbd
000003c0: c104 bfbe 7b8b 26be 436f f4bd d4a0 c3be
000003d0: c935 033f 1d23 57bd e6f0 63be 6847 46bd
000003e0: 56d3 33be b369 53bd 06a9 48be 4166 d5bd
000003f0: c1b9 48bd 981c 2dbd 1d7c 54bd 46fc 75bd
-0.05756575 0.4022642 -0.04766411 -0.11556709 -0.12168111 -0.32786432 -0.36946148 -0.06257414
-0.07165544 -0.17221431 -0.060055017 -0.038584627 -0.4231704 -0.060055032 -0.060055025 -0.01797536
0.3167962 -0.04516583 -0.05155426 -0.06363754 -0.32399297 -0.044261385 -0.2827122 -0.06005496
-0.051315185 -0.49481687 -0.06005484 -0.08479136 0.048629664 -0.060055032 -0.0480654 0.68601024
0.0 0.15488608 0.21230347 -0.060055036 -0.056100205 -0.060055025 -0.046396907 -0.05948387
-0.046441294 -0.060055032 -0.26516172 -0.04491269 -0.057180427 -0.058047585 -0.06005502 -0.060055025
-0.053469546 -0.06624394 -0.052951857 -0.118832454 0.12376184 -0.15712929 -0.4083061 -0.047968335
-0.051672034 -0.044402383 -0.04805572 -0.060055025 0.03904771 -0.37689075 -0.37187773 -0.053469934
-0.045011945 -0.071510024 -0.061540235 -0.059961513 -0.11687893 -0.038932834 -0.13343975 -0.03633052
-0.37856475 0.083241984 -0.051310953 0.0 -0.40088978 0.4630366 0.17823033 0.30128634
-0.06005502 0.5629103 -0.31821844 -0.055941608 -0.012383767 -0.055045865 -0.039688032 -0.33754206
-0.07283944 -0.026132176 -0.0325601 -0.044239037 -0.0671258 -0.061704047 -0.15109284 -0.05347049
-0.060055025 -0.051612377 -0.3111183 0.17291573 -0.33525082 -0.37089756 -0.060055025 -0.026836954
-0.04712168 0.4877117 -0.060055025 -0.040351663 -0.2564061 -0.053145587 -0.04812607 -0.0058272546
-0.052286744 -0.060055006 0.5025494 -0.05228759 -0.07905027 -0.02737306 -0.060055006 -0.05524312
0.5733145 -0.23634054 -0.06567923 -0.060055017 -0.060055032 -0.06490925 -0.07344792 -0.043106034
-0.1981355 -0.055588916 -0.060055044 -0.028794881 -0.060055006 -0.051160756 -0.057162788 -0.05558836
-0.15407816 -0.0680562 -0.0511315 -0.0637832 -0.060055032 0.5197542 -0.31753227 -0.060055003
-0.045625657 0.38467646 -0.092737444 -0.0868753 -0.05982405 -0.3763885 -0.026483675 -0.04189846
-0.05187604 -0.060055025 0.14506504 0.28319275 -0.06005504 -0.055588856 -0.043745685 0.65215576
-0.002895221 -0.060055025 -0.060763087 -0.04767482 -0.27881864 0.27958977 0.13332616 -0.09058348
-0.0433349 0.43711188 -0.060054995 -0.05772769 0.047725547 -0.11944468 -0.045946464 -0.051876426
-0.057725932 -0.034188338 -0.045953196 0.09858458 -0.05284247 -0.069969915 -0.3483713 -0.05176448
-0.35943586 -0.03842682 0.64418167 -0.2707654 -0.059656195 -0.06005489 -0.06639573 -0.48981634
-0.052287314 -0.03250692 -0.043305114 -0.060055017 -0.04469779 -0.05347036 -0.019418936 -0.060055025
0.2895558 -0.052286632 -0.060055003 -0.36668113 -0.060055025 0.007416038 -0.075234585 -0.037873857
-0.048424125 -0.039481014 -0.061374243 -0.15300407 0.34067652 -0.06865316 -0.05346979 -0.045975786
-0.18963791 -0.06005504 -0.1155897 -0.06336234 -0.08875866 -0.06753396 -0.0473838 -0.10802039
-0.03289337 -0.043126527 -0.06450521 -0.37752447 -0.0478143 -0.05634743 -0.37223038 -0.03842375
-0.060055025 -0.21404436 -0.044920538 -0.06005504 -0.17181045 -0.04351002 -0.06646524 -0.08467957
-0.37308314 -0.16264145 -0.11935284 -0.3820864 0.51253945 -0.05252372 -0.22259864 -0.048407942
-0.17561087 -0.051614475 -0.19595727 -0.10419894 -0.049005274 -0.042263597 -0.051876176 -0.06005504

weight f4 [8, 256]
00000000: b566 25be 5fc4 14c0 7f62 74bd d43d 743f
00000010: 4dc1 b13d 8e98 51bf 0df6 0e3d 11bc 2f3d
00000020: 24bc 51be b80d 033d 4cfc 0e3e 1af4 1fbe
00000030: 39e6 4b3e efc3 37be f5d3 83bd 26e6 a93e
00000040: 510d 99c0 f72e 8ebd af97 d3bd 70a2 3e3d
00000050: f9c2 b73c 3893 b7bc 2b13 c13d fb14 f0bd
00000060: 32fb 963d e1ee a73e 0b79 013e 8860 ac39
00000070: a51c 64bf a387 183e e903 c03c f258 2ec0
00000080: 3b5b 9f3b a38f 8fc1 f40f fd3f 0b9b fa3b
00000090: 281b 77bd 5553 423e 95f0 bcbd 9471 7abc
000000a0: e0a6 023e bb34 01be 8527 9ebd 0db1 32bd
000000b0: fc8f 29be 6a5b ad3d 007b acbb 3a03 d83d
000000c0: 2a1c 40bd 2d4a a53d 23d8 1c3e 4fc4 f13d
000000d0: f64f 64be d312 093d a424 e6be 4222 17bd
000000e0: 4de4 b0bc 72f6 253e 56bf 41bd 7cee e6bc
000000f0: f93d 33c0 02a2 f6bd 3476 7b3e 94fa 873c
00000100: 1f82 ddbd 248f 843b 10ba 4dbe 4bad 833d
00000110: 5239 fe3d 9a28 8b3d 398e 0fbd e14d 573f
00000120: 9846 bbbe 8073 1e40 c497 d83d 9e12 50bc
00000130: dc58 1a3d 47ff 3b40 2ac4 8d40 cd0a 8140
00000140: e67f aebd a84e 4dc0 0f67 f53e 8647 1cbd
00000150: aaca 8f3f ccbf 01c0 eff1 1f3e 9ef0 f13d
00000160: e598 c3be ad5a 4a3d 31b8 e43f 4ac6 963d
00000170: eb48 323e 643c cbbb 92ee 243d 1f25 613c
00000180: 5350 b93b 0dde 53bc 85ab 17bf cf86 1dc0
00000190: 1e57 a43e 5741 3abd 2184 133d a6b5 d73d
000001a0: 1995 81bd c4f3 cdc0 dd58 173c f53c d6bc
000001b0: 8850 76bf b2bd 213e d9d7 0cbe 351c 993f
000001c0: 7c49 2ebc ff51 cebd d93a 3dc1 f71e 58bd
000001d0: ff6c f6bc 0973 393e baa2 103e 6231 e53d
000001e0: 33a9 9bbf f596 6d3b c222 99bc 32ec 2cbd
000001f0: 2ffd d83d 7d63 0b3e 9e02 e338 6dd6 673d
00000200: 906b a33c d42e 15bd c2bf 24be 097b 213e
00000210: 892b a6bc 1e75 0dbe e736 a13d ab92 11be
00000220: b2c5 f23e b0a7 133e 2778 0fbe f4aa 00be
00000230: 32dc 943d 9b24 4ec0 47c3 1ebd 6c74 7bbc
00000240: 1547 b83d 9d69 8abf 8cb4 38be cfa0 65bc
00000250: a2b9 3ebe 5254 08bd b281 343d 2ff2 22be
00000260: 7999 80bd 26d0 4cbc 3389 8dbf b726 0b3f
00000270: 9136 13bb c7c3 d83c b0e0 ebbc 53c1 dec1
00000280: 6569 fbbc 4b05 533d 6f74 663f 8741 6dbd
00000290: d228 423e ca6d 77c1 a2af 3340 6b87 57bd
000002a0: 37d4 eabc 8028 9fbf 81b2 6f3c 82e1 723c
000002b0: 9bdc a9bf d84c 403e 0bd4 4ebd 0e08 393e
000002c0: aa3b 93bb ab80 263d a0d0 0bbe 1082 16c1
000002d0: be6d 1c3e 2fd5 fc3d a467 b63b 4f03 8c3d
000002e0: 7372 21bd 9457 90bc 9c0f 8ec0 78ba e9bd
000002f0: 4296 e53c 5e8c d33c 9bbc 35bd 9cdd e6be
00000300: efec 6dbd 2f93 443e fc25 9bbd 9a5a 093d
00000310: b2d3 563e ca15 68bd 28bf 913d 406f 943d
00000320: a62e 7f40 e5a9 dfbd 4c60 623d 5d02 0a3f
00000330: 7a7b b83d 05c9 8cbf 89e4 90bd 1e4e 73be
00000340: aeba 8bbe 5b97 cc3d 08f0 ac3e 2c31 313e
00000350: 4f30 b3c0 bbaf 363d 5aaf b5bc a565 d83d
00000360: 69a7 c83e 9563 8fbd 83c2 b8be 3462 dbbd
00000370: 741e 0d3d 34ec 88bf 0c5f e7bd 40c2 1bbe
00000380: f12b 3d3e d144 1e3e 43ab c1bc d810 0fbe
00000390: 9b5d 393d dfd6 23bd 1c9f 51bd 40e3 04bc
000003a0: f85d 7c3d c5e0 593b 6ce7 c93c cbd0 5b3d
000003b0: 9e1b 42be 34ae e03d 8114 e13d aa70 29be
000003c0: 46c6 21bd 04b4 4dbe f6ea 1abe 4bac 54be
000003d0: 635d 3abe 9a12 013e f58d b7bc f11c 163e
000003e0: 1b66 62be 3dbc 56be bf25 7bbf 9a7f 663e
000003f0: b4ec 363d 8f73 033e 57b8 11bd 7b80 093e
-0.16152461 -2.3244855 -0.059664246 0.9540684 0.08679447 -0.81873405 0.03490262 0.042903963
-0.20481926 0.031995505 0.13963431 -0.15620461 0.19912042 -0.17945836 -0.06436912 0.33183402
-4.7828755 -0.069425516 -0.10331666 0.04654163 0.022431837 -0.022409067 0.09427484 -0.11722752
0.073721305 0.32799438 0.1264383 0.00032878318 -0.8910621 0.14895491 0.023439365 -2.7241788
0.0048631704 -17.945135 1.9770494 0.007647877 -0.060328633 0.18977101 -0.09225575 -0.015285868
0.1275897 -0.12617771 -0.077223815 -0.04362588 -0.16558832 0.084647015 -0.005263686 0.105474904
-0.04690186 0.080707885 0.15316825 0.11805021 -0.22296128 0.033465218 -0.4494983 -0.036897905
-0.021593237 0.16207293 -0.047301613 -0.02818989 -2.8006575 -0.12042619 0.2455681 0.016598977
-0.10815834 0.004045384 -0.20090508 0.064295374 0.12413277 0.067948535 -0.035047743 0.8410321
-0.36577296 2.4757996 0.10575822 -0.012699751 0.0376824 2.937456 4.430196 4.0325685
-0.085204884 -3.2079258 0.4793019 -0.038154148 1.1233723 -2.0273314 0.15619634 0.11813472
-0.38202587 0.04940288 1.7868711 0.073620394 0.17410628 -0.0062022675 0.04026658 0.0137417605
0.0056553273 -0.012931359 -0.59246093 -2.461353 0.32097715 -0.04547247 0.03601468 0.105326936
-0.06327266 -6.4360065 0.009237495 -0.026152113 -0.9621663 0.1579502 -0.13754214 1.1961733
-0.010637637 -0.10074233 -11.826867 -0.052763905 -0.03008127 0.18110289 0.14124575 0.1119106
-1.216101 0.0036253307 -0.018693332 -0.04221744 0.10595166 0.1361217 0.00010824691 0.056600977
0.01994875 -0.036421612 -0.16088775 0.1576959 -0.020284431 -0.13814208 0.078718 -0.14216106
0.47416455 0.14419436 -0.14010678 -0.12565213 0.072685614 -3.2209842 -0.03876045 -0.015347581
0.08997933 -1.0813481 -0.18037623 -0.014015391 -0.18625501 -0.03328354 0.044069 -0.15912698
-0.062792726 -0.012500798 -1.1057495 0.5435595 -0.0022462944 0.026460541 -0.028793663 -27.844397
-0.030689904 0.05151872 0.90021414 -0.05792382 0.18960884 -15.464304 2.8075948 -0.05261938
-0.028665645 -1.2434235 0.014629961 0.014824273 -1.3270448 0.18779314 -0.05049519 0.18069479
-0.0044931965 0.04065005 -0.13653803 -9.406754 0.15276238 0.12345349 0.005566554 0.068365686
-0.039415788 -0.017619886 -4.4394054 -0.11412519 0.02802575 0.025823768 -0.04436932 -0.4509095
-0.058087286 0.19196771 -0.07575604 0.03353367 0.20979193 -0.056661405 0.07116538 0.07247782
3.9872222 -0.10921077 0.055267617 0.53909856 0.09007926 -1.0998846 -0.070748396 -0.23760268
-0.27290863 0.09989806 0.3377688 0.17303914 -5.599647 0.044601183 -0.02217834 0.10566262
0.39190224 -0.07001416 -0.360859 -0.1071209 0.03445287 -1.0697083 -0.11297426 -0.15210819
0.18473794 0.15455939 -0.023641234 -0.13971269 0.045255285 -0.03999984 -0.05117713 -0.008110821
0.061613053 0.0033245545 0.024646483 0.053665917 -0.18955848 0.109707266 0.10990239 -0.16546884
-0.03949573 -0.20088202 -0.15128693 -0.2076885 -0.18199687 0.12604752 -0.022406558 0.14659478
-0.22109263 -0.20970245 -0.9810447 0.22509614 0.04465933 0.12837051 -0.03557619 0.13427918

bias f4 [8]
00000000: c407 8a3f 742e 2a3f 1276 18bf 5a09 ca3e
00000010: b226 733f b485 cb3f e275 edbf a07a 1ac0
1.078362 0.6647713 -0.5955516 0.3946026 0.9498092 1.5900178 -1.85516 -2.4137344

weight f4 [16, 256]
00000000: 020d ffbd 7d65 e6bc 9f22 42bd 2cca 0a3e
00000010: 3a13 96bd 3d4b ffbc 461b 4a3e e7ef ecbd
00000020: 6002 7bbc 5547 b6bd b8fd af3c 1949 dbbc
00000030: 8b27 c83e f262 11be 00ba 13be d7f2 bc3c
00000040: 080e d5bc 19ce e7bd c238 cd3c 6f38 80bb
00000050: 94eb 173c 69fc abbd 7056 b83b dcb0 febc
00000060: 5e18 ea3c 74e1 edbc ced3 f53c 885d 06be
00000070: 29ff 80bd b201 33bd 484a 4cbc 0466 c43e
00000080: d2d2 edbd caef 50bd 5f34 0f3e b2fc e6bc
00000090: 63b4 58be ffc3 713d fedd 1abc 57e7 f63c
000000a0: adaa 91bd 8787 1bbe 1753 b73d c6db 833d
000000b0: 0369 edbc 8f2e d3bd 8f5f 313d 87df 85bd
000000c0: 1c5e cabd 8064 9d3d 9f28 3f3c 00a1 0abd
000000d0: ec81 40bd f6a0 bdbc e8bf 6e3e 4d82 2bbd
000000e0: 6e38 3ebd d1a7 813d 5fe0 0fbd 095e fe3c
000000f0: c717 00be fb9a e0bc 50e6 e23e d8c1 e0bc
00000100: 6dbf e4bd 83fd c2bd deed ddbd 6ec8 69bd
00000110: b66e 73bd 4266 c2bc 3267 013d 2bf9 2b3d
00000120: 5966 41bc 369c f33c a224 2e3d 88ca e13d
00000130: 4650 cd3d e9de 853b 7b4f 01be 2f0f 263e
00000140: c6b1 303d bcf5 bd3d 2d4a fbbd 262a 183b
00000150: 59e1 083c b844 433d 32ef 1b3b 258e 29bc
00000160: d812 00be d941 ec3c d2e7 3e3d bce6 0dbb
00000170: b20b 29be db3a 57bc dd91 8ebd 32b9 21bc
00000180: 0d03 e3bc 12d1 73bd 5071 d4bd 51a3 4b3f
00000190: d830 41be e875 80bd 2613 333c 3999 93ba
000001a0: 304d 0b3d 96d3 74be 0505 643d 3277 69bd
000001b0: 0688 e9bc a5f3 69bd 66fe 193e b76e 50be
000001c0: 0af4 873b 018b 4bbd d044 403d f198 42bd
000001d0: 7356 4f3d 3c7a 4b3c 40d2 243d 6e7c 95bd
000001e0: 9eca 41bc 20e5 38bd c597 243e c289 8d3d
000001f0: 0ec5 553d 32e9 303e 0b5f aa3d 94a4 65bd
00000200: c193 8cbd 8e97 7bbd ac6a a33d d6ed 41bc
00000210: af22 9cbd cb25 2b39 77d8 88bd acf9 64bd
00000220: f40e 673e 8285 483d c6d5 633d bb82 e8bb
00000230: 6b02 adbd c155 253e aa99 12bd 3e92 ed3c
00000240: 4361 0d3c 238e 213d 0b92 08bd 06a8 9dbd
00000250: e98b 16be 2704 143e b478 a0bc ba97 eebd
00000260: 865a f5bd f0ff b9bd b9ff 61bd b583 77be
00000270: 26e4 1dbe 8e41 923d 83fb 14bd 9db9 48bf
00000280: 80e4 c23e c295 1cbe c6f7 d33b 4a2c 4abd
00000290: f98c 17be 7e67 3fc0 6c6e 8bbd 0a2e e6b9
000002a0: 9183 51bc aed6 3c3f 3b73 cb3d 1df7 0fbd
000002b0: be2c a1bd 698b 00be 3a40 cabc f86e 3b3d
000002c0: 75c5 21be c59e 82bd c089 23bd 309b 02bd
000002d0: 98fb 28bd b289 83bd b3eb 953c 0a37 87bc
000002e0: 36f5 07be c5fc 1abd cd80 b1bd a8fa 8fbc
000002f0: 57b9 d23c 1f0e eb3c 083a 6d3d 81d6 9c3e
00000300: 0789 95bd b0b9 093d 3a7e 85bd e92a 383d
00000310: c467 26bd 1339 113d 9eaf 803d f193 98bd
00000320: 56db 80be 9b8a 3ebd 3c10 aebd 6628 683c
00000330: e4ce 543c 315b b2bd 0187 b7bd 5a76 353d
00000340: 7da7 07bb 3d87 fdbb ff80 bdbb 7b93 54bd
00000350: e556 de3d db2b 8b3d 0b24 b03d 3495 de3b
00000360: e747 013f cf66 6b3d daef 77bd 6962 053e
00000370: 82bf 8f3d 881e 94bd 07fd 343c 3c12 063c
00000380: 6ee6 9ebc adb1 713d 865f cebd 61bc 063d
00000390: 12cc 473d cdb8 8fbd 4eae d93d 434b d23d
000003a0: f62d 9d3c 074c 243d f7fc 30bd b6b9 3bbc
000003b0: d701 ff3d 6b76 86bd 2a36 a9bc dc42 bdbd
000003c0: b9d0 123d 49eb 36be 9439 21bd f44e 923c
000003d0: d017 ea3e b77b 2cbe 46c6 d13c d9ca f8bc
000003e0: 2c11 3e3e 0607 08be 05cf c13d 8954 b8bd
000003f0: 3f33 83bc ce3b 913d 0dae 30bd cff0 813d
-0.12453653 -0.028124565 -0.0473963 0.13553685 -0.07327886 -0.031163806 0.19736966 -0.11569195
-0.01532039 -0.08900324 0.021483287 -0.026768254 0.3909267 -0.14197901 -0.14426422 0.023065014
-0.026007667 -0.11318607 0.025051478 -0.0039129774 0.009272475 -0.08397753 0.0056255385 -0.031090192
0.028576072 -0.029038168 0.030008223 -0.13121617 -0.06298668 -0.04370279 -0.012468882 0.38359082
-0.116124764 -0.05100993 0.13984822 -0.028196666 -0.21162562 0.059024807 -0.009452341 0.030139608
-0.07112632 -0.15188418 0.08951395 0.06438403 -0.028980738 -0.10311615 0.043304022 -0.06536775
-0.09881231 0.076851845 0.0116674 -0.033844948 -0.046998903 -0.023148041 0.23315394 -0.04187231
-0.046440534 0.063308366 -0.035126086 0.031050699 -0.1250907 -0.02741765 0.4431634 -0.027436182
-0.11169324 -0.0952101 -0.10836385 -0.05707591 -0.059431754 -0.023730401 0.031592555 0.041985672
-0.011804187 0.029737573 0.042515405 0.11024958 0.100250766 0.004085411 -0.12627976 0.1621673
0.043138288 0.09275386 -0.12270007 0.0023218482 0.008354508 0.047672957 0.0023793695 -0.010348831
-0.12507188 0.028839992 0.0466078 -0.002165242 -0.16508368 -0.013136591 -0.06961415 -0.009870814
-0.027711416 -0.059525557 -0.10373175 0.79546076 -0.18866289 -0.06272489 0.010929858 -0.0011260874
0.03400916 -0.23908839 0.05566885 -0.05699844 -0.028507244 -0.057117123 0.15038452 -0.20354734
0.004148965 -0.04969311 0.046940625 -0.047509138 0.050619554 0.01241928 0.040239573 -0.07299124
-0.011828093 -0.045140386 0.1607352 0.06911041 0.05218988 0.17276457 0.08318909 -0.056065157
-0.06864119 -0.06142383 0.079793304 -0.01183649 -0.07623803 0.0001632191 -0.066819124 -0.05590217
0.22564298 0.048955448 0.055623792 -0.0070956624 -0.08447727 0.16145994 -0.035791077 0.029000398
0.008629146 0.039442193 -0.033342402 -0.076980636 -0.14701809 0.14454709 -0.019588806 -0.11650033
-0.119801566 -0.09082019 -0.055175517 -0.24171336 -0.15419063 0.0714141 -0.036372673 -0.78408223
0.38064957 -0.15291503 0.006468746 -0.049358644 -0.1479987 -2.9906917 -0.06808171 -0.0004390332
-0.0127877155 0.73765075 0.09934088 -0.035147775 -0.07869862 -0.12553181 -0.024688829 0.045760125
-0.1579798 -0.06377939 -0.03992629 -0.03188628 -0.041255563 -0.06422748 0.018300867 -0.016505737
-0.13277134 -0.037838716 -0.08667145 -0.017575577 0.025723143 0.028693257 0.05791667 0.30632403
-0.073015265 0.03362435 -0.065182164 0.044962797 -0.040626302 0.03545482 0.06283496 -0.074500926
-0.2516734 -0.046518903 -0.0849919 0.014169788 0.01298878 -0.087088 -0.08961297 0.044302322
-0.0020699196 -0.007737069 -0.0057832 -0.05189846 0.108564176 0.06795474 0.08600625 0.0067926887
0.5050034 0.057471093 -0.060531475 0.13025822 0.07018949 -0.07232386 0.011046655 0.008183058
-0.019396987 0.059007335 -0.100768134 0.032894496 0.0487786 -0.0701767 0.10628949 0.10268261
0.019186955 0.040111568 -0.043209996 -0.011457851 0.12451523 -0.06565555 -0.02065571 -0.09241268
0.035843585 -0.17863192 -0.03936155 0.017859913 0.45721292 -0.16844068 0.02560724 -0.030370163
0.18561238 -0.13283929 0.09463314 -0.09000499 -0.016015647 0.07091485 -0.043134738 0.06344759

bias f4 [16]
00000000: f777 1bbe de24 83bd 01c2 c5bc f343 b53c
00000010: e8e1 4a3d b03c 4d3d ae6b 7abd a7e5 eebc
00000020: 3579 c9bd 3c32 d4bc 2eea 563e 7f45 04bc
00000030: 698e 8dbd c222 10bc 5b2b b6bd 7343 d9bd
-0.15182482 -0.06403516 -0.02414036 0.022127127 0.049531847 0.050106704 -0.061137848 -0.029162241
-0.098375715 -0.02590286 0.2098777 -0.00807321 -0.06911928 -0.008797349 -0.08894988 -0.10608568

cluster_centers f4 [8, 2]
00000000: 2a90 e13e df2a 5fbf 1446 70bf 1a20 813e
00000010: ea84 48bf f322 16bf ac80 243f beb6 363f
00000020: 0000 4034 0000 d034 a0d5 94be bfaf 6fbf
00000030: 3112 763f 20e2 e2bd 0d0e 01bf 745c 533f
0.440553 -0.8717479 -0.9385693 0.25219804 -0.7832781 -0.5864708 0.6425884 0.7137259
1.7881393e-07 3.874302e-07 -0.29069233 -0.9362754 0.9612151 -0.11078286 -0.50412065 0.8256295
