exp_local/bet_fixed/weights/4000.pt (torch, 296700 bytes, 9 tensors)

weight f4 [256, 2]
0	0xbc6a0480	-0.014283299
1	0xbd9fb6bc	-0.07798526
2	0xbd2dc547	-0.042424466
3	0xbaaf3e92	-0.0013370088
4	0xbcaaf692	-0.020869527
5	0x3c6641c1	0.014053763
6	0xbdee072e	-0.11622463
7	0xbd4a8a12	-0.04944808
8	0xbd00bdeb	-0.03143112
9	0xbd0aba2b	-0.03386895
10	0xbf1e1963	-0.6175749
11	0x3eeba8a4	0.460271
12	0x3d8bd6d2	0.06828083
13	0xbddad3ba	-0.10684915
14	0xbddc1356	-0.107458755
15	0xbd1d8ea7	-0.038466122
16	0xbd2c7b7b	-0.042109948
17	0xbdfbad31	-0.12288893
18	0xbda9784a	-0.082748964
19	0xbe0e531f	-0.13898896
20	0xbc511bf0	-0.0127630085
21	0xbd075947	-0.033044126
22	0xbd016493	-0.031590056
23	0x3c697a76	0.014250388
24	0xbd1ddb0a	-0.03853897
25	0x3d19c199	0.037538145
26	0x3c86e198	0.016464993
27	0xbdc36547	-0.095408015
28	0xbd16acc4	-0.036785856
29	0xbd9b2184	-0.07574752
30	0xbc1a67db	-0.009424175
31	0xbd5b2531	-0.053502265
32	0x3ceadf92	0.02867106
33	0xbdb3de1a	-0.08782597
34	0xbf4408e6	-0.7657608
35	0x3d76d49d	0.060261358
36	0xbc868e66	-0.016425323
37	0xbd525994	-0.05135496
38	0xbdb1cad5	-0.08681265
39	0x3f379bb8	0.7172198
40	0xbd43e53b	-0.047826033
41	0xbdf2253e	-0.1182351
42	0xbc97acd3	-0.018515026
43	0xbde0ae38	-0.109707296
44	0xbc24b584	-0.010053042
45	0xbd905fde	-0.07049535
46	0xbd4a9c95	-0.049465735
47	0xbc5fcb62	-0.01365933
48	0x3d56f220	0.052477002
49	0xbda2b55f	-0.0794475
50	0xbc76ee79	-0.015071505
51	0xbe27a26c	-0.16370553
52	0xbf059819	-0.5218521
53	0x3ec1d851	0.3786035
54	0xbc59df5c	-0.013297882
55	0xbd1e4d71	-0.038648073
56	0xbf20e662	-0.62851536
57	0x3e555c38	0.2083596
58	0xbc8b381b	-0.016994527
59	0xbd240798	-0.040046304
60	0xbc2f7311	-0.010708586
61	0xbd1cd4ef	-0.038289007
62	0xbd71d63d	-0.059042204
63	0xbc3eead4	-0.011652667
64	0xbd8f1086	-0.069855735
65	0x3ce988c2	0.028507594
66	0xbce27d75	-0.027647713
67	0xbd625d5f	-0.055264827
68	0xbdaaa7bc	-0.08332774
69	0xbda65812	-0.08122267
70	0x3edbe2d4	0.42946494
71	0x3da1b2b4	0.07895413
72	0xbdaba76a	-0.08381541
73	0xbc8c97e6	-0.017162275
74	0xbbc895e5	-0.0061213844
75	0xbe28bbf2	-0.16477945
76	0xbd822af4	-0.06355849
77	0xbdb065e1	-0.08613182
78	0xbcb4850d	-0.0220361
79	0xbc5ed913	-0.013601559
80	0xbc957783	-0.018245464
81	0xbd256afe	-0.04038524
82	0xbd7fb264	-0.062425986
83	0xbd6faa4e	-0.058512025
84	0x3dc6136b	0.096716724
85	0x3f204cdf	0.62617296
86	0xbdd1bb49	-0.102408
87	0xbd69734c	-0.05699472
88	0x3f073815	0.5281995
89	0x3d3e18bc	0.046410307
90	0xbe3bfab4	-0.18357354
91	0xbda062b9	-0.0783133
92	0xbe022bbc	-0.12711996
93	0x3d25e9cc	0.04050617
94	0x3d2f412c	0.042786762
95	0xbcdfbaa0	-0.02731067
96	0xbd6c19cb	-0.057641786
97	0xbd21cea8	-0.039503723
98	0xbbc2aa6e	-0.005940727
99	0xbdc830f7	-0.09774964
100	0xbdd1f83e	-0.102524266
101	0xbd391986	-0.045190357
102	0xbd19eaf5	-0.037577588
103	0x3d592702	0.053015716
104	0xbe0b9a61	-0.1363311
105	0xbd19a1aa	-0.03750769
106	0xbdb6ba68	-0.08922273
107	0xbb7ac73c	-0.0038265726
108	0xbdc86538	-0.09784931
109	0x3d22ad3d	0.039715994
110	0xbda190b8	-0.07888931
111	0x3ca73f55	0.020415941
112	0xbec84688	-0.3911631
113	0x3db07baa	0.08617337
114	0xbdeead24	-0.11654118
115	0xba40af84	-0.00073503726
116	0xbe2d3899	-0.16916122
117	0xbbdb1c1c	-0.0066867005
118	0xbd9d811d	-0.07690642
119	0xbd4a6996	-0.0494171
120	0xbe55ac5f	-0.20866536
121	0x3cda5116	0.026649993
122	0xbd8434df	-0.06455397
123	0xbcb18634	-0.021670438
124	0x3d236ccf	0.03989869
125	0xbd56c0c6	-0.052429937
126	0xbcc76950	-0.02434221
127	0xbda7e86c	-0.08198628
128	0xbcb376e9	-0.021907287
129	0xbdfa9896	-0.12236135
130	0x3b600649	0.0034183434
131	0xbcd01b31	-0.02540359
132	0xbcf7daa3	-0.030255621
133	0x3d1f7d52	0.038937874
134	0x3b84a9d5	0.004048566
135	0xbc6e0d22	-0.014529498
136	0x3c78d105	0.015186553
137	0xbe0934f6	-0.13399109
138	0xbd99af9c	-0.07504198
139	0xbcc6e9dd	-0.024281437
140	0xbef8020b	-0.4843906
141	0x3eca1e82	0.394764
142	0xbdffff98	-0.124999225
143	0xbd1ed594	-0.038777903
144	0xbcdf4d68	-0.02725859
145	0xbccad4d3	-0.024759686
146	0x3d3c8ab7	0.046030726
147	0x3b0820d3	0.0020771518
148	0xbd0e93a8	-0.034808785
149	0xbdbf04ca	-0.09327085
150	0xbd1cc50c	-0.038273856
151	0xbc9482dd	-0.018128807
152	0xbc112a2f	-0.008860155
153	0xbdafee4b	-0.08590373
154	0xbeae0a24	-0.33992112
155	0x3ed013df	0.4064016
156	0xbd98a052	-0.07452454
157	0xbd04a3a5	-0.032382626
158	0xbde077aa	-0.10960324
159	0xbd3cfda3	-0.046140324
160	0xbdb4b611	-0.08823789
161	0xbd0e3501	-0.034718517
162	0xbd727bc5	-0.059200067
163	0xbcf34d75	-0.02970002
164	0xbca126d8	-0.019671842
165	0xbdf95b52	-0.12175621
166	0x3c5654e5	0.013081764
167	0x3f1dd6e1	0.61656004
168	0xb9abfda7	-0.00032804647
169	0xbdb4f066	-0.08834915
170	0xbb9732a7	-0.0046141925
171	0xbbbc99c8	-0.005755637
172	0x3d395fff	0.045257565
173	0xbdcdc8e6	-0.10048084
174	0x3be1f9f1	0.0068962504
175	0x3cecf033	0.02892313
176	0x3e35d3bd	0.17756553
177	0xbe0fd81b	-0.14047281
178	0x3ccabc39	0.024747955
179	0xbdebd787	-0.11515718
180	0xbc493b7c	-0.012282249
181	0xbdbb9147	-0.09158569
182	0xbdb07818	-0.08616656
183	0x3c0783b1	0.008271144
184	0xbdd58307	-0.10425382
185	0xb8c4f2ee	-9.3912575e-05
186	0xbd457554	-0.048207596
187	0xbdbc2024	-0.09185818
188	0xbda2765a	-0.0793273
189	0xbd1bcf1a	-0.038039304
190	0xbce627ed	-0.02809521
191	0xbda84247	-0.082157664
192	0x3d313f9d	0.043273557
193	0xbdd74133	-0.10510483
194	0xbd6e59bf	-0.058191057
195	0xbca0e3b0	-0.01963982
196	0xbd7a0f55	-0.061049778
197	0xbd15d7f1	-0.03658289
198	0x3eda30ca	0.42615348
199	0x3f01aa70	0.5065069
200	0x3e4bbf5a	0.19897214
201	0xbf23f51e	-0.64045894
202	0xbc9cbd6b	-0.01913329
203	0xbdba728e	-0.09103881
204	0xbe33f1ad	-0.1757266
205	0xbbd5f42d	-0.006529352
206	0xbc18836c	-0.009308677
207	0x3e05a16b	0.13049857
208	0xbc61f757	-0.013791881
209	0xbe2e1741	-0.17001058
210	0xbd954a7d	-0.07289598
211	0xbd4810d6	-0.04884418
212	0x3c337568	0.010953285
213	0xbd205c6c	-0.03915064
214	0xbc4b12c0	-0.012394607
215	0xbdecc751	-0.11561454
216	0x3e8539e5	0.26020733
217	0xbf5476ae	-0.8299359
218	0xbda2da4b	-0.07951792
219	0xbd3dc175	-0.046327073
220	0x3f1fcd0f	0.6242227
221	0xbec5aafa	-0.38607007
222	0xbe05bf48	-0.1306125
223	0x3c324281	0.010880114
224	0xbd72d980	-0.059289455
225	0xbd152f84	-0.036422268
226	0xbd2b572f	-0.04183119
227	0xbd54fe3b	-0.052000266
228	0xbd7f1f67	-0.062285807
229	0x3d00e36d	0.03146689
230	0xbd90246d	-0.07038198
231	0x3ccf4c06	0.025304805
232	0x3c1db7d3	0.009626347
233	0xbd5933d0	-0.053027928
234	0xbd269e2e	-0.040678196
235	0xbda2d615	-0.07950989
236	0xbd0ae95d	-0.03391396
237	0xbd31c349	-0.04339913
238	0xbd9c1c52	-0.07622589
239	0x3f2e22c8	0.6802182
240	0xbc4ea6da	-0.012613023
241	0xbd5d10f9	-0.053971265
242	0x3c833e13	0.01602081
243	0xbd8f4ff9	-0.069976754
244	0xbd1cb80d	-0.038261462
245	0xbda24ff5	-0.07925407
246	0x3d27a07a	0.040924527
247	0xbd8653dd	-0.065589644
248	0xbe380de0	-0.17974043
249	0x3d9a1b94	0.07524791
250	0xbccfc747	-0.025363578
251	0xbd833d8e	-0.06408225
252	0xbdf18456	-0.11792819
253	0xbd6e2a9a	-0.058146097
254	0xbb2400b1	-0.0025024826
255	0xbbe4439a	-0.0069660665

bias f4 [256]
0	0x00000000	0.0
1	0xbd6e7535	-0.058217246
2	0xbdc6b367	-0.09702187
3	0xbd98a659	-0.07453603
4	0xbd8fa4e0	-0.07013869
5	0x3dc4cabb	0.0960898
6	0xbd82b075	-0.06381313
7	0xbdb13dfa	-0.08654399
8	0xbd91f0ce	-0.07126008
9	0x00000000	0.0
10	0x00000000	0.0
11	0xbd7bc729	-0.06146923
12	0xbd7ab15e	-0.061204307
13	0xbd4702c9	-0.04858664
14	0xbd32ccaf	-0.043652233
15	0xbd91062f	-0.070812576
16	0xbd42e056	-0.047577225
17	0x3eb3959c	0.3507508
18	0x00000000	0.0
19	0xbe34b360	-0.17646551
20	0xbd75fc3a	-0.060054995
21	0xbd75263b	-0.059850913
22	0xbd8b1299	-0.067906566
23	0xbd704317	-0.05865773
24	0xbd6c102a	-0.057632603
25	0xbd52379d	-0.05132257
26	0xbe02e345	-0.12782009
27	0x00000000	0.0
28	0xbe635960	-0.22202063
29	0xbd70dd26	-0.058804654
30	0xbd915b47	-0.07097488
31	0xbd8d33d1	-0.06894649
32	0xbd8f4b1c	-0.06996748
33	0xbd8faac4	-0.07014993
34	0x00000000	0.0
35	0xbe921f47	-0.28539488
36	0x00000000	0.0
37	0x00000000	0.0
38	0x00000000	0.0
39	0x00000000	0.0
40	0x00000000	0.0
41	0xbd75fc31	-0.06005496
42	0xbe553bf6	-0.20823655
43	0x00000000	0.0
44	0xbe3fb5a7	-0.18721639
45	0x00000000	0.0
46	0xbdf30030	-0.1186527
47	0xbd3b28c8	-0.04569319
48	0xbd74ec25	-0.059795517
49	0xbd01c2f1	-0.03168005
50	0xbd75fc35	-0.060054976
51	0xbdafb2fa	-0.08579059
52	0xbda30d27	-0.07961493
53	0xbd1f8c4c	-0.038952157
54	0xbd839998	-0.0642578
55	0xbd856486	-0.06513314
56	0xbe51f683	-0.20504193
57	0x00000000	0.0
58	0x00000000	0.0
59	0xbd522bdd	-0.051311363
60	0xbda40200	-0.08008194
61	0x00000000	0.0
62	0xbd341ec3	-0.04397465
63	0xbda45808	-0.08024603
64	0xbd8a02ee	-0.0673884
65	0xbd487403	-0.048938762
66	0xbdb1ffb4	-0.086913496
67	0xbd804afb	-0.062643014
68	0xbd3de576	-0.04636141
69	0x00000000	0.0
70	0x3d94c880	0.07264805
71	0xbd3114ae	-0.043232612
72	0x00000000	0.0
73	0xbd7bec1b	-0.061504465
74	0xbd8bd8fb	-0.06828495
75	0xbd19d645	-0.03755786
76	0xbd9a7e87	-0.075436644
77	0xbde279c1	-0.11058379
78	0x00000000	0.0
79	0xbd3410fc	-0.04396151
80	0xbd3942fc	-0.045229897
81	0xbd634f8b	-0.05549578
82	0xbda377d9	-0.079818435
83	0xbe3711f2	-0.1787794
84	0x00000000	0.0
85	0x00000000	0.0
86	0xbd4f2f8c	-0.050582454
87	0xbd10bf50	-0.0353387
88	0xbe2c4291	-0.16822268
89	0xbd1aff4f	-0.037841137
90	0x00000000	0.0
91	0xbd8801de	-0.06640981
92	0x00000000	0.0
93	0xbd75fc38	-0.060054988
94	0xbd3cc0c6	-0.04608228
95	0x00000000	0.0
96	0xbdaa4ab8	-0.08315033
97	0x00000000	0.0
98	0xbd4b1391	-0.049579207
99	0xbe9dc2c9	-0.30812672
100	0x3e259859	0.16171397
101	0xbd24ff98	-0.040282816
102	0xbd77a2d0	-0.060458004
103	0xbe0b3975	-0.13596137
104	0xbd75c176	-0.05999895
105	0xbd75fc42	-0.060055025
106	0xbd86c316	-0.065801784
107	0x00000000	0.0
108	0x3e64040b	0.22267167
109	0x00000000	0.0
110	0xbdbcba61	-0.092152365
111	0xbc261d7e	-0.010138867
112	0xbd8fa47f	-0.07013797
113	0xbd8fe91e	-0.070268854
114	0xbd5c9ed2	-0.0538624
115	0xbd85278e	-0.06501685
116	0xbd175b3d	-0.036952246
117	0xbd75fc3a	-0.060054995
118	0xbd78165f	-0.06056821
119	0xbe1dd2eb	-0.1541249
120	0xbda4a193	-0.0803863
121	0xbd96bf10	-0.07360661
122	0x00000000	0.0
123	0xbd241e60	-0.04006803
124	0xbd909624	-0.07059887
125	0x00000000	0.0
126	0xbd29660d	-0.04135709
127	0x00000000	0.0
128	0xbd8bbbcb	-0.06822928
129	0xbd727a2a	-0.059198536
130	0xbd69d4cd	-0.05708771
131	0xbd5612f1	-0.052264158
132	0xbd8e58c9	-0.06950528
133	0xbda32485	-0.0796595
134	0x00000000	0.0
135	0xbd3e1383	-0.046405327
136	0xbd75fc44	-0.060055032
137	0xbd6486e5	-0.055792708
138	0xbe6ecab9	-0.2331952
139	0xbd87dc16	-0.06633775
140	0xbd27d51e	-0.04097473
141	0x3e0272d6	0.12739119
142	0x00000000	0.0
143	0x00000000	0.0
144	0x00000000	0.0
145	0x00000000	0.0
146	0xbd9ab1fc	-0.07553479
147	0xbd76ced4	-0.06025584
148	0x3e83f17c	0.25770175
149	0xbe914383	-0.2837182
150	0xbd5a549b	-0.053303342
151	0xbd22e014	-0.03976448
152	0xbd700195	-0.05859526
153	0xbd3e3a8e	-0.04644256
154	0xbdf0ef10	-0.117643476
155	0xbd93caf7	-0.07216447
156	0xbd75fc38	-0.060054988
157	0xbe7cd1a1	-0.24689342
158	0x00000000	0.0
159	0xbd306fb3	-0.043075275
160	0xbd947de0	-0.07250571
161	0x00000000	0.0
162	0xbd47ed8c	-0.048810527
163	0xbd75fc2c	-0.060054943
164	0xbd63b0c4	-0.0555885
165	0x00000000	0.0
166	0x00000000	0.0
167	0xbdc603da	-0.096687034
168	0xbd9774ec	-0.07395348
169	0xbe622c4e	-0.22087213
170	0x00000000	0.0
171	0x00000000	0.0
172	0xbd57ac2f	-0.05265444
173	0x3e8c8444	0.2744466
174	0x00000000	0.0
175	0xbd88b24e	-0.06674634
176	0xbd8661f6	-0.06561653
177	0x00000000	0.0
178	0xbd964a7a	-0.07338424
179	0xbd71424d	-0.05890112
180	0x00000000	0.0
181	0xbd17c00a	-0.037048377
182	0xbd48e47b	-0.04904602
183	0xbd6bfea7	-0.057615902
184	0xbd8c0a82	-0.06837942
185	0x00000000	0.0
186	0x00000000	0.0
187	0xbd75fc41	-0.06005502
188	0xbd786ae4	-0.060648814
189	0x00000000	0.0
190	0x00000000	0.0
191	0xbdb8866d	-0.09010015
192	0x00000000	0.0
193	0xbda2cb54	-0.07948938
194	0x00000000	0.0
195	0x00000000	0.0
196	0xbd75fc44	-0.060055032
197	0xbd37f6d9	-0.044913147
198	0xbda9a0e5	-0.08282641
199	0x3e32e20e	0.17469046
200	0xbde01148	-0.10940796
201	0xbe948715	-0.2900931
202	0x00000000	0.0
203	0x00000000	0.0
204	0xbd2baecd	-0.04191475
205	0x3cd1c2eb	0.02560564
206	0xbda1165c	-0.07865593
207	0xbdb1b5a2	-0.08677222
208	0x00000000	0.0
209	0x00000000	0.0
210	0xbe181a55	-0.14853795
211	0xbd75fc33	-0.06005497
212	0x00000000	0.0
213	0xbd721a05	-0.059106845
214	0xbd29abf6	-0.04142376
215	0xbd8c26e4	-0.06843355
216	0xbd9d3899	-0.07676811
217	0xbd9fa10e	-0.077943906
218	0xbdc462f1	-0.09589184
219	0xbe5ab133	-0.21356659
220	0xbd75fc42	-0.060055025
221	0xbd3b71cd	-0.045762826
222	0xbd95510e	-0.072908506
223	0xbd75fc3c	-0.060055003
224	0xbdb2e9a2	-0.08735968
225	0xbd1cd02e	-0.038284473
226	0xbda8d6fe	-0.082441315
227	0x00000000	0.0
228	0x3e682be0	0.22672987
229	0xbe44c7f4	-0.19216901
230	0xbea3db57	-0.3200328
231	0xbd42a5e5	-0.04752149
232	0x00000000	0.0
233	0xbd821445	-0.06351522
234	0xbd75fc12	-0.060054846
235	0xbdaa31de	-0.08310293
236	0xbd877340	-0.06613779
237	0xbd75fc1a	-0.060054876
238	0xbd2b1df7	-0.041776624
239	0xbd31ca03	-0.043405544
240	0xbd6bbe3e	-0.057554476
241	0xbd75fbe9	-0.060054693
242	0xbd75fc36	-0.06005498
243	0xbda0495f	-0.078264944
244	0x00000000	0.0
245	0x00000000	0.0
246	0x00000000	0.0
247	0xbe723b31	-0.23655392
248	0xbcd78db7	-0.026312692
249	0xbe2502f4	-0.16114408
250	0xbd3787da	-0.044807293
251	0xbd48d0ff	-0.04902744
252	0xbd333e9b	-0.043760877
253	0x00000000	0.0
254	0x00000000	0.0
255	0xbd70533d	-0.058673132

weight f4 [256, 256]
0	0x3c295600	0.010335445
1	0xbd868aae	-0.0656942
2	0xbe145798	-0.1448654
3	0x3d67150d	0.05641656
4	0x3cb5a719	0.022174405
5	0xbdd28598	-0.10279387
6	0xbd9dddd9	-0.0770833
7	0x3e1288b1	0.14309956
8	0x3d9f3ee8	0.0777567
9	0xbe18c777	-0.1491984
10	0x3da372bb	0.079808675
11	0x3d9b15e5	0.075725354
12	0x3e15ebfa	0.14640799
13	0xbe252c62	-0.16130212
14	0xbd1fb82b	-0.038993996
15	0xbdd9eb06	-0.1064053
16	0x3c175a3a	0.00923782
17	0xbe34a76c	-0.17641991
18	0xbccd647a	-0.025072325
19	0x3cd44ff3	0.025917029
20	0x3df7c8e5	0.120988645
21	0x3dfccc07	0.12343603
22	0x3c1ef88d	0.009702814
23	0xbcf65071	-0.030067654
24	0xbd8f3368	-0.06992227
25	0x3d4beee6	0.04978838
26	0xbd18aede	-0.03727614
27	0x3d355e66	0.04427948
28	0xbe1291b9	-0.14313401
29	0xbddd61d4	-0.10809675
30	0xbd98a1b3	-0.07452717
31	0x3ceb1e76	0.028701048
32	0xbd38ccd1	-0.045117203
33	0x3d15cad8	0.0365704
34	0xbd3dd582	-0.046346195
35	0xbcf36d0e	-0.029715087
36	0xbda72e72	-0.081631556
37	0x3c964979	0.018345581
38	0xbd0c96bb	-0.034323435
39	0xbbf2fa17	-0.007415067
40	0x3b469b44	0.0030304948
41	0xbd9970f8	-0.0749225
42	0xbd402f66	-0.046920203
43	0x3cacce68	0.021094516
44	0xbe6d02e7	-0.23145638
45	0x3d86cdfe	0.06582259
46	0xbe2477bc	-0.160613
47	0xbd050180	-0.032472134
48	0xbdd01483	-0.10160162
49	0x3e1be678	0.15224636
50	0x3b385908	0.0028129239
51	0xbe2b704f	-0.16742061
52	0x3db01664	0.08598021
53	0x3ca532fb	0.020165911
54	0xbc899fec	-0.01679989
55	0xbcc5149a	-0.024057675
56	0xbd800a75	-0.062519945
57	0x3d414dec	0.047193453
58	0xbb8f1586	-0.0043665795
59	0xbe084200	-0.13306427
60	0xbd7f55cd	-0.062337685
61	0x3cbccfd7	0.023048325
62	0xbd08073c	-0.033210024
63	0x3b8e3790	0.0043401197
64	0xbbec7d41	-0.00721708
65	0xbdaf76f0	-0.085676074
66	0xbe15574f	-0.14584087
67	0x3cb6ed9a	0.022330094
68	0xba9967eb	-0.0011703944
69	0xbd368a7f	-0.044565674
70	0xbd483290	-0.048876345
71	0x3d160fa2	0.036636002
72	0xbd812ace	-0.063069925
73	0x3b1c1801	0.0023818018
74	0x3dda86ff	0.1067028
75	0xbdd986da	-0.10621424
76	0x3d46f1b8	0.048570365
77	0xbdadc6d7	-0.08485191
78	0x3dd165b2	0.10224475
79	0xbe06024f	-0.13086818
80	0xbe0a5769	-0.13509907
81	0xbd1983a6	-0.037479065
82	0xbd2fdb3c	-0.042933688
83	0xbe0193ba	-0.1265401
84	0xbe05a0c3	-0.13049607
85	0x3d9fba0e	0.07799159
86	0x3d2158bd	0.039391268
87	0xbdba0bf9	-0.09084315
88	0xbd1e2ba8	-0.038615853
89	0xbdbbf82b	-0.09178194
90	0xbd22e7e7	-0.03977194
91	0xbdefc5d2	-0.11707653
92	0xbccdfc1e	-0.025144633
93	0xbbb99ac6	-0.0056642024
94	0xbd18b9ef	-0.037286695
95	0xbd8757bb	-0.0660853
96	0xbdc8a013	-0.09796157
97	0x3d9bac44	0.076012164
98	0x3cca8b50	0.024724633
99	0xbdc9bc60	-0.09850383
100	0xbe120871	-0.14261033
101	0x3d72b701	0.059256557
102	0x3d53c65f	0.051702853
103	0xbdb0ba41	-0.08629275
104	0x3d4abc3e	0.049495928
105	0x3ba8c358	0.00515024
106	0x3d99d2e2	0.07510926
107	0x3baacf30	0.005212687
108	0xbbc10b4c	-0.0058912393
109	0x3cdacfce	0.026710417
110	0xbdd84d2c	-0.10561594
111	0xbd867c9a	-0.065667346
112	0xbe0713c2	-0.13191131
113	0x3c441b33	0.011969375
114	0xbdd9c315	-0.10632912
115	0xbdf6e32e	-0.1205505
116	0xbcf88a84	-0.030339487
117	0xbd11bc0e	-0.035579734
118	0xbd9a9b5e	-0.07549165
119	0xbe033152	-0.12811783
120	0x3cc685f9	0.024233805
121	0xbd4f0cc1	-0.050549272
122	0xbda28c2b	-0.07936891
123	0x3d2e0adc	0.042490825
124	0xbd9a6dc5	-0.07540468
125	0x3d24a0e3	0.040192496
126	0x3d9ddada	0.07707758
127	0x3b7ddb40	0.003873542
128	0xbd24f2cb	-0.040270608
129	0xbdd4ef8c	-0.103972524
130	0xbd8f230b	-0.06989106
131	0xbd7e0be1	-0.062023047
132	0xba309e9c	-0.0006737502
133	0xbc867947	-0.016415251
134	0xbb87d9bf	-0.0041458304
135	0xbe06114a	-0.13092533
136	0x3d842329	0.06452019
137	0xbe24ef36	-0.16106877
138	0xbe128adc	-0.14310783
139	0xbd807f0c	-0.06274232
140	0xbd1d11b4	-0.03834696
141	0xbe269b34	-0.16270143
142	0xbd5fe380	-0.05466032
143	0xbd59884a	-0.05310849
144	0x3e1361a8	0.14392722
145	0x3d565716	0.052329145
146	0xbe23325a	-0.15937176
147	0xbd48721e	-0.048936956
148	0x3c0d2ced	0.008616668
149	0xbdec2fce	-0.115325555
150	0xbd8b77db	-0.0680997
151	0xbdf90657	-0.12159412
152	0xbdbe4ca6	-0.09291963
153	0xbdb7a77d	-0.08967493
154	0xbda9e4de	-0.08295606
155	0xbcf30e9c	-0.029670052
156	0x3dddf974	0.10838595
157	0xbe3a70eb	-0.18207137
158	0xbc382b04	-0.0112407245
159	0xbd7e346b	-0.06206171
160	0xbc284527	-0.010270393
161	0xbd424f84	-0.047439113
162	0xbd4d614f	-0.05014163
163	0xbb67661e	-0.003530867
164	0x3d6788dc	0.056527004
165	0x3b812414	0.0039410684
166	0xbe107a22	-0.1410909
167	0x3b510ceb	0.003189857
168	0x3dc5c3b9	0.09656472
169	0xbd85eefa	-0.06539722
170	0xbd54048c	-0.05176215
171	0x3db9ebde	0.09078191
172	0xbd55120e	-0.05201917
173	0xbda45282	-0.080235496
174	0x3c24cc34	0.010058451
175	0x3cfdec9c	0.030996613
176	0x3cc7b308	0.024377361
177	0xbd489a1a	-0.048975088
178	0xbd1ddb3b	-0.038539153
179	0xbc9a949e	-0.018869694
180	0x3d3ba2a0	0.04580939
181	0xbc1c2034	-0.009529162
182	0xbd70b744	-0.058768526
183	0xbd2c5828	-0.04207626
184	0x3df0c7df	0.117568724
185	0xbca2abe5	-0.019857356
186	0x3daba19c	0.08380434
187	0xbdedf5dd	-0.1161916
188	0xbddab7a3	-0.10679557
189	0x3c9132d8	0.01772444
190	0xbd6b0a5c	-0.057382926
191	0xbbb8eb50	-0.005643286
192	0xbc69d0d3	-0.014270979
193	0xbd5d0a6c	-0.053965017
194	0xbd929f76	-0.07159321
195	0xbda41311	-0.08011449
196	0x3dd67705	0.1047192
197	0xbe005f81	-0.12536432
198	0xbe626d91	-0.22112109
199	0xbdcb4f18	-0.09927195
200	0xbd6b5e61	-0.057463054
201	0x3d85a1fc	0.06525037
202	0x3c8b4e37	0.01700507
203	0x3c27fc12	0.010252969
204	0xbd6b8817	-0.057502832
205	0xbda3d53c	-0.079996556
206	0x3d6dffea	0.058105387
207	0x3cfac4f6	0.030611496
208	0x3d0637be	0.032768004
209	0xbd411982	-0.047143467
210	0xbc8d721e	-0.01726633
211	0x3c9370eb	0.01799818
212	0x3cbc3a3d	0.022976989
213	0xbd84faff	-0.06493186
214	0xbc77fd95	-0.015136142
215	0x3cd23e2b	0.02566441
216	0xbdbc0986	-0.09181504
217	0xbd601305	-0.05470564
218	0x3b36df09	0.0027903935
219	0xbd3fda69	-0.04683915
220	0x3d8c4de8	0.06850797
221	0xbd7862b9	-0.060641024
222	0xbdd4e3d3	-0.103950165
223	0x3d9d7430	0.07688177
224	0xbcdff9e3	-0.027340835
225	0xbd593634	-0.053030208
226	0x3d3b3a0d	0.04570966
227	0xba921110	-0.0011144001
228	0xbccc259c	-0.024920277
229	0xbde01194	-0.10940853
230	0xbda0130c	-0.07816133
231	0xbd2dc948	-0.042428285
232	0xbd2f28be	-0.042763464
233	0xbd9c8d67	-0.07644158
234	0x3c9c21d0	0.019059092
235	0xbbef25c8	-0.007298205
236	0x3c8fa6cd	0.017535591
237	0x3def84b3	0.11695232
238	0x3b97f29c	0.0046370756
239	0xbdd8afa0	-0.10580373
240	0xbd2e3ec5	-0.04254033
241	0x3d9553f3	0.07291403
242	0xbe0f82ce	-0.14014742
243	0xbdb3557e	-0.08756541
244	0xbd2b69b5	-0.041848857
245	0xbc96d0a7	-0.01841004
246	0x3cf59a6a	0.029980857
247	0xbc7d54ed	-0.015462142
248	0xbdf645b7	-0.12025016
249	0xbc87f132	-0.016594503
250	0xbc912141	-0.017716052
251	0x3c872c91	0.016500743
252	0xbd84b352	-0.06479515
253	0x3cc07ad9	0.023496078
254	0xbdaaba65	-0.08336333
255	0xbe06f64d	-0.13179894

bias f4 [256]
0	0xbd6bca10	-0.05756575
1	0x3d4ac193	0.049501013
2	0xbd433b71	-0.04766411
3	0x3e174d3a	0.14775553
4	0xbdf933f2	-0.12168111
5	0xbe1229d1	-0.14273764
6	0xbd547ab7	-0.051874842
7	0xbd8026df	-0.06257414
8	0xbd92c016	-0.07165544
9	0xbe3058f3	-0.17221431
10	0xbd75fc40	-0.060055017
11	0xbd1e0aea	-0.038584627
12	0xbd7d7c59	-0.061886165
13	0xbd75fc44	-0.060055032
14	0xbd75fc42	-0.060055025
15	0xbc0123ae	-0.007882042
16	0x3e85ab8e	0.26107448
17	0xbd38ffce	-0.04516583
18	0xbd532a8f	-0.05155426
19	0xbd3eceea	-0.046584047
20	0xbea5e268	-0.32399297
21	0xbd354b6d	-0.044261385
22	0xbcedfac0	-0.029050231
23	0xbd75fc31	-0.06005496
24	0xbd47200c	-0.048614547
25	0xbe6dcf26	-0.23223552
26	0xbd75fc10	-0.06005484
27	0xbdada718	-0.08479136
28	0x3d8eb172	0.06967439
29	0xbd75fc44	-0.060055032
30	0xbd44e03a	-0.0480654
31	0x3f00048b	0.5000693
32	0x00000000	0.0
33	0x3e4bef36	0.1991547
34	0x3dfdf93e	0.12401055
35	0xbd75fc45	-0.060055036
36	0xbd496111	-0.049164835
37	0xbd75fc42	-0.060055025
38	0xbd3e0aaf	-0.046396907
39	0xbd73a55c	-0.05948387
40	0xbd3e393a	-0.046441294
41	0xbd75fc44	-0.060055032
42	0xbe87c347	-0.26516172
43	0xbd37f65e	-0.04491269
44	0xbd6a3606	-0.057180427
45	0xbd6dc34e	-0.058047585
46	0xbd75fc41	-0.06005502
47	0xbd75fc42	-0.060055025
48	0xbd5b02e2	-0.053469546
49	0xbd87aae7	-0.06624394
50	0xbd58e40c	-0.052951857
51	0xbca3f119	-0.020012425
52	0x3e817875	0.25287214
53	0xbd790cb6	-0.060803138
54	0xbd547c69	-0.05187646
55	0xbd447a72	-0.047968335
56	0xbd53a60e	-0.051672034
57	0xbd35df46	-0.044402383
58	0xbd44d613	-0.04805572
59	0xbd75fc42	-0.060055025
60	0x3da8ab33	0.08235779
61	0xbd75fc43	-0.06005503
62	0xbd81276c	-0.06306347
63	0xbd5b034a	-0.053469934
64	0xbd385e72	-0.045011945
65	0xbd75fc41	-0.06005502
66	0xbd7c119d	-0.061540235
67	0xbd759a34	-0.059961513
68	0xbdef5e38	-0.11687893
69	0xbd1f7809	-0.038932834
70	0xbe08a46e	-0.13343975
71	0xbc5a1966	-0.0133117195
72	0xbd4f1520	-0.050557256
73	0x3e4c4832	0.19949415
74	0xbd522b6f	-0.051310953
75	0x00000000	0.0
76	0xbcee46bd	-0.029086465
77	0x3ea8d084	0.32971585
78	0x3ea37a33	0.31929168
79	0x3dd5a19e	0.10431217
80	0xbd75fc41	-0.06005502
81	0x3da93684	0.08262351
82	0xbea2ed87	-0.31821844
83	0xbd652307	-0.055941608
84	0x3d78734d	0.060656834
85	0x3e15fabd	0.1464643
86	0xbd228feb	-0.039688032
87	0xbd75fc42	-0.060055025
88	0xbd70d033	-0.058792304
89	0xbcd61325	-0.026132176
90	0xbba89b97	-0.005145501
91	0xbd3533fe	-0.044239037
92	0xbd897940	-0.0671258
93	0xbd7cbd62	-0.061704047
94	0xbd75fc40	-0.060055017
95	0xbd5b03df	-0.05347049
96	0xbd75fc42	-0.060055025
97	0xbd536780	-0.051612377
98	0xbce7abfa	-0.028280247
99	0x3db07358	0.0861575
100	0xbd75fc31	-0.06005496
101	0xbd5b03e0	-0.053470492
102	0xbd75fc42	-0.060055025
103	0xbcdbd92c	-0.026836954
104	0xbd4102aa	-0.04712168
105	0x3ede8d35	0.43467107
106	0xbd75fc42	-0.060055025
107	0xbd2547c9	-0.040351663
108	0x3bd49afa	0.006488201
109	0xbd1f3a2a	-0.03887383
110	0xbd451fd8	-0.04812607
111	0x3eada5e6	0.33915633
112	0xbd562aa0	-0.052286744
113	0xbd75fc3d	-0.060055006
114	0x3e85525c	0.26039398
115	0xbd562b83	-0.05228759
116	0xbda1e51c	-0.07905027
117	0xbce03d78	-0.02737306
118	0xbd75fc3d	-0.060055006
119	0xbd62469c	-0.05524312
120	0x3e7b4c6f	0.24540876
121	0xbd562b63	-0.05228747
122	0xbd8682d5	-0.06567923
123	0xbd75fc40	-0.060055017
124	0xbd75fc44	-0.060055032
125	0xbd84ef24	-0.06490925
126	0xbd966bdd	-0.07344792
127	0xbd308ff4	-0.043106034
128	0xbe4ae408	-0.1981355
129	0xbd63b134	-0.055588916
130	0xbd75fc47	-0.060055044
131	0xbcebe33e	-0.028794881
132	0xbd75fc3d	-0.060055006
133	0xbd518df1	-0.051160756
134	0xbd6a2387	-0.057162788
135	0xbd63b09f	-0.05558836
136	0xbd75fc42	-0.060055025
137	0xbd3056d5	-0.04305156
138	0xbd516f44	-0.0511315
139	0xbd82a0c4	-0.0637832
140	0xbd75fc44	-0.060055032
141	0x3f20e3e9	0.62847763
142	0x00000000	0.0
143	0xbd75fc3c	-0.060055003
144	0xbd3ae1f8	-0.045625657
145	0x3e72ef90	0.23724198
146	0xbd35f63c	-0.04442428
147	0xbdb1ebad	-0.0868753
148	0xbd750a10	-0.05982405
149	0xbd75f33a	-0.060046412
150	0xbcd8f44b	-0.026483675
151	0xbd2b9db8	-0.04189846
152	0xbd547bf8	-0.05187604
153	0xbd75fc42	-0.060055025
154	0x3e506d78	0.20354259
155	0x3eb7640e	0.35818523
156	0xbd75fc46	-0.06005504
157	0xbd63b124	-0.055588856
158	0xbd332ead	-0.043745685
159	0x3eddc61d	0.4331521
160	0xbb3dbdc0	-0.002895221
161	0xbd75fc42	-0.060055025
162	0xbca6bead	-0.020354593
163	0xbd4346ac	-0.04767482
164	0xbd564759	-0.052314136
165	0x3e6924a0	0.22767878
166	0x3e82185e	0.25409216
167	0xbd7735f6	-0.060354196
168	0xbd317ff0	-0.0433349
169	0x3e01dcdc	0.12681907
170	0xbd75fc3a	-0.060054995
171	0xbd6c73df	-0.05772769
172	0x3d26065c	0.04053341
173	0xbdf49f6a	-0.11944468
174	0xbd3c325c	-0.045946464
175	0xbd547c60	-0.051876426
176	0xbd6c7207	-0.057725932
177	0xbd0c0912	-0.034188338
178	0xbd3c396b	-0.045953196
179	0x3df2b5d1	0.11851085
180	0xbd0564f7	-0.03256699
181	0xbd8f4c63	-0.069969915
182	0xbd2d3ebd	-0.04229616
183	0xbd5406fe	-0.05176448
184	0xbd325430	-0.04353732
185	0xbd1d6571	-0.03842682
186	0x3e49d872	0.19711474
187	0xbd3bdc55	-0.045864422
188	0xbd745a0e	-0.059656195
189	0xbd75fc1e	-0.06005489
190	0xbd87fa7c	-0.06639573
191	0xbd75fc42	-0.060055025
192	0xbd562b39	-0.052287314
193	0xbd0525fa	-0.03250692
194	0xbd3160b4	-0.043305114
195	0xbd75fc40	-0.060055017
196	0xbd371508	-0.04469779
197	0xbd5b03bc	-0.05347036
198	0xbc9f1476	-0.019418936
199	0xbd75fc42	-0.060055025
200	0x3e389435	0.18025286
201	0xbd562a82	-0.052286632
202	0xbd75fc3c	-0.060055003
203	0xbd863609	-0.06553275
204	0xbd75fc42	-0.060055025
205	0x3ddb37e2	0.10704018
206	0xbd9a1497	-0.075234585
207	0xbd1b219e	-0.037873857
208	0x3da1cbf5	0.0790023
209	0xbd21b6d8	-0.039481014
210	0x3e003318	0.1251949
211	0xbe1cad19	-0.15300407
212	0x3e9c96ec	0.30583894
213	0xbd8c9a07	-0.06865316
214	0xbd5b0323	-0.05346979
215	0xbd3c511b	-0.045975786
216	0xbcce80b4	-0.025207855
217	0xbd75fc46	-0.06005504
218	0xbdecba4b	-0.1155897
219	0xbd81c41d	-0.06336234
220	0xbdb5c71a	-0.08875866
221	0x3c2fec69	0.010737517
222	0xbd421584	-0.0473838
223	0xbddd39cb	-0.10802039
224	0xbd06bb33	-0.03289337
225	0xbd30a571	-0.043126527
226	0xbd841b4f	-0.06450521
227	0xbd75fba9	-0.060054455
228	0xbd43d8ed	-0.0478143
229	0xbd66cc90	-0.05634743
230	0xbd75fc40	-0.060055017
231	0xbd1d6239	-0.03842375
232	0xbd75fc42	-0.060055025
233	0xbe5b2e72	-0.21404436
234	0xbd37fe99	-0.044920538
235	0xbd75fc46	-0.06005504
236	0xbe2fef14	-0.17181045
237	0xbd323790	-0.04351002
238	0xbd881eee	-0.06646524
239	0xbdad6c7b	-0.08467957
240	0xbd63b103	-0.055588733
241	0xbe268b7b	-0.16264145
242	0xbd6963af	-0.05697983
243	0xbdb89817	-0.09013384
244	0x3ed76be1	0.42074493
245	0xbd57231d	-0.05252372
246	0xbd75fc42	-0.060055025
247	0xbd464768	-0.048407942
248	0xbe33d356	-0.17561087
249	0xbd5369b3	-0.051614475
250	0xbe1a6d23	-0.15080695
251	0xbdd56641	-0.10419894
252	0xbd48b9c1	-0.049005274
253	0xbd2d1c98	-0.042263597
254	0xbd547c1d	-0.051876176
255	0xbd75fc46	-0.06005504

weight f4 [8, 256]
0	0xbe2566b5	-0.16152461
1	0xbfc1448f	-1.5099047
2	0xbd74627f	-0.059664246
3	0x3fc9ae75	1.5756365
4	0x3db1c14d	0.08679447
5	0xbf518ff6	-0.8186029
6	0xbaccd8bb	-0.0015628556
7	0x3d2fbc11	0.042903963
8	0xbe51bc24	-0.20481926
9	0x3d030db8	0.031995505
10	0x3e0efc4c	0.13963431
11	0xbe1ff41a	-0.15620461
12	0xbdf96fb8	-0.12179512
13	0xbe37c3ef	-0.17945836
14	0xbd83d3f5	-0.06436912
15	0x3ea9e626	0.33183402
16	0x3e5226c6	0.20522603
17	0xbd8e2ef7	-0.069425516
18	0xbdd397af	-0.10331666
19	0x3d3ea270	0.04654163
20	0x3cb7c2f9	0.022431837
21	0xbcb79338	-0.022409067
22	0x3dc18852	0.09449829
23	0xbdf014fb	-0.11722752
24	0x3d96fb32	0.073721305
25	0x3e7ebb98	0.24876249
26	0x3e01790b	0.1264383
27	0x39ac6088	0.00032878318
28	0xbf641ca5	-0.8910621
29	0x3e1887a3	0.14895491
30	0x3cc003e9	0.023439365
31	0xbfa34a44	-1.2757039
32	0x3b9f5b3b	0.0048631704
33	0xbf8cd8e0	-1.1003685
34	0x402315ec	2.548213
35	0x3bfa9b0b	0.007647877
36	0xbd771b28	-0.060328633
37	0x3e425355	0.18977101
38	0xbdbcf095	-0.09225575
39	0xbc7a7194	-0.015285868
40	0x3e02a6e0	0.1275897
41	0xbe0134bb	-0.12617771
42	0xbd9e2785	-0.077223815
43	0xbd32b10d	-0.04362588
44	0xbe298ffc	-0.16558832
45	0x3dad5b6a	0.084647015
46	0xbbac7b00	-0.005263686
47	0x3dd8033a	0.105474904
48	0xbd401c2a	-0.04690186
49	0x3da54a2d	0.080707885
50	0x3e1cd823	0.15316825
51	0x3e2f6f29	0.17132248
52	0x3d85c2ef	0.06531321
53	0x3d0992b9	0.03358719
54	0x3d214c6a	0.039379515
55	0xbd172242	-0.036897905
56	0xbcb0e44d	-0.021593237
57	0x3e25f672	0.16207293
58	0xbd41bf56	-0.047301613
59	0xbce6ee7c	-0.02818989
60	0xc02fb00a	-2.7451196
61	0xbdf6a202	-0.12042619
62	0xbd928d94	-0.0715591
63	0x3c87fa94	0.016598977
64	0xbddd821f	-0.10815834
65	0x3b848f24	0.004045384
66	0xbe4dba10	-0.20090508
67	0x3d83ad4b	0.064295374
68	0x3dfe3952	0.12413277
69	0x3d8b289a	0.067948535
70	0xbd0f8e39	-0.035047743
71	0x3f574de1	0.8410321
72	0x3dabc308	0.08386809
73	0x4043be62	3.058495
74	0x3dd897c4	0.10575822
75	0xbc50129e	-0.012699751
76	0x3d1a935f	0.0377382
77	0x3ff62d46	1.9232566
78	0x3fefc26c	1.8731208
79	0x403d3145	2.9561322
80	0xbdae7fe6	-0.085204884
81	0xbff4702f	-1.9096736
82	0x3ef5670f	0.4793019
83	0xbd1c4786	-0.038154148
84	0x3f8fec46	1.124398
85	0xbfd78c37	-1.6839665
86	0x3e1ff1ef	0.15619634
87	0x3df1f09e	0.11813472
88	0xbec398e5	-0.38202587
89	0x3d4a5aad	0.04940288
90	0x3fe4c174	1.7871537
91	0x3d96c64a	0.073620394
92	0x3e3248eb	0.17410628
93	0xbbcb3c64	-0.0062022675
94	0x3d24ee92	0.04026658
95	0x3c61251f	0.0137417605
96	0x3bb95053	0.0056553273
97	0xbc53de0d	-0.012931359
98	0xbf17a651	-0.59238154
99	0xc023e93d	-2.5611107
100	0x3b985db0	0.0046498403
101	0xbd3a4157	-0.04547247
102	0x3d138421	0.03601468
103	0x3dd7b5a6	0.105326936
104	0xbd819519	-0.06327266
105	0xc0cd2978	-6.411312
106	0x3c1758dd	0.009237495
107	0xbcd63cf5	-0.026152113
108	0xbf763a75	-0.9618295
109	0x3e21bdb2	0.1579502
110	0xbe0cd7d9	-0.13754214
111	0x3fd3c470	1.6544323
112	0xbc2e497c	-0.010637637
113	0xbdce51ff	-0.10074233
114	0xc0b66e45	-5.7009606
115	0xbd581ef7	-0.052763905
116	0xbcf66cff	-0.03008127
117	0x3e397309	0.18110289
118	0x3e10a2ba	0.14124575
119	0x3de53162	0.1119106
120	0xbf9a42bd	-1.2051617
121	0xbdc8aef9	-0.097989984
122	0xbc9922c2	-0.018693332
123	0xbd2cec32	-0.04221744
124	0x3dd8fd2f	0.10595166
125	0x3e0b637d	0.1361217
126	0x38e3029e	0.00010824691
127	0x3d67d66d	0.056600977
128	0x3ca36b90	0.01994875
129	0xbd152ed4	-0.036421612
130	0xbe24bfc2	-0.16088775
131	0x3e217b09	0.1576959
132	0xbca62b89	-0.020284431
133	0xbe0d751e	-0.13814208
134	0x3da136e7	0.078718
135	0xbe1192ab	-0.14216106
136	0xbdb5cf09	-0.088773794
137	0x3e13a357	0.14417778
138	0xbe0f7827	-0.14010678
139	0xbe00aaf4	-0.12565213
140	0x3d94dc32	0.072685614
141	0xc0a44bbe	-5.134246
142	0xbd1ec347	-0.03876045
143	0xbc7b746c	-0.015347581
144	0x3db84715	0.08997933
145	0xbf19ca4c	-0.60074306
146	0xbe38b48c	-0.18037623
147	0xbc65a0cf	-0.014015391
148	0xbe3eb9a2	-0.18625501
149	0xbd085452	-0.03328354
150	0x3d3481b2	0.044069
151	0xbe22f22f	-0.15912698
152	0xbd809979	-0.062792726
153	0xbc4cd026	-0.012500798
154	0xbf8ceb11	-1.1009237
155	0x4001cbd1	2.028065
156	0xbb133691	-0.0022462944
157	0x3cd8c3c7	0.026460541
158	0xbcebe0b0	-0.028793663
159	0xc0692013	-3.6425827
160	0xbcfb6965	-0.030689904
161	0x3d53054b	0.05151872
162	0x3f66746f	0.90021414
163	0xbd6d4187	-0.05792382
164	0x3e4228ee	0.18960926
165	0xc0e42d30	-7.130516
166	0x40117628	2.2728367
167	0xbd578770	-0.052619398
168	0xbcead437	-0.028665645
169	0xc02e46e1	-2.723076
170	0x3c6fb281	0.014629961
171	0x3c72e182	0.014824273
172	0xbfa3cace	-1.2796266
173	0x3e404cd8	0.18779314
174	0xbd4ed40b	-0.05049519
175	0x3e39080e	0.18069479
176	0xbb933baa	-0.0044931965
177	0x3d2680ab	0.04065005
178	0xbe0bd0a0	-0.13653803
179	0xbfc77959	-1.5583907
180	0x3e1c6dbe	0.15276238
181	0x3dfcd52f	0.12345349
182	0x3bb87dfe	0.005630254
183	0x3d8c034f	0.068365686
184	0xbd217273	-0.039415788
185	0xbc905794	-0.017619886
186	0x3f98840f	1.1915301
187	0xbdd2f288	-0.103001654
188	0x3ce59642	0.02802575
189	0x3cd38c5e	0.025823768
190	0xbd35bc9b	-0.04436932
191	0xbe03957a	-0.1284999
192	0xbd6decef	-0.058087286
193	0x3e44932f	0.19196771
194	0xbd9b25fc	-0.07575604
195	0x3d095a9a	0.03353367
196	0x3e56d3b2	0.20979193
197	0xbd6815ca	-0.056661405
198	0x3d91bf28	0.07116538
199	0x3d946f40	0.07247782
200	0x401544de	2.3323283
201	0xbddfa9e5	-0.10921077
202	0x3d62604c	0.055267617
203	0x3f41926a	0.75614035
204	0x3db87b7a	0.09007926
205	0xbf8c69c0	-1.0969772
206	0xbd90e489	-0.070748396
207	0xbe734e1e	-0.23760268
208	0xbe8b25bc	-0.27177227
209	0x3dcc975b	0.09989806
210	0x3eacf098	0.33777308
211	0x3e31312c	0.17303914
212	0xbfa983f0	-1.3243389
213	0x3d36afbb	0.044601183
214	0xbcb5af5a	-0.02217834
215	0x3dd865a5	0.10566262
216	0x3dbe8095	0.09301869
217	0xbd8f6395	-0.07001416
218	0xbeb8c283	-0.360859
219	0xbddb6234	-0.1071209
220	0x3d0d1e74	0.03445287
221	0xbf88db4b	-1.0691923
222	0xbde75f0c	-0.11297426
223	0xbe1bc240	-0.15210819
224	0x3e3d2bf1	0.18473794
225	0x3e1e44d1	0.15455939
226	0xbcc1ab43	-0.023641234
227	0xbe0f10d8	-0.13971269
228	0x3d395d9b	0.045255285
229	0xbd23d6df	-0.03999984
230	0xbd519d48	-0.051175386
231	0xbc04e340	-0.008110821
232	0x3d7c5df8	0.061613053
233	0x3b59e0c5	0.0033245545
234	0x3cc9e76c	0.024646483
235	0x3d5bd0cb	0.053665917
236	0xbe421b9e	-0.18955848
237	0x3de0ae34	0.109707266
238	0x3de11481	0.10990239
239	0xbe2970aa	-0.16546884
240	0xbd21c646	-0.03949573
241	0xbe4db404	-0.20088202
242	0xbe1aeaf6	-0.15128693
243	0xbe54ac4b	-0.2076885
244	0x3e890e54	0.26768744
245	0x3e01129a	0.12604752
246	0xbcb78df5	-0.022406558
247	0x3e161cf1	0.14659478
248	0xbe62661b	-0.22109263
249	0xbe56bc3d	-0.20970245
250	0xbf7b25b5	-0.9810441
251	0x3e667f9a	0.22509614
252	0x3d36ecb4	0.04465933
253	0x3e03738f	0.12837051
254	0xbd11b857	-0.03557619
255	0x3e09807b	0.13427918

bias f4 [8]
0	0xbcebb003	-0.028770452
1	0xbf5aaf39	-0.8542362
2	0xbd418b04	-0.047251716
3	0x3f0aa2e6	0.54154813
4	0x4002a0db	2.0410678
5	0x3e80f023	0.2518321
6	0xbf6ecd22	-0.9328176
7	0xbf8f06c6	-1.1173942

weight f4 [16, 256]
0	0xbdff0d02	-0.12453653
1	0xbce6657d	-0.028124565
2	0xbd42229f	-0.0473963
3	0x3d5f32d2	0.054491825
4	0xbd96133a	-0.07327886
5	0xbcff4b3d	-0.031163806
6	0xbdf24484	-0.118294746
7	0xbdecefe7	-0.11569195
8	0xbc7b0260	-0.01532039
9	0xbdb64755	-0.08900324
10	0x3caffdb8	0.021483287
11	0xbcdb4919	-0.026768254
12	0x3ca5c3bc	0.020234935
13	0xbe1162f2	-0.14197901
14	0xbe13ba00	-0.14426422
15	0x3cbcf2d7	0.023065014
16	0xbda46eeb	-0.080289684
17	0xbde7ce19	-0.11318607
18	0x3ccd38c2	0.025051478
19	0xbb80386f	-0.0039129774
20	0x3c17eb94	0.009272475
21	0xbdabfc69	-0.08397753
22	0x3bb85670	0.0056255385
23	0xbcfeb0dc	-0.031090192
24	0x3cea185e	0.028576072
25	0x3e92f15d	0.2869977
26	0x3cf5d3ce	0.030008223
27	0xbe065d88	-0.13121617
28	0xbd80ff29	-0.06298668
29	0xbd3301b2	-0.04370279
30	0xbc4c4a48	-0.012468882
31	0x3ed46901	0.41486362
32	0xbdedd2d2	-0.116124764
33	0xbd50efca	-0.05100993
34	0x3d1a2bf9	0.03763959
35	0xbce6fcb2	-0.028196666
36	0xbe58b463	-0.21162562
37	0x3d71c3ff	0.059024807
38	0xbc1addfe	-0.009452341
39	0x3cf6e757	0.030139608
40	0xbd91aaad	-0.07112632
41	0xbe1b8787	-0.15188418
42	0x3db75317	0.08951395
43	0x3d83dbc6	0.06438403
44	0xbced6903	-0.028980738
45	0xbdd32e8f	-0.10311615
46	0x3d315f8f	0.043304022
47	0xbd85df87	-0.06536775
48	0xbdca5e1c	-0.09881231
49	0x3d9d6480	0.076851845
50	0x3c3f289f	0.0116674
51	0x3a24ba27	0.00062838424
52	0xbc2abd10	-0.010421053
53	0xbcbda0f6	-0.023148041
54	0xbd777d5c	-0.060422286
55	0xbd2b824d	-0.04187231
56	0xbd3e386e	-0.046440534
57	0x3d81a7d1	0.063308366
58	0xbd0fe05f	-0.035126086
59	0x3cfe5e09	0.031050699
60	0xbe196687	-0.14980517
61	0xbce09afb	-0.02741765
62	0x3de7e933	0.11323776
63	0xbce0c1d8	-0.027436182
64	0xbde4bf6d	-0.11169324
65	0xbdc2fd83	-0.0952101
66	0xbdddedde	-0.10836385
67	0xbd69c86e	-0.05707591
68	0xbd736eb6	-0.059431754
69	0xbcc26642	-0.023730401
70	0x3d016732	0.031592555
71	0x3d2bf92b	0.041985672
72	0x3d256c28	0.04038635
73	0xbd717221	-0.058946732
74	0x3d2e24a2	0.042515405
75	0x3de1ca88	0.11024958
76	0x3dcd5046	0.100250766
77	0x3d6a539c	0.057208642
78	0x3e469dad	0.19396086
79	0xbdaae7d8	-0.08345002
80	0x3d30b1c6	0.043138288
81	0x3dc178c9	0.09446866
82	0xbdfb4a2d	-0.12270007
83	0x3b182a26	0.0023218482
84	0x3c08e159	0.008354508
85	0x3cdb7978	0.02679132
86	0x3b1bef32	0.0023793695
87	0xbc298e25	-0.010348831
88	0xbe0012d8	-0.12507188
89	0x3cec41d9	0.028839992
90	0x3d4a6067	0.049408343
91	0xbb0de6bc	-0.002165242
92	0xbe290bb2	-0.16508368
93	0xbc573adb	-0.013136591
94	0xbd8e91dd	-0.06961415
95	0xbc21b932	-0.009870814
96	0xbce3030d	-0.027711416
97	0xbd73d112	-0.059525557
98	0xbdd47150	-0.10373175
99	0x3ef22f23	0.47301587
100	0x3dce6326	0.10077505
101	0xbd8075e8	-0.06272489
102	0x3c331326	0.010929858
103	0xba939939	-0.0011260874
104	0x3d0b4d30	0.03400916
105	0xbf215eb3	-0.63035125
106	0x3d640505	0.05566885
107	0xbd697732	-0.05699844
108	0xbce98806	-0.028507244
109	0xbd69f3a5	-0.057117123
110	0x3e19fe66	0.15038452
111	0xbde14750	-0.1099993
112	0x3b87f40a	0.004148965
113	0xbd4b8b01	-0.04969311
114	0x3d4044d0	0.046940625
115	0xbd4298f1	-0.047509138
116	0x3d4f5673	0.050619554
117	0x3c4b7a3c	0.01241928
118	0x3d24d240	0.040239573
119	0xbd957c6e	-0.07299124
120	0xbc41ca9e	-0.011828093
121	0xbd520514	-0.051274374
122	0x3e2497c5	0.1607352
123	0x3d8d89c2	0.06911041
124	0x3d55c50e	0.05218988
125	0x3e30e932	0.17276457
126	0x3daa5f0b	0.08318909
127	0xbd65a494	-0.056065157
128	0xbd8c93c1	-0.06864119
129	0xbd7b978e	-0.06142383
130	0x3da36aac	0.079793304
131	0xbc41edd6	-0.01183649
132	0xbd9c22af	-0.07623803
133	0x392b25cb	0.0001632191
134	0xbd88d877	-0.066819124
135	0xbd64f9ac	-0.05590217
136	0xbda756e7	-0.08170872
137	0x3d47f12f	0.048813995
138	0x3d63d5c6	0.055623792
139	0xbbe882bb	-0.0070956624
140	0xbdad026b	-0.08447727
141	0x3ec2defa	0.38060743
142	0xbd1299aa	-0.035791077
143	0x3ced923e	0.029000398
144	0x3c0d6143	0.008629146
145	0x3d218e23	0.039442193
146	0xbd08920b	-0.033342402
147	0xbd9da806	-0.076980636
148	0xbe168be9	-0.14701809
149	0x3e140427	0.14454709
150	0xbca078b4	-0.019588806
151	0xbdee97ba	-0.11650033
152	0xbdf55a86	-0.119801566
153	0xbdb9fff0	-0.09082019
154	0xbd61ffb9	-0.055175517
155	0x3ce620bb	0.028091779
156	0xbe1de426	-0.15419063
157	0x3d92418e	0.0714141
158	0xbd14fb83	-0.036372673
159	0x3ec46b69	0.38363197
160	0x3ec2e480	0.38064957
161	0xbe1c95c2	-0.15291503
162	0x3bd3f7c6	0.006468746
163	0xbd4a2c4a	-0.049358644
164	0xbe178cf9	-0.1479987
165	0xbfd51df6	-1.6649768
166	0x3d8e4c16	0.06948106
167	0xbc8cfe07	-0.017210973
168	0xbc518391	-0.0127877155
169	0x3ee89616	0.45427006
170	0x3dcb733b	0.09934088
171	0xbd0ff71d	-0.035147775
172	0xbda12cbe	-0.07869862
173	0xbe008b69	-0.12553181
174	0xbcca403a	-0.024688829
175	0x3d3b6ef8	0.045760125
176	0xbe21c575	-0.1579798
177	0xbd829ec5	-0.06377939
178	0xbd2389c0	-0.03992629
179	0xbd029b30	-0.03188628
180	0xbd28fb98	-0.041255563
181	0xbd8389b2	-0.06422748
182	0x3c95ebb3	0.018300867
183	0xbc87370a	-0.016505737
184	0xbe07f536	-0.13277134
185	0xbd1afcc5	-0.037838716
186	0x3d2feee7	0.042952444
187	0xbc8ffaa8	-0.017575577
188	0x3cd2b957	0.025723143
189	0x3ceb0e1f	0.028693257
190	0x3d6d3a08	0.05791667
191	0xbdcb6add	-0.09932492
192	0xbd958907	-0.073015265
193	0x3d09b9b0	0.03362435
194	0xbd857e3a	-0.065182164
195	0x3d382ae9	0.044962797
196	0xbd2667c4	-0.040626302
197	0x3d113913	0.03545482
198	0x3d80af9e	0.06283496
199	0xbd9893f1	-0.074500926
200	0x3d18c7ed	0.03730004
201	0xbd3e8a9b	-0.046518903
202	0xbdae103c	-0.0849919
203	0xbc8f5eb7	-0.017501218
204	0x3c54cee4	0.01298878
205	0xbdb25b31	-0.087088
206	0xbdb78701	-0.08961297
207	0x3d35765a	0.044302322
208	0xbb07a77d	-0.0020699196
209	0xbbfd873d	-0.007737069
210	0xbbbd80ff	-0.0057832
211	0xbd54937b	-0.05189846
212	0x3dde56e5	0.108564176
213	0x3d8b2bdb	0.06795474
214	0x3db0240b	0.08600625
215	0x3bde9534	0.0067926887
216	0xbde9bbbe	-0.11412762
217	0x3d6b66cf	0.057471093
218	0xbd77efda	-0.060531475
219	0x3e056269	0.13025822
220	0x3d8fbf82	0.07018949
221	0xbd941e88	-0.07232386
222	0x3c34fd07	0.011046655
223	0x3c06123c	0.008183058
224	0xbc9ee66e	-0.019396987
225	0x3d71b1ad	0.059007335
226	0xbdce5f86	-0.100768134
227	0x3d06bc61	0.032894496
228	0x3d47cc12	0.0487786
229	0xbd8fb8cd	-0.0701767
230	0x3dd9ae4e	0.10628949
231	0x3dd24b43	0.10268261
232	0x3c9d2df6	0.019186955
233	0x3d244c07	0.040111568
234	0xbd30fcf7	-0.043209996
235	0xbc3bb9b6	-0.011457851
236	0x3dff01d7	0.12451523
237	0xbd86766b	-0.06565555
238	0xbca9362a	-0.02065571
239	0xbdbd42dc	-0.09241268
240	0x3d12d0b9	0.035843585
241	0xbe36eb49	-0.17863192
242	0xbd213994	-0.03936155
243	0x3c924ef4	0.017859913
244	0x3f0a35e0	0.53988457
245	0xbe2c7bb7	-0.16844068
246	0x3cd1c646	0.02560724
247	0xbcf8cad9	-0.030370163
248	0x3e3e112c	0.18561238
249	0xbe080706	-0.13283929
250	0x3dc1cf05	0.09463314
251	0xbdb85489	-0.09000499
252	0xbc83333f	-0.016015647
253	0x3d913bce	0.07091485
254	0xbd30ae0d	-0.043134738
255	0x3d81f0cf	0.06344759

bias f4 [16]
0	0xbe7c6ba5	-0.24650438
1	0xbde76286	-0.11298089
2	0xbd9d335b	-0.07675811
3	0xbe50d621	-0.20394184
4	0xbc4e7c1e	-0.012602834
5	0x3d828c4b	0.06374415
6	0xbd03896d	-0.03211348
7	0x3ce33194	0.027733602
8	0xbc9c7f83	-0.019103771
9	0x3a2a98e1	0.0006507766
10	0x3d8afc99	0.067864604
11	0xbc045b9d	-0.008078483
12	0xbda4e3eb	-0.080512844
13	0xbda636fe	-0.08115958
14	0x3bfc5d08	0.00770152
15	0xbd86cd03	-0.06582072

cluster_centers f4 [8, 2]
0	0x3ee1902a	0.440553
1	0xbf5f2adf	-0.8717479
2	0xbf704614	-0.9385693
3	0x3e81201a	0.25219804
4	0xbf4884ea	-0.7832781
5	0xbf1622f3	-0.5864708
6	0x3f2480ac	0.6425884
7	0x3f36b6be	0.7137259
8	0x34400000	1.7881393e-07
9	0x34d00000	3.874302e-07
10	0xbe94d5a0	-0.29069233
11	0xbf6fafbf	-0.9362754
12	0x3f761231	0.9612151
13	0xbde2e220	-0.11078286
14	0xbf010e0d	-0.50412065
15	0x3f535c74	0.8256295
