exp_local/bc_fixed/weights/20000.pt (torch, 272392 bytes, 6 tensors)

weight f4 [256, 2]
00000000: 651c 59be 87ae 1e3e e08a df3e 486a 69bd
00000010: e6a2 2cbf a9df 863e e849 b13c 80d8 923e
00000020: bc53 283e 54c9 e73d 7156 123d f49f 21be
00000030: f176 febd f663 843e 16f9 b53b 92f8 79bc
00000040: 4132 7bbe 7645 b4bb e0f7 5abe 3fb0 b23b
00000050: 7c5c 96bc ae40 19be c12d 44bd b165 b83e
00000060: 37c0 79be d86d 163e 692a 6a3d 184d a43e
00000070: 2bcd 8fbd e841 ebbd ec0a a43e a8e5 68be
00000080: 27a6 aebd 341e 923e b4d0 6abd e789 49bd
00000090: 823b dfbd 813e 19bb e1b4 e5bd 5454 a2bd
000000a0: 3d33 b5bd 3815 06bd e457 ccbb 23d2 6dbc
000000b0: 2274 20bc 2310 83bd 9f76 8fbc fa75 44bd
000000c0: af9e 493e a2e9 853b 4702 58bb 3dca e6bc
000000d0: fe60 543e 7ed0 df3d 0948 72be e44f af3d
000000e0: 3c1b 2d3b 0a80 323e 404e afbe dd92 473c
000000f0: f145 8ebd 043d 8fbc 6bd8 11be 5b80 6b3e
00000100: fec9 96bd 36ad 9a3e 2988 fcbd 3782 963e
00000110: bc72 85bd 0952 b1bc 8351 4ebe 5c43 ebbd
00000120: 0b8b e6bc ec40 aabc 2241 28bd 81b3 84bd
00000130: f0c0 91be 7080 c6bc e4c4 8d3e f5e3 91be
00000140: 918f ffbd 8570 043c 0ec3 9e3e 645c a2be
00000150: 0fd0 2d3e a641 2b3e 6c20 ce3e ac75 20be
00000160: ad61 ebbd 9557 863e 5f76 42bf d325 6c3e
00000170: 0d2c 53be cac8 a33e 1166 863e 0fb1 303e
00000180: a61c 0f3c a958 883e db9a 97bd 5343 80bc
00000190: 3c02 7cbe 0f4c e63d 187b bc3d 3d0b 543e
000001a0: decf ffbc 2af8 bbbd 6cb8 4abd 8c17 f6bb
000001b0: 72c1 15be 07c6 a7bd 5b95 573d bf0b 6e3e
000001c0: 8e9c 8bbc 2896 fabd d705 513e c9ce 793d
000001d0: f3e1 fcbd 7b2a c23e 384e 62bd a0dd 813c
000001e0: bb3c 4e3e e3c3 143e 4b77 113e db94 3c3e
000001f0: 3399 bbbd dc89 8d3e 0ecd 453d e6b1 68be
00000200: a742 c33d 59a6 523e 13aa 4abe 4ead 313e
00000210: d56e cdbd 4c0b 9d3c 2bc4 73bc 2e95 00bd
00000220: 3915 21bd 340b eebb 7f32 81bd d716 0fbe
00000230: 057a b0bd 6403 20bd bba2 0b3d eb99 b6be
00000240: fefa 53be 1360 283e 6ed7 bbbd 4203 1fbd
00000250: 26b3 95be beb6 b23b ce20 0abe 8aff 443e
00000260: 27a7 8bbe 7f22 083b ebc8 5ebd 9481 99bd
00000270: bd4e 75be b83f 523d 44d3 dc3d 438d 31be
00000280: c9d3 0bbe 9088 65bd a65e c6bc f385 10bd
00000290: a3f9 bb3c eae9 b1be 3cb7 263c f343 b6be
000002a0: 8d24 a5bd 7c2f 78bd 5cc5 b0bd ffca 22bd
000002b0: 3253 82bc 599d 5cbd 5866 af3e 6d4a 86be
000002c0: ae1a a23c abc4 8d3e ed94 82bd a593 8abc
000002d0: 56a1 9dba 9141 debd 15b2 a03e 409f f03c
000002e0: 804a b73a ebd7 b5bd 889e b4bc 3fa1 b0bb
000002f0: 380c afbc 64f6 7fbd a622 72bd 526f 30bb
00000300: 604e 6bbd e4cc 1ebe f631 59be b0f7 b93d
00000310: de08 dabd 9e1f 4dbe bb44 71bd 63ae 5fbd
00000320: c349 70bd 55b7 aa3b c16b 933d 8f19 633e
00000330: f60a a93c 9654 33be f6dd f1bd e8ad 8b3b
00000340: 8839 bcbd 636b 6e3e 4444 57bc 634d baba
00000350: b0c4 c1bd 55d1 743e 3679 223e 8f55 433e
00000360: 7f82 e13c e06f adbe 6d90 10bd a18a 1fbd
00000370: be18 04be a127 84bc 06a5 82be 2105 2d3e
00000380: 1654 8c3c 9ff1 8d3e ad76 ad3e 34c3 233c
00000390: 863d b8bd 9ec2 48bd ba8a a23e 0235 ca3c
000003a0: 36b5 21bd f67c 0abe 7690 08be c2aa 74be
000003b0: e29c 80be c238 86bc 8e1f de3e 9b9f 94be
000003c0: 2c9a a5be c5e2 18bd 073a 3a3d 96fd 5cbe
000003d0: 27f7 073e 741a 073e 5887 d53e 51ea f3bb
000003e0: e1ff 6b3e 8428 80bc 9c0d 39bb 003d 38bc
000003f0: d58d 10bc e3d7 8c3e 9ffc 6b3e 9a4c e0ba
-0.21202238 0.15496264 0.4366064 -0.056986123 -0.67436063 0.26342514 0.021641687 0.286808
0.16438192 0.11317697 0.03572697 -0.15783674 -0.1242503 0.25857514 0.005553375 -0.015257018
-0.24530889 -0.0055014445 -0.2138362 0.005453139 -0.018354647 -0.1496608 -0.047895197 0.36015084
-0.2438973 0.1469034 0.05716935 0.32090068 -0.070215546 -0.1148718 0.32039583 -0.22743857
-0.08527785 0.28538668 -0.05732794 -0.04920378 -0.10900022 -0.0023383202 -0.112161405 -0.079262406
-0.088476636 -0.03273508 -0.0062360633 -0.0145154325 -0.009793313 -0.06399562 -0.017512618 -0.047964074
0.19689439 0.004086689 -0.0032960342 -0.028172607 0.20740125 0.109284386 -0.23660292 0.0856016
0.0026413938 0.17431656 -0.34239388 0.012181011 -0.06946934 -0.01748515 -0.14242713 0.22998182
-0.07362746 0.30210274 -0.12330658 0.2939622 -0.065160245 -0.021645563 -0.20148282 -0.11487457
-0.028142473 -0.02078291 -0.04107774 -0.0647955 -0.28467512 -0.024231166 0.27689278 -0.2849423
-0.12478555 0.008083467 0.3100819 -0.31711113 0.169739 0.16724262 0.4025911 -0.15669888
-0.114932396 0.26238695 -0.7596187 0.23061304 -0.20622273 0.31989127 0.26249745 0.17255042
0.008734858 0.26630142 -0.07402583 -0.015657103 -0.24610227 0.11244976 0.09203166 0.20707412
-0.031227048 -0.09178193 -0.049492285 -0.007510131 -0.14624575 -0.081920676 0.05263267 0.23246668
-0.017042425 -0.12235671 0.20412384 0.06098822 -0.12347784 0.37923035 -0.055250376 0.01585275
0.20140354 0.1452785 0.14205663 0.18416159 -0.0916008 0.2764424 0.04829126 -0.22724113
0.09534197 0.20571269 -0.1979144 0.17351267 -0.10030905 0.019170426 -0.014878313 -0.03139227
-0.03932688 -0.007264519 -0.063084595 -0.13973556 -0.086170234 -0.039065734 0.03409074 -0.35664305
-0.20701215 0.164429 -0.09171949 -0.038821466 -0.29238242 0.0054539135 -0.13489076 0.19238105
-0.27275965 0.0020772514 -0.05439083 -0.07495418 -0.23955818 0.0513303 0.10782483 -0.17339043
-0.13655008 -0.05603844 -0.024215054 -0.035283994 0.022946185 -0.34748775 0.010175522 -0.35598716
-0.08063612 -0.06059216 -0.08631393 -0.039744373 -0.015908811 -0.053860996 0.3425777 -0.26228657
0.019788112 0.27689108 -0.063760616 -0.016916106 -0.0012026231 -0.108523495 0.31385866 0.029372811
0.0013983995 -0.08879074 -0.02204825 -0.005390316 -0.021368131 -0.062490836 -0.059115075 -0.002692182
-0.05744779 -0.15507847 -0.21210465 0.09080446 -0.106462225 -0.20031592 -0.058903437 -0.054609668
-0.058664095 0.005209843 0.07198287 0.22177719 0.02063511 -0.17512736 -0.11809914 0.0042626746
-0.09190661 0.23283152 -0.013138834 -0.0014213737 -0.09461343 0.23907979 0.15866551 0.19075607
0.027528046 -0.33874416 -0.035293985 -0.038950566 -0.12900063 -0.016132178 -0.25516528 0.16896488
0.017129939 0.27723405 0.33879605 0.0099952705 -0.0899611 -0.049013726 0.31746465 0.02468348
-0.039479457 -0.13524231 -0.13336357 -0.23893264 -0.25119692 -0.016384486 0.4338345 -0.2902802
-0.32344186 -0.03732564 0.045465495 -0.2158111 0.13277875 0.13193685 0.41704822 -0.007443704
0.23046829 -0.01564432 -0.0028236872 -0.011245012 -0.008822878 0.27508458 0.23045586 -0.0017112673

bias f4 [256]
00000000: e077 563d 5885 02be 76bb 1f3e c314 bfbd
00000010: 4ca2 bdbd 57b9 d43d f419 a3bc c1e4 8dbc
00000020: b038 7e3e 2e66 443e 9b48 1b3e 7cb4 acbd
00000030: f5f4 8e3d 7066 e9bd 0000 0000 18d1 cabc
00000040: 3c04 3bbd 0000 0000 239c b1bb 0000 0000
00000050: 0000 0000 0000 0000 0000 0000 0000 0000
00000060: 7f37 8ebd 0000 0000 5a07 dbbd 738f ae3d
00000070: 91f1 32bd 8ec9 283e 0000 0000 085a 3cbb
00000080: 2eb0 64bd fddf fabc 0000 0000 f303 113e
00000090: 0000 0000 0000 0000 c1cb 403e ab11 f3ba
000000a0: 6bb7 06bc 306f 4dbb 3f30 e0bd d988 9bbd
000000b0: d49e d0bc efc0 353e 7c5b 32b9 58e2 27be
000000c0: 2a4c a8bd 0000 0000 306a a63d 8a5f bfbd
000000d0: 0000 0000 0000 0000 0000 0000 9812 b2bd
000000e0: 0000 0000 252a 10bd f023 bcbd 336d 68bc
000000f0: 435e ebbd eee3 d5bd eede 24bd b005 cf3d
00000100: 5dbe 71bd 0ab5 223d e010 913d 0000 0000
00000110: 0000 0000 0000 0000 0000 0000 af50 333d
00000120: 512e 413d 0000 0000 d8ef 443e e9e0 a13b
00000130: e2e0 3f3e 0000 0000 8cee c83d cbe7 6f3d
00000140: 0000 0000 0000 0000 8452 0a3e 809c 133e
00000150: 0000 0000 0000 0000 0000 0000 3149 3bbd
00000160: 92ce b5bd 0000 0000 acdf 0abc 34f7 f2bd
00000170: 7898 21bc 0000 0000 0000 0000 0000 0000
00000180: 0000 0000 cf8f 8b3d dfb7 063e 0000 0000
00000190: 6ced 31bc db38 b9bd 517a 0c3e b826 b6bb
000001a0: 1472 ddbc 1258 0dbc 94de e1bc c679 e6bd
000001b0: 2bed 043e 0000 0000 0000 0000 89a4 8b3d
000001c0: 3e57 b4bd 8d6e f6bd 0000 0000 5f70 f2bd
000001d0: 0000 0000 7ec0 223e 7110 4b3e f8c6 96bd
000001e0: 7bce 543e 6649 a33d 63b8 3cbd 862b 0fbe
000001f0: 2c36 94bd 6219 0bbc e66c 75bd 4a84 a0bd
00000200: 0ae9 bebd 8f64 b2bd 0000 0000 77bd cbbd
00000210: 0000 0000 583d f43d c158 92bb 0000 0000
00000220: 5c26 6e3e 81c7 76bd a9ca 54bd 6142 d93d
00000230: 6242 c2bc 97ff 44bd e2ef cfbd f022 b93d
00000240: 0000 0000 526a 253e 0000 0000 95c9 c4bb
00000250: 0000 0000 25e7 37bc aa2f 1d3e 97ba 433d
00000260: e68a 8dbb 0000 0000 7a12 dabd 0000 0000
00000270: 099c a3bd 0000 0000 4f9f e13c 919e babd
00000280: 97c0 dabd 0000 0000 a25f ed3d 338b 41bd
00000290: 55b6 e1bd 97c1 08bc 0000 0000 cee4 9cbd
000002a0: c7bd babd c490 34bd 2e1c b8bd 0000 0000
000002b0: f175 febd 0000 0000 6496 a1bd 3326 c5bd
000002c0: 56de 20be c998 a33d 0000 0000 276a 4b3e
000002d0: 6b90 8e3d 99ad fabb b1c7 b73c 1140 b7bd
000002e0: c5fb d8bd 8809 f8bd 0000 0000 6ad1 c0bd
000002f0: 243e 6b3e 2b89 293e a183 a7bc 0000 0000
00000300: 2af8 a43d d88d d8bd 0000 0000 0000 0000
00000310: 3e17 e4bd fcc7 69bd 0000 0000 e1e6 a13d
00000320: 0729 68bd 9c97 cb3d 0000 0000 df0f afbd
00000330: 0000 0000 459b d3bd b90e 9abd bc00 163e
00000340: ee4a 273e 3f7c 5dbc f108 21be bf08 7cbc
00000350: 0000 0000 d038 19bd 0000 0000 f7f7 d8bd
00000360: 0000 0000 0000 0000 a9f4 1e3e d9b2 053e
00000370: 0000 0000 0000 0000 0000 0000 84a4 34bd
00000380: 1b62 f83c 13dd c43d 0000 0000 b2d2 2dbc
00000390: 0000 0000 f7f1 713e 0000 0000 d56c 8a3d
000003a0: 700b 0abc de61 13bc 0000 0000 bab8 383e
000003b0: ada0 9f3d bc97 913d 5d96 babd 0000 0000
000003c0: 5897 c4bd 0000 0000 0000 0000 f483 bcbd
000003d0: ffde bebd 0455 b9bb 0000 0000 0000 0000
000003e0: ad61 233e 4e0f 03be a394 01bd 8afd 6e3e
000003f0: 92fc b4bd f34c 643e 0f3d 21bc b229 d5bc
0.052360415 -0.12746179 0.15598854 -0.09330132 -0.09259471 0.10386913 -0.019909836 -0.017320992
0.24826312 0.19179603 0.15164416 -0.08432862 0.069803156 -0.113964915 0.0 -0.024757907
-0.045658335 0.0 -0.0054202243 0.0 0.0 0.0 0.0 0.0
-0.06944179 0.0 -0.106947616 0.085234545 -0.043687407 0.16483137 0.0 -0.0028740186
-0.05583208 -0.030624384 0.0 0.14161663 0.0 0.0 0.18827726 -0.0018544694
-0.008222441 -0.003134679 -0.10946702 -0.07594461 -0.02546636 0.1774938 -0.00017009483 -0.16394937
-0.08217652 0.0 0.081257224 -0.093443945 0.0 0.0 0.0 -0.08694953
0.0 -0.035196442 -0.09186542 -0.014186191 -0.11492588 -0.10443865 -0.040251665 0.10108507
-0.059019435 0.039723434 0.07083297 0.0 0.0 0.0 0.0 0.043778118
0.04716331 0.0 0.19232118 0.0049401415 0.1873813 0.0 0.09811124 0.058570664
0.0 0.0 0.1350804 0.14415169 0.0 0.0 0.0 -0.045724098
-0.08877291 0.0 -0.008476179 -0.118635565 -0.009863012 0.0 0.0 0.0
0.0 0.06814539 0.13156079 0.0 -0.010859828 -0.090440474 0.13718535 -0.005558815
-0.027031936 -0.008626955 -0.027571954 -0.11253695 0.12981097 0.0 0.0 0.06818492
-0.088057026 -0.12032805 0.0 -0.11837839 0.0 0.15893742 0.1983049 -0.07362169
0.20781891 0.07972984 -0.046074282 -0.13981447 -0.07236895 -0.008489938 -0.059918307 -0.07837732
-0.093217924 -0.08710586 0.0 -0.09948247 0.0 0.11925763 -0.0044661467 0.0
0.2325682 -0.060248856 -0.051951084 0.10608364 -0.023713294 -0.048095312 -0.10153176 0.09039867
0.0 0.16153839 0.0 -0.0060054758 0.0 -0.011224543 0.15350214 0.047785368
-0.0043195365 0.0 -0.106480554 0.0 -0.07988746 0.0 0.027541785 -0.091122754
-0.10681265 0.0 0.11590506 -0.04725189 -0.11021105 -0.008346937 0.0 -0.076608285
-0.091182284 -0.04408337 -0.0898975 0.0 -0.12424839 0.0 -0.07890013 -0.096264265
-0.15709814 0.07988126 0.0 0.19864713 0.06961139 -0.007650089 0.022434087 -0.089477666
-0.10594896 -0.12111193 0.0 -0.094149426 0.22972924 0.16556232 -0.020448508 0.0
0.08055146 -0.105739295 0.0 0.0 -0.111372456 -0.057075486 0.0 0.07905365
-0.05667975 0.099410266 0.0 -0.08547949 0.0 -0.1033235 -0.075223394 0.14648718
0.16337177 -0.013518392 -0.15726067 -0.015382945 0.0 -0.037407696 0.0 -0.105941705
0.0 0.0 0.15523018 0.13056506 0.0 0.0 0.0 -0.044102207
0.030320218 0.09612479 0.0 -0.010609316 0.0 0.23627459 0.0 0.06759039
-0.0084255785 -0.008995501 0.0 0.18039218 0.07794318 0.07109019 -0.09110711 0.0
-0.09599179 0.0 0.0 -0.092048556 -0.09319877 -0.0056558866 0.0 0.0
0.15955229 -0.12798807 -0.03163589 0.23338905 -0.088372365 0.22294979 -0.009841218 -0.026020858

weight f4 [256, 256]
00000000: dbf3 bfbb 52bc fcbc 03f1 d6be 5083 63be
00000010: dfe1 e2bd 3f7a 053e dfb7 8bbe 6f45 243b
00000020: b33b 073e 1d8e 783d fdde 433e b87b 29be
00000030: bac8 d73d 83e0 00be 2b59 5dbd 3092 1f3d
00000040: fd93 e5bd 4dbd bebd 500b bfbd e963 3bbb
00000050: 68a1 9bbd dea8 5ebd 12c4 ccbc 11e6 a9bd
00000060: b4bb 763d 1330 ca3d 60c7 ab3d 8839 553e
00000070: 4c84 41bc 4b31 a93d ebb2 a73d 33e6 9cbb
00000080: 7062 68be 639e 53be bafa a1bc 8213 703e
00000090: 2315 a43d 3cc7 793d a357 003d 7dad ea3c
000000a0: 4852 493c 25b4 1abc 4bec 14bd 5604 b6bb
000000b0: b366 f0bd 169c 10bd 400e f4bd 10d6 22be
000000c0: bbfc 3bbe 9c52 77bd a5bb 473d 70ad 47bd
000000d0: aeb2 d13c bee0 7f3d 7645 7c3d d783 35be
000000e0: 50ad 053d 71dc 3f3d 5e9b b53d 68d9 65bd
000000f0: 8078 42bd 1ac1 b43c f51c 58be 299d d43d
00000100: 3071 a3bc 808b bc3b 165b a63d 8d22 d83c
00000110: 3247 093d 6a3c b53d 4c7a 073c 1e38 50bc
00000120: 8e0f 8f3d fc84 db3c 5c8c 6b3d e21b 45bd
00000130: c088 b23d d2cc d0bd b7a7 1c3e 1aac 193e
00000140: 26ee ad3b 9ce6 d93c 0f49 8c3c bafb 6a3d
00000150: 9214 773d 82f6 6cbd c2c7 2ebd 071a 01bd
00000160: 4b19 98be 5d6c 00bd 2026 77bd b564 323c
00000170: 92a3 873d e543 de3d 1fad 7ebd 4cf5 b63d
00000180: aa43 513d f27f 0c3c c460 e4bb ee28 5e3e
00000190: 656f 953b 5c21 d4bd b6c9 223e 0dd7 00bd
000001a0: cbcd 49be 1277 a5bd c421 65be 94ce f3bd
000001b0: e932 543e 0086 14bc f047 b0bc ed02 383d
000001c0: 2549 92be 5968 53bd c649 18bc 8c9b 99bb
000001d0: 82d8 f3bb fb9e df3d 2877 4f3e 5fd4 423d
000001e0: 3da1 e63d 9bd6 b3bb 3b65 703d 01a9 0abe
000001f0: 08b4 ed3c 186b 89bd 6bde 46bd bed8 063d
00000200: cebd f1bd 9a68 c4bd 56c7 d5bc 40e9 2dbe
00000210: a542 cabd fa8b 0b3e 8bce ffbd e583 913d
00000220: c531 b43d 8180 49be 5209 b43c d559 ab3d
00000230: e0d1 adbd 7f41 83bd b41f bebd 5373 ad3c
00000240: cc35 edbc e5f4 a43c 7aee 1f3b 993e e4bc
00000250: 54df 753d a82b e2bd 5066 303a 7d16 ff3c
00000260: 253d 123e 200c a73c f195 1ebe fcca 903d
00000270: 2c06 d43c 4839 2fba 752b 70bc 6814 69be
00000280: c316 c0bd 90ec 933d 32ba 0a3e 837a 7dbc
00000290: 713d 243e 5678 fcbd 1cd3 cbbd 61f3 83bd
000002a0: 08fe dcbc 2e78 013e e547 95be 8dbf e1bc
000002b0: bf18 ccbc 1e48 9a3d 8a8d a7bd ac5e e9bd
000002c0: 6c4e e23b 1399 b73d 8413 8b3b eb4d a03d
000002d0: 6d30 023c 30a6 0d3d cd44 a0bc e3bc e7bd
000002e0: 9f53 4d3d 4c3d 18bd 667f 3fbd 580a 19bd
000002f0: ef83 083e e82a 3f3d 1a64 ce3d be20 ffbc
00000300: 508a cc3c 1490 b4bd 03e8 c0bd 74c3 67bd
00000310: 4b8e 863d 9eba 3cbc a65c 1b3d 19e9 6b3e
00000320: 671c ba3d 7823 a53d d290 52bd 6f7c 94bd
00000330: 2a79 50bd 28d0 87bd f8d9 81be 5a60 573e
00000340: 1554 2b3e 672e 83bc 893c c43c e8cb 97bd
00000350: aec7 923c 49ca 58bc 0677 1fbc 5300 69be
00000360: 1f57 7ebd bf89 e0bc 801a db3d 2dd1 e73d
00000370: bc0a 4c3d 047f fe3b 7588 21bd f8a1 0fbd
00000380: 2ddc 4fbc a96a 543e dce8 83bd 6ee9 0dbe
00000390: 90f4 d53b be12 b23d 6aab e8bc 2edd af3d
000003a0: 9e17 3d3d 1827 603b 8af2 1c3e 3783 c3bc
000003b0: 0962 7f3d b61c 713d 77dc 64be 4531 79bd
000003c0: 7667 e5bd 62cc 6e3d 74da 36bc 9c46 b2be
000003d0: e57a a6be b935 b9bd 64c5 31bd b25e a23d
000003e0: 94fa 1f3c 5ae6 03bd 153c 08be bd7a 4e3d
000003f0: bda7 b5be 3d26 aa3d 0a2c ff3d fa43 553d
-0.0058579273 -0.030851517 -0.41980752 -0.2221806 -0.11078238 0.13034914 -0.2728872 0.00250658
0.13206367 0.060682405 0.19128032 -0.16551101 0.105363324 -0.12585644 -0.054040115 0.038957775
-0.11209867 -0.0931345 -0.093283296 -0.0028593487 -0.07599145 -0.054360263 -0.024995837 -0.08295835
0.0602376 0.09872451 0.08387637 0.20822728 -0.011811327 0.08261355 0.08188423 -0.004788184
-0.22693801 -0.20665888 -0.019772876 0.23444942 0.08011844 0.06098102 0.031333577 0.028647179
0.012287684 -0.009442364 -0.03635816 -0.005554716 -0.11738338 -0.035305105 -0.119167805 -0.15901971
-0.18358128 -0.060381517 0.048762936 -0.048749387 0.025597896 0.06247019 0.06158968 -0.17726074
0.032635987 0.04684109 0.088675246 -0.056115538 -0.0474782 0.022064734 -0.21104796 0.103815384
-0.019951433 0.0057539344 0.08122842 0.026383663 0.033515163 0.08849414 0.008268904 -0.012708692
0.06985389 0.02679681 0.057506904 -0.048122294 0.08717489 -0.101953164 0.15298353 0.15007058
0.0053079305 0.026599221 0.01712468 0.05736897 0.06032235 -0.057852276 -0.042670973 -0.031518962
-0.29706797 -0.031353343 -0.060339093 0.010888268 0.066229954 0.108527936 -0.06217682 0.089335054
0.05108992 0.008575426 -0.006969543 0.21695301 0.0045603984 -0.10357925 0.15897259 -0.03145509
-0.1970741 -0.080793515 -0.22376162 -0.11904636 0.20722546 -0.009065151 -0.021518677 0.044924665
-0.2857143 -0.051613186 -0.009294933 -0.004687732 -0.007441581 0.10918995 0.20260298 0.047565814
0.112612225 -0.0054882294 0.05869029 -0.13541032 0.02901651 -0.0670988 -0.048551958 0.032921545
-0.118037805 -0.09590264 -0.026096027 -0.16983509 -0.09875993 0.13627616 -0.12490567 0.07105235
0.08798555 -0.19677927 0.0219771 0.083667435 -0.08487296 -0.06408977 -0.09283391 0.021173155
-0.028956316 0.020136306 0.0024403618 -0.02786188 0.060027435 -0.11043483 0.0006729113 0.031138653
0.14281137 0.020391524 -0.15486886 0.07069966 0.02588185 -0.0006684256 -0.014658798 -0.2276169
-0.093793415 0.07222855 0.1354759 -0.015471104 0.16039063 -0.1232764 -0.09952375 -0.06442905
-0.0269766 0.12643501 -0.29156414 -0.027557159 -0.024914144 0.075332865 -0.08181293 -0.1139501
0.0069063213 0.089647435 0.00424427 0.07827362 0.007946116 0.034582317 -0.019564057 -0.11315324
0.050128575 -0.037167832 -0.046752356 -0.03736338 0.13331579 0.046671778 0.100776866 -0.031143542
0.024968296 -0.08816543 -0.09419253 -0.056582883 0.06570109 -0.011519102 0.037930153 0.23038138
0.090874486 0.08063406 -0.051407643 -0.07250296 -0.0508968 -0.066314995 -0.2536161 0.21032849
0.16731293 -0.016013337 0.023954647 -0.07411939 0.01791748 -0.013231822 -0.009732967 -0.2275403
-0.062094804 -0.027409432 0.10698414 0.11319194 0.049814925 0.0077666063 -0.039436776 -0.035066575
-0.012686771 0.20743813 -0.06440899 -0.13858578 0.0065293983 0.08694981 -0.02840205 0.085871086
0.0461651 0.003420299 0.15326896 -0.023866279 0.062349353 0.05886527 -0.22349726 -0.060838003
-0.11201374 0.058300383 -0.011160482 -0.34819496 -0.32515636 -0.0904345 -0.043401137 0.07928218
0.009764332 -0.032202102 -0.1330417 0.05041002 -0.35479537 0.083080746 0.12459572 0.05206678

bias f4 [256]
00000000: 6fb5 143d bbbf 033e a090 ccbb a9aa 773d
00000010: be29 e73d 9e98 693d 0bf3 0b3d 7c3b ab3d
00000020: f48f d0bc 6b33 3a3d 34d2 debb 7dce cc3d
00000030: 2e86 e13d c87d 873c ed23 513d dadb 863c
00000040: 31e6 a83d 1e73 22bc 1636 1cbc 74f9 e03d
00000050: 2323 86bc 956d 10bd 944e 1bbc e1a8 df3d
00000060: 8a38 203d 961c 723c ce5a cf3d 76c3 9b3d
00000070: 8623 cb3d b1b9 f23c de65 4b3d 465f 1cbd
00000080: 64e2 8d3d 5dd4 a43d 0000 0000 4b9d 14bd
00000090: 0000 0000 a6d7 16bc d015 aa3d ce7b c53d
000000a0: 3182 e63d 2ce3 a53d 80e5 25bc 6e6f 79bc
000000b0: f127 d63d 56a8 1a3d d591 e83d 5068 3b3d
000000c0: 4245 c7bc 3b9f 03bc 9e63 a13b 0000 0000
000000d0: 3c0e 9b3d 2ff5 d0bb 2565 3b3c 886c eb3d
000000e0: a1fd fabc 71c2 8d3d b3c5 c53d 4ef3 373d
000000f0: f87c c43d b810 f63d b26f 453d e5ce 733d
00000100: 0000 0000 e242 463d 6ca6 7a3b 3baa d7bd
00000110: 2236 433d 0034 83bc 3b44 8f3d 1422 f83d
00000120: a3f0 01bd f58d 953d 3337 16bd cb16 613d
00000130: b06c fc3c d492 433d c397 3f3d 02ec f73d
00000140: 4ddf 5b3d 0000 0000 0564 73bc 35c0 e23d
00000150: 2d1a 853d 9c64 04bc 4c6b 06bc b225 c0bb
00000160: 690c 09bc dac9 c4bb cb7b 5ebc f9f2 893d
00000170: 2299 053e f764 2bbc 0000 0000 d754 3e3d
00000180: d3c6 fbbc 4133 773d 10fb d33d 440c 09bc
00000190: 1f4e a73d 6c0c 9b3d d08f bfbb d199 a63d
000001a0: ae31 bf3c 72b7 da3d 1dc4 b63d 0c3c a03d
000001b0: a1ac 393d 3eae be3d 52db febc f3a2 513d
000001c0: 7490 ad3c 08b1 f73d fd48 053d 8f55 c63d
000001d0: 15b1 d33d 44db a43d 1853 b03d 3e9b a13d
000001e0: bd57 5c3d cbac 983d 38bf e33d 3767 523d
000001f0: a282 1abc 0000 0000 7efc dd3d 71dd 523d
00000200: 7445 a93c 96eb 9d3d dbb5 a83b b805 e2bc
00000210: 33e8 843d db67 603c 2064 593b 9022 ffbb
00000220: 1f8e 453d b6b6 01bd bc0a 25bd 3a94 fe3c
00000230: faa4 a7bb 8802 053d 8583 6d3d 76db ad3d
00000240: ec4d 173d 3d7a ed3d e6f7 c53d 8078 943d
00000250: 0f2b 413c e030 a83d bb0c 49bc c8fd be3d
00000260: 85d1 6c3d 4c11 003e 005f 9f3d ea95 65bc
00000270: fac8 d03d 28db 3ebc 13e9 aa3d 8e90 653d
00000280: e064 063e 4eba ad3d 65ac a03d 0000 0000
00000290: ca84 bfbb d7cd 1bbc 8b0e a03d 97b9 4c3c
000002a0: c6e0 583d 0eda 563d afaa be3c 8ccf 993d
000002b0: b6e0 01bc 03ce 023e 3a19 0a3e ca39 f5bb
000002c0: e0de a53d 48ad 823d 0000 0000 e19c 803d
000002d0: 65b2 433d 63e7 7c3d d8c9 c4bb 82b6 b23d
000002e0: f4b8 2dbd d703 02bd b093 50bc 1863 18bc
000002f0: e880 59bc 765c 373d 95d5 11bc bf15 f8bb
00000300: 79a7 ac3d d4fe 0d3d 30fd a9bb 428a 113d
00000310: 8dcb e03c c218 733d 5c7d be3d d612 cb3d
00000320: 3d31 4c3e ff50 86bc 86d4 19bd 731a 323d
00000330: 635f bc3c 4c31 c8bb b6b3 49bd 4649 ea3d
00000340: 35e2 ac3d 0000 0000 7ece 41bc bea3 59bc
00000350: 086d c83d e321 ed3d 6888 693d c933 3a3d
00000360: 5527 b6bb 0000 0000 a140 c1bd 8456 813d
00000370: f214 85bc 3564 f7bb e5da afbb 39cf b53d
00000380: 0000 0000 0000 0000 e443 fa3d 0000 0000
00000390: a416 34bd 5512 02bd 6368 433d 0000 0000
000003a0: fc9f 1e3d 1274 003d 6f5e 6abc ee81 873d
000003b0: 5627 b6bb 5760 e73d 19a6 89bb ef14 e43c
000003c0: c86a a33d a8e2 eebb 5036 afbb 5171 c63d
000003d0: 1a7d 453d f9a5 35bc 6433 743d e22e d23c
000003e0: 7064 04bc 5040 6d3d 9275 e5bb 56c5 1d3c
000003f0: 0000 0000 60a0 283e 7f7d e23d d3d7 71bc
0.03630584 0.12866108 -0.0062428266 0.06046549 0.112872586 0.057030313 0.03416733 0.08360955
-0.025459267 0.045459192 -0.0067999605 0.10000322 0.11011921 0.01653947 0.051059652 0.016462255
0.082470305 -0.009915141 -0.0095343795 0.109850794 -0.016374176 -0.035260756 -0.009479184 0.10920883
0.03911642 0.014777323 0.101247415 0.076056406 0.09918885 0.02962956 0.049657695 -0.038176797
0.06927946 0.080483176 0.0 -0.03628282 0.0 -0.009206688 0.08304942 0.096427545
0.11255301 0.0809997 -0.010125518 -0.015224321 0.10456837 0.037758194 0.1135594 0.045753777
-0.024325017 -0.008033569 0.0049252054 0.0 0.07571074 -0.0063768844 0.011437689 0.1149531
-0.030638518 0.069218524 0.09656849 0.044909768 0.095941484 0.120149076 0.048202224 0.059523482
0.0 0.04840363 0.0038246168 -0.10530516 0.047659047 -0.016016006 0.06995436 0.12115875
-0.03172363 0.07302467 -0.036673736 0.054953378 0.030813545 0.047747448 0.04677559 0.12105562
0.053679753 0.0 -0.0148553895 0.11071817 0.06499133 -0.008080628 -0.0082042925 -0.0058638686
-0.008364775 -0.006005508 -0.013579319 0.067357965 0.13046697 -0.010461084 0.0 0.04646763
-0.030734455 0.060351614 0.10350621 -0.008364741 0.08169197 0.07570729 -0.005846001 0.08134807
0.023339119 0.10679521 0.089241244 0.07823953 0.045330647 0.09310578 -0.03111044 0.05118079
0.021187045 0.12094313 0.03254031 0.09684288 0.1033651 0.08049634 0.08609599 0.07890938
0.05379461 0.07454833 0.111204565 0.051367965 -0.009430559 0.0 0.10839175 0.051480714
0.020663 0.0771095 0.005148632 -0.027590618 0.06489601 0.013696636 0.0033171251 -0.0077861026
0.04823124 -0.031668387 -0.04029344 0.03107654 -0.0051161023 0.032473117 0.057986755 0.084891245
0.036939546 0.11595581 0.096664235 0.07249546 0.011790051 0.08212447 -0.012271102 0.09325749
0.057817 0.12506598 0.07781792 -0.014012793 0.10194583 -0.011648931 0.08345237 0.05604606
0.13124418 0.084828004 0.07845382 0.0 -0.005844687 -0.009509525 0.07815274 0.01249542
0.052948736 0.052454047 0.023274748 0.075102895 -0.00792711 0.127739 0.13486186 -0.0074836956
0.08099151 0.06380707 0.0 0.06279922 0.047777552 0.061744105 -0.006005507 0.08726217
-0.042412713 -0.031741943 -0.012730524 -0.00930097 -0.013275363 0.044765912 -0.00890102 -0.0075709517
0.084303804 0.03466685 -0.005187653 0.035532244 0.02744081 0.059349783 0.09301254 0.09915702
0.19940658 -0.016396044 -0.037556194 0.043482255 0.022994703 -0.0061093923 -0.04924365 0.11439757
0.08441583 0.0 -0.011829017 -0.013283668 0.09786421 0.11578729 0.057014853 0.045459542
-0.005558888 0.0 -0.09436155 0.0631533 -0.016245339 -0.0075497874 -0.0053666704 0.08877415
0.0 0.0 0.1221998 0.0 -0.043966904 -0.031755764 0.047706973 0.0
0.03872679 0.031360693 -0.014304741 0.06616579 -0.0055588884 0.11297672 -0.0042007086 0.027842013
0.07979351 -0.007290203 -0.0053470507 0.09689582 0.04821501 -0.011086934 0.059619322 0.025657121
-0.008080587 0.05792266 -0.007002541 0.009629568 0.0 0.16467428 0.11059093 -0.014760929

weight f4 [2, 256]
00000000: 7481 08bd 9070 c53e e4d4 b8bd c584 2fbe
00000010: 0968 47be ec30 09be f3cb 99bd 89b7 70be
00000020: ece8 493d 29c0 a2bd 24ed d8bd 01fb 91be
00000030: a34e 1e3e 6425 0abb 8f44 08be 6169 a0bd
00000040: f329 903d 43aa 7cbd fd25 b23d 3f4d 9abe
00000050: 2ef7 e13d a079 a4bd 3051 f23c a84b 913e
00000060: b8bd 0bbd c616 98bb 1fe1 973e 243a b3be
00000070: 6225 ab3e 7dc1 07be ef24 6a3e fb95 b33d
00000080: 9422 95be be05 043e c781 bbbd c4a4 043d
00000090: 74d8 503d ef07 1abd bb4c 11be 8812 39be
000000a0: 8f26 943e 72d1 4bbe 0db1 8f3d cda7 22bd
000000b0: f721 b3bb 20e8 553d 283e f9bc d516 a7bd
000000c0: 599b 85bd 1043 d33c 7519 1cbd e732 13bc
000000d0: c9bf 2aba 5ddd e3bd 9bf6 8cbb df55 a53e
000000e0: b3b8 cd3d 1706 1b3e a433 d73e 51de 38bc
000000f0: 26c8 cc3e 0d5f 74bf 1594 953e b00a 51be
00000100: 163e 953d 14e0 ac3e aa4b 89bd f070 f03d
00000110: 4cfe 3abd 8f5e 07bd 1263 a4be 4aac 953e
00000120: 6e2b b43d f22e 083e 17c8 9a3b 91eb b8bd
00000130: 7d72 ed3d ecce dc3d 1c95 253e 6059 8d3e
00000140: c402 0cbe c778 8fbc fde2 6d3d 9f48 b23e
00000150: ba52 60be 29db 07be dd3f ab3c 477f 8c3d
00000160: 9100 adbc df41 dd3d cd16 e73b 360f 90bd
00000170: 2026 b83e 2e0a fa3c 0be9 6d3d 915b 94bd
00000180: ee7a 583d eac4 363e 19ad 42bf ddd6 48bd
00000190: 4a85 5e3e ec60 163e c901 75bd 2ac1 543b
000001a0: b483 18ba faf4 63be 5032 8bbe d1d9 75be
000001b0: 35aa 74bd 8407 0cbd 258f 073c c4bc 11be
000001c0: d0b8 ca3c 9266 87bf ec7d 0a3e 6897 1a3e
000001d0: c03b 78be 3077 473e ac54 99be adae 4abe
000001e0: b332 d7bc 1115 40bd bfc6 d63e a75a 22be
000001f0: 0ba3 c5bc 50a7 91bb 6e77 993e 81c4 d9bd
00000200: ad03 1bbd 8b11 19be ef98 4ebd 22a3 5abc
00000210: 3f39 58be 556d d23d 409e d6bc caaf 3b3c
00000220: 3f97 46bd d463 8b3c f4f8 95bc 36c2 e2ba
00000230: c067 d2bd 634d d5bd 37f8 82be ce5c 123e
00000240: c002 8abc 225b 07bd 84c4 c0bd 9b08 afbc
00000250: 108f 84bd adf3 8dbe 8998 103e 1e27 82be
00000260: d648 ff3d 620c 763e 4a94 2d3e 5d08 6e3c
00000270: dd5a 83be 4982 6f3b 8360 8a3e 7de4 783e
00000280: ff01 07bd 1899 383b 27b2 3b3c 027f 6bbd
00000290: ef6a d6bb ecce 65bb b634 97bf 5313 0c40
000002a0: 6e9f b83d 6f3c f0bd e3bd 27be a7c5 d2bd
000002b0: 0b30 8fbd e978 0f3f 7ae8 64be aa14 283d
000002c0: 28b0 2f3e f8e2 15be 588e a7bb c0e6 bfbd
000002d0: dfeb 073e b221 2cbe 548b 513d 59d8 ebbe
000002e0: 8367 ca3c 90a4 e03d 660f 7a3d 816d 4fbd
000002f0: 93ad 013d cd1d 9b3d e4f7 153c 1b0c 993d
00000300: 1a48 0c3e 426d 4ebd 379a 81bc 947a 2e3c
00000310: c0bd 3fbd 098c a53e e9b5 e23d 2023 323e
00000320: 863a f9bd 7a96 943b e9af 28bd 6fb3 143e
00000330: 05f6 fc3d 8ad8 123c 2646 0c3d 4e41 b5bd
00000340: 8dec 863e 837d 9ebc 8fd9 a2bb 289a 19bd
00000350: 9c26 1a3e 1461 cd3e 4fb6 383e 3285 d33d
00000360: cc07 d9bc ea14 27bd 98ae 9ebf 4c5a bbbe
00000370: 0e93 c63c 5e3a dbbd d0a2 18bd 7fbf b2bc
00000380: 9e2c a73d 373c 223b 2b3f babe ffc3 dbbc
00000390: a03d 79bb a08b 453d 4a20 b23d 6f2a 503c
000003a0: 8285 05bd ef24 0cbb 80e7 1d3d e37e 263e
000003b0: ba0b 9ebc a580 ad3e 213a 16bc cdda e4bd
000003c0: 26bb 223e be13 9a3d 9a3e 14bd 753a 233e
000003d0: 6b49 903d 1cd7 1ebd b841 cfbd a7fe 92bd
000003e0: de76 b3bd 8a33 d13d d6c9 06be 6f9f 71be
000003f0: 2c30 843d e67d e6be 8ad1 413e fc97 40bb
-0.03332658 0.3856244 -0.09024981 -0.17140491 -0.1947328 -0.13397568 -0.07509603 -0.23507513
0.049294397 -0.07946808 -0.10592106 -0.28511813 0.15459685 -0.0021079415 -0.13307403 -0.078325994
0.07039251 -0.06168581 0.08698652 -0.3013706 0.11033474 -0.08031011 0.029579729 0.28378034
-0.034116477 -0.0046413867 0.2966394 -0.35005295 0.33426958 -0.13257404 0.22865652 0.08768841
-0.29127944 0.12892815 -0.091556124 0.032383695 0.050987676 -0.037605222 -0.14189427 -0.18073475
0.28935668 -0.19904116 0.07016192 -0.03971081 -0.0054666954 0.052223325 -0.030425146 -0.08158652
-0.06523771 0.025788814 -0.038110215 -0.008984304 -0.00065135636 -0.11126206 -0.0043018586 0.32292077
0.10044994 0.15139042 0.42031586 -0.011283473 0.3999645 -0.95457536 0.2921454 -0.20414233
0.072872326 0.33764708 -0.06703885 0.11740291 -0.045652673 -0.033049162 -0.32106835 0.2923301
0.08797346 0.13299158 0.0047235596 -0.09029306 0.115941025 0.10781655 0.16170162 0.2760725
-0.1367293 -0.017513646 0.0580778 0.3482103 -0.21906558 -0.13267197 0.020904476 0.06860214
-0.021118434 0.108035795 0.0070522786 -0.07034151 0.35966587 0.030522432 0.058083575 -0.072440274
0.05285161 0.17848554 -0.76045376 -0.049033035 0.21730533 0.1468541 -0.059816156 0.0032463768
-0.0005817965 -0.2226142 -0.27186823 -0.24008872 -0.059732635 -0.034186855 0.008273874 -0.14232165
0.024746329 -1.0578177 0.13524598 0.1509682 -0.24241543 0.1947906 -0.29947412 -0.19793196
-0.026269292 -0.04689509 0.41948506 -0.15854894 -0.024125597 -0.004444994 0.2997393 -0.10633183
-0.037845302 -0.14948098 -0.050438818 -0.013344558 -0.21115588 0.1027476 -0.026198506 0.011455486
-0.048484083 0.017015375 -0.018307187 -0.0017300311 -0.10273695 -0.10415151 -0.25579998 0.14293215
-0.016847014 -0.033045895 -0.094124824 -0.021366408 -0.064725995 -0.27724972 0.14120688 -0.2542047
0.12465064 0.24028161 0.16951099 0.014528361 -0.2565526 0.0036546162 0.27026758 0.24305911
-0.032960888 0.0028167423 0.011456049 -0.05749417 -0.006543509 -0.0035065962 -1.1812961 2.1886795
0.09014784 -0.11730277 -0.1638103 -0.102916054 -0.06991585 0.5604387 -0.22354308 0.04103533
0.17157042 -0.14637363 -0.0051134042 -0.09370184 0.13273571 -0.16809729 0.051158264 -0.46063498
0.024707561 0.10968888 0.06104984 -0.05064154 0.031659674 0.075740434 0.00915334 0.07473012
0.1369938 -0.050397165 -0.015820606 0.010649342 -0.04681182 0.323334 0.11069853 0.17396212
-0.121693656 0.0045345398 -0.041183386 0.14521573 0.12351612 0.00896276 0.034246586 -0.088503465
0.2635235 -0.019346958 -0.0049697827 -0.03750053 0.15053791 0.40113127 0.18038295 0.10328139
-0.026492976 -0.04079143 -1.2397032 -0.3659233 0.024240043 -0.10704492 -0.037264645 -0.021819828
0.08162807 0.002475513 -0.36376318 -0.026826857 -0.0038031116 0.04822886 0.08697565 0.012705429
-0.032598026 -0.0021384319 0.038550854 0.16259341 -0.019292701 0.3388721 -0.009169132 -0.111745454
0.15891704 0.07523297 -0.036192514 0.15940268 0.07045253 -0.038779363 -0.10119957 -0.07177477
-0.087629065 0.102149084 -0.13162932 -0.23595975 0.064545006 -0.45017928 0.18927589 -0.0029387465

bias f4 [2]
00000000: 6c2c edbc ea8a b7bd
-0.028951846 -0.08962043
