exp_local/bc_fixed/weights/6000.pt (torch, 272392 bytes, 6 tensors)

weight f4 [256, 2]
00000000: 1e60 0bbe c565 f43d a361 3c3e d77b 52bd
00000010: 5d36 10bf 0868 863e 8a0d 353c 23d3 273e
00000020: f8cb 043e e9e4 ce3d 681e 2a3d ed0a c1bd
00000030: dc58 aabd 8f17 4d3e 16f9 b53b 92f8 79bc
00000040: 9b24 dabd e734 c0bb f626 fbbd 5c7d 243d
00000050: b011 693c 1a7a e1bd 907f 55bd 7e74 9d3e
00000060: bf69 36be 2c1d 023e 601e 483d 3fbe 843e
00000070: 2bcd 8fbd e841 ebbd 4697 5b3e 1ac9 1abe
00000080: ece5 55bd 2e1b 5d3e b4d0 6abd e789 49bd
00000090: 823b dfbd 813e 19bb e1b4 e5bd 5454 a2bd
000000a0: 3d33 b5bd 3815 06bd e457 ccbb 23d2 6dbc
000000b0: 2274 20bc 2310 83bd 9f76 8fbc fa75 44bd
000000c0: b1e2 b23d e3f2 823c 4702 58bb 3dca e6bc
000000d0: 327f 193e c157 ba3d 2dfc 1abe f97c b33d
000000e0: dac2 b03d ee90 f33d 7320 fbbd e566 c43c
000000f0: f145 8ebd 043d 8fbc 0654 dfbd f7e3 3d3e
00000100: 00ed 39bd d652 6d3e 35e6 9abd 2df4 633e
00000110: bc72 85bd 0952 b1bc 435a 10be 1ec9 41bd
00000120: 0b8b e6bc ec40 aabc 2241 28bd 81b3 84bd
00000130: e705 e6bd 85ff db3b e38c 0c3e 5197 11be
00000140: 918f ffbd 8570 043c 8193 263e 4f07 1ebe
00000150: 8bb0 cd3d 948d 083e 20fd 883e a7fa dfbd
00000160: abaa 35bd adab 2c3e 34d8 f4be a686 1f3e
00000170: ca9c 27be 1589 8c3e fee0 103e 639d 143d
00000180: ffc3 44bc 4051 323e db9a 97bd 5343 80bc
00000190: 3d53 21be a5ef ce3d 03c0 9d3d 508b 213e
000001a0: decf ffbc 2af8 bbbd 6cb8 4abd 8c17 f6bb
000001b0: 72c1 15be 07c6 a7bd 5b78 203d 0d8b 0a3e
000001c0: 8e9c 8bbc 2896 fabd 39f7 3a3e 8630 7b3d
000001d0: 4d83 3a3c 09a0 0f3e 384e 62bd a0dd 813c
000001e0: 3941 ea3d 3976 be3d dbeb d03d 0c89 1c3e
000001f0: 25e4 50bd 2cea 4a3e 056d 183d 04eb febd
00000200: d4cc e23d 89a3 533e 1480 f9bd 22c8 0b3e
00000210: b726 943b 955a b63c 2bc4 73bc 2e95 00bd
00000220: 3915 21bd 340b eebb 7f32 81bd d716 0fbe
00000230: 057a b0bd 6403 20bd e5e0 203d f936 46bb
00000240: 5f69 0dbe 3e33 0a3e 6ed7 bbbd 4203 1fbd
00000250: 7c87 a7bd f2cb 0e3d 28a7 a8bd d35f 0c3e
00000260: 2e76 ebbd f8d1 ea3c ebc8 5ebd 9481 99bd
00000270: f2fb 05be cc3e 783d dc11 443d 3a00 01be
00000280: c9d3 0bbe 9088 65bd a65e c6bc f385 10bd
00000290: c7a5 5e3d a9dc 34be 1242 1c3d da50 46be
000002a0: 8d24 a5bd 7c2f 78bd 5cc5 b0bd ffca 22bd
000002b0: 3253 82bc 599d 5cbd df42 463e 12d3 10be
000002c0: 6493 923c bddc 293e ed94 82bd a593 8abc
000002d0: 56a1 9dba 9141 debd 1abf 4c3e 14b4 213c
000002e0: 804a b73a ebd7 b5bd 889e b4bc 3fa1 b0bb
000002f0: 380c afbc 64f6 7fbd a622 72bd 526f 30bb
00000300: 604e 6bbd e4cc 1ebe e7a3 d8bd 6889 c53d
00000310: d50f b1bb 49f6 c1bd bb44 71bd 63ae 5fbd
00000320: c349 70bd 55b7 aa3b f0d7 6b3d 59c7 003e
00000330: 9567 ed3c d50c f5bd f6dd f1bd e8ad 8b3b
00000340: fabd 5fbd fdf1 2b3e 4444 57bc 634d baba
00000350: 0134 65bd 9533 2d3e eadf 773d 5659 cd3d
00000360: 5809 7b3d d2cd 13be 6d90 10bd a18a 1fbd
00000370: be18 04be a127 84bc 6511 1abe 0eb0 103e
00000380: 547e d13b 3e3d 303e ef0b 463e 6811 dabc
00000390: 863d b8bd 9ec2 48bd aaba 753e afd4 163d
000003a0: 36b5 21bd f67c 0abe cfc6 eabd 7d12 eabd
000003b0: 899b e7bd e2cb bc3b 2f04 153e ed3c acbd
000003c0: a4f2 f4bd 4f4b 5d3c bda6 203d c8a3 f1bd
000003d0: 8e59 193e 1826 f53d a775 3c3e 1a77 2fbd
000003e0: b0f6 e83d e59b d53b 9c0d 39bb 003d 38bc
000003f0: 7eb1 d4bb 7678 2c3e cf87 123e 1343 713c
-0.13610885 0.119334735 0.1839662 -0.051387634 -0.5633295 0.26251245 0.011050591 0.16389136
0.12968433 0.10102255 0.041532904 -0.09425912 -0.0831773 0.20028518 0.005553375 -0.015257018
-0.10651513 -0.0058656815 -0.122632906 0.040158615 0.014225408 -0.11009617 -0.052123606 0.3075294
-0.17813776 0.1270644 0.048857093 0.25926396 -0.070215546 -0.1148718 0.21444425 -0.15115777
-0.052221224 0.215924 -0.05732794 -0.04920378 -0.10900022 -0.0023383202 -0.112161405 -0.079262406
-0.088476636 -0.03273508 -0.0062360633 -0.0145154325 -0.009793313 -0.06399562 -0.017512618 -0.047964074
0.08734644 0.015984958 -0.0032960342 -0.028172607 0.14989927 0.09098769 -0.1513526 0.08764071
0.08630915 0.118928775 -0.122620486 0.023974845 -0.06946934 -0.01748515 -0.10904698 0.18543993
-0.045392036 0.2317613 -0.0756344 0.22261114 -0.065160245 -0.021645563 -0.14096932 -0.04731094
-0.028142473 -0.02078291 -0.04107774 -0.0647955 -0.112315945 0.00671381 0.13725619 -0.14217879
-0.12478555 0.008083467 0.16267206 -0.15432476 0.100434385 0.13335258 0.2675562 -0.1093648
-0.044352215 0.16862364 -0.478212 0.15578708 -0.16368404 0.27448335 0.14148328 0.03628291
-0.01200962 0.17413807 -0.07402583 -0.015657103 -0.15754409 0.10104302 0.07702639 0.157758
-0.031227048 -0.09178193 -0.049492285 -0.007510131 -0.14624575 -0.081920676 0.03917728 0.13529606
-0.017042425 -0.12235671 0.1825837 0.061325572 0.011383844 0.14025892 -0.055250376 0.01585275
0.114382215 0.09299893 0.10201236 0.15286654 -0.050998826 0.19815892 0.037213344 -0.124471694
0.11074224 0.20667852 -0.12182632 0.13650563 0.0045212167 0.02225999 -0.014878313 -0.03139227
-0.03932688 -0.007264519 -0.063084595 -0.13973556 -0.086170234 -0.039065734 0.039276976 -0.0030245169
-0.13809727 0.1349611 -0.09171949 -0.038821466 -0.081801385 0.034862466 -0.082350075 0.13708429
-0.1149715 0.028664574 -0.05439083 -0.07495418 -0.13084391 0.060606763 0.047868595 -0.12597743
-0.13655008 -0.05603844 -0.024215054 -0.035283994 0.054357316 -0.176623 0.038148947 -0.1936678
-0.08063612 -0.06059216 -0.08631393 -0.039744373 -0.015908811 -0.053860996 0.19361447 -0.14143017
0.017892547 0.16588111 -0.063760616 -0.016916106 -0.0012026231 -0.108523495 0.19994774 0.009869594
0.0013983995 -0.08879074 -0.02204825 -0.005390316 -0.021368131 -0.062490836 -0.059115075 -0.002692182
-0.05744779 -0.15507847 -0.10578137 0.09645349 -0.0054034987 -0.09470803 -0.058903437 -0.054609668
-0.058664095 0.005209843 0.05757898 0.12576045 0.028980056 -0.11965338 -0.11809914 0.0042626746
-0.054624535 0.1679153 -0.013138834 -0.0014213737 -0.055957798 0.16914208 0.060516275 0.10026805
0.061288208 -0.14433983 -0.035293985 -0.038950566 -0.12900063 -0.016132178 -0.15045698 0.1412966
0.0063932333 0.17210862 0.1934049 -0.026619628 -0.0899611 -0.049013726 0.23996988 0.036823925
-0.039479457 -0.13524231 -0.11463701 -0.114293076 -0.11308963 0.0057616094 0.14552377 -0.08410058
-0.119603425 0.0135067245 0.039221514 -0.11798817 0.14975569 0.119701564 0.18404256 -0.042838193
0.11375177 0.006518828 -0.0028236872 -0.011245012 -0.0064908853 0.16842827 0.1430962 0.014725464

bias f4 [256]
00000000: 9fad 023d 4d0a 1abd 4536 e33d 4d15 55bd
00000010: d709 2abd ca31 b53d c716 9fbc c1e4 8dbc
00000020: 10ef e43d c88f 043e 4c7a d63d af98 85bd
00000030: 1910 5a3d 01ec b7bd 0000 0000 7528 c2bb
00000040: 2e8d 1fbd 0000 0000 239c b1bb 0000 0000
00000050: 0000 0000 0000 0000 0000 0000 0000 0000
00000060: af4e a4bb 0000 0000 6587 61bd 087f 543d
00000070: e233 d5bc 8dcd 993d 0000 0000 8f12 06bb
00000080: 0ca5 3ebd 6a49 f0bc 0000 0000 4942 be3d
00000090: 0000 0000 0000 0000 51ef dd3d 7812 6f3c
000000a0: 6bb7 06bc 74a8 3e3c f10a 92bd 2f2d 0abd
000000b0: 2b34 e6bc b438 b73d 7529 9eba e2e9 6bbd
000000c0: a261 38bd 0000 0000 c863 453d 87fd 8cbd
000000d0: 0000 0000 0000 0000 0000 0000 6109 55bd
000000e0: 0000 0000 c2e1 98bc 5da4 38bd 336d 68bc
000000f0: c42d 85bd 15eb 9abd da4b 0cbd 8413 c33d
00000100: ce08 bebc d62d 9a3c 2bbb 6c3d 0000 0000
00000110: 0000 0000 0000 0000 0000 0000 09d8 0e3d
00000120: 3a5a e23c 0000 0000 8f90 9e3d 7a54 abba
00000130: 46a4 d83d 0000 0000 b267 573d 2a01 b03d
00000140: 0000 0000 0000 0000 4853 6d3d ec62 943d
00000150: 0000 0000 0000 0000 0000 0000 3e54 90bb
00000160: c9e6 5fbd 0000 0000 acdf 0abc cacc 6ebd
00000170: 7898 21bc 0000 0000 0000 0000 0000 0000
00000180: 0000 0000 5b73 b53c ca1a b53d 0000 0000
00000190: 6ced 31bc 7b13 63bd d542 ec3d b826 b6bb
000001a0: 6837 bebc 1258 0dbc c6cb bdbc 90d1 4cbd
000001b0: 2181 293d 0000 0000 0000 0000 f972 033d
000001c0: 4774 56bd 33a0 33bd 0000 0000 4f19 6bbd
000001d0: 0000 0000 3476 e03d c6f1 e63d d6f2 36bc
000001e0: 4475 a23d 2a76 b13d 26f0 eebc c843 22bd
000001f0: 7caf 39bc 6219 0bbc d871 e5bc d9ed 18bc
00000200: 3204 2dbd 6ef6 28bd 0000 0000 a6d6 7abd
00000210: 0000 0000 daa8 db3d 1488 18bb 0000 0000
00000220: 2659 e03d 4406 4cbd 4ac4 e2bb 2a4a ae3d
00000230: 6242 c2bc 4051 c3bc 170c 83bd 6358 003d
00000240: 0000 0000 c5ca 563d 0000 0000 95c9 c4bb
00000250: 0000 0000 25e7 37bc 265c ce3d 4648 aa3c
00000260: e68a 8dbb 0000 0000 33e0 aabd 0000 0000
00000270: 417e 0cbd 0000 0000 6f5a 973b 754f 67bd
00000280: 4c89 96bd 0000 0000 98b9 993d 7600 d7ba
00000290: a12c 7dbd 97c1 08bc 0000 0000 4ccc d3bc
000002a0: 7699 31bd 2f5a 23bc 308b 68bd 0000 0000
000002b0: 8453 0fbd 0000 0000 9671 43bd 5194 83bd
000002c0: da5d 5dbd 9a6b 853d 0000 0000 2273 c83d
000002d0: 6521 723d 99ad fabb 9c12 d83b c545 81bd
000002e0: 26b2 79bd cdc7 5abd 0000 0000 243d 8abd
000002f0: a558 bf3d b7cf e43d 813c 93bb 0000 0000
00000300: dec0 183d 145a 94bd 0000 0000 0000 0000
00000310: a450 57bd a4ce 9fbc 0000 0000 13eb 3f3d
00000320: dbfc 75bc e8b8 143d 0000 0000 941e 1abd
00000330: 0000 0000 ed19 a8bd bdd6 71bd 5855 d63d
00000340: 7230 8e3d 3f7c 5dbc 4b4e 6ebd 8e5b 7abc
00000350: 0000 0000 e4ff 533c 0000 0000 d8e3 aabd
00000360: 0000 0000 0000 0000 bf13 a93d 7b8f 083d
00000370: 0000 0000 0000 0000 0000 0000 3e2c 25bd
00000380: 8432 b53b b39f 783d 0000 0000 4849 10bc
00000390: 0000 0000 79af f53d 0000 0000 82a8 913c
000003a0: 700b 0abc de61 13bc 0000 0000 79f1 db3d
000003b0: 6fd3 953d e05d 113d 2034 8cbd 0000 0000
000003c0: bc1a 92bd 0000 0000 0000 0000 17e4 75bd
000003d0: 42fe 79bd ce3b 53bc 0000 0000 0000 0000
000003e0: 3a56 873d 3bae 89bd 6939 cdbc 207d d13d
000003f0: 66d3 56bd c51d f43d da6e 53bb 3cd0 babb
0.03190386 -0.03760748 0.110943355 -0.052022267 -0.04151329 0.08847387 -0.01942004 -0.017320992
0.1117841 0.12945473 0.10472545 -0.06523263 0.05323801 -0.08980561 0.0 -0.005925233
-0.038953 0.0 -0.0054202243 0.0 0.0 0.0 0.0 0.0
-0.0050142626 0.0 -0.055060763 0.05187896 -0.026025716 0.07509909 0.0 -0.002045784
-0.04654412 -0.029331882 0.0 0.09289987 0.0 0.0 0.108366616 0.014591806
-0.008222441 0.011636842 -0.07130993 -0.033734497 -0.028101048 0.08946362 -0.0012066799 -0.057596095
-0.045014985 0.0 0.048190862 -0.06884294 0.0 0.0 0.0 -0.052010898
0.0 -0.018662337 -0.045078624 -0.014186191 -0.0650287 -0.075643696 -0.034252025 0.09525207
-0.023197558 0.018820684 0.057795685 0.0 0.0 0.0 0.0 0.034873996
0.027630914 0.0 0.07742416 -0.0013071441 0.10578208 0.0 0.052589126 0.08593972
0.0 0.0 0.05794075 0.0724543 0.0 0.0 0.0 -0.0044045737
-0.054663453 0.0 -0.008476179 -0.05830077 -0.009863012 0.0 0.0 0.0
0.0 0.022149732 0.08843 0.0 -0.010859828 -0.0554385 0.11536185 -0.005558815
-0.02321978 -0.008626955 -0.023168456 -0.050004542 0.041382913 0.0 0.0 0.03209207
-0.052356984 -0.04385395 0.0 -0.057397183 0.0 0.109600455 0.112765834 -0.011166295
0.07932523 0.08665116 -0.029167246 -0.039615422 -0.011333343 -0.008489938 -0.028008386 -0.009334051
-0.04224033 -0.04125064 0.0 -0.06123986 0.0 0.10725565 -0.0023274468 0.0
0.10954504 -0.049810663 -0.006920372 0.085102394 -0.023713294 -0.023842454 -0.0639879 0.031334292
0.0 0.05243947 0.0 -0.0060054758 0.0 -0.011224543 0.1007617 0.020786416
-0.0043195365 0.0 -0.08343544 0.0 -0.034300093 0.0 0.004618935 -0.05647226
-0.07350406 0.0 0.07506102 -0.0016403336 -0.06181014 -0.008346937 0.0 -0.025854252
-0.043359242 -0.009970232 -0.056773365 0.0 -0.034991756 0.0 -0.047715746 -0.064247735
-0.054044582 0.06514664 0.0 0.09787585 0.05911388 -0.007650089 0.0065940153 -0.063121356
-0.06096091 -0.0534132 0.0 -0.06749943 0.093430795 0.11172431 -0.0044932966 0.0
0.037293307 -0.072437435 0.0 0.0 -0.05256714 -0.019507714 0.0 0.046855044
-0.015013899 0.036309153 0.0 -0.037626818 0.0 -0.0820807 -0.05904268 0.10465497
0.06942834 -0.013518392 -0.058180135 -0.015280617 0.0 0.012939427 0.0 -0.08344239
0.0 0.0 0.082557194 0.03333996 0.0 0.0 0.0 -0.040325396
0.0055297036 0.060699176 0.0 -0.008806534 0.0 0.119963594 0.0 0.017780546
-0.0084255785 -0.008995501 0.0 0.10739417 0.073157184 0.035489917 -0.068458796 0.0
-0.071340054 0.0 0.0 -0.060031977 -0.061033495 -0.0128926765 0.0 0.0
0.06608243 -0.06722685 -0.02505179 0.10228944 -0.0524477 0.119197406 -0.0032262118 -0.005701093

weight f4 [256, 256]
00000000: 93d0 6ebd 1726 f3bc 9b4f 35be 74b1 84bd
00000010: 33d5 e1bd 2b8a e13d 919a 59be 6f45 243b
00000020: 437b 913d 332d 063d 86ca 2f3e e031 85bd
00000030: 19e2 723d 250a 39bd 2b59 5dbd c34b f93c
00000040: e7c9 36bd 4dbd bebd 500b bfbd e963 3bbb
00000050: 68a1 9bbd dea8 5ebd 12c4 ccbc 11e6 a9bd
00000060: 7e1c 873d 1330 ca3d 67d1 b53d 899e 0c3e
00000070: f1f8 8b3c 9480 0c3d ebb2 a73d fec8 ca3c
00000080: a14e 1abe 83f1 18be bafa a1bc 5d20 6f3e
00000090: 2315 a43d 3cc7 793d 8162 93bc 157e 213d
000000a0: 4852 493c b1bf 1c3b ce41 4dbb d4ce 93bc
000000b0: f6a3 f1bc a917 87be b09c b5bd 25b9 b1bd
000000c0: b93f fcbb 9c52 77bd 704b a6bc 8951 0ebc
000000d0: aeb2 d13c bee0 7f3d 7645 7c3d 675b ecbd
000000e0: 50ad 053d fe10 343d 625c 92bd 68d9 65bd
000000f0: 0613 c0bc d75d 733d 8bcd 04be 8ac6 a63d
00000100: e622 b3bc cc8a fcbc 483f 723d 8d22 d83c
00000110: 3247 093d 6a3c b53d 4c7a 073c 5b2d e8bc
00000120: f5b9 bb3c fc84 db3c b52d 783c f303 2ebd
00000130: 1071 563d d2cc d0bd 3aed ad3d badc 053e
00000140: 26ee ad3b 9ce6 d93c bf99 88bc 0e1d e33c
00000150: 9214 773d 82f6 6cbd c2c7 2ebd 6a1a f53b
00000160: 42b0 2bbe 5d6c 00bd 2026 77bd af19 36bc
00000170: 92a3 873d e543 de3d 1fad 7ebd 4cf5 b63d
00000180: aa43 513d baea 85bd 64a9 0abc ee28 5e3e
00000190: 656f 953b f99e 50bd 3c68 0e3e 0dd7 00bd
000001a0: edf4 0cbe 1277 a5bd 44a9 22be 161e 52bd
000001b0: cb61 263e 0086 14bc f047 b0bc 2e7d 1eba
000001c0: 0827 02be bb4b 84bd c649 18bc f3c3 a7bc
000001d0: 82d8 f3bb 02b5 f23d cf5a 173e 2cfd b23d
000001e0: 3b81 183d fd6f febc 2072 723d c792 09be
000001f0: 2446 d23c 186b 89bd f514 c9bc bfaa fa3c
00000200: 5ed9 ab3b 6975 163d 56c7 d5bc 8ac9 0ebe
00000210: a542 cabd 946f fc3d b949 b7bd e583 913d
00000220: 6c09 103d baad 01be dfb3 033d ccf9 863d
00000230: e0d1 adbd 96c2 5ebd 8d7d 75bd b3d5 50bb
00000240: cc35 edbc 08e4 d5bc 7aee 1f3b 993e e4bc
00000250: 54df 753d a82b e2bd 77dd a8bb fad6 463c
00000260: 253d 123e 200c a73c bae0 d5bd fcca 903d
00000270: 77cb f83c 4839 2fba c56f a7bc 4e6e c1bd
00000280: f440 60bd 90ec 933d 6c7f 513d 2bee 853c
00000290: 3f85 143e 5678 fcbd 1cd3 cbbd 4052 76bd
000002a0: 8cae 7abc 5e64 e03d 7368 4ebe 8dbf e1bc
000002b0: c849 223d 1e48 9a3d fbb4 dfbc 55fc 9dbd
000002c0: b953 d63d 0f75 4f3d 8413 8b3b 68f8 fc3c
000002d0: 5035 6abc 30a6 0d3d a408 c3bc 7826 90bd
000002e0: 4932 4a3d 598a 59bd 667f 3fbd 215c 4d3c
000002f0: 77b5 b93d 55c1 a43c 8419 df3d be20 ffbc
00000300: c78d 1fbd 74b6 40bd 03e8 c0bd 74c3 67bd
00000310: b573 473d de0f c3bb a65c 1b3d 909b 2b3e
00000320: f200 8e3d 9fa0 243d d290 52bd c11d 46bd
00000330: 2a79 50bd 8908 8dbc e920 23be 92a8 6b3e
00000340: 0d4f e13d 672e 83bc 86f4 983d 28e8 7f3b
00000350: aec7 923c 2a33 e3ba 0677 1fbc 1749 b1bd
00000360: 1f57 7ebd bf89 e0bc b9d7 9b3d 74b7 873d
00000370: bc0a 4c3d 047f fe3b 7588 21bd 4029 de3c
00000380: 5000 e9bc 7ef9 113e dce8 83bd 2003 d7bd
00000390: 90f4 d53b d824 323d 6aab e8bc d357 6e3d
000003a0: 9e17 3d3d 1827 603b 8af2 1c3e 38d0 86bd
000003b0: e6bc 5c3d 3316 29bc 38af 1cbe 4531 79bd
000003c0: a6d0 83bd 62cc 6e3d 74da 36bc 29c9 45be
000003d0: 691b 1cbe 56f3 ebbc 64c5 31bd b25e a23d
000003e0: 8540 f1bc 2576 8fbc c6b8 58bd b572 17bc
000003f0: a6d4 37be a719 0d3d 0b93 0c3e 4dc0 853d
-0.05830438 -0.029681249 -0.17706148 -0.06479159 -0.11026993 0.110126816 -0.21250369 0.00250658
0.071035884 0.03275795 0.171671 -0.065036535 0.059297655 -0.04517569 -0.054040115 0.030431634
-0.044626143 -0.0931345 -0.093283296 -0.0028593487 -0.07599145 -0.054360263 -0.024995837 -0.08295835
0.06597231 0.09872451 0.08877831 0.13732351 0.017086478 0.03430231 0.08188423 0.024754044
-0.15069057 -0.1493588 -0.019772876 0.2335219 0.08011844 0.06098102 -0.017991306 0.03942688
0.012287684 0.0023917968 -0.003131974 -0.01804296 -0.029497128 -0.2638524 -0.088677764 -0.08677892
-0.007698026 -0.060381517 -0.020299643 -0.008686432 0.025597896 0.06247019 0.06158968 -0.11540871
0.032635987 0.043961518 -0.07146527 -0.056115538 -0.023446571 0.059415665 -0.12969033 0.08143337
-0.021867227 -0.030827902 0.05914238 0.026383663 0.033515163 0.08849414 0.008268904 -0.02834194
0.02291582 0.02679681 0.015147616 -0.042484235 0.05235392 -0.101953164 0.08492513 0.13072482
0.0053079305 0.026599221 -0.016674874 0.027723815 0.06032235 -0.057852276 -0.042670973 0.0074799554
-0.16766456 -0.031353343 -0.060339093 -0.011114522 0.066229954 0.108527936 -0.06217682 0.089335054
0.05108992 -0.06538911 -0.008463237 0.21695301 0.0045603984 -0.05093286 0.1390695 -0.03145509
-0.13765307 -0.080793515 -0.15884882 -0.051298223 0.16248243 -0.009065151 -0.021518677 -0.0006045875
-0.12710202 -0.06459757 -0.009294933 -0.020479178 -0.007441581 0.11850931 0.14780734 0.08739695
0.03723262 -0.03105926 0.05919087 -0.13434897 0.025668211 -0.0670988 -0.024546126 0.030598996
0.005244418 0.036733065 -0.026096027 -0.13944069 -0.09875993 0.12325969 -0.08949608 0.07105235
0.035165235 -0.12663928 0.03215396 0.06590614 -0.08487296 -0.05438479 -0.059934188 -0.0031865656
-0.028956316 -0.02610971 0.0024403618 -0.02786188 0.060027435 -0.11043483 -0.005153354 0.012136215
0.14281137 0.020391524 -0.10443254 0.07069966 0.030370457 -0.0006684256 -0.020439038 -0.09444867
-0.054749444 0.07222855 0.05114691 0.016348919 0.14503954 -0.1232764 -0.09952375 -0.060137033
-0.015300404 0.109566435 -0.20157032 -0.027557159 0.039621145 0.075332865 -0.027307978 -0.07714144
0.104651876 0.050648745 0.00424427 0.030880168 -0.014294937 0.034582317 -0.023807831 -0.07038587
0.049364362 -0.053110454 -0.046752356 0.012534172 0.09067815 0.02011172 0.108935386 -0.031143542
-0.03895357 -0.047049 -0.09419253 -0.056582883 0.04869433 -0.0059528193 0.037930153 0.16758561
0.06933774 0.040192243 -0.051407643 -0.04836822 -0.0508968 -0.017215984 -0.15930523 0.23013523
0.11001406 -0.016013337 0.07468514 0.0039048288 0.01791748 -0.0017333974 -0.009732967 -0.08656519
-0.062094804 -0.027409432 0.07609505 0.06626788 0.049814925 0.0077666063 -0.039436776 0.027119279
-0.028442532 0.1425533 -0.06440899 -0.10498643 0.0065293983 0.04349217 -0.02840205 0.058189224
0.0461651 0.003420299 0.15326896 -0.06582683 0.053891085 -0.010320234 -0.15301216 -0.060838003
-0.06436281 0.058300383 -0.011160482 -0.19315018 -0.15244831 -0.028802555 -0.043401137 0.07928218
-0.02944971 -0.01751239 -0.05291059 -0.009243657 -0.17952213 0.034448292 0.13727967 0.06530819

bias f4 [256]
00000000: 9bfc 153b 080f c93d a090 ccbb 56ad 343d
00000010: 1d25 af3d af11 d83b 101e dc3c 2a4f 843d
00000020: 0000 0000 03f4 f13b 34d2 debb 6577 903d
00000030: db2e b03d 5c88 2a3c 3c0f 413b b9c3 cebb
00000040: 49fb 803d 1e73 22bc 1636 1cbc 4cd1 a33d
00000050: 2323 86bc 2834 e0bb 944e 1bbc d6eb ae3d
00000060: 7c8c 243b 2b17 c53a 83b6 af3d d611 383d
00000070: 9dc3 bf3d 56a2 c53c 9cf5 eb3c 860a bdbc
00000080: 4adc 343d 33b8 903d 0000 0000 ea36 f7bb
00000090: 0000 0000 a6d7 16bc 2896 883d a5dc 843d
000000a0: 6c6e bc3d 170b 8d3d 80e5 25bc 6e6f 79bc
000000b0: d127 9b3d ec88 2b3d 8425 843d 98a1 ec3b
000000c0: 4245 c7bc 3b9f 03bc db9c 8abc 0000 0000
000000d0: 98a8 303d 2ff5 d0bb 833f 473c 4380 e53d
000000e0: a1fd fabc d2f9 863d d6aa bd3d 5028 943c
000000f0: ca8b b93d ddbc 073d e715 963c 2b90 453d
00000100: 0000 0000 a438 d53c 235f e83c 246a a0bd
00000110: 2c18 0c3c 0034 83bc 12a1 283d 661d bb3d
00000120: 0000 0000 78cd 773d b943 31bc 0769 443d
00000130: 6411 273c c1ba 2a3d ac39 fd3c ea91 c13d
00000140: 589b 233d 0000 0000 0564 73bc a373 c13d
00000150: 4358 613d 9c64 04bc 4c6b 06bc b225 c0bb
00000160: 690c 09bc dac9 c4bb cb7b 5ebc 1e95 083d
00000170: 8ba8 f53d f764 2bbc 0000 0000 ece5 1c3c
00000180: 77b1 c8bb 2855 893d e086 5e3c 440c 09bc
00000190: 36f6 743d 3d80 553d d08f bfbb eb26 253d
000001a0: 7111 093c 4ffa a93d 777e 673d 6fb5 533d
000001b0: 00ad d73b 9127 543d 52db febc bbab 2c3c
000001c0: e56a 69bb bcb5 4a3c b589 d03c 8891 9a3d
000001d0: 84da 9a3d 1525 873d 7e61 713d f583 683d
000001e0: 9c8b af3c ce1e f73c 906e c23d 75b4 a53b
000001f0: a282 1abc 0000 0000 355d a93d 407d 353c
00000200: cbb3 713b 2b3e 873d 4c0f 4a3b b805 e2bc
00000210: 03f2 3e3d ab06 943c a25b 41bc 9022 ffbb
00000220: ea1f 323c 0000 0000 7af1 3bbc 590c 083d
00000230: faa4 a7bb 1dab 183c 3290 d93b 63f0 6e3d
00000240: c0f2 043c 6fce ae3d 90d6 883d cbee 0c3d
00000250: 155d 32ba 1d28 763d bb0c 49bc 55fb 883d
00000260: 5723 783d 04cc dc3d bdfe 8c3d ea95 65bc
00000270: be95 863d 28db 3ebc 39d0 a83d dc41 013d
00000280: 92af 553c fb6d 473d 52f3 093d 0000 0000
00000290: 9367 d43a 54d2 083a feb4 2c3b ed77 dbbb
000002a0: 986b 303d 6359 203d 300f 8f3c 00ef 5e3d
000002b0: b6e0 01bc 5def b23d d254 db3d ca39 f5bb
000002c0: 537e 933d 7c39 543d 0000 0000 faa6 413d
000002d0: 2dac 153d 69c9 043d d8c9 c4bb be07 9d3d
000002e0: 4d59 09bc 0000 0000 b093 50bc 1863 18bc
000002f0: 61a5 4abc dcee 033d 95d5 11bc fa22 ddbb
00000300: f5cd 893d ccbe 093c 30fd a9bb 1cca 0e3d
00000310: dffa 5cbb 1503 303d e60f 843d 52bf ac3d
00000320: 0d9a 0f3e 4a5b 2abc 828f bfbb dd6e f33c
00000330: 4200 2c3c 4c31 c8bb ae01 f8bb a099 a63d
00000340: a3fc 973d 0000 0000 7ece 41bc bea3 59bc
00000350: 53d4 973d be1d ba3d 88a6 073d a7e6 4a3d
00000360: 5527 b6bb 0000 0000 6533 6b3d d5ce 383d
00000370: f214 85bc 3564 f7bb e5da afbb a4ac 5b3d
00000380: 0000 0000 0000 0000 3dbb b33d 0000 0000
00000390: c2ad 36bc 0000 0000 c884 0d3d 0000 0000
000003a0: ff4c 143c ed1b c53c 6f5e 6abc 7e61 8d3d
000003b0: 5627 b6bb 657e bc3d 19a6 89bb bf3c 3ebc
000003c0: f64d 873d a8e2 eebb 5036 afbb 40e1 ae3d
000003d0: 7483 c23c f9a5 35bc e6b1 953c f5c4 b13b
000003e0: 7064 04bc 7ac2 0b3d 9275 e5bb 338b c3bb
000003f0: 0000 0000 6272 013e 14e0 b23d d3d7 71bc
0.002288616 0.0981732 -0.0062428266 0.04411062 0.08552001 0.006593905 0.026869804 0.06460412
0.0 0.007383825 -0.0067999605 0.07054023 0.08602687 0.010408487 0.0029458543 -0.006309953
0.06297929 -0.009915141 -0.0095343795 0.079989046 -0.016374176 -0.006842155 -0.009479184 0.08541076
0.002510815 0.0015036812 0.08579733 0.044938885 0.09363482 0.02412526 0.02880364 -0.023076307
0.044155397 0.07066383 0.0 -0.007544388 0.0 -0.009206688 0.06669265 0.06487397
0.09200749 0.06886881 -0.010125518 -0.015224321 0.07575954 0.041878626 0.06452468 0.007221412
-0.024325017 -0.008033569 -0.016920498 0.0 0.043129534 -0.0063768844 0.0121611385 0.112061046
-0.030638518 0.06590618 0.092611 0.018085629 0.09059866 0.0331391 0.01832099 0.048233192
0.0 0.026027985 0.028365677 -0.07832745 0.008550685 -0.016016006 0.041169234 0.09136467
0.0 0.060498685 -0.010819369 0.047951724 0.010197017 0.04168201 0.03091129 0.09451659
0.03994307 0.0 -0.0148553895 0.09445884 0.055015814 -0.008080628 -0.0082042925 -0.0058638686
-0.008364775 -0.006005508 -0.013579319 0.033345334 0.11995038 -0.010461084 0.0 0.009576302
-0.006124671 0.067056954 0.013581961 -0.008364741 0.059805118 0.05212425 -0.005846001 0.04032032
0.008365975 0.08299696 0.05651709 0.0516867 0.0065819025 0.051795546 -0.03111044 0.010538991
-0.0035616693 0.01237243 0.025456289 0.07547289 0.0756121 0.0659887 0.058930866 0.05676647
0.021428876 0.030166056 0.094937444 0.0050569125 -0.009430559 0.0 0.08269731 0.011077225
0.0036880847 0.066036545 0.0030831872 -0.027590618 0.04661752 0.018069586 -0.011801632 -0.0077861026
0.010871867 0.0 -0.011471147 0.0332149 -0.0051161023 0.00931814 0.006639504 0.05833472
0.008114517 0.08535468 0.066815495 0.03440742 -0.00068040314 0.06009685 -0.012271102 0.06688563
0.060580578 0.107811004 0.06884525 -0.014012793 0.0657153 -0.011648931 0.0824284 0.03155695
0.0130423475 0.04868887 0.033679314 0.0 0.0016205184 0.00052193296 0.0026352997 -0.006697646
0.04307136 0.039147746 0.017463297 0.054427147 -0.00792711 0.08737061 0.107095376 -0.0074836956
0.07201829 0.051812634 0.0 0.047278382 0.036541153 0.032418642 -0.006005507 0.07667492
-0.008383107 0.0 -0.012730524 -0.00930097 -0.012368531 0.032210216 -0.00890102 -0.0067485543
0.06728736 0.008407306 -0.005187653 0.034860715 -0.0033718867 0.04297169 0.06448345 0.08434929
0.1402361 -0.010397742 -0.005845965 0.02971595 0.010498108 -0.0061093923 -0.0075685596 0.081347704
0.074212335 0.0 -0.011829017 -0.013283668 0.074135445 0.09087704 0.0331178 0.049536373
-0.005558888 0.0 0.05742206 0.045119125 -0.016245339 -0.0075497874 -0.0053666704 0.05363144
0.0 0.0 0.08775947 0.0 -0.0111498255 0.0 0.03455046 0.0
0.00905156 0.024061168 -0.014304741 0.06903361 -0.0055588884 0.09203795 -0.0042007086 -0.011611163
0.06606667 -0.007290203 -0.0053470507 0.08539057 0.023744322 -0.011086934 0.018273305 0.0054250904
-0.008080587 0.034121014 -0.007002541 -0.0059675216 0.0 0.1264129 0.08734146 -0.014760929

weight f4 [2, 256]
00000000: 2ae7 0a3b 34be c03e e4d4 b8bd 81c0 31be
00000010: 31bb 25be db09 76bd 80d5 d8bd 5215 68be
00000020: 1afa 473c 9e17 8cbd 24ed d8bd 7b92 75be
00000030: ef2d 793d 72d3 b2bd 6ccd dfbd 057c aebd
00000040: 0ea1 a23d 43aa 7cbd fd25 b23d 6c03 57be
00000050: 2ef7 e13d c83a e5bd 3051 f23c 13bd a33e
00000060: 973f 9fbd a381 93bd 3d24 5d3e cecc 8cbe
00000070: e164 8c3e 66ed b2bd 60a9 193e da9c 5839
00000080: 8df2 7dbe 9d8d b93d c781 bbbd ee10 8e3d
00000090: 74d8 503d ef07 1abd 7bd1 7fbd 7722 32be
000000a0: 390f 423e 5b18 d7be 0db1 8f3d cda7 22bd
000000b0: 9183 5d3c e122 1dbd 0cb8 2abd 1bc6 75bd
000000c0: 599b 85bd 1043 d33c b135 623d e732 13bc
000000d0: 4d6c 2cbc 5ddd e3bd e9ae f9bb 2776 8c3e
000000e0: b3b8 cd3d e8fd 833d e599 d53e 3858 0abd
000000f0: 5449 c23e 97f8 99be 9a66 563e 0501 24be
00000100: 163e 953d 00a2 6b3e dc98 bcbd cb5d 343d
00000110: 0496 70bd 8f5e 07bd 3688 85be 040b 8d3e
00000120: 92e1 af3d 5376 103d 5513 e0bc 20e7 8ebd
00000130: 4b42 143e b5e6 953b 7d5b 153e 163b 2f3e
00000140: 2a15 d0bd c778 8fbc fde2 6d3d 311f 8b3e
00000150: cb61 60be 29db 07be dd3f ab3c 477f 8c3d
00000160: 9100 adbc df41 dd3d cd16 e73b ce74 3fbd
00000170: 024d bd3e 2e0a fa3c 0be9 6d3d 1ee6 78bd
00000180: 4a72 953d 7c95 ce3d ca1b 33bd ddd6 48bd
00000190: 9b09 703e 70c0 ec3d c901 75bd 0477 47bc
000001a0: a3aa f3bc d788 43be fd81 6dbe fc13 59be
000001b0: 0f02 9fbd c59a 57bd 258f 073c 9f6e e0bd
000001c0: f1ce 43bd bcb5 17be c805 ee3c dbc3 ea3d
000001d0: ae57 4abe e04e eb3d b633 70be 34c0 3abe
000001e0: 86db 38bd 0d94 83bd ebac dd3e a2d7 aebd
000001f0: 0ba3 c5bc 50a7 91bb 78b5 5a3e f9ca 7bbd
00000200: 4222 f5bd c804 3fbe a79b a2bd 22a3 5abc
00000210: 6681 49be 7868 c93d 9d9c 4bbd caaf 3b3c
00000220: cb20 72bd d403 063d e788 f2bc 0f36 b0bd
00000230: c067 d2bd 7161 29be f3a5 38be a646 e63d
00000240: 35ac 29bd 1c04 57bb df97 ebbd 632c 06bd
00000250: c195 d0bd 86ad 80be 8998 103e a643 59be
00000260: 87d2 9a3d bd51 0c3e 2726 773d 5d08 6e3c
00000270: 9ec5 62be 4982 6f3b 0c2d 373e 0747 213e
00000280: 8ab2 743e 0864 4dbc 7bdc 243c 027f 6bbd
00000290: d7b8 80bd 5f26 5fbd 8121 66be 7197 ff3c
000002a0: 6c2d 8c3c 65c9 29be a14b 07be a3b7 05be
000002b0: 0b30 8fbd 3254 cc3e 3daf 3fbe aa14 283d
000002c0: 212b 8e3d fbd1 26be 588e a7bb fa18 06be
000002d0: ed34 053d 2271 01be 548b 513d cf6e 70be
000002e0: 770a a4bc 424b d73d 660f 7a3d 816d 4fbd
000002f0: c7a8 013d ed11 803b e4f7 153c 83e7 66bc
00000300: 99d5 7d3d 2a42 bdbd 379a 81bc 430b 71bd
00000310: c549 9cbd 4188 ad3e cd7d ee3d a5da 873d
00000320: 5621 0cbe 911d a23b fbf7 5fbd 5776 153e
00000330: 9bb5 093d 8ad8 123c bd83 9d3d 687a 91bd
00000340: 2720 343e 837d 9ebc 8fd9 a2bb 289a 19bd
00000350: ce15 113e 460e b43e 6ce4 ce3d 1a5c 37bb
00000360: cc07 d9bc ea14 27bd a487 00bf 39f8 87be
00000370: 0e93 c63c 5e3a dbbd d0a2 18bd bce4 21bd
00000380: 9e2c a73d 373c 223b c216 75be ffc3 dbbc
00000390: 2456 33bd 6eee 413d 9d44 fa3c 6f2a 503c
000003a0: 9969 17bd 400f 81bc 80e7 1d3d 02f4 9d3d
000003b0: ba0b 9ebc 7bf3 783e 213a 16bc 020e d0bd
000003c0: 2aa7 613d be13 9a3d 9a3e 14bd 8e78 663d
000003d0: d93c 8a3b 1cd7 1ebd 1234 b3bd a64f 04be
000003e0: de76 b3bd d966 063d d6c9 06be a87f 89bb
000003f0: 2c30 843d fcf1 acbe d5b2 c43d fc97 40bb
0.0021194913 0.37645113 -0.09024981 -0.1735859 -0.16184689 -0.060067993 -0.10587597 -0.22664383
0.012205625 -0.06840442 -0.10592106 -0.23981659 0.06083482 -0.08731736 -0.10927853 -0.085197486
0.07940875 -0.06168581 0.08698652 -0.20997399 0.11033474 -0.11192852 0.029579729 0.3198019
-0.07775801 -0.072024606 0.21595855 -0.27500004 0.27420714 -0.087366864 0.15006018 0.00020657797
-0.24799557 0.09060214 -0.091556124 0.06936823 0.050987676 -0.037605222 -0.062455636 -0.1739596
0.1895112 -0.4201077 0.07016192 -0.03971081 0.013520137 -0.03836334 -0.041679427 -0.06000338
-0.06523771 0.025788814 0.055226985 -0.008984304 -0.010523868 -0.11126206 -0.007619728 0.27433893
0.10044994 0.06444913 0.41718975 -0.03377554 0.3794657 -0.30072471 0.20937577 -0.16016014
0.072872326 0.23011017 -0.09208843 0.04403476 -0.058736816 -0.033049162 -0.26080483 0.27547467
0.08587946 0.035269093 -0.027352968 -0.06977677 0.14478414 0.0045746216 0.14585681 0.17112383
-0.10160287 -0.017513646 0.0580778 0.27172235 -0.21912305 -0.13267197 0.020904476 0.06860214
-0.021118434 0.108035795 0.0070522786 -0.046742253 0.36972815 0.030522432 0.058083575 -0.06076633
0.072971895 0.10087106 -0.043727674 -0.049033035 0.23441164 0.11560142 -0.059816156 -0.012174372
-0.029744452 -0.19095169 -0.23194118 -0.2119903 -0.077640645 -0.052637834 0.008273874 -0.10958599
-0.047804777 -0.1481542 0.029055491 0.11463138 -0.1976001 0.114896536 -0.23457226 -0.18237382
-0.04513123 -0.06424723 0.43295988 -0.085372224 -0.024125597 -0.004444994 0.21358287 -0.061472867
-0.11969425 -0.18654168 -0.079398446 -0.013344558 -0.19678268 0.09834379 -0.049709905 0.011455486
-0.059113305 0.032718495 -0.029606296 -0.08604061 -0.10273695 -0.16541077 -0.18032055 0.11243944
-0.041423995 -0.0032808846 -0.115035765 -0.032757174 -0.10184813 -0.25132388 0.14120688 -0.21217212
0.07559686 0.13703056 0.06033912 0.014528361 -0.22145697 0.0036546162 0.17888278 0.15749751
0.23896232 -0.012536056 0.010062332 -0.05749417 -0.062852554 -0.054479953 -0.22473718 0.031200143
0.017111503 -0.16580732 -0.13212444 -0.13058333 -0.06991585 0.39907986 -0.18719192 0.04103533
0.0694182 -0.16291039 -0.0051134042 -0.13095465 0.032521177 -0.12640813 0.051158264 -0.2347977
-0.020024521 0.10512401 0.06104984 -0.05064154 0.0316551 0.003908387 0.00915334 -0.014093283
0.06197128 -0.092411354 -0.015820606 -0.05884863 -0.07631258 0.33893016 0.11645088 0.066335
-0.13684592 0.0049473722 -0.054679852 0.14595924 0.033620458 0.00896276 0.07691143 -0.07103425
0.1759039 -0.019346958 -0.0049697827 -0.03750053 0.14168474 0.3516714 0.10102162 -0.002797848
-0.026492976 -0.04079143 -0.5020697 -0.26556566 0.024240043 -0.10704492 -0.037264645 -0.03952478
0.08162807 0.002475513 -0.23934463 -0.026826857 -0.043783322 0.047346525 0.030550295 0.012705429
-0.03696594 -0.015754342 0.038550854 0.077125564 -0.019292701 0.2431163 -0.009169132 -0.10158922
0.05509106 0.07523297 -0.036192514 0.056267314 0.0042186794 -0.038779363 -0.08750166 -0.12921008
-0.087629065 0.032812927 -0.13162932 -0.004196126 0.064545006 -0.3377837 0.09604422 -0.0029387465

bias f4 [2]
00000000: d3e7 c5bc f534 fdbc
-0.024158394 -0.030909041
