exp_local/bet_multimodal/weights/0.pt (torch, 296700 bytes, 9 tensors)

weight f4 [256, 2]
00000000: 8004 6abc bcb6 9fbd a417 ce3c 07c0 843d
00000010: c4ef 463d 14b5 bf3d 2859 bfbc f13d 373d
00000020: 0e2b d23c 4f1d c53c f4bb b5bd d76c 363d
00000030: f368 1a3e 84a3 e0bc 58ea f3bc 958d 623d
00000040: 30db a03c 37e6 8fbd 4a78 a9bd 1f53 0ebe
00000050: f01b 51bc 4759 07bd be97 9b3c 356e 79bd
00000060: 2f6b 603c c2e1 02bd eae8 873d 9c01 10bd
00000070: 32d5 843c 002e bbb7 0516 553d 4849 a03b
00000080: 3655 623d 18fd 59bd 6a77 04be 1a52 433d
00000090: 668e 86bc 9459 52bd 58bc 0dbd fc27 703d
000000a0: 2014 123b 15a2 8bbd e300 523d c2aa 22bd
000000b0: a480 573d a0b6 6bbc 40eb f8b9 9a22 073d
000000c0: c2e4 c63d 2b99 cebc 9097 3b3d e311 c4bd
000000d0: dbd3 8ebd 4609 943d 5cdf 59bc 714d 1ebd
000000e0: 1076 b5bd bc7b 7a3d 6ff0 503d d40b d83c
000000f0: 7ed9 523d 1c93 4a3b 6fdb 333c d043 3f3d
00000100: a550 8f3b 4f62 c63d 8b62 3a3d 6469 2c3c
00000110: bca7 aabd 1258 a6bd 70e9 7e3d 9ffb c13c
00000120: 6aa7 abbd e697 8cbc e595 c8bb f2bb 28be
00000130: f42a 82bd e165 b0bd 0d85 b4bc 13d9 5ebc
00000140: 8377 95bc fe6a 25bd a4f7 f93b 488b 0abc
00000150: 3ea5 52bc bc05 8a3d 49bb d1bd 4c73 69bd
00000160: cfb7 6c3d 90dd a7bc b4fa 3bbe b962 a0bd
00000170: 184c a33c 068f b93d 3349 c93d 8781 2f3c
00000180: 418a 3f3c ce8f e53c 8e1e df3c aefd 44bd
00000190: 27ea 56bd 9267 9f3b 7024 29bd 36ba c83c
000001a0: c9f4 8cbd 212e 1d3d ee23 12bd 2668 573d
000001b0: 406d ebbc c076 da3d a022 e6bc 565d 983d
000001c0: 589b 0cbc 8109 1b3e 24ad eebd 84af 40ba
000001d0: 9938 2dbe 1c1c dbbb 239d 7fbc 56df 423c
000001e0: 983d 1cbe 97ea 983d df34 84bd 3486 b1bc
000001f0: 41d4 a93d 99c2 61bc 323d 8d3d 4a04 96bb
00000200: c085 423d 8323 bcbd e859 7e3d 50d4 123d
00000210: aa0b 6c3d 13c9 c13d d4d7 633d a5ea 073d
00000220: 9cd0 413d 2e9c b0bd 9caf 99bd dde9 c6bc
00000230: 1a70 7ebd 8c44 733d 46b5 94bd c7d7 8b3c
00000240: 684d dfbc d3d4 cabc 794b c73d 16bf 6c3d
00000250: 8621 c53c c1d1 f0bc e447 d13b 9417 1d3d
00000260: 6cac 663d 6ebe dcbc 44f1 4abd 02ec 843d
00000270: 52a0 98bd a5a3 04bd 0275 e3bc e46b 013d
00000280: 1c1a 03bd 9840 bd3a 046a 223b 67fc 163d
00000290: c9a6 8b3d 8cae 54bd 8e55 26bc f6c5 653d
000002a0: a7fd abb9 66f0 b4bd a732 97bb c899 bcbb
000002b0: c927 9a3d a51d 7bbd 6988 513d e3e7 8e3d
000002c0: 506d d23d ad96 70bc 1671 8e3d a3d0 20bd
000002d0: 7c3b 49bc 4791 bbbd 7881 803c 21aa af3d
000002e0: 0783 d5bd eef2 c4b8 40f8 b23c d039 2bbd
000002f0: 501c b8bc 90e2 9b3c ed27 e6bc 4742 a8bd
00000300: 4502 f33d 1994 17bd bf59 6ebd b0e3 a0bc
00000310: 46f4 91bc 4089 a539 064c 1b3e cc40 6a3e
00000320: 2abc 603d b138 96bd 9f9e ec3c 81a8 1abd
00000330: d7fe dbbd 3d92 803d 4c60 043c 2a3f de3d
00000340: 6cab 0f3d 6292 f8bd 141d bbbc 58b4 9e3a
00000350: 38e9 863d 1e46 8d3c c012 4bbc 51c7 ecbd
00000360: a218 033d e519 c9bd 4bda a2bd 75c1 3dbd
00000370: 5bca a63d 2d91 c8bc 34c4 1dbd 908b a53c
00000380: a005 83b9 20fb a13c bce0 b23c a46e f93b
00000390: fcec 0bbb 88dc c33d d8b6 09bc 0297 583d
000003a0: 9ce9 073d d69e b8bc 2aa7 f03c 47e9 1abc
000003b0: 5e13 1f3d e64b b33c e087 5abd 3f99 993d
000003c0: 3e07 243d c821 0fbd 56ed 9d3d 6067 f8bc
000003d0: 0db8 1cbd f54f a2bd 2c12 e73d 5c1e 06bc
000003e0: 0ee5 82bd 212b 9d3d 47c7 cfbc 8e3d 83bd
000003f0: 0bb6 8ebd e360 1f3a b100 24bb 9a43 e4bb
-0.014283299 -0.07798526 0.025157757 0.06481939 0.048568502 0.0936071 -0.023357943 0.044736806
0.025655296 0.024061827 -0.0887374 0.04453739 0.15079097 -0.02742172 -0.02977483 0.055310804
0.019635767 -0.07026332 -0.082748964 -0.13898896 -0.0127630085 -0.033044126 0.018993255 -0.060896117
0.01369743 -0.03195358 0.06636222 -0.035157785 0.01621494 -2.2313558e-05 0.052022953 0.0048915483
0.055257045 -0.053219885 -0.12936178 0.04768572 -0.016425323 -0.05135496 -0.034603447 0.058631882
0.0022289827 -0.06818024 0.051270377 -0.03971363 0.052612916 -0.014386803 -0.0004747752 0.032991983
0.09711601 -0.02521952 0.04579884 -0.09573724 -0.06974002 0.07228331 -0.013297882 -0.038648073
-0.08860409 0.06115316 0.051010545 0.026372828 0.051476948 0.0030910438 0.01097761 0.04669553
0.0043736272 0.096867196 0.045504134 0.010523174 -0.08332774 -0.08122267 0.062234342 0.023679553
-0.08381541 -0.017162275 -0.0061213844 -0.16477945 -0.06355849 -0.08613182 -0.0220361 -0.013601559
-0.018245464 -0.04038524 0.007628398 -0.008456059 -0.01285678 0.06739375 -0.102408 -0.05699472
0.05779248 -0.020491391 -0.18357354 -0.0783133 0.019933745 0.09060483 0.09828415 0.010712034
0.011690677 0.028022673 0.02723625 -0.04809349 -0.0524694 0.0048646415 -0.041294515 0.024502855
-0.068826266 0.03837407 -0.035678796 0.052589558 -0.028738618 0.10667181 -0.028092682 0.074396774
-0.008581959 0.15140344 -0.11654118 -0.00073503726 -0.16916122 -0.0066867005 -0.015601429 0.011894068
-0.15257871 0.074666195 -0.06455397 -0.021670438 0.08292437 -0.013779306 0.06896438 -0.004578148
0.047490835 -0.09186461 0.06209746 0.03584701 0.05762831 0.0946218 0.05562575 0.03318276
0.047318086 -0.08623539 -0.07504198 -0.024281437 -0.062118627 0.059391543 -0.07261138 0.017070664
-0.02725859 -0.024759686 0.09731192 0.05779942 0.024063837 -0.029396893 0.006386744 0.038352564
0.056316778 -0.026946273 -0.049546495 0.064903274 -0.07452454 -0.032382626 -0.027765755 0.031597033
-0.03200732 0.0014438806 0.0024782429 0.036861803 0.06818921 -0.051924273 -0.010152234 0.056096993
-0.00032804647 -0.08834915 -0.0046141925 -0.005755637 0.0752712 -0.061307568 0.05115548 0.06977823
0.10274756 -0.014684361 0.06955163 -0.03926147 -0.012282249 -0.09158569 0.015686736 0.085773714
-0.10425382 -9.3912575e-05 0.02184689 -0.04180318 -0.022474438 0.019028932 -0.02809521 -0.082157664
0.11865667 -0.03700647 -0.058191057 -0.01963982 -0.017816674 0.00031573512 0.1516572 0.2287628
0.054866947 -0.07335032 0.02888423 -0.037758354 -0.10741966 0.06277893 0.0080796 0.10851891
0.03507559 -0.12137295 -0.022841014 0.001210819 0.06587452 0.017245349 -0.012394607 -0.11561454
0.032005914 -0.09819392 -0.07951792 -0.046327073 0.08144065 -0.024483288 -0.038517192 0.02020815
-0.00024990458 0.019773066 0.021835677 0.0076120663 -0.002135097 0.095635474 -0.00840541 0.052878387
0.03318177 -0.022536676 0.029376585 -0.009455032 0.03883683 0.021886777 -0.053352237 0.074999325
0.04004597 -0.034944326 0.07711284 -0.03032273 -0.038261462 -0.07925407 0.11282763 -0.008185949
-0.06391345 0.07674242 -0.025363578 -0.06408225 -0.06968316 0.0006079806 -0.0025024826 -0.0069660665

bias f4 [256]
00000000: 0000 0000 05d7 233c 08d7 23bc 06d7 233c
00000010: 08d7 23bc fed6 23bc 08d7 233c 08d7 233c
00000020: 69d6 233c 0000 0000 0000 0000 a4d6 233c
00000030: 09d7 23bc 09d7 233c 00d7 233c 09d7 23bc
00000040: 09d7 23bc fed6 23bc 0000 0000 0ad7 23bc
00000050: fad6 23bc 05d7 233c 08d7 23bc c0d6 23bc
00000060: 06d7 233c ead6 233c 07d7 23bc 0000 0000
00000070: 05d7 23bc 08d7 233c 06d7 23bc 09d7 23bc
00000080: 08d7 233c 08d7 233c 0000 0000 06d7 233c
00000090: 0000 0000 0000 0000 0000 0000 0000 0000
000000a0: 0000 0000 f5d6 23bc fed6 23bc 0000 0000
000000b0: 08d7 23bc 0000 0000 07d7 233c b8d6 23bc
000000c0: 08d7 233c 02d7 233c efd6 23bc 08d7 23bc
000000d0: 08d7 23bc 09d7 233c 08d7 233c 08d7 233c
000000e0: f1d6 233c 0000 0000 0000 0000 eed6 233c
000000f0: afd6 23bc 0000 0000 f6d6 233c 06d7 233c
00000100: cdd6 233c 08d7 233c 09d7 23bc 0ad7 23bc
00000110: 02d7 23bc 0000 0000 d3d6 23bc 99d5 233c
00000120: 0000 0000 06d7 23bc fad6 23bc 07d7 233c
00000130: 09d7 23bc 08d7 23bc 0000 0000 05d7 233c
00000140: f4d6 23bc fcd6 233c 06d7 233c 09d7 23bc
00000150: 0000 0000 0000 0000 00d7 23bc 09d7 233c
00000160: 06d7 233c 06d7 233c 0000 0000 0ad7 233c
00000170: 0000 0000 cbd6 233c f0d6 233c 0000 0000
00000180: 09d7 23bc 0000 0000 06d7 23bc 0ad7 233c
00000190: 09d7 23bc e8d6 233c f7d6 233c 09d7 233c
000001a0: 04d7 23bc 05d7 23bc 05d7 23bc 0000 0000
000001b0: f4d6 233c 0000 0000 08d7 233c 04d7 23bc
000001c0: 08d7 23bc 09d7 23bc 09d7 233c 0ad7 23bc
000001d0: 06d7 23bc 00d7 233c 09d7 233c 7ed5 233c
000001e0: fcd6 23bc 09d7 23bc 0000 0000 06d7 233c
000001f0: 09d7 23bc 0000 0000 0000 0000 0000 0000
00000200: 04d7 23bc 08d7 23bc 08d7 233c 09d7 233c
00000210: 06d7 23bc 05d7 23bc 0000 0000 05d7 233c
00000220: 09d7 23bc 09d7 23bc ffd6 23bc fcd6 23bc
00000230: 09d7 233c fed6 233c 0000 0000 0000 0000
00000240: 0000 0000 0000 0000 07d7 23bc 08d7 233c
00000250: d4d6 233c 04d7 233c 08d7 233c f0d6 233c
00000260: 08d7 233c 09d7 233c 09d7 23bc 08d7 23bc
00000270: f3d6 23bc 09d7 23bc 0000 0000 05d7 233c
00000280: 08d7 23bc 0000 0000 08d7 233c f3d6 23bc
00000290: f4d6 233c 0000 0000 0000 0000 0ad7 23bc
000002a0: fdd6 233c 07d7 233c 0000 0000 0000 0000
000002b0: 09d7 233c f5d6 233c 0000 0000 07d7 233c
000002c0: 03d7 23bc 0000 0000 08d7 23bc 08d7 23bc
000002d0: 0000 0000 05d7 233c 01d7 233c 08d7 233c
000002e0: 07d7 23bc 0000 0000 0000 0000 06d7 23bc
000002f0: 09d7 23bc 0000 0000 0000 0000 08d7 23bc
00000300: 0000 0000 06d7 23bc 0000 0000 0000 0000
00000310: 05d7 23bc 06d7 233c 09d7 233c 07d7 233c
00000320: 09d7 23bc 06d7 233c 0000 0000 0000 0000
00000330: d1d6 23bc 07d7 23bc 08d7 23bc 09d7 23bc
00000340: 0000 0000 0000 0000 07d7 23bc 05d7 23bc
00000350: 0000 0000 06d7 23bc 06d7 233c fcd6 23bc
00000360: 07d7 23bc 09d7 23bc 09d7 23bc 07d7 233c
00000370: 09d7 23bc 09d7 233c 09d7 23bc fed6 23bc
00000380: 0ad7 233c 08d7 233c 09d7 23bc 0000 0000
00000390: 0000 0000 0ad7 233c 09d7 23bc 08d7 233c
000003a0: 0000 0000 fed6 233c 03d7 23bc fdd6 23bc
000003b0: 09d7 233c dbd6 23bc f7d6 233c d1d6 233c
000003c0: 03d7 23bc fcd6 233c f9d6 23bc 07d7 233c
000003d0: 0000 0000 0000 0000 0000 0000 08d7 23bc
000003e0: 07d7 233c 0ad7 233c 07d7 23bc 07d7 233c
000003f0: fbd6 23bc 0000 0000 0000 0000 05d7 23bc
0.0 0.009999995 -0.009999998 0.009999996 -0.009999998 -0.009999989 0.009999998 0.009999998
0.00999985 0.0 0.0 0.009999905 -0.009999999 0.009999999 0.00999999 -0.009999999
-0.009999999 -0.009999989 0.0 -0.01 -0.009999985 0.009999995 -0.009999998 -0.009999931
0.009999996 0.00999997 -0.009999997 0.0 -0.009999995 0.009999998 -0.009999996 -0.009999999
0.009999998 0.009999998 0.0 0.009999996 0.0 0.0 0.0 0.0
0.0 -0.00999998 -0.009999989 0.0 -0.009999998 0.0 0.009999997 -0.009999923
0.009999998 0.009999992 -0.009999975 -0.009999998 -0.009999998 0.009999999 0.009999998 0.009999998
0.0099999765 0.0 0.0 0.009999974 -0.009999915 0.0 0.009999981 0.009999996
0.009999943 0.009999998 -0.009999999 -0.01 -0.009999992 0.0 -0.009999949 0.009999656
0.0 -0.009999996 -0.009999985 0.009999997 -0.009999999 -0.009999998 0.0 0.009999995
-0.009999979 0.009999987 0.009999996 -0.009999999 0.0 0.0 -0.00999999 0.009999999
0.009999996 0.009999996 0.0 0.01 0.0 0.009999941 0.009999976 0.0
-0.009999999 0.0 -0.009999996 0.01 -0.009999999 0.009999968 0.009999982 0.009999999
-0.009999994 -0.009999995 -0.009999995 0.0 0.009999979 0.0 0.009999998 -0.009999994
-0.009999998 -0.009999999 0.009999999 -0.01 -0.009999996 0.00999999 0.009999999 0.009999631
-0.009999987 -0.009999999 0.0 0.009999996 -0.009999999 0.0 0.0 0.0
-0.009999994 -0.009999998 0.009999998 0.009999999 -0.009999996 -0.009999995 0.0 0.009999995
-0.009999999 -0.009999999 -0.0099999895 -0.009999987 0.009999999 0.009999989 0.0 0.0
0.0 0.0 -0.009999997 0.009999998 0.0099999495 0.009999994 0.009999998 0.009999976
0.009999998 0.009999999 -0.009999999 -0.009999998 -0.009999978 -0.009999999 0.0 0.009999995
-0.009999998 0.0 0.009999998 -0.009999978 0.009999979 0.0 0.0 -0.01
0.009999988 0.009999997 0.0 0.0 0.009999999 0.00999998 0.0 0.009999997
-0.009999993 0.0 -0.009999998 -0.009999998 0.0 0.009999995 0.009999991 0.009999998
-0.009999997 0.0 0.0 -0.009999996 -0.009999999 0.0 0.0 -0.009999998
0.0 -0.009999996 0.0 0.0 -0.009999995 0.009999996 0.009999999 0.009999997
-0.009999999 0.009999996 0.0 0.0 -0.009999947 -0.009999997 -0.009999998 -0.009999999
0.0 0.0 -0.009999997 -0.009999995 0.0 -0.009999996 0.009999996 -0.009999987
-0.009999997 -0.009999999 -0.009999999 0.009999997 -0.009999999 0.009999999 -0.009999999 -0.009999989
0.01 0.009999998 -0.009999999 0.0 0.0 0.01 -0.009999999 0.009999998
0.0 0.009999989 -0.009999993 -0.009999988 0.009999999 -0.009999956 0.009999982 0.009999947
-0.009999993 0.009999987 -0.009999984 0.009999997 0.0 0.0 0.0 -0.009999998
0.009999997 0.01 -0.009999997 0.009999997 -0.009999986 0.0 0.0 -0.009999995

weight f4 [256, 256]
00000000: 0056 293c f0f7 6fbc 785e c3bd 0d15 673d
00000010: 0e0f 893d 405a 41bd 33e4 1ebc b188 123e
00000020: a43a 433c 77c7 18be bb72 a33d b8dd 573c
00000030: 7658 b13d b143 bfbd 4b44 c33c f589 45bd
00000040: 5850 dcbb 0177 f7bd 7a64 cdbc 68ec a63d
00000050: 0eb7 793d 8ea9 923d 1ef5 153d 6a01 a73c
00000060: d8d9 87bb 57fe b4bc e8fe a53c 665e 353d
00000070: 8cdd b2bd 68f4 53bd 0fde a4bc 3b66 973d
00000080: d818 633c e7f3 c13d 82d5 3dbd b752 e43c
00000090: 722e a7bd 7949 963c bb96 0cbd 17fa f2bb
000000a0: 449b 463b f870 99bd dcb5 253c 68ce ac3c
000000b0: c109 2ebe fecd 863d eaff e7bd 7e20 d83c
000000c0: 951e 55bd 610d 083e 0859 383b 2ce2 d6bd
000000d0: 6416 b03d 4e25 9b3d a63b 1f3d ce26 013d
000000e0: 05a6 89bc ec4d 413d 8615 8fbb 0042 08be
000000f0: 5078 ddbb d7cf bc3c eb2c e13c 065a 873d
00000100: 908f a3bd ec40 efbc 7526 c2bd 50a5 9b3d
00000110: a004 693c 7f8a 36bd 9b9c ea3b a20f 163d
00000120: ce2a 81bd ac8c 713d fd72 133d 2c57 45bd
00000130: 98e6 ac3c 2eba efbc b265 d13d 562e 9abd
00000140: 68d6 a2bd 5065 9e3c 0c74 0dbd 507c a4bd
00000150: c3a0 05be 0eba 9f3d 2678 db3d a59e 17bd
00000160: b841 b03c 2a36 83bd e7e7 22bd 7806 90bd
00000170: 1efc cdbc eb86 86bd 19ee 953c bb57 87bd
00000180: b41a 0bbd 44ac 9b3d fd5f a63d 71ac 34bd
00000190: 5cd3 15be 7d8e 893d 5fc6 533d aed7 e1bc
000001a0: 71e9 adbc 58c3 a83b 2d71 083e 30cf aa3b
000001b0: 50ca 2a3d cecf da3c 8885 1bbd e03f 93bb
000001c0: 8e4d b4bd c317 573d e112 49bd 0797 99bd
000001d0: eea2 f43c 06d2 c3bd 84d2 a2bc 6a1e 92bd
000001e0: f289 6f3c 14bb 7b3c 2b8c a2bd 5486 d73d
000001f0: a661 a0bc e3a0 243d dada 9d3d 40db 7d3b
00000200: 38f8 7a3c 3260 58bd 3f50 89bc 10d3 32bb
00000210: 98ee 603d c266 4f3d bfd9 87bb d05c 85bd
00000220: 2872 933b a399 f7bd fc89 a8bd 1e9e 8cbc
00000230: 3c5e b23c be35 03be 80e3 5fbd 4a88 59bd
00000240: a861 133e 1657 563d 2f8c d4bd 055b a43b
00000250: 95d2 003d 8ce9 7cbd 9cb8 42bb dd08 13be
00000260: 0e52 08bd 9a10 ecbc e6b5 f1bc fc36 933c
00000270: f10f 463d cefd f5bd 042b 38bc fc42 83bc
00000280: 56d3 313d 844f 42bd 38ad e23b aa1c 82bd
00000290: dc88 673d 1424 813b 227a 10be a58a 28bd
000002a0: 3fcd 1b3e 4c7b d7ba 8c04 54bd deeb b93d
000002b0: 0c56 7e3c c40d 07bd 34cc 243c 65b6 723d
000002c0: 0bda 9e3d 1a9a 48bd 3b8b 583c edfb 013d
000002d0: a0a2 3b3d a6b4 ca3c 1862 50bb 6406 2e3c
000002e0: 5c51 ef3d e5ab a2bc 9ca1 ab3d fc73 34be
000002f0: 97c9 39bd d832 913c 5c0a 6bbd 4044 433d
00000300: d3d0 69bc 7f80 0cbc 769f 92bd 1113 a4bd
00000310: 8503 373d 046b 78bd f975 27be 1ded 32bd
00000320: d05d 693b d1b5 fb3d 374e 8b3c 12fc 273c
00000330: 4100 fdba 0af6 c7bc b89d e03d e254 d3bc
00000340: be37 063d 8219 41bd 256f 0f3d eb70 933c
00000350: 3d3a bc3c 9846 8f3a 70ac 253d 4067 a63d
00000360: 5c85 1cbd 50a9 1abc 26d5 683d e4f3 983c
00000370: 3cc7 0a3c 5a2f 22bc 9916 46bd 6659 8a3c
00000380: 64a2 1e3d 20ab 52bd eccc c73d 1011 92ba
00000390: 9c25 ccbc 7586 2dbd 8206 cabc aaf5 133c
000003a0: be28 2fbd 78d3 aabc 60d6 27bd c825 efbb
000003b0: 4dad 953d 381d 693d e9b2 8bbc 2aae 4dbd
000003c0: acc4 553c f353 953d ce82 0fbe 5cde 14bd
000003d0: b569 2bbd a7d0 96bc 6a9a f53c b225 1d3d
000003e0: 316d 84bd b6c8 1f3d 4173 1d3d 7075 6a3c
000003f0: 10e7 bdbb d97a c03c 65ba aabd f414 9cbd
0.010335445 -0.014646515 -0.09539503 0.05641656 0.066923246 -0.04720521 -0.009697962 0.14309956
0.0119158365 -0.1491984 0.079808675 0.01317542 0.08659451 -0.09339083 0.023836276 -0.04822727
-0.006723445 -0.12083245 -0.025072325 0.0815056 0.06096559 0.07161246 0.036610715 0.020386416
-0.004145842 -0.022093935 0.02026315 0.04427948 -0.08733663 -0.051746756 -0.020125417 0.07392546
0.013860904 0.09470349 -0.046346195 0.027871473 -0.081631556 0.018345581 -0.034323435 -0.007415067
0.0030304948 -0.0749225 0.010114159 0.021094516 -0.16995908 0.06582259 -0.113281086 0.026382681
-0.05203112 0.13286354 0.0028129239 -0.104923576 0.08598021 0.07575475 0.038875245 0.031531148
-0.016802797 0.047193453 -0.0043665795 -0.13306427 -0.006758727 0.023048325 0.027487239 0.066089675
-0.07986367 -0.029205762 -0.09479991 0.0759989 0.014222294 -0.044565674 0.007159782 0.036636002
-0.063069925 0.058972046 0.035998333 -0.048178837 0.02110605 -0.029263582 0.10224475 -0.07528369
-0.07951051 0.019335419 -0.0345345 -0.08031523 -0.13049607 0.07799159 0.10716276 -0.03701653
0.021515712 -0.06406815 -0.03977194 -0.07032484 -0.025144633 -0.06568702 0.01830201 -0.0660853
-0.033961013 0.076012164 0.08123777 -0.044109765 -0.14631408 0.067166306 0.051702853 -0.027568664
-0.021229478 0.00515024 0.13324423 0.005212687 0.041696846 0.026710417 -0.037969142 -0.0044936985
-0.08803855 0.052512895 -0.04909027 -0.07499509 0.029862847 -0.09561543 -0.019875772 -0.07134707
0.014620291 0.015364427 -0.07936891 0.10523668 -0.019577812 0.040192496 0.07707758 0.003873542
0.015317969 -0.052826114 -0.016761897 -0.0027286448 0.05491504 0.050635107 -0.0041458304 -0.06511843
0.0044996925 -0.12089851 -0.082294434 -0.01716524 0.02177345 -0.1281347 -0.05466032 -0.05310849
0.14392722 0.052329145 -0.103783004 0.005015733 0.031450827 -0.061746165 -0.0029712087 -0.1435885
-0.03328138 -0.02881651 -0.029505681 0.017970555 0.048355047 -0.120113 -0.0112407245 -0.016023152
0.043414436 -0.047439113 0.006917622 -0.063531235 0.056527004 0.0039410684 -0.1410909 -0.041147847
0.15215014 -0.0016439944 -0.05176215 0.09078191 0.015523445 -0.032972112 0.010058451 0.059255976
0.07756432 -0.048975088 0.013216789 0.031734396 0.04580939 0.024744343 -0.003179675 0.010621641
0.1168544 -0.019857356 0.08380434 -0.1762237 -0.045358267 0.01772444 -0.057382926 0.04767251
-0.014270979 -0.008575558 -0.07159321 -0.08011449 0.04468109 -0.060648933 -0.16353597 -0.04368316
0.0035608895 0.12290538 0.01700507 0.010252969 -0.0019302444 -0.024409313 0.109675825 -0.025797311
0.032768004 -0.047143467 0.035018105 0.01799818 0.022976989 0.0010931073 0.040447652 0.08125162
-0.03821312 -0.009439781 0.0568439 0.018670984 0.008470353 -0.009898985 -0.048361395 0.016888332
0.038729087 -0.05143273 0.097558826 -0.0011144001 -0.024920277 -0.042364556 -0.024661306 0.009030739
-0.042763464 -0.02085279 -0.04097593 -0.007298205 0.07308445 0.05691263 -0.017053084 -0.050214924
0.0130473785 0.07291403 -0.14014742 -0.03634487 -0.041848857 -0.01841004 0.029980857 0.038366027
-0.06466139 0.039009772 0.038439993 0.014310226 -0.005795367 0.023496078 -0.08336333 -0.07621184

bias f4 [256]
00000000: 0000 0000 0000 0000 02d7 233c 08d7 233c
00000010: 08d7 23bc 08d7 233c 0000 0000 09d7 233c
00000020: 0000 0000 0000 0000 d3d6 23bc 05d7 233c
00000030: 09d7 23bc 09d7 23bc 08d7 23bc 0000 0000
00000040: 0000 0000 0000 0000 0000 0000 09d7 233c
00000050: 01d7 23bc 02d7 233c 0000 0000 06d7 23bc
00000060: f9d6 233c 0000 0000 8bd6 233c 05d7 233c
00000070: 0000 0000 09d7 23bc 0000 0000 0000 0000
00000080: 0000 0000 01d7 233c 0000 0000 0bd7 23bc
00000090: 09d7 233c 09d7 23bc 02d7 23bc 0000 0000
000000a0: 09d7 233c 08d7 23bc 0000 0000 06d7 233c
000000b0: 0000 0000 04d7 233c 08d7 23bc 09d7 23bc
000000c0: 0000 0000 0000 0000 08d7 233c 0ad7 233c
000000d0: 0ad7 23bc 08d7 23bc 0000 0000 f5d6 233c
000000e0: 09d7 233c 08d7 233c 0000 0000 06d7 233c
000000f0: 09d7 23bc 09d7 23bc 0000 0000 0000 0000
00000100: 09d7 233c 09d7 23bc f6d6 233c 09d7 233c
00000110: 08d7 233c 09d7 233c 0000 0000 06d7 23bc
00000120: 07d7 23bc 0000 0000 0000 0000 0000 0000
00000130: 0000 0000 06d7 23bc 05d7 233c 0000 0000
00000140: 08d7 23bc dbd6 233c fad6 23bc 0000 0000
00000150: 09d7 23bc 04d7 23bc 0000 0000 09d7 23bc
00000160: 0ad7 233c 0ad7 233c 0000 0000 02d7 233c
00000170: 08d7 233c 08d7 23bc f7d6 23bc 0000 0000
00000180: 09d7 23bc 0000 0000 0ad7 233c 08d7 23bc
00000190: 00d7 23bc 0000 0000 08d7 23bc 0000 0000
000001a0: 0000 0000 0000 0000 06d7 23bc 0000 0000
000001b0: 08d7 233c 06d7 233c 0000 0000 07d7 233c
000001c0: 0000 0000 08d7 23bc 41d4 23bc 0000 0000
000001d0: 0000 0000 09d7 233c 08d7 23bc 5ed6 233c
000001e0: 0000 0000 0000 0000 0000 0000 08d7 23bc
000001f0: 08d7 23bc 09d7 23bc 0000 0000 00d7 233c
00000200: 07d7 233c 0000 0000 09d7 23bc 09d7 23bc
00000210: 07d7 23bc 0000 0000 09d7 233c 0000 0000
00000220: 0ad7 23bc 0ad7 233c 0000 0000 e8d6 233c
00000230: 0ad7 23bc fcd6 23bc 0000 0000 06d7 23bc
00000240: 0000 0000 b4d6 23bc 04d7 233c 07d7 233c
00000250: 09d7 233c 0000 0000 0000 0000 08d7 233c
00000260: 0000 0000 09d7 23bc 0000 0000 0ad7 233c
00000270: 09d7 23bc 0000 0000 8dd6 233c f5d6 233c
00000280: 09d7 23bc 09d7 23bc 06d7 23bc 0000 0000
00000290: 08d7 233c 0000 0000 f8d6 23bc 08d7 23bc
000002a0: 03d7 233c f8d6 233c 06d7 23bc ffd6 233c
000002b0: 0ad7 233c 05d7 233c 05d7 233c 0000 0000
000002c0: 09d7 233c 09d7 233c 08d7 233c 06d7 233c
000002d0: 09d7 23bc 09d7 233c 09d7 233c c0d6 23bc
000002e0: 0000 0000 09d7 233c 0ad7 23bc 06d7 233c
000002f0: 09d7 23bc fcd6 233c 0000 0000 09d7 23bc
00000300: 0000 0000 08d7 233c 0000 0000 08d7 23bc
00000310: 08d7 233c 0000 0000 06d7 23bc 09d7 23bc
00000320: e6d6 23bc 0000 0000 07d7 23bc 0000 0000
00000330: 07d7 23bc 06d7 23bc fdd6 23bc 0000 0000
00000340: f9d6 233c 09d7 233c 09d7 23bc 09d7 233c
00000350: dbd6 233c 08d7 23bc 0000 0000 0000 0000
00000360: f6d6 233c 05d7 23bc 0000 0000 06d7 233c
00000370: 0000 0000 07d7 233c 09d7 233c 0000 0000
00000380: 08d7 233c 08d7 233c 09d7 23bc 4fd5 23bc
00000390: 0ad7 233c 0ad7 233c fbd6 23bc 0000 0000
000003a0: 08d7 23bc 0000 0000 02d7 233c 08d7 23bc
000003b0: 05d7 233c 0000 0000 4cd2 233c 09d7 233c
000003c0: 0000 0000 0000 0000 09d7 23bc 0000 0000
000003d0: 0000 0000 0ad7 233c 03d7 23bc 08d7 233c
000003e0: 0000 0000 0000 0000 09d7 233c 02d7 23bc
000003f0: 09d7 233c d8d6 23bc 0000 0000 0ad7 23bc
0.0 0.0 0.009999992 0.009999998 -0.009999998 0.009999998 0.0 0.009999999
0.0 0.0 -0.009999949 0.009999995 -0.009999999 -0.009999999 -0.009999998 0.0
0.0 0.0 0.0 0.009999999 -0.009999991 0.009999992 0.0 -0.009999996
0.009999984 0.0 0.0099998815 0.009999995 0.0 -0.009999999 0.0 0.0
0.0 0.009999991 0.0 -0.010000001 0.009999999 -0.009999999 -0.009999992 0.0
0.009999999 -0.009999998 0.0 0.009999996 0.0 0.009999994 -0.009999998 -0.009999999
0.0 0.0 0.009999998 0.01 -0.01 -0.009999998 0.0 0.00999998
0.009999999 0.009999998 0.0 0.009999996 -0.009999999 -0.009999999 0.0 0.0
0.009999999 -0.009999999 0.009999981 0.009999999 0.009999998 0.009999999 0.0 -0.009999996
-0.009999997 0.0 0.0 0.0 0.0 -0.009999996 0.009999995 0.0
-0.009999998 0.009999956 -0.009999985 0.0 -0.009999999 -0.009999994 0.0 -0.009999999
0.01 0.01 0.0 0.009999992 0.009999998 -0.009999998 -0.009999982 0.0
-0.009999999 0.0 0.01 -0.009999998 -0.00999999 0.0 -0.009999998 0.0
0.0 0.0 -0.009999996 0.0 0.009999998 0.009999996 0.0 0.009999997
0.0 -0.009999998 -0.009999336 0.0 0.0 0.009999999 -0.009999998 0.00999984
0.0 0.0 0.0 -0.009999998 -0.009999998 -0.009999999 0.0 0.00999999
0.009999997 0.0 -0.009999999 -0.009999999 -0.009999997 0.0 0.009999999 0.0
-0.01 0.01 0.0 0.009999968 -0.01 -0.009999987 0.0 -0.009999996
0.0 -0.00999992 0.009999994 0.009999997 0.009999999 0.0 0.0 0.009999998
0.0 -0.009999999 0.0 0.01 -0.009999999 0.0 0.009999883 0.00999998
-0.009999999 -0.009999999 -0.009999996 0.0 0.009999998 0.0 -0.009999983 -0.009999998
0.009999993 0.009999983 -0.009999996 0.0099999895 0.01 0.009999995 0.009999995 0.0
0.009999999 0.009999999 0.009999998 0.009999996 -0.009999999 0.009999999 0.009999999 -0.009999931
0.0 0.009999999 -0.01 0.009999996 -0.009999999 0.009999987 0.0 -0.009999999
0.0 0.009999998 0.0 -0.009999998 0.009999998 0.0 -0.009999996 -0.009999999
-0.009999966 0.0 -0.009999997 0.0 -0.009999997 -0.009999996 -0.009999988 0.0
0.009999984 0.009999999 -0.009999999 0.009999999 0.009999956 -0.009999998 0.0 0.0
0.009999981 -0.009999995 0.0 0.009999996 0.0 0.009999997 0.009999999 0.0
0.009999998 0.009999998 -0.009999999 -0.009999587 0.01 0.01 -0.009999986 0.0
-0.009999998 0.0 0.009999992 -0.009999998 0.009999995 0.0 0.009998869 0.009999999
0.0 0.0 -0.009999999 0.0 0.0 0.01 -0.009999993 0.009999998
0.0 0.0 0.009999999 -0.009999992 0.009999999 -0.009999953 0.0 -0.01

weight f4 [8, 256]
00000000: a09a bfbd 1655 b43b a9fb ec3c 7a24 9a3c
00000010: 2cfe 1b3d 8057 1ebd bbc9 453d 1e84 4dbc
00000020: b579 09be 2b10 033d 8576 b73d a0df 87bd
00000030: 37e0 56bd 9211 e0bd 9316 b73b 5875 073e
00000040: 697c babd 5e3a f8bc 0fd8 64bd 7cfe 1cbd
00000050: c9c4 e1bc 198d b23d 57e0 de3d dc39 41bd
00000060: 1a01 823b 413f 653c 4270 9c3d 82af 643d
00000070: 6844 303d 6e8f ca3d 13d8 943d ef55 15bd
00000080: 3b5b 9f3b 488a a5ba 838d c33c 89b2 2dbd
00000090: 480f 3d3d f811 0f3e 38cc b93a 8c40 77bd
000000a0: 008b 613d 86e2 65bd f6ff 13bd 17e6 f3bd
000000b0: 7f6f 0cbe 777f c43b 3695 62bd 9401 633d
000000c0: cf66 c53b 844d ce3c e70d ec3d df71 6f3d
000000d0: 9ab9 933d d285 d13d 55e8 3ebc 5693 503d
000000e0: 14a6 a73c 6aac 9c3d b349 0b3c a23e a0bd
000000f0: c31f 50bd a656 4ebd ce6e 1abc 2bed 8a3d
00000100: d01c 063b beb1 973d 7ae8 f7bd 9831 dc3c
00000110: 766a 043e 6c68 bcbc 59da b8bd 4898 e4bb
00000120: 80db 0c3b f506 143c 2635 603d 9e12 50bc
00000130: d0c0 f33c da89 5a3c 2264 083e 3a11 1f3d
00000140: 7481 0abe 7b22 bf3d 31ed 2bbd 174b aebd
00000150: 3a18 6fbc 7a8c d2bc e3b2 903d d86d 8b3d
00000160: a8c7 d43c 437c 0ebd c3eb 443d 85c2 0a3d
00000170: 16c6 da3d a0fe 813d 83a3 1fbc 9a83 893d
00000180: 05d2 35bd 9c22 1b3d e439 363d 028c 8c3d
00000190: b9f3 983d 229f cabd f900 66bc b6e2 85bb
000001a0: 7457 213c 4537 833d 3d5a a23d fb3b fb3c
000001b0: 5a4a b13c eb4a 803d 1872 a6bd 0c43 a33d
000001c0: bd7d 103d db6b fbbc f567 a13d bd14 d7bd
000001d0: afc6 373d 0da3 973d 93c2 ba3d 55bd 203d
000001e0: b36b 46bd 637d 3bbd b454 a5bd ecf8 bcbd
000001f0: c9f6 643d e620 ae3d d471 dc3c aa11 8abb
00000200: 9d0a 923d b26b bcbd 8d17 babd be62 0c3d
00000210: 0ad8 4b3d 3811 b4bd bcab 32bb 0beb b1bd
00000220: b15c 99bc bb48 683d eae8 bbbd d73b 37bd
00000230: c268 b93c 94ff d4bc 47c3 1ebd 96eb 85bd
00000240: ec49 c837 3a34 d7bc 59ca bebd 1f50 2c3d
00000250: 016d 99bd 80eb d23c a29e 643d 2f62 39bd
00000260: 6a9e 62bd 1ebd 6b3d 3a7a fa3d 52e5 c33d
00000270: 30d9 8a3d 614d a13d 3071 fa3c 948f 83bd
00000280: daf1 b2bd 75f7 f83d 59a6 863d f13c cbbd
00000290: 555f 173e bda9 de3d 6d1c 703d c531 8e3c
000002a0: 88ab 553d 24bb 15bc 94f7 10bd 5d06 803d
000002b0: 1225 97bc 6cba 0c3d f3c3 253c 2267 043e
000002c0: c240 cb3c e023 733a b46f 51bc 967b f13c
000002d0: fef0 f93b 68b2 613d dfba 70bc f5b9 ce3d
000002e0: 0bd2 9b3c 8b2f 7cbd 6a7e 2abd b3e3 1b3c
000002f0: dcac b4bc fe74 c6bc 6b1b 663d 5065 6fbd
00000300: 0b7d d6bb c244 bc3d 97e8 a33d 8856 87bc
00000310: 6a72 fa3d aa4b 7fbb 9a09 733c 3ebe b73c
00000320: 22e2 d63d 428c 70bd 54d9 aa3b 8ec7 0e3d
00000330: 46f1 233d a89a aabc 6e65 e2bc d777 06bb
00000340: 36a1 c3bb 678b 5a3c 8128 2b3d acbc aa3d
00000350: 17a0 ef3b 3c8f d5bc cb21 fe3c 2ad0 713d
00000360: b649 273d 00b6 1738 7f57 86bd b8bf eabb
00000370: b145 0cbc 79f6 8a3c 2ec3 c3bd 3d05 7abd
00000380: f20c ad3d 22c6 7c3d 39ed 3b3d 62b3 8ebd
00000390: 4290 c4bb 52b1 2f3d de47 9a3c 77b6 e9bd
000003a0: d562 3d3c d7e0 593b 408f 023c 14aa 6c3b
000003b0: 5059 78bd c272 d63c 8702 c93c 1e07 fd3c
000003c0: e779 823c ee62 b6bd a234 94bd 52af c9bc
000003d0: 1906 283e 97b7 ac3d 7466 94bd 21d4 a13d
000003e0: 4ad9 86bc 3214 22be 3a76 f3bc a6bb d83d
000003f0: 5ee8 41bd 3d61 14bc e18f 773c 5682 ac3d
-0.09355664 0.005503307 0.028928595 0.018816222 0.038084194 -0.038657665 0.04828809 -0.012543706
-0.13425334 0.03199784 0.08958153 -0.0663445 -0.05245992 -0.10940851 0.005587408 0.13228357
-0.091057606 -0.03030127 -0.055870112 -0.038328633 -0.027559655 0.087183185 0.10882633 -0.04717432
0.0039674165 0.013992132 0.07638599 0.05583144 0.043033987 0.09890638 0.072677754 -0.036458906
0.0048631704 -0.0012629712 0.023871189 -0.042406593 0.04615715 0.13971698 0.0014175242 -0.06036429
0.0550642 -0.056124233 -0.036132775 -0.119091205 -0.13714407 0.0059966403 -0.05531808 0.055421427
0.0060242186 0.025183447 0.11526089 0.058458205 0.07213135 0.10230602 -0.011652072 0.05092176
0.020464934 0.07650073 0.008501458 -0.07824446 -0.05081154 -0.050375603 -0.009425832 0.067835175
0.002046395 0.074069485 -0.12104888 0.026879117 0.12931237 -0.022999011 -0.090260215 -0.006976161
0.0021493137 0.009034862 0.054738186 -0.012699751 0.029755026 0.01333853 0.13319448 0.038834788
-0.13525945 0.093327485 -0.04197425 -0.08510416 -0.014593178 -0.02570175 0.0706537 0.068080604
0.02597411 -0.034786474 0.048076402 0.033876915 0.10682313 0.06347394 -0.009743574 0.06714554
-0.044389743 0.037874803 0.044488803 0.06862642 0.074683614 -0.098936334 -0.014038318 -0.004085864
0.009847511 0.06407026 0.07927368 0.03066825 0.021641899 0.062642895 -0.081272304 0.079717726
0.035276163 -0.030691078 0.07881156 -0.105020024 0.044867214 0.07404146 0.09119143 0.03924306
-0.048442554 -0.045773875 -0.080727965 -0.092271656 0.055899415 0.08502369 0.026909746 -0.0042135315
0.071309306 -0.09200229 -0.09086523 0.034273855 0.049766578 -0.08792347 -0.0027263006 -0.08687409
-0.018720957 0.056709986 -0.09175284 -0.044734802 0.02263296 -0.026000775 -0.03876045 -0.06539075
2.387628e-05 -0.02627002 -0.093159385 0.042068597 -0.07491494 0.02574706 0.055815347 -0.04525965
-0.055326857 0.057553403 0.12230344 0.09565224 0.067797065 0.07876087 0.03057155 -0.0642387
-0.08737536 0.12156574 0.06574697 -0.09923733 0.1478246 0.10872219 0.05862086 0.017357716
0.052165538 -0.009138856 -0.03539236 0.06251214 -0.018450294 0.034357473 0.010117519 0.12929967
0.024811152 0.000927506 -0.01278298 0.029477876 0.0076276055 0.055101782 -0.014692991 0.10094062
0.019021055 -0.061568778 -0.041624464 0.009514737 -0.022055082 -0.024225708 0.05617849 -0.05844623
-0.006545668 0.09192802 0.08003347 -0.016520754 0.12228854 -0.0038955011 0.014833832 0.022429582
0.1049235 -0.05872751 0.005213896 0.03485828 0.04002502 -0.020825699 -0.027636256 -0.0020518207
-0.0059701456 0.0133389 0.041786674 0.083367676 0.0073127854 -0.026069276 0.031021973 0.05903641
0.04084178 3.6170706e-05 -0.06559657 -0.007163968 -0.008561538 0.01696323 -0.09558712 -0.061040152
0.08449735 0.06171239 0.04588053 -0.06967808 -0.005998642 0.042893715 0.018833097 -0.114117555
0.011559208 0.0033245587 0.007968724 0.0036112117 -0.06063205 0.026177768 0.024537338 0.030887183
0.015927268 -0.08905588 -0.072366014 -0.024619732 0.16408576 0.084334545 -0.07246104 0.079017885
-0.016461033 -0.15828016 -0.02971946 0.10582666 -0.047340743 -0.009056387 0.015109987 0.08423297

bias f4 [8]
00000000: 08d7 233c 09d7 233c 08d7 23bc 08d7 23bc
00000010: 08d7 23bc 07d7 233c 07d7 233c 07d7 23bc
0.009999998 0.009999999 -0.009999998 -0.009999998 -0.009999998 0.009999997 0.009999997 -0.009999997

weight f4 [16, 256]
00000000: 40bb a1bd 3484 4fbd a1d6 4abc 5d72 153e
00000010: 6e96 fcbd ce72 113d 8444 f2bd 688c 20bd
00000020: 469a 663d 5547 b6bd fe0b eabc 5795 143c
00000030: 7f79 ca3d 0e4d 93bd 3afb 97bd 249b 8ebd
00000040: faaf 72bd ba06 f53c d9c8 d8bc 0dd9 963d
00000050: 0c1a 27bd 9d46 d7bc 0f3c 3a3c 5a99 1f3d
00000060: 8908 883d e3f7 563c a7ba a4bc a08e c4bd
00000070: 1a18 0bbd d603 c0bd bbf2 85bd 40d4 d43c
00000080: d2d2 edbd b510 72bd 65d8 56bd 5a42 a0bd
00000090: f13e 03be d0f7 123c 20cd ce3c d60a 04bd
000000a0: f648 d43b 3296 a7bd 7e51 fe3b 9232 f53d
000000b0: f857 afbd b92e 8abd 8034 ddbb 4c95 993b
000000c0: 1c5e cabd 9735 943c e22f b43d 19d2 5d3d
000000d0: 6cff 1abd 2289 493d 5bf0 e5bd 4ce4 c9bb
000000e0: 4b8b 033d 425f f43d d67b a8bd e4ae 9bbc
000000f0: 6484 9dbd 6da4 2e3d 7eda 713d 989f a5bd
00000100: 4fa0 06bd 8413 cebc 89d1 f8bc 8057 be3c
00000110: 7dd6 913c cd02 023d 357b 6cbc 22ae c83d
00000120: b41c fc3d 9669 0f3b ddfc 0fbc 88ca e13d
00000130: 6d44 613d c76f 963d 9f46 3c3e ed26 583d
00000140: f4a4 e2bb 98dd 8ebd 2a49 093c 3fc7 59bd
00000150: 54f5 a93d 86bc 03be dc25 39bd e569 77bd
00000160: 2c39 1cbd 1297 ab3d ea63 52bd 8a40 083d
00000170: 11c5 e8bd c155 3a3d a904 0fbe 6cb8 81bd
00000180: 5d70 2d3d a72d 02bc 0662 1abd a849 0fbd
00000190: 5dab fb3c 2eaa 17bc 8041 20bd 5d92 e3bc
000001a0: 304d 0b3d c6dd 90bd 3cac 6bbc 7c15 33ba
000001b0: 3828 1b3d b8f0 8a3c fc6d 503e e8b1 4d3d
000001c0: 53cc 613d 7ecd a63c 9858 bdbc b761 ccbd
000001d0: 7085 043e 765b 863d 91d0 20bc 029a 17bd
000001e0: d222 51bd 7211 d4bd 6973 c43d e61a 9c3c
000001f0: d425 0c3b 3da2 083e ed0b 013d 3687 abbc
00000200: ba83 003c c836 bfbb 2f52 f33c ce90 e83b
00000210: 6e9c cabb bb28 523d 3296 31bc 126d a7b9
00000220: 2bf0 3ebc c57e ca3d 645f 973b 4dc2 cc3c
00000230: ea4c 6cbc 5e41 4e3d aa99 12bd f527 28bd
00000240: 1c32 febc 4c1e 113c 30ce 51ba 1e4b b3bc
00000250: 6b8f 89bd 3113 ad3d f630 bdbc b2f0 19bd
00000260: c3da 2bbe f11b aabc 5709 81bd 9fa1 203e
00000270: 6d4f acbd b600 883c 887e 8cba ca63 af3c
00000280: 0395 6f3d edb2 a9bd 0a7f 173d 833e 7fbb
00000290: 4ce5 bdbd 04d4 a53d 9b35 f73d 12bf 573d
000002a0: 50be 9f3c 1ce4 85bd 12ec ef3c 200c 8139
000002b0: 20d5 0a3a f5a2 cdbd 1587 78bc f0ca c7bb
000002c0: b613 a6bd 6005 453c e831 0e3d 738a 9bbc
000002d0: b98a 73bd bed7 f0bb 1234 c33d c6b2 a23c
000002e0: a4d3 a0bd cebb 203d 62fc d33d 580e a03c
000002f0: fff4 c6bc 2c6a 29bd a313 2b3d e0c7 efbc
00000300: fbc5 abbc 6fc8 b13d c42a 83bd 16dc a6bb
00000310: c8b9 6e3c 6d7c 93bc 93fe cf3d 14b0 91bb
00000320: 1693 aabc 8463 a03b 72bb 74bc 8b56 f43c
00000330: add2 17bd 6499 f33c 86e7 0bbd 559e 7e3d
00000340: 24e0 243c 8819 403d 7225 403d aadd 303b
00000350: b6b0 463d 26d8 293d 9470 053d fe0f 4abd
00000360: 52a8 45bd 2f35 dc3d e43d 4dbc 85fa a63d
00000370: c962 a43d b9e5 86bc de7f b63d 3c12 063c
00000380: 158e 0b3d 7879 ea3d ff30 03bd 7a34 18bd
00000390: 7646 013e 986e fd3b ea6d 143d f1bc ab3d
000003a0: d4de fcbc 074c 243d 6cbd 0a3c d8f4 7bbd
000003b0: 76d6 ffbc d168 e0bd 2130 8fbd d500 81bc
000003c0: b9d0 123d b6b0 90bc c770 fb3c 900b 8a3b
000003d0: e999 003c bf0c e6bd ac46 c8bc a080 3f3d
000003e0: 936a 30bc 7861 a6bd e58c 8c3d 4b2f 30bd
000003f0: e0d1 1f3d 1db0 e63d f78c c2bd 9a92 5b3c
-0.07897043 -0.050663188 -0.012380273 0.14594407 -0.1233338 0.035509877 -0.118294746 -0.0391964
0.05629947 -0.08900324 -0.028570171 0.0090688085 0.09886455 -0.071924314 -0.074209645 -0.069631845
-0.059249856 0.029910434 -0.02646296 0.07365618 -0.040796325 -0.026278788 0.011366858 0.038964607
0.06642253 0.013120624 -0.020108534 -0.09597516 -0.033958532 -0.09375732 -0.06540438 0.025980115
-0.116124764 -0.059097964 -0.052452464 -0.078251556 -0.12816979 0.008970216 0.025244296 -0.032236896
0.006478424 -0.08182944 0.0077611795 0.11972536 -0.085617006 -0.06747193 -0.0067506433 0.004686987
-0.09881231 0.01809196 0.087981954 0.054155443 -0.037841246 0.049203046 -0.11227485 -0.0061612483
0.032115262 0.119322315 -0.08226745 -0.019004293 -0.07691267 0.042637277 0.05904626 -0.08087081
-0.032867726 -0.02515579 -0.030373352 0.023235083 0.017802471 0.031740952 -0.014433672 0.09798838
0.12310162 0.0021883002 -0.008788315 0.11024958 0.054996897 0.073455386 0.18386315 0.052771498
-0.0069166366 -0.069758594 0.00837926 -0.05316853 0.08298746 -0.12864885 -0.04520212 -0.060403723
-0.03814046 0.08378424 -0.051364817 0.033264674 -0.113657124 0.045491938 -0.13966621 -0.06334004
0.042343486 -0.007945455 -0.03769114 -0.034982353 0.03072136 -0.009256883 -0.039124966 -0.027779752
0.03400916 -0.0707355 -0.014384326 -0.00068315095 0.037880152 0.016960487 0.20354456 0.050218493
0.0551265 0.020361658 -0.023113534 -0.09979575 0.12941527 0.065604135 -0.009815351 -0.037012108
-0.051058598 -0.1035489 0.09592325 0.019055795 0.0021384852 0.13343139 0.031505514 -0.020938497
0.007843906 -0.005835388 0.029702274 0.00709734 -0.0061831987 0.051308375 -0.010839032 -0.00031933986
-0.01165394 0.098874606 0.0046195257 0.024994994 -0.014422635 0.050355308 -0.035791077 -0.04105373
-0.031029753 0.008857321 -0.00080034416 -0.021886405 -0.06716808 0.08450926 -0.023094635 -0.03758306
-0.1678267 -0.020765277 -0.063006096 0.15686654 -0.08413587 0.016601902 -0.0010718862 0.021409888
0.058491718 -0.082860805 0.03698639 -0.0038947172 -0.092722505 0.080970794 0.12070771 0.052672453
0.019499928 -0.06537649 0.029287372 0.0002461383 0.00052960403 -0.10040847 -0.015168925 -0.00609719
-0.08109228 0.012025207 0.034715563 -0.018986916 -0.059458468 -0.007349937 0.09531416 0.019860636
-0.07852867 0.039241605 0.103508726 0.01953809 -0.024286745 -0.04136102 0.041766774 -0.029270113
-0.020968428 0.08680808 -0.06404641 -0.0050921543 0.014570661 -0.018003667 0.10155978 -0.004446039
-0.02082209 0.0048946757 -0.014937269 0.029826423 -0.03706615 0.029736228 -0.034156345 0.062162716
0.010063205 0.04689935 0.04691071 0.002698759 0.04850837 0.0414659 0.032578066 -0.049331658
-0.048256226 0.107523315 -0.012526963 0.081532516 0.08026654 -0.016466962 0.089111075 0.008183058
0.034071047 0.114489496 -0.03202915 -0.03715942 0.12624535 0.007734131 0.036237635 0.08385647
-0.030867971 0.040111568 0.008468013 -0.061512798 -0.031230193 -0.10957492 -0.06991602 -0.015747467
0.035843585 -0.017662387 0.030693425 0.004212804 0.007849195 -0.112329 -0.024447761 0.046753526
-0.010767597 -0.081240594 0.06862811 -0.043013852 0.03901851 0.1126406 -0.09499543 0.013401652

bias f4 [16]
00000000: 09d7 233c 0bd7 233c 0000 0000 0000 0000
00000010: 0000 0000 0000 0000 0000 0000 0000 0000
00000020: 0000 0000 0000 0000 0000 0000 0000 0000
00000030: 0000 0000 0000 0000 0000 0000 0000 0000
0.009999999 0.010000001 0.0 0.0 0.0 0.0 0.0 0.0
0.0 0.0 0.0 0.0 0.0 0.0 0.0 0.0

cluster_centers f4 [8, 2]
00000000: 00de 60ba 7edc 7f3f 8eb1 7f3f 2032 1fbc
00000010: 806b 753c 0003 773c 00b4 43ba abc4 013f
00000020: cc3b 013f 0055 c3ba 2481 7f3f 800e 163d
00000030: 20e0 1c3d 6e84 7f3f 98be 37bd 9223 7f3f
-0.00085780025 0.9994582 0.998803 -0.009716541 0.014979243 0.015076399 -0.0007465482 0.50690717
0.5048187 -0.0014902651 0.9980643 0.036634922 0.03829968 0.99811447 -0.0448595 0.9966365
