exp_local/gcbc_changing/weights/10000.pt (torch, 274440 bytes, 6 tensors)

weight f4 [256, 4]
000000 01 21 db bd 59 38 fc bd 3f 18 b9 3d 86 d8 f5 3d
       -0.10699654 -0.12315435 0.09037828 0.12004189
000010 a0 40 e9 3c e3 62 1d 3e a3 ff 36 be 5b 83 0d bd
       0.028473198 0.15369754 -0.17870955 -0.0345491
000020 28 15 a5 bd d8 a4 db 3a a0 4a 2d 3e 9a 43 11 bd
       -0.08060676 0.0016757501 0.16922998 -0.03546486
000030 d1 ed cd 3d da d2 ec 3d 53 82 d2 bd fd bb f3 bd
       0.100551255 0.11563654 -0.102787636 -0.1190109
000040 22 57 35 3c a6 71 a4 bd d5 eb c3 bd dd f4 bd bb
       0.011068137 -0.08029489 -0.09566466 -0.0057970122
000050 43 24 d8 bd 9f a0 d9 bc eb 4e 9f bc c2 ed 5a bd
       -0.105537914 -0.026565848 -0.01944681 -0.0534494
000060 29 f9 cc bd b4 57 eb bb 93 39 99 3d 30 03 37 3d
       -0.10008461 -0.007182086 0.074816845 0.044680774
000070 ea f9 9e ba 28 d7 b4 bd 62 7c b9 3d 57 91 e1 3c
       -0.0012128924 -0.088301 0.09056927 0.027535124
000080 f8 fa 86 bd cc 06 19 be fb a9 82 3d 87 53 17 3e
       -0.06590837 -0.14943999 0.063800775 0.14777957
000090 1b 46 12 3e e2 d8 6c 3d fc 75 12 be 29 32 5f bd
       0.14284556 0.057824023 -0.1430282 -0.054491196
0000a0 56 a7 a0 bd 2f 73 f9 3d 8b d9 9f 3d 02 94 fb bd
       -0.07844417 0.12180173 0.07805165 -0.122840896
0000b0 95 70 34 3e 8c 55 5b 3c c5 fe 10 be 5d 1c 59 bc
       0.17621072 0.013387095 -0.14159687 -0.013251391
0000c0 3f b0 3a 3e cd 2b b7 bd 1c f0 40 be 97 ec b7 3d
       0.18231295 -0.08943901 -0.18841594 0.08980673
0000d0 e8 b2 55 bd 14 8a 5d 3e 5d 19 51 3d b8 8f 3a be
       -0.05217257 0.21634704 0.05104958 -0.18218887
0000e0 aa 24 e8 3b 91 cf c5 3d 97 e1 99 3d 31 80 13 be
       0.007084449 0.09658731 0.07513731 -0.1440437
0000f0 e1 d5 ea bd cd 83 f7 3c f0 02 15 3d 27 4e 34 bd
       -0.114665754 0.030214215 0.036379755 -0.044019844
000100 5d a8 6a be 11 26 48 3c 42 53 6d 3e 85 aa 57 bc
       -0.22915788 0.012216107 0.23176292 -0.013163214
000110 18 0e 60 3d 7b b2 13 3e e5 5d 1c bd 43 63 0f be
       0.05470094 0.14423554 -0.038175482 -0.14002709
000120 19 c5 a2 bc 2c 52 23 3e ce 20 8c 3c 2d fc 28 be
       -0.019869374 0.15949315 0.017105486 -0.16502447
000130 a4 48 66 bd 15 ad 2f be 40 95 7f 3d 8b 80 0a 3e
       -0.05622162 -0.1715587 0.062398195 0.13525598
000140 31 68 9b 3d 8b da 00 3e bc 1b 95 bd 0b 8b ff bd
       0.07588232 0.12583368 -0.072806805 -0.12477692
000150 a0 ea 23 3e aa ff 80 3d 2a 3e 17 be 24 d3 8a bd
       0.16007471 0.06298764 -0.14769807 -0.06778553
000160 c1 70 11 3e 81 b0 c6 3d 81 ec 14 be db ef c7 bd
       0.14203168 0.09701634 -0.14543344 -0.09762546
000170 86 2d b5 3d d5 7f b7 3d 3e 26 c5 bd 38 6c 22 bc
       0.088465735 0.08959929 -0.09626435 -0.009913497
000180 9f 5b c0 3c 7e a3 3c be 20 21 f1 bc eb 7d 65 3e
       0.023481188 -0.18421742 -0.02943474 0.22411315
000190 87 2a a2 bd c8 94 26 3e 92 cf 9d 3d 94 7c 28 be
       -0.07918268 0.16267693 0.077056065 -0.16453773
0001a0 71 20 9c 3b 57 db a4 bd 63 a6 57 bd ef 4d 50 3e
       0.0047646095 -0.08049648 -0.052648913 0.2034223
0001b0 f3 77 2c 3e 19 2a 5f 3d d2 a1 0c be 08 af 20 bd
       0.16842632 0.054483507 -0.13733605 -0.039229423
0001c0 37 ed d0 3d 89 da 1e be 4b d2 d3 bd c1 5a 20 3e
       0.10201495 -0.15513052 -0.103428446 0.1565962
0001d0 a7 6e 9a bd 48 55 25 3e 4d 24 5e 3d 1e eb 1f be
       -0.075406365 0.16145813 0.054233838 -0.15617034
0001e0 18 0a 9a bd 1a 71 05 be a6 c8 82 3b 9e 5a 0b bd
       -0.075214565 -0.13031426 0.0039912043 -0.034021966
0001f0 5f f4 e5 3d ad 9d c7 3d 00 53 e7 bd f2 46 c8 bd
       0.11228251 0.09746871 -0.11295128 -0.09779157
000200 ac 8b e5 be 82 77 53 3d 7e 61 b6 bd d7 4f 78 bd
       -0.44833124 0.051627643 -0.08905314 -0.060623016
000210 8b 44 12 be e1 4b 80 3d 5a 01 12 3e e5 f6 7a bd
       -0.1428396 0.06264473 0.14258328 -0.061270613
000220 d2 9e a7 3d 7b 06 cb bd 5d af a2 bd 1e 82 cf 3d
       0.081845894 -0.099133454 -0.07943604 0.1013224
000230 fb 38 c0 bd 47 be 59 bd cd bd 1b bc 73 41 a0 bc
       -0.09385868 -0.05315998 -0.009505701 -0.019562459
000240 96 af 84 bd db 6b 62 bd 59 da 94 3d 4b d5 84 3c
       -0.06478803 -0.05527864 0.07268209 0.016214987
000250 33 fb 0c 3e 13 53 6d bd 87 51 12 be d2 93 60 3d
       0.137677 -0.057940554 -0.14288913 0.054828472
000260 09 c0 01 3d ff fe 6b 3c c6 a7 07 3d f7 33 0f bd
       0.03167728 0.0144040575 0.033118986 -0.034961667
000270 b4 d9 01 3e 27 d9 88 bd 87 90 01 be b7 24 85 3d
       0.12680703 -0.066820435 -0.12652789 0.065011434
000280 4e 17 72 3d f3 dc 3a 3e fc 97 3b 3c 7b 64 38 be
       0.059104256 0.18248348 0.01144981 -0.1800708
000290 0b 5b e3 3d d4 52 a3 bc c0 f8 06 3c d9 9e e1 bd
       0.111013494 -0.019936956 0.008238018 -0.11016626
0002a0 84 bf e7 3d fd 40 2f 3e 0b 90 e3 bd 5f 0e 32 be
       0.113158256 0.17114635 -0.111114584 -0.17388295
0002b0 d5 f6 cb bd 35 b2 d4 bd 9e 68 c2 3d 21 6d e9 3d
       -0.09959189 -0.10385553 0.094926104 0.11397768
0002c0 bb 63 dd bd 9b 1c 09 3e 3f 52 0a 3e cf 93 8d be
       -0.10810038 0.13389818 0.13507937 -0.27651832
0002d0 8b ab 03 3e 5a dd 91 bc a7 0b 05 be 36 65 9c 3c
       0.12858407 -0.017805744 -0.12992726 0.01909123
0002e0 1a 42 37 3b fc a2 82 bd 9e e9 9f bd 77 20 51 bd
       0.0027962984 -0.06378743 -0.07808231 -0.05105635
0002f0 bd 73 c9 3d 81 86 91 3d d6 f1 ca bd 33 98 a9 bd
       0.098365285 0.07105733 -0.09909408 -0.08280983
000300 01 2c b2 bd ff 00 f4 bb 98 8f 96 bd 24 68 5c bd
       -0.08699799 -0.007446408 -0.07351607 -0.053810254
000310 0c 83 40 bc 7e 52 0d be 5a 90 0a 3c 10 bf 09 3e
       -0.011749994 -0.13801 0.008457268 0.13451791
000320 9c d1 f4 3d d1 8e bd bd 5c d0 eb bd 3a 73 59 3d
       0.11954042 -0.09255756 -0.11514351 0.053088404
000330 b2 3c 5c bd 62 40 21 bd 09 93 76 bd 61 53 9b bd
       -0.05376882 -0.03936804 -0.060198817 -0.07584263
000340 69 59 66 3e db 67 f8 bc be ea 65 be 79 fd f3 3c
       0.22495045 -0.03032296 -0.22452828 0.029783951
000350 d6 40 d9 3c 5b a7 20 be 05 44 d6 bc 9d 6f 1e 3e
       0.026520174 -0.15688841 -0.026155481 0.15472265
000360 5d 94 de 3c 48 02 52 3e 04 e4 e9 bc 64 a9 55 be
       0.027170355 0.20508683 -0.02855111 -0.20865399
000370 95 76 91 bd 2a 84 33 3d 86 fb f4 bd d8 04 9b 3d
       -0.07102696 0.043827213 -0.11962037 0.07569283
000380 11 b6 0b 3e 7d 3b e8 3d 62 71 0d be 0f a6 ef bd
       0.13643672 0.113394715 -0.13812783 -0.11701595
000390 1a fb 64 3d 5f 19 04 bd f0 78 91 bd 46 ea 76 bc
       0.05590353 -0.03225076 -0.07103145 -0.015070504
0003a0 26 da 2d be 0e 7e 78 3c 09 17 2e 3e 55 c9 77 bc
       -0.16977748 0.0151667725 0.17000975 -0.015123685
0003b0 97 31 b8 bd 30 0e 04 3e bf 15 b8 3d 5a dd 02 be
       -0.089938335 0.12896037 0.08988523 -0.12779751
0003c0 fd 1d f6 bd a8 ef fb 3d 38 d3 97 3d 31 31 ff bd
       -0.120174386 0.1230157 0.07413334 -0.124605544
0003d0 a4 eb 13 3e 42 b2 b7 bd b4 13 17 be 12 66 bf 3d
       0.14445359 -0.08969547 -0.1475361 0.0934564
0003e0 82 1c bb 3d cb b6 cf bd 60 40 b7 bd dd 24 ca 3d
       0.09136297 -0.10142287 -0.089478254 0.09870312
0003f0 f1 07 6a bd cd b8 45 bd a2 8f d0 3d 6e fa 74 bc
       -0.05713648 -0.048271943 0.10183646 -0.014952285

bias f4 [256]
000000 42 b3 ea 3c a5 de c8 3c 19 57 0d bd c9 62 b7 3c
       0.02864993 0.024520228 -0.03450689 0.022385972
000010 05 3a f2 bb 00 00 00 00 e2 80 af bc aa 45 22 bd
       -0.0073921704 0.0 -0.02142376 -0.039617218
000020 7b 2c 90 3c 69 08 18 3c ea 15 3d 3c 18 09 20 bc
       0.017599335 0.009279349 0.011540869 -0.009767793
000030 4b 41 b7 3c f1 ee 3d bc 80 d9 88 3c ed 21 22 3d
       0.022370001 -0.011592613 0.016705275 0.039583135
000040 af f0 1b bc 87 10 17 3c b9 2f 9e 3c ac a3 c2 3c
       -0.009517833 0.009220249 0.019309865 0.023759685
000050 e3 40 5a 3c 2a b5 a1 3c 8f d1 a8 3c d4 e1 ad bd
       0.013321134 0.019739706 0.020607738 -0.08490339
000060 b9 a6 9e 3c 09 36 e0 3b 69 88 62 3e b6 eb 8a 3a
       0.019366609 0.006842379 0.22122349 0.0010598812
000070 f4 c7 92 3c 7b 7e 82 3c 00 00 00 00 55 93 81 3c
       0.01791761 0.015929451 0.0 0.015817324
000080 c8 aa 91 3d c0 b0 24 3c 35 6b 41 3c 00 00 00 00
       0.07112652 0.010051906 0.011805345 0.0
000090 d9 c7 04 bd ad a8 93 3c 0a b4 89 bd a5 6f 81 3b
       -0.032417152 0.018024767 -0.06723793 0.0039500766
0000a0 a4 77 a8 bc 2c 29 8c bd 41 4b b0 3c 32 94 70 3c
       -0.020564862 -0.068437904 0.021520259 0.01468377
0000b0 64 0c 25 3c 54 b1 d1 3b 00 00 00 00 a1 eb 8d 3c
       0.010073755 0.006399313 0.0 0.01732427
0000c0 00 00 00 00 52 06 10 3c cd 24 29 3d 00 00 00 00
       0.0 0.008790569 0.04129486 0.0
0000d0 01 24 25 bc bf 2b 68 3c 61 2a b4 3c e4 a8 19 bd
       -0.010079385 0.014170586 0.021992864 -0.037514582
0000e0 aa 45 b8 3c 08 57 29 3d c4 ed 65 3c 53 c4 55 3c
       0.022494156 0.041342765 0.0140337385 0.013047296
0000f0 73 83 15 3d b0 70 8d 3c 5f 81 48 3c d9 93 f1 3c
       0.036502313 0.017265648 0.012237876 0.029489445
000100 65 d4 0a 3c 3b 08 4b 3c 86 ca cf 3c a3 f1 82 3c
       0.00847349 0.012392099 0.025365125 0.015984362
000110 20 6d bc 3c f0 6d 80 3c 4f 8f bb 3c 53 9d e7 3b
       0.023001254 0.015677422 0.022895483 0.007068315
000120 4d 70 8e 3c 3b 4b 31 3c 00 00 00 00 19 35 f7 3c
       0.017387534 0.010821159 0.0 0.030176686
000130 d1 de 5e 3d c1 5c 92 bc 8c f9 c4 3c 64 ef 86 3d
       0.054411713 -0.017866494 0.024044774 0.06588629
000140 aa 34 e7 3c 67 52 c6 3c a0 da 54 3c c4 52 96 3c
       0.028223354 0.024209214 0.012991577 0.018350013
000150 00 00 00 00 2a ef 0c bc c0 a4 f5 3a 57 c2 fe 3c
       0.0 -0.008601943 0.0018741116 0.031098528
000160 7e b8 8d 3c 20 74 23 3c be 32 98 b9 00 00 00 00
       0.017299887 0.009976417 -0.00029029505 0.0
000170 e8 80 7e 3c f8 ce f6 3c ea e5 a5 3c 81 94 2f bc
       0.015533663 0.030127987 0.020251233 -0.010716558
000180 c3 42 96 3c ba ad 04 3d 91 7d 99 3c d7 63 c4 3c
       0.018342381 0.03239224 0.018736633 0.023973389
000190 37 9f 9a 3b 63 bd 6e 3c 73 29 76 bc a1 4c 5c 3d
       0.004718687 0.0145715205 -0.015024531 0.053784017
0001a0 73 bb 2c 3d 8a 2c 1c 3c c3 d4 68 3c b1 3a 87 3c
       0.042170953 0.009532103 0.014210883 0.016507478
0001b0 6f d4 b9 3c 00 00 00 00 ce 60 3e 3c da 3c 94 3c
       0.022684304 0.0 0.01161976 0.018095423
0001c0 ad 4b b4 3d d4 50 b5 3c bc 64 23 3d f7 f5 9c 3c
       0.088034965 0.022133268 0.03989099 0.019160254
0001d0 e9 21 7e bb 00 00 00 00 1a 9d 65 3c 62 55 7d 3c
       -0.0038777536 0.0 0.014014507 0.015462251
0001e0 ff 43 ee 3c 09 b4 56 bc 99 99 df 3c e9 a2 5d 3c
       0.029085157 -0.013104447 0.02729492 0.01352761
0001f0 c0 5d d7 3c 51 e1 47 3c 3f 0c d2 3c 00 00 00 00
       0.02628982 0.012199716 0.025640605 0.0
000200 ce be 3d 3c a3 2c 38 3c d8 9a e3 3c 32 5e 5b bc
       0.011581136 0.011241111 0.027783796 -0.013389157
000210 f1 11 98 ba a9 9e ce bb 94 c9 60 3d 67 7a 65 3d
       -0.0011602027 -0.006305535 0.05487974 0.056024935
000220 00 00 00 00 f8 14 84 3c 47 76 53 bc 80 32 16 bc
       0.0 0.01612328 -0.0129066175 -0.009167314
000230 60 44 6a 3c b0 0d d3 3c e6 9c 00 bc 38 6b 46 3c
       0.014298528 0.025763363 -0.0078499075 0.012110524
000240 eb 8e 0a 3d 49 c8 0b 3d 00 00 00 00 8e a4 0d 3c
       0.033827703 0.034126554 0.0 0.00864519
000250 00 00 00 00 a1 07 90 3c 5f ab 89 3c 21 d4 15 bc
       0.0 0.017581763 0.016805349 -0.009144814
000260 95 53 79 bc a3 ef 95 3c 2e 53 05 3c fd 0c 8c bd
       -0.015217681 0.018302744 0.008137507 -0.06838415
000270 bc c4 d4 3c e8 f8 95 3c 26 27 ad 3c 6b 67 f6 3c
       0.025972717 0.018307164 0.021136831 0.03007861
000280 2d 97 78 3e 07 70 81 3c 00 00 00 00 ce 14 8e bb
       0.24276419 0.01580049 0.0 -0.004335976
000290 f7 1d 74 3c 33 29 7e 3c 00 00 00 00 56 3c 92 3c
       0.014899722 0.015512752 0.0 0.017851036
0002a0 00 00 00 00 a9 62 12 3d 62 93 ce bb 01 c2 00 3d
       0.0 0.03573862 -0.0063041905 0.031435017
0002b0 00 00 00 00 5f ca a1 3c 81 9b eb 3c 98 62 b0 3d
       0.0 0.019749818 0.028760673 0.08612555
0002c0 45 7f 4e 3c 45 bc 11 3c 2d c3 c1 bc 0a 43 83 3c
       0.012603586 0.008894985 -0.023652637 0.016023178
0002d0 ed 0d 38 3d fd ac c8 3c 89 80 24 3d 4a 60 2e 3c
       0.044935156 0.02449655 0.040161643 0.010643074
0002e0 cb 38 9c 3b 94 95 e6 bc ec 22 73 3c a5 fc 8a 3c
       0.0047675124 -0.028147496 0.014839869 0.016966173
0002f0 cd b6 90 3c 00 00 00 00 9f 1d 54 bc 9b e2 22 bc
       0.017665291 0.0 -0.012946515 -0.009941722
000300 2b 36 aa 3c 88 c2 87 3c c6 b7 79 3c a4 a5 64 bb
       0.020777782 0.016572252 0.015241569 -0.0034888769
000310 56 e8 aa 3c 1a 81 02 3c 5f 18 81 3c 23 7e 91 3b
       0.02086274 0.0079653505 0.015758691 0.0044400855
000320 10 65 85 3c 28 c3 9e 3c ce c1 51 bc 40 73 0b 3c
       0.016283542 0.019380167 -0.012802554 0.008511364
000330 00 00 00 00 05 7a b9 3c 2c a1 92 3c 14 4f c0 3c
       0.0 0.022641191 0.017899118 0.023475207
000340 63 a0 c5 bb c8 b7 c0 bb b7 3d 1b bd 9c cc c3 3c
       -0.0060310825 -0.0058812834 -0.037900653 0.023901276
000350 2b 94 9c 3c 33 b7 8e 3c 00 7a 38 3d 4d fa a7 bb
       0.01911362 0.01742134 0.045038223 -0.0051262737
000360 d3 2f 91 3c df cc af 3b 3b 55 88 3d be 97 0d 3d
       0.017723 0.0053649987 0.066568814 0.03456854
000370 60 79 94 3b 63 11 80 3c fa 35 3f 3d b6 44 0b bc
       0.0045310706 0.01563329 0.046682335 -0.008500269
000380 41 b7 54 3c df 77 98 3c 10 ab dd bc 00 00 00 00
       0.012983144 0.018611846 -0.027059108 0.0
000390 53 cc 7f 3c 00 00 00 00 00 00 00 00 14 62 43 3d
       0.0156126795 0.0 0.0 0.047700956
0003a0 00 00 00 00 a1 81 8b 3c a3 9f 31 3c c8 40 9c 3c
       0.0 0.017029585 0.010841283 0.019073859
0003b0 9c 40 8e 3c 00 00 00 00 ef c7 73 3d c8 50 cd 3c
       0.017364793 0.0 0.059516843 0.025062934
0003c0 51 aa 0d 3d b5 e6 b6 3c 5d bf 35 3e 6e dc a1 3b
       0.034586255 0.022326807 0.1774878 0.0049396073
0003d0 1b 7c 1d bd da 37 48 3d 7a 61 8f bd 89 2f a4 3c
       -0.038448434 0.04888139 -0.07001014 0.020042198
0003e0 00 00 00 00 00 00 00 00 61 d1 00 bd 5e 45 9b 3c
       0.0 0.0 -0.03144968 0.018953975
0003f0 a5 ff e0 bc d1 df 4f 3d b0 4d 41 bb f8 99 06 3c
       -0.02746565 0.050750557 -0.0029495768 0.00821542

weight f4 [256, 256]
000000 83 a6 c0 bd 13 04 f5 bb 3a b0 1a 3d 87 7e 67 3c
       -0.094067596 -0.0074772923 0.03776572 0.014129288
000010 6a 46 09 3e b8 a9 f0 3d 94 92 22 3d d9 4a 8d 3d
       0.13405767 0.11751121 0.03969057 0.06899042
000020 d1 9c 74 3d 92 58 1f bc b6 29 e8 bd fa 6a 29 be
       0.059719864 -0.009725707 -0.11336081 -0.16544715
000030 75 48 d6 3d 04 7b 19 be a7 31 a7 bd 14 b8 59 3d
       0.10463039 -0.14988333 -0.08163767 0.053154066
000040 f4 83 f9 bf 42 0c 2c bd b7 47 dd bd 61 47 92 3c
       -1.9493394 -0.042003877 -0.10804694 0.017856302
000050 2d 13 52 3d 04 ab db 3d 7c 06 fb bd 5d b1 e3 bc
       0.05128782 0.10725978 -0.12257096 -0.027794534
000060 8c 67 29 3d b5 eb b0 3d 72 0c 27 3e 3c 06 4c bd
       0.041358516 0.086387075 0.16313341 -0.049810633
000070 e5 b5 82 3d ba 2c 90 bd f4 4b bc 3c 46 27 ca 3c
       0.0638235 -0.07039781 0.022985436 0.02467693
000080 f2 31 a3 3d ad f3 ed bd 3f 0c 5d bd b8 5d 19 bc
       0.07968511 -0.11618743 -0.053966757 -0.009360723
000090 b4 59 f3 3c 25 46 84 bd 3c 71 b1 bc 75 18 c7 3d
       0.02970586 -0.064586915 -0.02166044 0.09721462
0000a0 de 24 14 be 7f 38 db bd e3 ba db bd 35 bd f5 3d
       -0.14467189 -0.10704135 -0.10729005 0.11998979
0000b0 fe 2a 95 be e2 e5 1e 3d 7d c0 9c bd 29 05 ab 3c
       -0.29134363 0.038793452 -0.07653902 0.020876484
0000c0 be fb 04 bd 46 86 ae bd b9 bc 3c 3d 86 76 3c 3d
       -0.032466643 -0.085217044 0.046078417 0.04601147
0000d0 12 9d 41 3e 22 90 92 3c 06 a9 9e be 12 2d d7 3b
       0.18907574 0.017890994 -0.3098833 0.006566652
0000e0 b2 08 45 bb b5 83 22 3d b9 e1 33 be 76 f3 4b be
       -0.0030064997 0.039676387 -0.17566575 -0.19917092
0000f0 29 19 ae bd 98 e1 6f bc 8f 5a 92 3b c7 37 48 bd
       -0.08500893 -0.014641188 0.004466362 -0.04888132
000100 47 1b 51 3d 0a 8c 07 3e 04 5b ab be f6 02 12 bd
       0.051051404 0.13237014 -0.33467877 -0.035647355
000110 6a fc 09 3c 66 04 31 bd 8d 3e ed bc fd ff 1b 3d
       0.008421997 -0.043217085 -0.02896049 0.038085926
000120 db d6 b1 3d d7 09 f2 3c 2c 09 32 bb a1 f3 d8 bc
       0.086835586 0.029545708 -0.0027166111 -0.026483359
000130 15 bc 02 3e e2 da 35 bc a2 b2 c6 3d 5b 7d f6 bc
       0.1276706 -0.011099549 0.0970204 -0.030089071
000140 b3 f7 31 bd 6b 42 a6 bc 72 6f 36 3d bf f6 f2 bd
       -0.043449115 -0.020295342 0.044539876 -0.11863469
000150 a0 54 d2 bd fc d5 f9 3c 5f d0 71 3d be 51 9d bd
       -0.10270047 0.030497544 0.05903661 -0.07681607
000160 71 e5 69 bd f3 79 52 bd 7a 28 4a be 80 e4 80 b9
       -0.057103578 -0.05138583 -0.19742003 -0.00024584308
000170 ec 6a 40 be b7 48 72 3d 9d e6 25 3d 63 e3 43 3d
       -0.18790787 0.059151378 0.040503133 0.047824275
000180 bf 4a 00 bd c1 97 e6 39 08 bc a0 bd 5f 2a 36 3e
       -0.031321283 0.00043982084 -0.07848364 0.17789601
000190 97 6a 3d 3d b9 db 53 3d 69 b8 ec bc f4 ed cc 3c
       0.04624423 0.051723216 -0.028896527 0.025015809
0001a0 11 51 ea 3b a0 47 73 bd c6 2b 8c 3d aa bf 9b bd
       0.007150777 -0.05939448 0.068442866 -0.076049164
0001b0 af a7 70 bc 07 0e ec bc 20 07 1f 3c e1 98 12 3d
       -0.014688416 -0.028815283 0.009706289 0.035790328
0001c0 27 e7 bb 3d ff 1b 0b bb ea ce 59 bd 9b 6c 51 bd
       0.09174948 -0.0021226404 -0.053175844 -0.051128965
0001d0 6b 88 9d 3c 80 6a 84 bd 2d fc 0d bc bb 9e 35 bd
       0.019230088 -0.06465626 -0.00866608 -0.04434083
0001e0 2a 2f 0d bb b1 1c 8a be ae 3f a6 bc 4f a6 dc bd
       -0.0021543005 -0.26975015 -0.020294037 -0.10773908
0001f0 99 84 ee 3d 9b c2 0b be fe f5 a1 3d 19 9a 7c bd
       0.11646385 -0.13648455 0.079082474 -0.061670396
000200 d0 52 45 3d 27 1c 0c be 53 b1 05 be 79 65 af 3b
       0.04817468 -0.13682614 -0.13055925 0.0053526727
000210 86 f7 8a bc c2 8a 9a 3e 63 2b 1c 3b cc f0 57 3d
       -0.016963731 0.3018399 0.0023829571 0.052719876
000220 96 42 98 bd 8a ab 5d 3c 59 f5 0d bd 3f f9 22 3d
       -0.07434575 0.013529668 -0.03465781 0.03978848
000230 73 8b 9d bd c6 42 2a 3c 64 67 58 bf e4 7d 6e bd
       -0.076926135 0.010391897 -0.8453276 -0.058225527
000240 11 91 7c bb 25 a6 5f 3d 1a df 74 bd f6 5c 1b be
       -0.0038538615 0.054601807 -0.05978308 -0.1517218
000250 c1 65 df 3d 7e 78 af 3c d2 f8 80 3b 2d 3c 20 bf
       0.1090808 0.02141976 0.0039359117 -0.6259182
000260 8e 41 a0 bc 4f c3 63 bd 40 71 cc 3d 0e 1a bd 3c
       -0.019562509 -0.055606183 0.09982538 0.023083713
000270 35 8a 90 3d e3 5f b8 bd e9 7c 27 be 90 ed 3e 3e
       0.07057611 -0.09002664 -0.16356243 0.1864531
000280 e4 cd 6c 3e 05 b0 e1 bd ad 1f fb bc 9e c6 16 be
       0.23125416 -0.11019901 -0.030654753 -0.14724204
000290 9c 86 99 3d 1f 88 90 bd f4 82 cc 3d 36 c6 81 be
       0.07496378 -0.07057213 0.09985915 -0.25346535
0002a0 f1 16 2c 3d d0 56 88 3d df e8 b5 3e 54 0f 14 3d
       0.042014066 0.06657183 0.3552923 0.03614743
0002b0 36 1d b5 bd 2c 78 a3 bd 85 cc 90 bd fd 44 9a 3d
       -0.08843462 -0.07981905 -0.07070259 0.0753269
0002c0 6e 4b ca bd a7 8c 3d 3d af 9d 06 3e 51 1e 0d 39
       -0.09877668 0.046276715 0.13146089 0.00013458102
0002d0 a1 af 13 3e f8 b3 24 3c fd 5a 0a 3c 9c 5d e2 bd
       0.14422466 0.0100526735 0.008444545 -0.11053011
0002e0 f3 53 16 be 02 5a 96 3b dd 39 49 b9 76 ea 9d bd
       -0.14680462 0.0045883665 -0.0001919041 -0.077107355
0002f0 21 6e 90 be 2c f4 3d 3b 46 ae f8 3d cc 92 c4 3c
       -0.28209022 0.002898465 0.12142615 0.02399578
000300 e3 6f e9 bc 73 4d bc bc 1a 26 b7 3b df bb 6e bd
       -0.028495735 -0.02298615 0.005589259 -0.058284637
000310 f5 1a 47 be 80 3b c0 bb 93 44 b1 3c 54 71 0b bd
       -0.19443877 -0.005866468 0.021639144 -0.034043625
000320 7b bf a4 3d 77 d9 4c bd b5 02 75 be d6 db 52 bd
       0.080443345 -0.050012078 -0.23926814 -0.051479183
000330 36 a6 05 bd 4b e7 33 bd 07 2f ca 3c 41 27 f7 bd
       -0.032629214 -0.04392175 0.024680628 -0.12068034
000340 8a c4 89 bc 4d 16 59 3b 74 bb 9b bd e0 9a 4d bd
       -0.01681735 0.0033124865 -0.07604113 -0.05019653
000350 0c a1 8f 3d 0a ea 2f be a4 9b d7 3c dd 4f b0 bc
       0.07013139 -0.17179123 0.026319332 -0.021522457
000360 33 cb c2 3d 7a 50 95 3c 65 af 53 3d d1 9c f1 bc
       0.095114134 0.01822685 0.05168094 -0.029493721
000370 84 82 c6 bd 9a e0 24 bd e7 83 43 3d b7 e5 10 c0
       -0.09692863 -0.04025326 0.047733214 -2.2640207
000380 33 05 98 bd 5d c8 66 be 06 5b b7 bd 15 03 d4 3d
       -0.07422867 -0.2253737 -0.08952908 0.1035215
000390 65 75 84 3c 1b 80 5c bd 91 55 9c 3c 88 9a 71 3d
       0.01616926 -0.05383311 0.01908377 0.058985263
0003a0 e3 94 90 bd ff 26 70 3d 90 35 b6 bd 52 7b 6b bd
       -0.07059648 0.05863094 -0.08896935 -0.057490654
0003b0 61 9c 72 be 4d fe b7 3c e1 0b 5e 3d 34 a1 c0 bd
       -0.23692466 0.022460127 0.054210547 -0.09405747
0003c0 97 87 52 bd 2e b7 21 3c d5 34 d5 3d d5 b5 ed 3d
       -0.05139884 0.009870334 0.104104675 0.11606947
0003d0 dd 57 40 bf 55 ad e5 3d 17 35 11 3d aa 95 51 bc
       -0.7513407 0.11214701 0.03545102 -0.01279203
0003e0 e2 c6 32 bd c2 dd da 3c 54 94 19 be e2 d5 85 3b
       -0.0436467 0.02671707 -0.14997989 0.0040843347
0003f0 c2 9c d3 3d 68 4b cb 3d 81 ce 5c 3e 54 95 e5 bc
       0.103326336 0.09926492 0.2156315 -0.028025307

bias f4 [256]
000000 97 f0 4e 3d 0e 5c 1a 3d 3b 74 6b 3c ff de 81 3d
       0.050522413 0.037685446 0.014370973 0.06341361
000010 01 54 42 3d f8 ca 00 3d 89 14 a4 3d 80 42 35 3d
       0.047443394 0.031443566 0.08011729 0.044252872
000020 00 97 6f 3d a9 8c 35 3d 2d 14 3f bc fb 19 9f 3d
       0.058493614 0.044323597 -0.011662525 0.07768627
000030 d9 d1 2f 3d 77 4b 7e 3d 6e fa 9f 3d ca 5d 86 3d
       0.042924736 0.062083688 0.078114375 0.065608576
000040 cd d9 91 3d 2e 95 83 bc 3e 2d ea bc c3 19 0a bc
       0.0712162 -0.016062345 -0.028586026 -0.008428994
000050 cf d0 45 3d 4a aa 85 3d ad 5f b8 3d 7a 4b 2d 3d
       0.04829484 0.06526621 0.09002624 0.04230831
000060 e5 83 17 bd 3b 4f 49 3d f3 bf 92 3d 8c 1a 65 bc
       -0.03699102 0.049147826 0.07165518 -0.01398338
000070 93 0e b4 3d 83 e6 96 3d 00 00 00 00 87 f2 9a 3d
       0.08791842 0.07368185 0.0 0.0756579
000080 1c 60 62 3d 6e ff 0a bd 7c 76 fe 3c 16 13 2f 3d
       0.05526744 -0.033935003 0.031062357 0.04274281
000090 7f 6d 5b 3d 35 bf d3 bb ef 51 13 bc ce 71 9e 3d
       0.05357122 -0.0064620026 -0.008991702 0.0773655
0000a0 0d e1 11 3d 0b cf b5 3d 28 38 b0 3c 84 c8 0b 3d
       0.035615016 0.08877381 0.021511152 0.034126773
0000b0 d5 af 61 3d 00 2a bd bb a9 45 2f 3d bb 26 27 bd
       0.055099327 -0.005772829 0.042791042 -0.04080842
0000c0 5f 5d 1c 3d 66 87 a0 3d 75 1c 8d 3d 80 a8 0c 3d
       0.038174983 0.07838325 0.068901934 0.03434038
0000d0 1a 4b 3d 3d aa 9e 0d 3d 08 5c 4b 3d 20 1e 85 3d
       0.0462142 0.034575142 0.049648315 0.064998865
0000e0 cc d8 16 bc 31 a3 7b 3d a9 a7 b5 bc 8e 71 96 3d
       -0.009206962 0.06143493 -0.022174673 0.073458776
0000f0 1f 2d 5e 3d 9d f7 f9 bb 3d 5c fa 3c 24 be 4f 3d
       0.05424225 -0.0076283948 0.03056156 0.05071844
000100 50 de 95 3d f5 87 3c 3d e3 c7 0f 3d df 59 e2 3c
       0.07317793 0.046028096 0.035102736 0.027630745
000110 62 7a 01 bd 32 aa a1 3d 7b 46 8b 3d 5f c6 4b 3d
       -0.031610854 0.0789379 0.068005525 0.04974973
000120 fb 0c dc 3c 26 26 69 3d fd f5 8a 3d 1c 19 3b be
       0.026861658 0.056921147 0.067852 -0.18271297
000130 8a 8a 5c 3d 32 4f 6b 3d 38 c9 f0 3c 7f b6 1a 3d
       0.05384306 0.057448573 0.029392824 0.037771698
000140 b1 01 5b 3d 25 d7 2e 3d 29 33 40 3d d7 82 99 3d
       0.05346841 0.042685647 0.04692379 0.07495659
000150 52 30 36 3d ee 71 99 3d 35 18 63 bc ab 1f b5 3d
       0.044479676 0.074924335 -0.013860752 0.08843931
000160 1c 8e fe bb 02 a9 ae 3d 7a f7 26 bc 45 dc 01 3d
       -0.0077684056 0.085283294 -0.010190839 0.031704206
000170 7d 1b 94 3d 76 af 53 bc 59 d4 21 3d f5 15 53 3d
       0.072318055 -0.012920251 0.03950915 0.05153461
000180 3b 8b 97 bc a9 48 7c 3d 2e 1b 98 3d 6f c7 0a bc
       -0.018499007 0.06159273 0.07427059 -0.0084704
000190 ba a1 9a 3d d9 1e a0 3d 8a 82 72 3d 46 25 2c bc
       0.07550378 0.07818384 0.059206523 -0.010506934
0001a0 07 9e 12 3d 94 c6 46 3d 00 00 00 00 71 00 a2 3d
       0.035795238 0.048529223 0.0 0.079102404
0001b0 54 a0 78 3d 1f e4 4c 3d e2 f2 aa 3c a2 62 59 bc
       0.060699776 0.05002224 0.020867769 -0.013268145
0001c0 cb ae 1c 3d 92 a0 eb bc c9 b4 88 3d e5 7d 45 3d
       0.038252633 -0.02876309 0.06675107 0.048215766
0001d0 f8 cc 3a 3d 0a 2c 9e 3d 04 1c 9f bc ff b3 6c 3d
       0.04560563 0.077232435 -0.019422539 0.057788845
0001e0 9a 02 88 3d 0c a2 1b bc fb 3e 7d 3d 94 8b 63 3d
       0.06641121 -0.009499084 0.06182764 0.055553034
0001f0 34 ca 09 bc 97 78 2b bc 7c 7a 98 3d bf 4c a8 3d
       -0.008410025 -0.010465763 0.07445237 0.08217763
000200 a1 59 f0 bb ce 03 58 3d 74 82 8b 3d eb 55 b0 bc
       -0.0073349033 0.052738003 0.06811991 -0.021525344
000210 74 f8 8f 3d a8 56 0a bd f8 e2 93 3d 0f ad 43 3d
       0.070298105 -0.033774048 0.07221025 0.047772463
000220 00 00 00 00 22 32 fb 3c 97 b7 4d 3d d2 24 c3 3d
       0.0 0.030663554 0.050223913 0.09528507
000230 f4 8d a0 3d 0c c4 ba 3d 48 46 13 bc 27 a0 35 3d
       0.078395754 0.09119424 -0.008988924 0.044342186
000240 e7 87 8b 3d 4c 7a 01 bc 7d 67 b1 3d 93 6c 6c 3d
       0.06813031 -0.007902693 0.08662317 0.057720732
000250 e4 b0 40 3d d9 9d 29 bc 72 36 9d 3d c9 ce 3d 3d
       0.047043696 -0.010352575 0.076764 0.046339784
000260 f5 1c 73 3d d8 61 8a 3d 6e a4 9b 3d aa e0 0d 3d
       0.059353787 0.067569435 0.07599722 0.034638084
000270 9a 71 8f 3d ee 4e 31 3d 71 da 85 3d db 52 aa 3d
       0.0700409 0.043288164 0.06535805 0.08316585
000280 65 c6 6e 3d 3a 96 a0 3d ca 38 67 bc 80 7c 8a bc
       0.058294673 0.078411534 -0.014112661 -0.01690507
000290 89 40 e5 bc e1 f6 7f 3d 7b cb 8f 3d 44 98 1d 3d
       -0.027984874 0.0624913 0.07021233 0.03847529
0002a0 41 4c 65 3d d5 62 eb bb b6 c0 05 3d 1a 7c 4a 3d
       0.055980925 -0.0071834126 0.032654487 0.04943476
0002b0 67 17 2a 3d 13 f6 45 3d 9a 7d fb bb f1 6d 32 bc
       0.041526224 0.048330378 -0.007674885 -0.01089047
0002c0 16 f4 a1 3d 8d c0 a5 3c fd 85 06 bc a1 0c 34 bc
       0.07907884 0.020233417 -0.008210656 -0.010989339
0002d0 c7 00 48 3d b2 dc ab 3d 08 c4 5b 3d d7 e3 90 3d
       0.048828866 0.08391704 0.053653747 0.07074707
0002e0 24 a5 8e 3d 8c 0e 2f 3d 3e 69 7a 3d a0 05 78 3d
       0.06965092 0.042738482 0.061135523 0.06055224
0002f0 65 c2 1d 3d 78 ed 16 bd d3 3d a3 3d 79 f1 11 3d
       0.038515467 -0.03684756 0.079707764 0.035630677
000300 b8 c1 1d 3d 2d e1 88 3d ee 72 49 3d 26 a9 9e 3d
       0.038514823 0.06683574 0.04918187 0.07747106
000310 fa dc 32 3d 4b 53 48 bc 29 d1 01 bd b8 b5 f8 bb
       0.04366777 -0.01222689 -0.03169361 -0.007590022
000320 04 64 0b 3d b0 9c 4c 3d 86 18 85 3d ca 1b c4 bc
       0.03403093 0.049954116 0.06498818 -0.023939032
000330 3a ea f7 3c 92 72 03 bc 07 8b 66 3d 8e 23 29 3d
       0.030263055 -0.008022921 0.05628493 0.041293673
000340 a6 73 44 3d d3 c9 c4 bb 5e 10 48 3d 3d 75 b3 3d
       0.047961853 -0.0060055046 0.048843734 0.08762596
000350 29 de 30 3d 9e fe 57 3d e5 07 a3 3d 5e 06 09 bc
       0.04318062 0.052733056 0.0796049 -0.008363334
000360 54 03 9c 3d 31 db 59 bc d2 44 21 3d 48 53 55 3d
       0.07617822 -0.013296888 0.039372273 0.052081376
000370 4b 9e fd bc 00 00 00 00 25 79 c7 3d e5 29 9a 3d
       -0.030959269 0.0 0.09739903 0.07527522
000380 66 e2 5b 3d 07 c4 a0 3d b2 c8 07 bc ac e3 f1 bc
       0.053682707 0.07849889 -0.008287596 -0.029527508
000390 90 32 e0 bb 9d c2 4a 3d 6f b1 54 bc dc 0e 8d 3d
       -0.006841965 0.049502004 -0.012981757 0.068876
0003a0 41 04 3c bc 57 21 08 bc e0 a8 94 3d 4a 79 4f 3d
       -0.011475624 -0.00830873 0.07258773 0.05065278
0003b0 14 e9 96 3d 22 13 c4 3d 17 ff 8c 3d 85 9c 9d 3d
       0.07368675 0.09573962 0.06884592 0.07695869
0003c0 dc 8d 9d 3d f9 e2 41 3d 54 6c 80 3d eb 98 67 3d
       0.07693073 0.0473356 0.06270662 0.05654232
0003d0 c6 e9 80 3d 8a 52 9e 3d de 4c db 3c 0f 52 22 3d
       0.06294589 0.07730587 0.026770052 0.03962904
0003e0 84 de 57 3d 1a 01 d1 3c 39 9d 84 3d 1e 12 a4 3d
       0.05270244 0.02551322 0.064753 0.08011268
0003f0 28 ba 43 bc 80 96 96 3d 7e 24 6e 3d 40 8d f1 3c
       -0.011946239 0.07352924 0.05814027 0.029486299

weight f4 [2, 256]
000000 7a b9 80 be 8b a0 87 be 55 7a 71 be 3d 26 1b 3e
       -0.25141507 -0.26489672 -0.23581822 0.15151305
000010 8b c8 61 be 1f b4 5d be fc e2 5d 3d 96 9e 96 be
       -0.22049157 -0.21650742 0.054171547 -0.29417866
000020 70 8f 7c 3d 3c f3 7a 3b a6 90 46 bd 2d 4c 2e 3e
       0.06166023 0.0038291952 -0.04847779 0.17021246
000030 b3 2a 55 be 79 c9 84 3e 90 be d4 3d a8 40 76 3d
       -0.2081707 0.2593496 0.103879094 0.060120255
000040 7d b7 f6 3d 11 04 56 bd 00 80 16 bd 9d 59 aa bc
       0.12046716 -0.05224997 -0.036743164 -0.020794684
000050 4e e1 85 be 39 b7 d0 be 53 8d 63 be 1f 69 1f be
       -0.26148456 -0.40764788 -0.2222188 -0.15567444
000060 f9 b8 a9 bd fd 84 4e be 37 86 38 3e a6 8e c3 bc
       -0.08287234 -0.20167919 0.18019949 -0.023871731
000070 a5 6f 90 3d 1c 06 35 3e 71 0c 25 be 72 78 31 3e
       0.070525445 0.17678112 -0.16118027 0.17331102
000080 0e a0 55 be 4c cb 72 bd 7b 4d 96 be 38 f5 98 bd
       -0.20861837 -0.05927591 -0.29355988 -0.07468647
000090 10 1a f7 bd 73 18 b7 bd cf c8 65 bd 4c 4f b7 3d
       -0.12065518 -0.0894021 -0.05609971 0.089506716
0000a0 a0 dc 92 be 12 db 76 3e 8a 7c b1 bd 69 c6 45 be
       -0.2868395 0.24107006 -0.08666332 -0.19313969
0000b0 57 c1 f8 bd 2c 0e 59 3c 89 a7 5d bd 61 c9 b5 3b
       -0.12146252 0.013248008 -0.054114852 0.005547688
0000c0 45 a1 3d be 51 1e 48 3e be 4c 8e 3e df fa a5 3b
       -0.1851855 0.19542815 0.27792925 0.0050653066
0000d0 08 f8 d1 bc 54 8f 63 be d7 1d 30 be 66 ff 92 3e
       -0.025630966 -0.22222644 -0.17198883 0.2871048
0000e0 d3 17 c8 bd ba e2 b9 3d 4f 67 6a 3f e0 96 ae 3e
       -0.09770169 0.09076448 0.91563886 0.34099483
0000f0 06 36 95 bd 0c 4d 2d 3d 80 4c 3a be fc 12 f8 3d
       -0.07285695 0.042309806 -0.18193245 0.12112996
000100 1b c1 f4 3c f0 83 5e be f6 3a 48 be 5c 15 7e be
       0.029877236 -0.21730018 -0.19553742 -0.24812835
000110 b8 03 80 bd 96 36 9b 3e 1d f3 52 3e 1d ef aa bd
       -0.06250709 0.30315083 0.20600553 -0.083463885
000120 db 33 56 be 09 ce 0e 3c f6 98 02 3e d8 d8 33 3f
       -0.20918219 0.008716115 0.12753662 0.7025275
000130 28 8c 97 3d ae ff 58 be 93 96 d5 bd be b5 29 bc
       0.073997796 -0.21191284 -0.104291104 -0.010358272
000140 1e ad 5e be 88 f3 82 be e4 42 54 3e d3 0b ad 3d
       -0.21745726 -0.25576425 0.20728642 0.08449521
000150 14 fa ad bd ec a8 84 3e 98 0f 26 bd e6 f6 6e 3e
       -0.08494964 0.25910127 -0.040542215 0.23336372
000160 8b fb 70 bc d5 20 13 3e c9 8b 0a bb 80 88 1b be
       -0.01470841 0.14367993 -0.0021140447 -0.1518879
000170 aa 65 0b bf c2 bf 44 bc 7d 73 e4 bd e0 72 5c be
       -0.54452 -0.012008609 -0.1115484 -0.21528196
000180 d6 d8 65 bd 76 92 01 be bc 59 a0 3e 94 28 2a bd
       -0.056114994 -0.12653527 0.31318462 -0.041542605
000190 15 1b c3 3e ce 16 d1 3d 0f 30 68 3d 9b cf b5 bd
       0.381066 0.10209428 0.056686457 -0.08877488
0001a0 7b 57 c9 bd 9d 0d 2a be 6c b8 18 bd 6c 76 fd 3d
       -0.09831139 -0.16606756 -0.037285253 0.12376103
0001b0 64 11 16 3d da 05 55 be 08 a3 44 be ca f9 e8 3c
       0.03663768 -0.20803013 -0.19202816 0.028439421
0001c0 21 02 3c be 5a ac 30 bd a0 1e 2f 3e d3 ec 52 be
       -0.18360187 -0.043133117 0.17101526 -0.20598154
0001d0 f2 97 fb bd 37 23 64 3e 33 3f 21 3c 24 a7 26 be
       -0.12284841 0.22279058 0.009841728 -0.16274697
0001e0 49 8c 6c 3e 9d ae f3 bc aa 85 44 3e 9b e0 3b 3d
       0.2310039 -0.029746348 0.19191614 0.045868497
0001f0 65 45 a7 3d 58 ef bc 3d 9f 13 0a 3e 5c c0 08 3e
       0.08167533 0.09225339 0.13484047 0.1335463
000200 d2 04 18 3d e0 8e 6b bc 10 ed 0f 3e f0 64 f0 bd
       0.037113972 -0.014377326 0.14055276 -0.11738002
000210 28 04 2a 3e f0 ac f6 3c 8e 22 3b 3e 97 ff 64 be
       0.16603148 0.03011176 0.182749 -0.22363125
000220 20 da b3 3d de f0 92 be 1e 75 12 be 75 38 6c 3e
       0.087818384 -0.28699392 -0.14302489 0.23068412
000230 ae 66 1f bf 3a 09 72 3e 03 8c 69 bb 3a 3a 48 be
       -0.6226605 0.23636332 -0.0035636432 -0.19553462
000240 8a ce 39 3e 20 bf 97 bd d2 d2 08 3e a1 14 58 3e
       0.18145195 -0.07409501 0.13361672 0.2110162
000250 cb 68 99 bd c8 ba 96 bd 0b 96 66 3e d7 ad 86 be
       -0.07490691 -0.073598444 0.22518174 -0.26304504
000260 3a 55 42 3e c7 72 a0 3e 6d 3f 87 3e df b9 1a be
       0.18977824 0.31337568 0.26415578 -0.15109967
000270 6b b6 56 3e 28 db 68 be 63 ff f3 3d cd 5a 85 3e
       0.20968024 -0.22739851 0.119139455 0.26045838
000280 42 11 25 be 36 a1 5d 3e c3 8b 70 bb 75 96 19 bd
       -0.16119865 0.21643528 -0.0036704398 -0.037497003
000290 32 66 87 3d f4 07 25 3e 97 93 bf 3e d3 a6 42 be
       0.06611289 0.16116315 0.3741729 -0.19008951
0002a0 d4 e7 1a be ac 00 f5 bc 50 23 7a be 66 63 5a be
       -0.15127498 -0.029907547 -0.24427533 -0.2132698
0002b0 b4 c4 62 bc 47 c4 90 3e a7 9b bd 3c 5b 52 53 bc
       -0.013840843 0.28274748 0.02314551 -0.012898053
0002c0 70 3e a8 3d 74 22 4d be 24 2a a6 bc fc 60 a6 bc
       0.08215034 -0.20032674 -0.020283766 -0.020309918
0002d0 4b 08 61 be 8d 5b 85 3e 18 1b 81 be c9 66 6a 3e
       -0.2197582 0.2604641 -0.25215983 0.22890772
0002e0 80 ea 58 3e 96 6b 69 be 69 e8 ae 3d 48 db f6 3d
       0.21183205 -0.22794947 0.085404225 0.12053543
0002f0 80 b0 e6 bd 58 95 b8 bd 15 db 83 3e 16 34 b7 be
       -0.112641335 -0.0901286 0.25753084 -0.35781926
000300 04 cc e7 bd 46 b8 48 3e 73 db bb be 77 b0 4e 3e
       -0.1131821 0.19601545 -0.36690864 0.20184503
000310 f4 73 83 be 80 a2 e8 bc be d7 e4 bc 28 79 8a bd
       -0.25674403 -0.028397799 -0.027934905 -0.0676139
000320 bd 20 16 be 26 61 37 be 43 42 86 3e 23 c2 14 3d
       -0.14660926 -0.17908153 0.2622243 0.036317956
000330 40 98 65 be 90 45 0c bd d4 70 eb 3d 9a 5f 40 be
       -0.2242136 -0.034246027 0.1149613 -0.18786469
000340 1d c9 94 be e3 11 96 bc 03 4b 80 be 6b 12 29 3e
       -0.29059687 -0.018319076 -0.2505723 0.16510932
000350 3c ed 0c be 0e 1e 16 bd 97 96 9b 3e b9 42 0d 3c
       -0.13762373 -0.036649756 0.30388328 0.008621865
000360 49 6e 68 3e 43 d2 c2 bc 02 90 e4 bd a1 56 65 be
       0.2269832 -0.023781901 -0.1116028 -0.22396328
000370 ef 64 2d 3c bb 70 2d bc e9 fe 74 3e ec c8 a9 3c
       0.0105831465 -0.010585959 0.23925366 0.02072569
000380 0b 17 9a be cc 98 44 3d 67 e8 44 bd 41 78 4c 3d
       -0.30095705 0.04799728 -0.0480732 0.04991937
000390 23 9c e3 bb 84 92 41 be 0d 2b 49 bd 73 5e 3b 3e
       -0.006946103 -0.18903548 -0.049113322 0.18297748
0003a0 a7 cd 7a 3d c3 5c 36 bd da 61 e9 3d 03 2b 73 be
       0.06123128 -0.04452206 0.11395617 -0.23746876
0003b0 8e 71 60 3e 82 ad 19 3e 19 3c 03 bc bf 58 1b 3e
       0.21918318 0.15007594 -0.008009934 0.15170573
0003c0 25 46 25 be e6 d7 93 bd 8c be 4e be 9c 9d 5a be
       -0.1614004 -0.07218914 -0.20189875 -0.21349186
0003d0 1f c7 96 3d b5 8c cb 3d 5e cb 67 be a8 07 a7 bd
       0.07362198 0.09938947 -0.22636172 -0.08155757
0003e0 02 45 aa 3d d1 b5 2a be c5 fc 6b 3e 39 cf b7 3d
       0.083139434 -0.1667092 0.23045643 0.089750715
0003f0 30 ed 5b 3c d4 7e 7a 3e e0 00 bf 3d 3a 38 4f be
       0.013423249 0.24462444 0.09326339 -0.20236292

bias f4 [2]
000000 47 cf 07 3d 6d e4 9f 3c
       0.03315666 0.019518102
