exp_local/gcbc_changing/weights/14000.pt (torch, 274440 bytes, 6 tensors)

weight f4 [256, 4]
-0.12079668 -0.15238057 0.1109239 0.14436026 0.04088456 0.17517845 -0.2013114 -0.035948314
-0.06585716 0.038823355 0.17453542 -0.049168102 0.11575846 0.1350488 -0.116731785 -0.14005613
0.011068137 -0.08029489 -0.09566466 -0.0057970122 -0.105537914 -0.026565848 -0.01944681 -0.0534494
-0.15658946 0.0017683229 0.114478 2.1454252e-05 0.01062152 -0.0788622 0.110422485 0.027497197
-0.07350373 -0.1781588 0.066954784 0.17246453 0.18377833 0.099373095 -0.18492445 -0.10287385
-0.08743706 0.15450755 0.087427475 -0.15594967 0.19855677 0.01494943 -0.16042538 -0.017697914
0.19154836 -0.09715992 -0.1941832 0.0973357 -0.053865027 0.24421121 0.050039165 -0.21094356
-0.0075692935 0.10702831 0.07090161 -0.16003829 -0.2809427 0.009242194 0.040484864 -0.08792582
-0.25528356 0.009483739 0.25648335 -0.01005256 0.051482413 0.17123139 -0.050186876 -0.17072672
-0.01636408 0.18400817 0.013929443 -0.18678269 -0.06237463 -0.19271493 0.06634226 0.15763691
0.08831798 0.15819596 -0.088166535 -0.1575361 0.17766197 0.08181406 -0.17918405 -0.091460764
0.16867189 0.11623112 -0.17024446 -0.11668258 0.050655127 0.13439755 -0.17233121 -0.034270223
0.02466606 -0.21423712 -0.024527147 0.22692007 -0.09708377 0.2006965 0.09523223 -0.20691116
0.012109711 -0.14162858 -0.019136928 0.21693076 0.17698684 0.06660556 -0.16346127 -0.06608914
0.10331568 -0.16962247 -0.1056442 0.16903013 -0.07933617 0.22803049 0.080082625 -0.23136526
-0.075214565 -0.13031426 0.0039912043 -0.034021966 0.13735908 0.11206738 -0.13888505 -0.11271471
-0.52789587 0.044335764 -0.057307523 -0.058739837 -0.16306478 0.0769232 0.16625258 -0.07506134
0.08911943 -0.121635064 -0.09136856 0.120666414 -0.09385868 -0.05315998 -0.009505701 -0.019562459
-0.12602991 -0.06719132 0.09174033 0.009686829 0.15840909 -0.0682043 -0.16433316 0.06500673
0.030529793 0.015795497 0.031487163 -0.03462791 0.15171976 -0.10608331 -0.15368798 0.10508904
0.06568142 0.19746739 0.002901983 -0.19564824 0.13474742 -0.06263382 0.02067371 -0.12243015
0.11729592 0.18859297 -0.11987613 -0.19084267 -0.1216707 -0.15251495 0.1106188 0.1449673
-0.14500894 0.23440623 0.15546604 -0.32385674 0.18285269 -0.027612993 -0.19398536 0.021937694
0.0027962984 -0.06378743 -0.07808231 -0.05105635 0.15102705 0.14108096 -0.1493976 -0.14488885
-0.08699799 -0.007446408 -0.07351607 -0.053810254 -0.026425948 -0.19440594 0.02111359 0.19185841
0.12428152 -0.09091724 -0.12483574 0.077440076 -0.05376882 -0.03936804 -0.060198817 -0.07584263
0.28899777 -0.03264757 -0.288549 0.029057425 0.02047987 -0.19042978 -0.022244995 0.18629433
0.02990266 0.22386973 -0.03365563 -0.22561428 -0.10927012 0.080186665 -0.16993617 0.06374679
0.15313677 0.12678663 -0.15557796 -0.12942271 0.05157526 -0.10376294 -0.06030337 -0.03179519
-0.19469179 0.012599403 0.19516514 -0.012322315 -0.09651978 0.15409595 0.09833512 -0.15497397
-0.13870904 0.14378722 0.07948142 -0.15391731 0.15606807 -0.09847363 -0.15788472 0.09912116
0.11901921 -0.12498801 -0.12117169 0.12677737 -0.07730538 -0.051062092 0.119712904 -0.0093750665
00000000: 4064 f7bd a709 1cbe 122c e33d 2dd3 133e
00000010: 9276 273d fb61 333e 9324 4ebe 8a3e 13bd
00000020: 1ee0 86bd 3d05 1f3d 6ab9 323e 7e64 49bd
00000030: c512 ed3d 3c4a 0a3e 1311 efbd e06a 0fbe
00000040: 2257 353c a671 a4bd d5eb c3bd ddf4 bdbb
00000050: 4324 d8bd 9fa0 d9bc eb4e 9fbc c2ed 5abd
00000060: fd58 20be 12c7 e73a 7173 ea3d a8f8 b337
00000070: e205 2e3c 8182 a1bd 2f25 e23d cd41 e13c
00000080: 2089 96bd 436f 36be 971f 893d 8b9a 303e
00000090: 6330 3c3e 1f84 cb3d d65c 3dbe 86af d2bd
000000a0: 3412 b3bd 3a37 1e3e 2d0d b33d 45b1 1fbe
000000b0: 7752 4b3e 74ee 743c 8d46 24be 37fb 90bc
000000c0: 4125 443e c8fb c6bd f6d7 46be f157 c73d
000000d0: 93a1 5cbd 8112 7a3e def5 4c3d 9701 58be
000000e0: d607 f8bb a931 db3d dd34 913d 14e1 23be
000000f0: b9d7 8fbe 926c 173c 75d3 253d 7412 b4bd
00000100: 87b4 82be af61 1b3c c951 833e 7eb3 24bc
00000110: 39df 523d 4857 2f3e c190 4dbd fcd2 2ebe
00000120: f70d 86bc a36c 3c3e 5238 643c f643 3fbe
00000130: 8a7c 7fbd 1057 45be 73de 873d 926b 213e
00000140: 0fe0 b43d 1ffe 213e a890 b4bd 2551 21be
00000150: 05ed 353e 218e a73d 067c 37be c84f bbbd
00000160: 53b8 2c3e 950a ee3d 9054 2ebe 47f7 eebd
00000170: c07b 4f3d 839f 093e 9877 30be ef5e 0cbd
00000180: 7a10 ca3c fa60 5bbe 28ed c8bc bc5d 683e
00000190: dbd3 c6bd 6283 4d3e 1e09 c33d 85e0 53be
000001a0: cf67 463c 1507 11be 0cc5 9cbc 1923 5e3e
000001b0: 0a3c 353e 7f68 883d 6462 27be be59 87bd
000001c0: 2c97 d33d 83b1 2dbe fd5b d8bd 3c16 2d3e
000001d0: 007b a2bd d380 693e 5c02 a43d 04eb 6cbe
000001e0: 180a 9abd 1a71 05be a6c8 823b 9e5a 0bbd
000001f0: dca7 0c3e 9583 e53d e237 0ebe f8d6 e6bd
00000200: 2f24 07bf 6b99 353d 4bbb 6abd 2f99 70bd
00000210: 74fa 26be e989 9d3d 1e3e 2a3e c3b9 99bd
00000220: 3f84 b63d ce1b f9bd 711f bbbd f41f f73d
00000230: fb38 c0bd 47be 59bd cdbd 1bbc 7341 a0bc
00000240: fc0d 01be 9a9b 89bd 5be2 bb3d 81b5 1e3c
00000250: fe35 223e b2ae 8bbd f446 28be 4022 853d
00000260: 9e19 fa3c 8f65 813c aff8 003d ffd5 0dbd
00000270: 6d5c 1b3e 3542 d9bd 6260 1dbe ec38 d73d
00000280: fb83 863d e434 4a3e 322f 3e3b 0358 48be
00000290: 3afb 093e 2946 80bd ea5b a93c a9bc fabd
000002a0: d838 f03d 841e 413e 9e81 f5bd 436c 43be
000002b0: 7d2e f9bd e12c 1cbe 1c8c e23d 4f72 143e
000002c0: 397d 14be 3008 703e 7d32 1f3e 8dd0 a5be
000002d0: bc3d 3b3e a534 e2bc 19a4 46be aeb6 b33c
000002e0: 1a42 373b fca2 82bd 9ee9 9fbd 7720 51bd
000002f0: d6a6 1a3e 8777 103e affb 18be be5d 14be
00000300: 012c b2bd ff00 f4bb 988f 96bd 2468 5cbd
00000310: 3b7b d8bc 5a12 47be 68f6 ac3c 8876 443e
00000320: 4f87 fe3d d132 babd e1a9 ffbd e798 9e3d
00000330: b23c 5cbd 6240 21bd 0993 76bd 6153 9bbd
00000340: 84f7 933e 75b9 05bd b2bc 93be d609 ee3c
00000350: 66c5 a73c 0600 43be 233b b6bc f1c3 3e3e
00000360: 6cf6 f43c 1b3e 653e 7cda 09bd 6e07 67be
00000370: 03c9 dfbd e838 a43d bf03 2ebe ad8d 823d
00000380: e3cf 1c3e 5bd4 013e d44f 1fbe 6387 04be
00000390: 9440 533d aa81 d4bd ab00 77bd ac3b 02bd
000003a0: 495d 47be ba6d 4e3c 5fd9 473e 89e3 49bc
000003b0: 2aac c5bd 54cb 1d3e ec63 c93d 7fb1 1ebe
000003c0: be09 0ebe f53c 133e 28c7 a23d 809c 1dbe
000003d0: 4fd0 1f3e 8bac c9bd 88ac 21be 0900 cb3d
000003e0: 58c0 f33d b7f9 ffbd dd28 f8bd edd1 013e
000003f0: 4852 9ebd 7c26 51bd 0a2c f53d e199 19bc

bias f4 [256]
0.02316133 0.029165627 -0.068120606 0.019572813 -0.0073921704 0.0 -0.051260814 -0.061134607
0.01872974 0.007007041 0.01482152 -0.010012888 0.01705651 -0.010543004 0.026409434 0.096894436
-0.012053188 0.013894832 0.017623914 0.022289444 0.014284604 0.023052836 0.017623276 -0.07235425
0.014420489 0.0074364566 0.23537762 0.008032423 0.016313864 -0.010467594 0.0 0.014924632
0.085564755 0.012578202 0.011796311 0.0 -0.03620709 0.0073475926 -0.06838279 0.0044174357
-0.017233629 -0.08683037 0.021435358 0.024164906 0.0024282672 0.008486457 0.0 -0.0069532585
0.0 0.008154869 0.033118326 0.0 -0.012727387 0.012633693 0.022012066 -0.053750236
0.01917196 0.040221848 0.014657937 0.015725512 0.048720673 0.013740381 0.0055736452 0.031850606
0.004570104 0.0155861685 0.022105496 0.021037426 0.024752455 0.009051103 0.0117390435 -0.0012658534
0.015706692 0.01192495 0.0 0.028582588 0.051225863 -0.012107943 0.01590652 0.053114206
0.02240079 0.026199365 0.0144964075 0.022836598 0.0 -0.009633964 -0.010627393 0.033547416
0.023988655 -0.008348535 0.009507872 0.0 0.01695023 0.011487861 0.012737017 -0.010716558
0.04233558 0.0300214 0.016072882 0.030843565 0.013338554 0.013243025 -0.011022201 0.055196755
0.02882068 -0.009079368 0.01579613 0.017765699 0.020516934 0.0 0.0053647663 0.017776664
0.09376044 0.02149216 0.02117434 0.01969466 -0.003803629 0.0 0.01075661 0.01543903
0.03393089 -0.009105957 0.020599302 0.014413552 0.02516049 0.014362933 0.023494735 0.0
0.003978155 0.013848131 0.027310904 -0.013389157 -0.007200805 -0.006454767 0.06276503 0.051662996
0.0 0.007994038 -0.01604569 -0.009167314 0.016914729 0.03454179 -0.009559459 0.0041232854
0.020213528 0.0378881 0.0 0.011095479 0.0 0.016430492 0.024524247 -0.010659369
-0.008104309 0.017713742 0.00676879 -0.069677815 0.058311515 0.01730199 0.021711761 0.024115551
0.27393442 0.023240067 0.0 -0.006360219 0.0058624437 0.007380609 0.0 0.013497552
0.0 0.03278048 -0.0073336386 0.033276413 0.0 0.021838294 0.038166538 0.11845015
0.015668131 0.010502518 -0.027138788 0.018707255 0.04326683 0.026281502 0.043148063 0.013810044
0.0043445686 -0.041012138 0.010289099 0.021569977 0.015664242 0.0 -0.012377996 0.0067922343
0.024892759 0.021131132 0.0041901777 -0.047202017 0.0178548 0.008847846 0.015037176 0.007637318
0.012361044 0.029017122 -0.008431425 0.00796184 0.0 0.02056382 0.0149139445 0.023592798
-0.00698735 -0.00545329 -0.07317972 0.019878646 0.020132301 0.0137934955 0.079083055 -0.0051262737
0.017404018 0.008037023 0.058869995 0.03158976 0.0050415467 0.012153562 0.041730966 -0.0094504105
0.002943418 0.017616535 -0.01872991 0.0 0.016641952 0.0 0.0 0.049168196
0.0 0.014256508 0.0068920297 0.019564122 0.016805457 0.0 0.09363533 0.022405151
0.02691872 0.000174608 0.19817881 0.004560977 -0.025018118 0.047411893 -0.112656906 0.019174896
0.0 0.0 -0.034167223 0.016697753 -0.036921177 0.03494637 0.0103648845 0.0065125036
00000000: d4bc bd3c c1ec ee3c d182 8bbd 2a57 a03c
00000010: 053a f2bb 0000 0000 dcf6 51bd 4868 7abd
00000020: 1d6f 993c 529b e53b f6d5 723c 190d 24bc
00000030: 18ba 8b3c 90bc 2cbc 9958 d83c 9770 c63d
00000040: bc7a 45bc 26a7 633c 0760 903c 5a98 b63c
00000050: f909 6a3c 4dd9 bc3c b05e 903c 772e 94bd
00000060: ea43 6c3c 85ad f33b d506 713e 6d9a 033c
00000070: a7a4 853c 4580 2bbc 0000 0000 7286 743c
00000080: 933c af3d ce14 4e3c 5045 413c 0000 0000
00000090: e34d 14bd 13c4 f03b 470c 8cbd 23c0 903b
000000a0: 8a2d 8dbc 1fd4 b1bd 3499 af3c 7bf5 c53c
000000b0: 9023 1f3b c80a 0b3c 0000 0000 29d8 e3bb
000000c0: 0000 0000 009c 053c 15a7 073d 0000 0000
000000d0: 8886 50bc 8dfd 4e3c a652 b43c 3529 5cbd
000000e0: 840e 9d3c aabf 243d d827 703c cad2 803c
000000f0: 548f 473d 561f 613c 20a3 b63b c875 023d
00000100: d0c0 953b 215d 7f3c 9616 b53c ae56 ac3c
00000110: a9c5 ca3c 144b 143c 1e55 403c feea a5ba
00000120: 52ab 803c de60 433c 0000 0000 0826 ea3c
00000130: 36d2 513d 6560 46bc 644e 823c 488e 593d
00000140: dd81 b73c 0da0 d63c 5782 6d3c d113 bb3c
00000150: 0000 0000 c6d7 1dbc 841e 2ebc 0469 093d
00000160: db83 c43c 4bc8 08bc e8c6 1b3c 0000 0000
00000170: 35db 8a3c 9537 3c3c ecae 503c 8194 2fbc
00000180: 1368 2d3d 70ef f53c 47ab 833c a5ab fc3c
00000190: f389 5a3c 46f9 583c 7696 34bc fe15 623d
000001a0: 5919 ec3c a1c1 14bc e366 813c 5f89 913c
000001b0: 2113 a83c 0000 0000 ecca af3b 5ea0 913c
000001c0: 7905 c03d 5410 b03c cf75 ad3c b256 a13c
000001d0: 4e46 79bb 0000 0000 7e3c 303c fcf3 7c3c
000001e0: 1efb 0a3d 2731 15bc debf a83c d226 6c3c
000001f0: 5f1d ce3c 8252 6b3c 0878 c03c 0000 0000
00000200: 2f5b 823b 45e3 623c 1ebb df3c 325e 5bbc
00000210: bbf4 ebbb 8382 d3bb f48a 803d 949c 533d
00000220: 0000 0000 6df9 023c 4072 83bc 8032 16bc
00000230: c290 8a3c b17b 0d3d 479f 1cbc a01c 873b
00000240: d796 a53c 8d30 1b3d 0000 0000 d0c9 353c
00000250: 0000 0000 3d99 863c 13e7 c83c a2a4 2ebc
00000260: f0c7 04bc 691c 913c bacc dd3b 3eb3 8ebd
00000270: 0ed8 6e3d e7bc 8d3c dddc b13c fa8d c53c
00000280: 2241 8c3e f461 be3c 0000 0000 6269 d0bb
00000290: be19 c03b 09d9 f13b 0000 0000 d624 5d3c
000002a0: 0000 0000 d344 063d 054f f0bb d94c 083d
000002b0: 0000 0000 39e6 b23c 8454 1c3d fe95 f23d
000002c0: 745a 803c c112 2c3c 2a52 debc f53f 993c
000002d0: 8f38 313d 4e4c d73c 06bc 303d 8643 623c
000002e0: e25c 8e3b 58fc 27bd 9c93 283c 85b3 b03c
000002f0: 4c52 803c 0000 0000 14cd 4abc 6491 de3b
00000300: e6eb cb3c 321b ad3c c24d 893b e756 41bd
00000310: 3b44 923c 8ef6 103c 7d5e 763c 7842 fa3b
00000320: fa85 4a3c 51b5 ed3c f623 0abc 6172 023c
00000330: 0000 0000 7575 a83c 9e59 743c af45 c13c
00000340: 24f6 e4bb 83b1 b2bb 40df 95bd 8bd8 a23c
00000350: 7fec a43c 1dfe 613c 4cf6 a13d 4dfa a7bb
00000360: df92 8e3c b8ad 033c aa21 713d 4464 013d
00000370: 8f33 a53b bc1f 473c 17ee 2a3d e5d5 1abc
00000380: 5ce6 403b 8d50 903c 786f 99bc 0000 0000
00000390: b454 883c 0000 0000 0000 0000 9764 493d
000003a0: 0000 0000 2194 693c 89d6 e13b f044 a03c
000003b0: 99ab 893c 0000 0000 e1c3 bf3d 028b b73c
000003c0: a684 dc3c fa16 3739 63ef 4a3e 4074 953b
000003d0: ccf2 ccbc f932 423d aab8 e6bd ac14 9d3c
000003e0: 0000 0000 0000 0000 eef2 0bbd bac9 883c
000003f0: a93a 17bd ed23 0f3d 7ad1 293c d766 d53b

weight f4 [256, 256]
-0.091382496 0.009420493 0.07374943 0.0020345442 0.13405767 0.11751121 0.01993994 0.12075075
0.06646694 -0.049603276 -0.11909727 -0.16475163 0.08341998 -0.18637022 -0.081994705 0.101580895
-2.5277991 -0.055427477 -0.12108796 0.02510951 0.024665104 0.10093836 -0.13597083 -0.02168076
0.042749684 0.11795451 0.16810735 -0.049555946 0.0514098 -0.27906767 0.022985436 0.007405248
0.105155356 -0.10718825 -0.037694827 -0.009360723 0.029697359 -0.075475395 -0.02166044 0.106125295
-0.1752807 -0.10845728 -0.12960497 0.11986336 -0.5442282 0.05175662 -0.07653902 0.065621234
-0.032466643 -0.08910702 0.04766549 0.04601147 0.28628471 0.016154693 -0.33157519 0.030716972
-0.012426409 0.023560911 -0.16500077 -0.1929553 -0.09437331 -0.031123038 0.009860739 -0.04720596
0.0552116 0.124964155 -0.30548942 -0.02533652 -0.004644618 -0.04873807 -0.04103704 0.033476632
0.07573708 0.027373325 -0.0027166111 -0.019973537 0.1285282 -0.0020887177 0.09247541 -0.027863825
-0.043684896 -0.02063368 0.024440741 -0.13684891 -0.10270047 0.037948795 0.11535063 -0.08446981
-0.059459575 -0.028254157 -0.20940551 -0.00024584308 -0.21400906 0.06967115 0.029829893 0.047824275
-0.019999985 -0.011250813 -0.09948199 0.17570469 0.04790931 0.05248315 -0.03881298 0.019003792
-0.0010590391 -0.022287913 0.07689245 -0.10456207 -0.017639915 -0.028815283 -0.010710113 0.044425227
0.087500535 -0.004139556 -0.05831154 -0.04740085 0.08046679 -0.06465626 -0.012537396 -0.033010792
0.0029071625 -0.30989763 -0.028398817 -0.110594735 0.11810215 -0.15099134 0.088358864 -0.061670396
0.040830586 -0.13549276 -0.14422327 0.0053526727 -0.01282307 0.38019168 0.006575871 0.040420115
-0.07434575 -0.00012959552 -0.052362736 0.03978848 -0.097495176 0.02724945 -0.9638061 -0.08060925
-0.0049847257 0.055688843 -0.05978308 -0.14131618 0.1090808 -0.004208497 -0.003288416 -1.6104198
-0.01644512 -0.04539041 0.087877445 0.015248647 0.05201835 -0.102810636 -0.18096514 0.18163577
0.230627 -0.108734876 -0.030654753 -0.4807746 0.070395246 -0.08411353 0.09985915 -0.23491491
0.042014066 0.05017951 0.44648856 0.03910347 -0.08843462 -0.08145427 -0.08338795 0.1162645
-0.10475076 0.04481042 0.13560739 0.0068647875 0.14576502 -0.0143888015 -0.00083940884 -0.10703901
-0.13051027 0.019185822 -0.02319707 -0.07850247 -0.27094445 0.002898465 0.11921134 0.01416596
-0.024239505 -0.020230636 -0.0010537629 -0.065285146 -0.18323852 -0.003173579 0.023839835 -0.0798386
0.07289821 -0.054123316 -0.27140492 -0.05078727 -0.032629214 -0.044628385 0.02891378 -0.122751944
-0.014738925 0.0054519884 -0.076045424 -0.06868719 0.07305472 -0.18121763 0.021239506 -0.021522457
0.06869596 0.034104776 0.05583282 -0.019979523 -0.10275093 -0.050872132 0.05526835 -3.2278938
-0.09472507 -0.223728 -0.030150317 0.1035215 0.017994361 -0.05383311 0.01908377 0.0583336
-0.07059648 0.04200415 -0.08978204 -0.060252488 -0.23676649 0.022460127 0.051779844 -0.114798166
-0.056589082 0.030782947 0.1024154 0.12824012 -0.7551232 0.117674574 0.022563322 -0.022590067
-0.0436467 0.02671707 -0.17900275 0.007345173 0.11246929 0.08912306 0.22155808 -0.044532683
00000000: bf26 bbbd 6958 1a3c f109 973d fd55 053b
00000010: 6a46 093e b8a9 f03d 1659 a33c 2b4c f73d
00000020: d21f 883d ce2c 4bbd 45e9 f3bd a7b4 28be
00000030: 18d8 aa3d d6d7 3ebe d7ec a7bd a509 d03d
00000040: 76c7 21c0 ec07 63bd f7fc f7bd 76b2 cd3c
00000050: 790e ca3c c5b8 ce3d f03b 0bbe d99b b1bc
00000060: 4b1a 2f3d 2292 f13d 5524 2c3e 2dfb 4abd
00000070: 1593 523d f5e1 8ebe f44b bc3c b9a7 f23b
00000080: b15b d73d 8385 dbbd e465 1abd b85d 19bc
00000090: e047 f33c d892 9abd 3c71 b1bc 3858 d93d
000000a0: c97c 33be da1e debd 2ab7 04be ec7a f53d
000000b0: 8a52 0bbf c0fe 533d 7dc0 9cbd 6d64 863d
000000c0: befb 04bd be7d b6bd e43c 433d 8676 3c3d
000000d0: e993 923e d956 843c 39c4 a9be 29a2 fb3c
000000e0: 2398 4bbc d002 c13c f6f5 28be 1396 45be
000000f0: cb46 c1bd bef5 febc f08e 213c 095b 41bd
00000100: 8f25 623d 35ed ff3d 1c69 9cbe 898e cfbc
00000110: e131 98bb 92a1 47bd 7516 28bd cb1e 093d
00000120: 0b1c 9b3d 063e e03c 2c09 32bb 8b9f a3bc
00000130: e59c 033e dee2 08bb bf63 bd3d ad42 e4bc
00000140: efee 32bd f707 a9bc f337 c83c 1f22 0cbe
00000150: a054 d2bd 3270 1b3d f33c ec3d 82fe acbd
00000160: e28b 73bd 4375 e7bc 666e 56be 80e4 80b9
00000170: 3125 5bbe bfaf 8e3d d25d f43c 63e3 433d
00000180: 02d7 a3bc 5455 38bc 37bd cbbd eeeb 333e
00000190: 8d3c 443d 92f8 563d 5cfa 1ebd d7ad 9b3c
000001a0: 75cf 8aba 2495 b6bc ca79 9d3d a324 d6bd
000001b0: 9581 90bc 070e ecbc 7879 2fbc 3af7 353d
000001c0: 7b33 b33d 1da5 87bb 15d8 6ebd 6527 42bd
000001d0: c6cb a43d 806a 84bd a669 4dbc 5336 07bd
000001e0: 1886 3e3b e7aa 9ebe a3a4 e8bc 7e7f e2bd
000001f0: 8adf f13d 799d 1abe 7ef5 b43d 199a 7cbd
00000200: f93d 273d 9dbe 0abe 44af 13be 7965 af3b
00000210: db17 52bc 7ca8 c23e 677a d73b 908f 253d
00000220: 9642 98bd 08e4 07b9 4f7a 56bd 3ff9 223d
00000230: 8dab c7bd 3d3a df3c ffbb 76bf 7616 a5bd
00000240: e956 a3bb fc19 643d 1adf 74bd 30b5 10be
00000250: c165 df3d 6ee7 89bb 7782 57bb 3c22 cebf
00000260: ebb7 86bc 4beb 39bd 17f9 b33d 76d5 793c
00000270: 3211 553d 628e d2bd ed4e 39be bafe 393e
00000280: 7c29 6c3e 64b0 debd ad1f fbbc 1728 f6be
00000290: 622b 903d b743 acbd f482 cc3d 898d 70be
000002a0: f116 2c3d 0889 4d3d 269a e43e f62a 203d
000002b0: 361d b5bd 7fd1 a6bd 4dc7 aabd 151c ee3d
000002c0: 9187 d6bd 228b 373d aadc 0a3e 03f2 e03b
000002d0: 6d43 153e 02bf 6bbc c60b 5cba 4537 dbbd
000002e0: 7ca4 05be 962b 9d3c c807 bebc e7c5 a0bd
000002f0: 3bb9 8abe 2cf4 3d3b 1325 f43d 5818 683c
00000300: ed91 c6bc b8ba a5bc 6a1e 8aba 38b4 85bd
00000310: e1a2 3bbe d2fb 4fbb c24b c33c 6b82 a3bd
00000320: a84b 953d 69b0 5dbd 96f5 8abe 5006 50bd
00000330: 36a6 05bd 41cc 36bd 97dc ec3c 5f65 fbbd
00000340: 887b 71bc 98a6 b23b b4bd 9bbd dfab 8cbd
00000350: b79d 953d 1d91 39be 79fe ad3c dd4f b0bc
00000360: 78b0 8c3d 73b1 0b3d f4b0 643d 19ac a3bc
00000370: 146f d2bd 4c5f 50bd 1161 623d d095 4ec0
00000380: 38ff c1bd f418 65be ccfd f6bc 1503 d43d
00000390: e968 933c 1b80 5cbd 9155 9c3c 37ef 6e3d
000003a0: e394 90bd 8b0c 2c3d a5df b7bd 50cb 76bd
000003b0: ea72 72be 4dfe b73c 1a17 543d 4d1b ebbd
000003c0: f4c9 67bd 852c fc3c 2abf d13d 6151 033e
000003d0: c14f 41bf 5eff f03d b7d6 b83c ce0e b9bc
000003e0: e2c6 32bd c2dd da3c 7f4c 37be c7af f03b
000003f0: 4d56 e63d 2786 b63d 1fe0 623e e767 36bd

bias f4 [256]
0.05271907 0.043421503 0.016005354 0.07340638 0.052280374 0.035672717 0.08361204 0.048446793
0.06551856 0.047796763 -0.011662525 0.08262455 0.05629877 0.05774351 0.092028916 0.074496135
0.07908985 -0.016062345 -0.028586026 -0.008428994 0.05472946 0.078182146 0.12165913 0.044231083
-0.03699102 0.052784532 0.08295641 -0.01398338 0.09666575 0.084520884 0.0 0.09107115
0.061702624 -0.033935003 0.033625573 0.04638807 0.10687249 -0.0064620026 -0.008991702 0.08433605
0.039453283 0.09692747 0.029096711 0.03830119 0.064385824 -0.005772829 0.04805779 -0.04080842
0.041310254 0.09233213 0.06976719 0.039000418 0.05444874 0.04448606 0.053968273 0.06873428
-0.0133988885 0.06218283 0.0019775855 0.08730506 0.061089125 -0.0076283948 0.032692436 0.052116007
0.07872449 0.051041435 0.0386555 0.032529444 -0.031610854 0.09771842 0.07926018 0.055226877
0.028183991 0.06136855 0.07600317 -0.16777611 0.047157973 0.061577946 0.037258074 0.04951264
0.056957148 0.04487389 0.053731926 0.07814465 0.051701106 0.07500064 -0.013860752 0.11784402
-0.0077684056 0.090200104 -0.010190839 0.03898608 0.090545304 -0.012920251 0.039936606 0.056928694
-0.018499007 0.070210755 0.0753 -0.0084704 0.0750217 0.08587917 0.06658318 -0.010506934
0.034665596 0.06978192 0.0 0.086297795 0.06540153 0.05289398 0.023378396 -0.013268145
0.047768768 -0.02876309 0.07777403 0.052725457 0.04525588 0.08974466 -0.019422539 0.06341364
0.060064312 -0.009499084 0.07296015 0.061315894 -0.008410025 -0.010465763 0.0872351 0.09223375
-0.0073349033 0.056743253 0.077130884 -0.021525344 0.079222485 -0.033774048 0.0814941 0.05155371
0.0 0.036833394 0.058132995 0.102198295 0.09466697 0.11376868 -0.008988924 0.049345095
0.074881546 -0.007902693 0.102479376 0.0580333 0.054332588 -0.010352575 0.08948786 0.06047204
0.07128434 0.06642923 0.09698726 0.038498208 0.08291565 0.05351347 0.07622557 0.0935297
0.062146567 0.080492824 -0.014112661 -0.01690507 -0.027984874 0.0745955 0.08487338 0.039288983
0.05877381 -0.0071834126 0.035029333 0.054137763 0.047180258 0.07280864 -0.007674885 -0.01089047
0.08747258 0.021930087 -0.008210656 -0.010989339 0.052914545 0.09245456 0.06979774 0.0821363
0.070731014 0.04224786 0.06646812 0.063749306 0.047878526 -0.03684756 0.073727205 0.04676359
0.043129686 0.080041714 0.073195405 0.08582983 0.0563865 -0.01222689 -0.03169361 -0.007590022
0.039253708 0.054770928 0.06545545 -0.023939032 0.031372868 -0.008022921 0.06808402 0.04644187
0.051750515 -0.0060055046 0.06433783 0.094739646 0.045407053 0.062028587 0.086925715 -0.008363334
0.07851906 -0.015380506 0.046596095 0.058230903 -0.030959269 0.0 0.101799026 0.07892708
0.0645625 0.08416705 -0.03952606 -0.029527508 -0.006841965 0.05535048 -0.012981757 0.082995676
-0.011475624 -0.00830873 0.074910745 0.055037074 0.07488208 0.10102049 0.06525429 0.08513571
0.1136301 0.053938735 0.06264327 0.0666309 0.06454244 0.08453478 0.025898669 0.04740057
0.056468014 0.02624519 0.077057615 0.087900855 -0.015404225 0.08443588 0.058979176 0.04165775
00000000: f4ef 573d bfda 313d a91d 833c 1656 963d
00000010: f223 563d 8e1d 123d ca3c ab3d 2570 463d
00000020: 982e 863d 8ac6 433d 2d14 3fbc 0f37 a93d
00000030: 8a99 663d 7584 6c3d a879 bc3d 6e91 983d
00000040: dcf9 a13d 2e95 83bc 3e2d eabc c319 0abc
00000050: 002c 603d f61d a03d 6c28 f93d a72b 353d
00000060: e583 17bd 9834 583d 0de5 a93d 8c1a 65bc
00000070: b1f8 c53d 4919 ad3d 0000 0000 8383 ba3d
00000080: e4bb 7c3d 6eff 0abd f8ba 093d 6b01 3e3d
00000090: f7df da3d 35bf d3bb ef51 13bc 61b8 ac3d
000000a0: c499 213d e981 c63d 3a5c ee3c b5e1 1c3d
000000b0: b7dc 833d 002a bdbb 3fd8 443d bb26 27bd
000000c0: f134 293d a118 bd3d 1ae2 8e3d e7be 1f3d
000000d0: a405 5f3d 0437 363d d60d 5d3d 8fc4 8c3d
000000e0: 0387 5bbc 6cb3 7e3d 619a 013b ffcc b23d
000000f0: 9738 7a3d 9df7 f9bb 81e8 053d 9877 553d
00000100: 4e3a a13d d310 513d 3b55 1e3d 983d 053d
00000110: 627a 01bd 9820 c83d 2953 a23d 9435 623d
00000120: 1de2 e63c 975d 7b3d 8da7 9b3d 80cd 2bbe
00000130: b828 413d 2839 7c3d ec9b 183d c4cd 4a3d
00000140: e64b 693d afcd 373d 0216 5c3d 4d0a a03d
00000150: 8ac4 533d ef99 993d 3518 63bc 3558 f13d
00000160: 1c8e febb d5ba b83d 7af7 26bc deaf 1f3d
00000170: d16f b93d 76af 53bc 9194 233d 102e 693d
00000180: 3b8b 97bc a8ca 8f3d e336 9a3d 6fc7 0abc
00000190: faa4 993d 6be1 af3d c35c 883d 4625 2cbc
000001a0: 83fd 0d3d d3e9 8e3d 0000 0000 e6bc b03d
000001b0: 3df1 853d 5ca7 583d 0d84 bf3c a262 59bc
000001c0: 2fa9 433d 92a0 ebbc fe47 9f3d a6f6 573d
000001d0: 3b5e 393d 0ccc b73d 041c 9fbc 03df 813d
000001e0: ff05 763d 0ca2 1bbc 226c 953d 6026 7b3d
000001f0: 34ca 09bc 9778 2bbc 51a8 b23d 0ce5 bc3d
00000200: a159 f0bb 9d6b 683d ccf6 9d3d eb55 b0bc
00000210: 663f a23d a856 0abd 61e6 a63d fc29 533d
00000220: 0000 0000 9dde 163d dd1c 6e3d 574d d13d
00000230: c2e0 c13d 8eff e83d 4846 13bc 151e 4a3d
00000240: 7f5b 993d 4c7a 01bc b5e0 d13d 53b4 6d3d
00000250: d98b 5e3d d99d 29bc 6945 b73d 88b1 773d
00000260: 86fd 913d 0c0c 883d 42a1 c63d 4cb0 1d3d
00000270: aecf a93d f130 5b3d 271c 9c3d 808c bf3d
00000280: 668d 7e3d 6cd9 a43d ca38 67bc 807c 8abc
00000290: 8940 e5bc 87c5 983d 18d2 ad3d 7ced 203d
000002a0: cebc 703d d562 ebbb eb7a 0f3d 8fbf 5d3d
000002b0: 1640 413d b21c 953d 9a7d fbbb f16d 32bc
000002c0: d324 b33d baa6 b33c fd85 06bc a10c 34bc
000002d0: ecbc 583d d158 bd3d 1ef2 8e3d 1437 a83d
000002e0: 6cdb 903d 180c 2d3d 7020 883d ff8e 823d
000002f0: 461c 443d 78ed 16bd 4afe 963d 2e8b 3f3d
00000300: c1a8 303d e9ec a33d 79e7 953d 8dc7 af3d
00000310: 88f5 663d 4b53 48bc 29d1 01bd b8b5 f8bb
00000320: 7fc8 203d 7b57 603d 820d 863d ca1b c4bc
00000330: d680 003d 9272 03bc a26f 8b3d d539 3e3d
00000340: 59f8 533d d3c9 c4bb 8dc3 833d dc06 c23d
00000350: bffc 393d b011 7e3d 1c06 b23d 5e06 09bc
00000360: 9ace a03d 85fe 7bbc 8cdb 3e3d 8783 6e3d
00000370: 4b9e fdbc 0000 0000 027c d03d 85a4 a13d
00000380: 5839 843d c65f ac3d 14e6 21bd ace3 f1bc
00000390: 9032 e0bb 2fb7 623d 6fb1 54bc a3f9 a93d
000003a0: 4104 3cbc 5721 08bc ce6a 993d 8e6e 613d
000003b0: c75b 993d d5e3 ce3d 0ba4 853d a25b ae3d
000003c0: e6b6 e83d ddee 5c3d 1d4b 803d c875 883d
000003d0: d42e 843d 9220 ad3d 7229 d43c 1a27 423d
000003e0: 014b 673d 2700 d73c 62d0 9d3d 5d05 b43d
000003f0: 0162 7cbc b8ec ac3d 2694 713d 51a1 2a3d

weight f4 [2, 256]
-0.30318075 -0.27913934 -0.26346296 0.19524719 -0.23492973 -0.23190406 0.08730444 -0.3086892
0.11078208 0.029301401 -0.04847779 0.18820769 -0.22073011 0.27692923 0.15011601 0.07658751
0.1361423 -0.05224997 -0.036743164 -0.020794684 -0.27678823 -0.5597292 -0.2095062 -0.14977749
-0.08287234 -0.2685818 0.24126408 -0.023871731 0.11533504 0.20383346 -0.16118027 0.25114292
-0.3448774 -0.05927591 -0.30338067 -0.08653463 0.0086196 -0.0894021 -0.05609971 0.13384882
-0.32116744 0.28921604 -0.123112895 -0.21472354 -0.13163938 0.013248008 -0.048476562 0.005547688
-0.29339117 0.21965566 0.28696218 0.039110593 -0.015345902 -0.42322516 -0.18220621 0.3335708
-0.09765587 0.11996127 1.1472086 0.36150604 -0.073441885 0.042309806 -0.27134487 0.14642337
0.0821221 -0.23660758 -0.21533614 -0.27080873 -0.06250709 0.32263172 0.26620612 -0.12245423
-0.24252248 0.051032566 0.14886768 0.7384728 0.088705815 -0.22182298 -0.1315941 -0.0012495135
-0.22409186 -0.3441423 0.23515497 0.08352536 -0.11433808 0.2727556 -0.040542215 0.2460947
-0.01470841 0.19679911 -0.0021140447 -0.1689361 -0.673055 -0.012008609 -0.14210738 -0.23009905
-0.056114994 -0.17350097 0.3301713 -0.041542605 0.39857414 0.1466159 0.06921929 -0.08877488
-0.109517924 -0.31349963 -0.037285253 0.1683527 0.06937373 -0.2600563 -0.21398753 0.028439421
-0.24429835 -0.043133117 0.19011201 -0.21354048 -0.14514332 0.24237098 0.009841728 -0.21170942
0.26206148 -0.029746348 0.21186563 0.044009708 0.08167533 0.09225339 0.14922796 0.16217937
0.037113972 -0.01888309 0.18397921 -0.11738002 0.21104224 0.03011176 0.21739256 -0.3244928
0.087818384 -0.31302407 -0.18193443 0.28293988 -0.75028616 0.2538356 -0.0035636432 -0.26886815
0.22068273 -0.07409501 0.15702875 0.22448172 -0.084894896 -0.073598444 0.2500474 -0.42118984
0.20750082 0.33659536 0.294825 -0.22249109 0.23035353 -0.23965733 0.16303542 0.28161648
-0.2099463 0.22724687 -0.0036704398 -0.037497003 0.06611289 0.18654925 0.38500974 -0.28460622
-0.15471119 -0.029907547 -0.2569778 -0.2252985 -0.0027530843 0.36520642 0.02314551 -0.012898053
0.12607054 -0.21134679 -0.020283766 -0.020309918 -0.23204498 0.30253884 -0.37294108 0.25311896
0.23270217 -0.24261726 0.116908655 0.12301778 -0.13783789 -0.0901286 0.28146687 -0.56583834
-0.14180893 0.22002776 -0.5229199 0.25339606 -0.25628856 -0.028397799 -0.027934905 -0.0676139
-0.14767212 -0.19230857 0.2814916 0.036317956 -0.23681755 -0.034246027 0.1368367 -0.20010428
-0.32257318 -0.018319076 -0.2589657 0.20398593 -0.21342878 -0.055114217 0.34765983 0.008621865
0.24423316 -0.023177141 -0.12916574 -0.23480847 0.0105831465 -0.010585959 0.25626454 0.016420439
-0.4243474 0.06325678 -0.014893545 0.04991937 -0.006946103 -0.20388342 -0.049113322 0.20336868
0.06123128 -0.04452206 0.14439346 -0.23970988 0.2367189 0.17827691 -0.014488086 0.20369564
-0.15166964 -0.09673043 -0.34697157 -0.37985078 0.09731244 0.14024618 -0.24505633 -0.097835205
0.11390358 -0.20865855 0.24934728 0.13187678 0.012538729 0.26371816 0.122816965 -0.3007039
00000000: 823a 9bbe 5aeb 8ebe 9ee4 86be e1ee 473e
00000010: 6b91 70be 4278 6dbe accc b23d 830c 9ebe
00000020: b7e1 e23d 7e09 f03c a690 46bd 84b9 403e
00000030: 1307 62be abc9 8d3e 03b8 193e ead9 9c3d
00000040: e368 0b3e 1104 56bd 0080 16bd 9d59 aabc
00000050: 30b7 8dbe 6a4a 0fbf cb88 56be 455f 19be
00000060: f9b8 a9bd 8e83 89be ee0d 773e a68e c3bc
00000070: c734 ec3d b8b9 503e 710c 25be ce95 803e
00000080: c593 b0be 4ccb 72bd b654 9bbe 1139 b1bd
00000090: 3939 0d3c 7318 b7bd cfc8 65bd aa0f 093e
000000a0: 0f70 a4be 2014 943e 9d22 fcbd 7de0 5bbe
000000b0: 79cc 06be 2c0e 593c 5c8f 46bd 61c9 b53b
000000c0: 5e37 96be 6aed 603e b5ec 923e 6e32 203d
000000d0: 616d 7bbc f8b0 d8be 4494 3abe cbc9 aa3e
000000e0: cdff c7bd 41ae f53d bbd7 923f 5217 b93e
000000f0: b368 96bd 0c4d 2d3d b7ed 8abe 02f0 153e
00000100: a22f a83d 4249 72be 1481 5cbe 71a7 8abe
00000110: b803 80bd fc2f a53e 2b4c 883e 49c9 fabd
00000120: d057 78be 8607 513d c570 183e 8e0c 3d3f
00000130: 65ab b53d 9025 63be 9bc0 06be b7c6 a3ba
00000140: 5678 65be 6b33 b0be 77cc 703e 580f ab3d
00000150: 152a eabd 9fa6 8b3e 980f 26bd 4000 7c3e
00000160: 8bfb 70bc b585 493e c98b 0abb 96fd 2cbe
00000170: 554d 2cbf c2bf 44bc 9984 11be 169f 6bbe
00000180: d6d8 65bd 3daa 31be 360c a93e 9428 2abd
00000190: e911 cc3e 7a22 163e d8c2 8d3d 9bcf b5bd
000001a0: ef4a e0bd 0683 a0be 6cb8 18bd a664 2c3e
000001b0: d013 8e3d 1926 85be 8c1f 5bbe caf9 e83c
000001c0: 5929 7abe 5aac 30bd b9ac 423e 5baa 5abe
000001d0: 73a0 14be 1930 783e 333f 213c 5bca 58be
000001e0: ec2c 863e 9dae f3bc 4ef3 583e 8643 343d
000001f0: 6545 a73d 58ef bc3d 37cf 183e 5912 263e
00000200: d204 183d b6b0 9abc 0c65 3c3e f064 f0bd
00000210: 751b 583e f0ac f63c 289c 5e3e ec23 a6be
00000220: 20da b33d b144 a0be 054d 3abe 7fdd 903e
00000230: c112 40bf bdf6 813e 038c 69bb 16a9 89be
00000240: a7fa 613e 20bf 97bd 25cc 203e 89de 653e
00000250: 60dd adbd c8ba 96bd 3606 803e 32a6 d7be
00000260: 187b 543e 3a56 ac3e 4df3 963e b4d4 63be
00000270: cce1 6b3e bb68 75be c2f2 263e 0930 903e
00000280: 2afc 56be 67b3 683e c38b 70bb 7596 19bd
00000290: 3266 873d c406 3f3e ff1f c53e e8b7 91be
000002a0: 9c6c 1ebe ac00 f5bc 9892 83be a6b4 66be
000002b0: 176d 34bb 56fc ba3e a79b bd3c 5b52 53bc
000002c0: a318 013e 4b6b 58be 242a a6bc fc60 a6bc
000002d0: 339d 6dbe 5fe6 9a3e 22f2 bebe cf98 813e
000002e0: 7a49 6e3e a970 78be ce6d ef3d bff0 fb3d
000002f0: 6025 0dbe 5895 b8bd 6d1c 903e c8da 10bf
00000300: 5c36 11be f54e 613e 14de 05bf 21bd 813e
00000310: 4138 83be 80a2 e8bc bed7 e4bc 2879 8abd
00000320: 5c37 17be 8aec 44be ab1f 903e 23c2 143d
00000330: 4d80 72be 9045 0cbd eb1e 0c3e 23e8 4cbe
00000340: 5028 a5be e311 96bc 2797 84be b0e1 503e
00000350: 138d 5abe 72bf 61bd 7800 b23e b942 0d3c
00000360: 4218 7a3e fddd bdbc 0644 04be a271 70be
00000370: ef64 2d3c bb70 2dbc 1b35 833e 2884 863c
00000380: 1044 d9be c58c 813d 0e04 74bc 4178 4c3d
00000390: 239c e3bb d1c6 50be 0d2b 49bd e13f 503e
000003a0: a7cd 7a3d c35c 36bd e1db 133e 8276 75be
000003b0: 7066 723e 398e 363e 705f 6dbc 9795 503e
000003c0: 494f 1bbe 9b1a c6bd 42a6 b1be cd7b c2be
000003d0: bf4b c73d b29c 0f3e 0cf0 7abe d35d c8bd
000003e0: 4846 e93d 96aa 55be e554 7f3e b50a 073e
000003f0: 3e6f 4d3c 1106 873e 7687 fb3d ddf5 99be

bias f4 [2]
0.04580446 0.024030171
00000000: 759d 3b3d ecda c43c
