exp_local/gcbc_changing/weights/22000.pt (torch, 274440 bytes, 6 tensors)

weight f4 [256, 4]
000000 60 bf 08 be 77 77 2e be 73 36 fc 3d 03 01 29 3e
       -0.13354254 -0.1703776 0.12315073 0.16504292
000010 32 d6 4a 3d 2a a4 4f 3e d6 53 49 be 4b 1b 55 bd
       0.04952068 0.20277467 -0.19660887 -0.05202798
000020 08 53 87 bd 70 6e a3 3d 4a c3 3d 3e de 15 49 bd
       -0.06607634 0.07980049 0.18531528 -0.04909312
000030 1c 17 06 3e 74 cd 1f 3e 3e 1b 05 be 4e 2a 22 be
       0.13094753 0.15605718 -0.12998673 -0.1583645
000040 22 57 35 3c a6 71 a4 bd d5 eb c3 bd dd f4 bd bb
       0.011068137 -0.08029489 -0.09566466 -0.0057970122
000050 43 24 d8 bd 9f a0 d9 bc eb 4e 9f bc c2 ed 5a bd
       -0.105537914 -0.026565848 -0.01944681 -0.0534494
000060 bb a7 69 be ad ba 07 3c de 7e 3d 3e ee 3b 4b 3c
       -0.2281789 0.008284253 0.18505427 0.012404425
000070 4d c6 d0 3c c1 0e 8b bd 08 be 0e 3e 3e 90 c8 3c
       0.025485182 -0.067899235 0.13939679 0.024482843
000080 ab 6f 92 bd 53 e5 4d be c7 6f 90 3d 46 ac 4f 3e
       -0.07150205 -0.20107011 0.0705257 0.20280561
000090 3c 19 69 3e ed 06 f3 3d da 25 68 be f9 15 f4 bd
       0.22763532 0.11866555 -0.22670689 -0.119182535
0000a0 0e 62 c8 bd 1e 01 3d 3e 0d fb c1 3d da be 39 be
       -0.097843274 0.18457457 0.09471712 -0.1813921
0000b0 bd 77 66 3e 17 f6 26 3c 85 d3 3d be d9 b5 82 bc
       0.22506614 0.010190508 -0.1853772 -0.015955852
0000c0 eb 95 55 3e 9e 27 e2 bd 71 49 4d be b8 2f dc 3d
       0.2085797 -0.11042713 -0.20047547 0.10751289
0000d0 bd 07 6d bd 80 dd 90 3e 28 14 51 3d 35 f3 75 be
       -0.057868708 0.2829399 0.051044613 -0.24018557
0000e0 f8 5b 35 bd 97 0a 88 3d 03 6b 62 3d a7 5f 38 be
       -0.04427716 0.06642645 0.055277836 -0.18005238
0000f0 64 97 d5 be b9 aa 43 bc 11 e9 37 3d 55 b0 e0 bd
       -0.41717064 -0.011942559 0.044900004 -0.10971133
000100 2a 44 91 be ab ca d6 3b 04 e0 91 3e f7 19 cd bb
       -0.28372318 0.0065549216 0.28491223 -0.0062591988
000110 c8 76 65 3d 3d e1 46 3e ea 4f 64 bd c0 ad 48 be
       0.05602148 0.19421859 -0.055740274 -0.1959753
000120 1b 8e 36 bc 83 8b 5c 3e ea 8f 12 3c 41 6d 5d be
       -0.011142279 0.21537594 0.008945445 -0.21623708
000130 2f 91 90 bd 18 30 5b be d7 76 84 3d eb ce 3c 3e
       -0.070589416 -0.21405065 0.064679794 0.18438308
000140 8f eb bd 3d ff c2 3d 3e d7 25 be bd e4 1d 41 be
       0.09273445 0.18531416 -0.09284561 -0.18859059
000150 47 74 46 3e 0a ce bb 3d 43 a5 53 be 4d 3e c9 bd
       0.19380294 0.09170158 -0.20668511 -0.09826336
000160 29 8f 3d 3e a0 ed f1 3d 50 95 4c be 00 d8 0d be
       0.18511643 0.118129015 -0.19978833 -0.13851929
000170 69 a7 01 3e e5 16 17 3e b4 a6 39 be 6b 3d ea bd
       0.12661518 0.14754827 -0.18129998 -0.11437496
000180 2e ea e7 3c 93 77 74 be 44 25 e2 bc 8c 95 73 3e
       0.028309908 -0.23873739 -0.02760566 0.23787516
000190 6a 33 f2 bd b9 22 6f 3e a2 09 f3 3d af da 6c be
       -0.11826213 0.2335309 0.11867072 -0.23130296
0001a0 31 fc 93 3c 3f 9a 29 be 4b c3 7e bc c7 d6 6a 3e
       0.01806459 -0.16562746 -0.015549491 0.22933494
0001b0 8e 65 42 3e 5a 7b 94 3d ec 97 30 be 4b 27 84 bd
       0.18984053 0.0725009 -0.17245454 -0.06452807
0001c0 cf ea df 3d b0 11 40 be 6d 24 de bd 79 bb 3f 3e
       0.10933458 -0.18756747 -0.108467914 0.18723859
0001d0 17 e8 a4 bd 72 4f 94 3e aa 5e 9f 3d 76 b0 94 be
       -0.0805208 0.28966862 0.077817276 -0.2904088
0001e0 18 0a 9a bd 1a 71 05 be a6 c8 82 3b 9e 5a 0b bd
       -0.075214565 -0.13031426 0.0039912043 -0.034021966
0001f0 7c 5f 1f 3e 62 1d 02 3e 1f 49 1f be f6 16 07 be
       0.15563768 0.12706521 -0.15555237 -0.13192353
000200 b0 7a 29 bf 15 0c 29 3d 08 dd 8b 3d f9 47 89 bd
       -0.6620283 0.041271288 0.06829268 -0.06703181
000210 d8 b0 39 be 82 2e a8 3d ee 4a 3f 3e 5b 35 a7 bd
       -0.18133867 0.08211996 0.18680927 -0.081644736
000220 bd a0 e5 3d 6b 80 0a be 3d 23 e0 bd 73 5b 07 3e
       0.11212299 -0.1352555 -0.10944221 0.13218479
000230 fb 38 c0 bd 47 be 59 bd cd bd 1b bc 73 41 a0 bc
       -0.09385868 -0.05315998 -0.009505701 -0.019562459
000240 c7 7e 2f be 54 15 b1 be c9 7a 0f 3e dc e1 17 be
       -0.17138205 -0.34586585 0.14011683 -0.14832252
000250 f6 62 40 3e 85 5d bc bd e8 98 43 be ad 2c b8 3d
       0.1878775 -0.09197525 -0.19101298 0.08992896
000260 9e 19 fa 3c 8f 65 81 3c af f8 00 3d ff d5 0d bd
       0.030529793 0.015795497 0.031487163 -0.03462791
000270 61 e8 3d 3e ba 3e 05 be 0d 00 45 be 34 58 03 3e
       0.18545677 -0.1301221 -0.192383 0.12826616
000280 65 0b 88 3d c0 e0 53 3e fd b6 97 3a b8 4e 53 be
       0.06642798 0.20691204 0.001157492 -0.20635498
000290 cb 85 29 3e f9 cc 83 bd 4c 90 2e 3d f0 51 82 bd
       0.16554944 -0.0643558 0.04261808 -0.063632846
0002a0 7d a2 f8 3d 61 f1 54 3e a5 1e fb bd f1 2e 57 be
       0.12140367 0.20795204 -0.12261704 -0.21014
0002b0 77 ba 00 be 25 96 37 be a8 9f cc 3d ca 0a 24 3e
       -0.1257113 -0.1792837 0.099913895 0.1601974
0002c0 83 33 34 be 49 1c 91 3e 12 f1 42 3e 46 62 c3 be
       -0.17597775 0.28341892 0.19037274 -0.38160914
0002d0 a1 0e 6c 3e e4 c4 21 bd 70 5f 80 be 6a 11 f0 3c
       0.23052455 -0.03949441 -0.25072813 0.029305179
0002e0 1a 42 37 3b fc a2 82 bd 9e e9 9f bd 77 20 51 bd
       0.0027962984 -0.06378743 -0.07808231 -0.05105635
0002f0 00 60 29 3e 17 3e 41 3e 36 22 22 be ce f6 41 be
       0.16540527 0.18871342 -0.15833363 -0.18941805
000300 01 2c b2 bd ff 00 f4 bb 98 8f 96 bd 24 68 5c bd
       -0.08699799 -0.007446408 -0.07351607 -0.053810254
000310 3e f3 eb bc c3 bf 7c be 54 02 a7 3c 3b 6e 6d 3e
       -0.02880251 -0.24682526 0.020386852 0.23186581
000320 6a 08 03 3e fc 02 ee bd 8f fa fc bd e5 29 cd 3d
       0.12796178 -0.11621663 -0.12352478 0.100177564
000330 b2 3c 5c bd 62 40 21 bd 09 93 76 bd 61 53 9b bd
       -0.05376882 -0.03936804 -0.060198817 -0.07584263
000340 7b a0 b0 3e 17 f4 e4 bc db 37 b0 be f5 e6 c8 3c
       0.34497437 -0.027948422 -0.34417614 0.024524191
000350 45 ab bd 3c 21 14 5f be 6f 7b b1 bc bf 2a 5e 3e
       0.023152957 -0.21785022 -0.021665303 0.21695994
000360 5c 01 f9 3c c5 64 7b 3e d2 87 03 bd e4 af 7d be
       0.030396156 0.2455016 -0.03211195 -0.24774128
000370 2d 29 b5 bd 9a 8b 03 3e 3c 6e a1 be cc d5 86 3d
       -0.08845744 0.12846223 -0.31529415 0.06583747
000380 79 5b 2d 3e 60 32 12 3e 52 40 2d be d1 0b 16 be
       0.16929425 0.14277029 -0.16919068 -0.14652945
000390 8d 1d 0e 3d 8e d2 a4 be c4 81 02 be 52 6c d6 bc
       0.03469615 -0.3219189 -0.12744814 -0.026174698
0003a0 ac ab 5d be 84 65 8f 39 dc 1d 5d 3e a4 7f 72 3a
       -0.21647519 0.0002735072 0.21593422 0.00092505873
0003b0 63 0f d8 bd 89 f8 38 3e c5 be d4 3d ba 85 3a be
       -0.1054981 0.18063559 0.10387949 -0.18215075
0003c0 ca 3a 2a be 44 35 23 3e 84 83 9c 3d 28 1e 31 be
       -0.16623989 0.15938288 0.07642272 -0.1729666
0003d0 fc 33 36 3e 3c ef de bd 25 53 2f be 38 50 d8 3d
       0.17793268 -0.10885474 -0.17121561 0.105621755
0003e0 45 15 1b 3e 70 a8 16 be 7e 39 21 be 57 17 16 3e
       0.15144832 -0.14712691 -0.15744588 0.14657341
0003f0 92 7e c7 bd d6 0b 9c bd a1 df ed 3d 45 ae 03 bd
       -0.09740938 -0.07619445 0.116149195 -0.03214862

bias f4 [256]
000000 c7 6c bf 3c da 5c ad 3c c7 89 d4 bd 16 75 73 3c
       0.023367299 0.02116244 -0.103778414 0.014859458
000010 05 3a f2 bb 00 00 00 00 a0 16 af bd 7e 03 b1 bd
       -0.0073921704 0.0 -0.08549237 -0.08643244
000020 38 b6 8f 3c 60 2e a6 3b d0 f7 60 3c 09 ce 0b bc
       0.017542943 0.0050714463 0.013730958 -0.008533009
000030 91 25 04 3c 7f ef 75 bc 7b 50 81 3d d6 61 12 3e
       0.008065597 -0.015010714 0.063141786 0.14295134
000040 cc 49 69 bc 91 10 6a 3c 33 7f 6f 3c 77 3b c7 3c
       -0.014238786 0.014286176 0.014617729 0.024320347
000050 35 f6 81 3c 0c 3b 45 3c 47 ad af 3c 18 ab d4 bd
       0.015864471 0.012038004 0.02144493 -0.10384196
000060 39 6b 92 3c a3 82 72 3a 19 92 83 3e cd b3 2d bb
       0.017873393 0.0009251034 0.256974 -0.0026504875
000070 9a da 7d 3c 6f ef 5e bc 00 00 00 00 2d ad 84 3c
       0.015494013 -0.01360689 0.0 0.016195858
000080 46 ae ac 3d bd 34 60 3c 17 05 2a 3c 00 00 00 00
       0.084316775 0.013684449 0.01037719 0.0
000090 9e e7 19 3d 36 24 f4 3b 47 0c 8c bd 0b db d6 3b
       0.037574403 0.0074506057 -0.06838279 0.0065568737
0000a0 f4 cb 77 bc 65 2d 02 be bc 29 95 3c ca d1 1c 3d
       -0.01512431 -0.12712629 0.018208377 0.038286008
0000b0 39 08 a3 bb 4a ea 9c 3c 00 00 00 00 d3 18 6b bc
       -0.0049753455 0.019154686 0.0 -0.01434918
0000c0 00 00 00 00 44 88 43 3c 71 6d bb 3c 00 00 00 00
       0.0 0.011934344 0.022879334 0.0
0000d0 6b c1 7d bc 2f c5 78 3c 8e 94 8d 3c ab 8d f4 bc
       -0.015488009 0.015183731 0.01728275 -0.029852709
0000e0 cd 6c 86 3c b3 04 f9 3d ed 07 78 3c 0b c9 85 3c
       0.016409302 0.121590994 0.015138608 0.016331216
0000f0 2e 96 8f 3d ad 4b 0f 3c 04 eb 81 3b 8f 4e 75 3d
       0.070110664 0.00874607 0.0039647836 0.059889372
000100 9f 23 11 3c 57 9c 92 3c 37 2e 63 3c 93 14 aa 3c
       0.00885859 0.017896814 0.013865999 0.020761764
000110 be d8 a3 3c b2 be a8 3b 04 17 bc 3c 01 1b 9e 3b
       0.020000812 0.005149686 0.022960193 0.0048249965
000120 0f fe 42 3c 59 57 87 3c 00 00 00 00 34 88 9b 3c
       0.011901393 0.016521143 0.0 0.018985845
000130 12 07 49 3c c4 ef 80 bc 93 73 41 3c 06 53 0a 3d
       0.012269752 -0.01573933 0.01180734 0.033770584
000140 c6 4d a2 3c 7d e3 0b 3d cb a1 07 3d ed de a1 3c
       0.019812476 0.034152497 0.033113282 0.01975962
000150 00 00 00 00 22 c1 23 bc df 3b 74 bc cb f6 0e 3d
       0.0 -0.009994777 -0.0149068525 0.03490333
000160 7c 72 d5 3c 0e 76 52 bb 62 2f 30 3c 00 00 00 00
       0.026055567 -0.0032113823 0.010753484 0.0
000170 bb 04 88 3c 1d e1 76 3b eb 5a 6c 3c 81 94 2f bc
       0.016603818 0.00376708 0.014425973 -0.010716558
000180 da 2d 59 3d 6d 2d c7 3c 32 ef 7a 3c 2b e1 7c 3c
       0.053022243 0.024313653 0.015315818 0.015434544
000190 18 27 7b 3c bc 6e 5d 3c e7 e6 32 bc 7a af 84 3d
       0.015329145 0.013515171 -0.010919309 0.06478782
0001a0 a6 ba 5b 3c c4 34 48 bc 81 e5 96 3c 6a a7 7b 3c
       0.0134112 -0.012219612 0.018419983 0.015359739
0001b0 1e 1e 8b 3c 00 00 00 00 35 97 4a 3c 76 1a 9b 3c
       0.016982134 0.0 0.012365152 0.018933516
0001c0 d4 f9 9c 3d 94 24 9e 3c 01 f7 96 3c ee 53 c6 3c
       0.076648384 0.019304551 0.018428328 0.024209943
0001d0 94 d2 13 bb 00 00 00 00 c3 02 bf 3b 8d 7d ab 3c
       -0.0022555934 0.0 0.0058291866 0.02093389
0001e0 23 45 89 3d 39 87 31 bc 7b 04 bc 3c 62 03 6e 3c
       0.0670264 -0.010835462 0.022951355 0.014527174
0001f0 f1 34 c6 3c 38 09 a4 3c 61 ee b6 3c 00 00 00 00
       0.024195166 0.020023927 0.022330465 0.0
000200 27 67 48 bc 59 82 74 3c 5b 33 98 3c 32 5e 5b bc
       -0.012231625 0.014923655 0.018579176 -0.013389157
000210 5e c7 2d ba fd 5c 00 bc 58 ae 53 3d a4 2a 0d 3d
       -0.00066291343 -0.00783467 0.05167994 0.034464493
000220 00 00 00 00 36 76 28 bc fd dc 9c bc 80 32 16 bc
       0.0 -0.01028209 -0.019148344 -0.009167314
000230 4d 4b 87 3c f9 63 3f 3d 23 3a 25 bc 35 ca fd 3b
       0.016515398 0.0467262 -0.010084662 0.007745052
000240 31 dc 7f 3c 81 b7 27 3d 00 00 00 00 d7 02 9c 3c
       0.015616463 0.040946487 0.0 0.019044323
000250 00 00 00 00 4a ec 83 3c 60 92 c6 3c 8f 95 7c bc
       0.0 0.016103882 0.024239719 -0.015416517
000260 53 02 ea 3b a1 96 92 3c ae 1c e6 3b cb 94 b5 bd
       0.0071413903 0.017894091 0.007022462 -0.08866271
000270 77 f1 a7 3d fa c9 8b 3c ce f9 a0 3c b7 e1 81 3c
       0.08200353 0.017064083 0.019650366 0.0158547
000280 af f3 98 3e 33 68 a1 3c 00 00 00 00 7d c3 20 bc
       0.29873416 0.019703006 0.0 -0.009812233
000290 e7 66 08 3c 27 30 69 3c 00 00 00 00 4e 43 6f 3c
       0.008325315 0.014232672 0.0 0.014603449
0002a0 00 00 00 00 90 e7 79 3c b2 3b 46 bc 28 b1 d9 3c
       0.0 0.015252963 -0.012099193 0.026573732
0002b0 00 00 00 00 61 5d 83 3c b3 02 0f 3d 34 36 1a 3e
       0.0 0.016035737 0.034914684 0.1505974
0002c0 48 33 82 3c 0b 53 37 3c 7a 7c 08 bd 8c 9f ab 3c
       0.015893593 0.011189233 -0.033321835 0.020950101
0002d0 59 d2 6b 3d 84 f7 66 3c 9a 79 4b 3d 9f 0a 78 3c
       0.05757365 0.014097098 0.049676515 0.015139251
0002e0 fd 48 e3 3b ea 64 0c bd 0c ed 60 3c f8 19 4c 3c
       0.006936191 -0.034275927 0.013728391 0.012457363
0002f0 43 cb 6f 3c 00 00 00 00 34 8c 3d bc c0 8f 20 bb
       0.014635864 0.0 -0.011569072 -0.0024499744
000300 5e 45 e0 3c 15 e9 a9 3c e1 3a b8 3b 43 a0 b3 bd
       0.027376827 0.020741025 0.0056222533 -0.08770802
000310 bf b4 92 3c 59 33 51 3c 7a 66 87 3c 9b 83 a1 3b
       0.017908452 0.01276859 0.016528357 0.0049290187
000320 e5 5e be 3b 15 d4 80 3d 27 62 3b bc b0 fc cf b9
       0.005809652 0.062904514 -0.011436976 -0.00039670384
000330 00 00 00 00 88 03 b3 3c 1a b2 82 3c 39 53 97 3c
       0.0 0.02185227 0.015954066 0.0184723
000340 cd d4 0e bc 19 9e e5 bb 79 68 bf bd 74 e5 83 3c
       -0.008717728 -0.007007372 -0.093460985 0.016100623
000350 e7 ee c7 3c 20 77 22 3c f3 c0 dc 3d 4d fa a7 bb
       0.02440591 0.009916097 0.1077899 -0.0051262737
000360 6e ae 7d 3c c9 fa 91 3c 9a 3c 3a 3d 06 71 90 3c
       0.015483482 0.017819779 0.04546795 0.017632019
000370 5a 76 2e bc 9d dc ba 3b 3e 88 ed 3c 28 31 3a bc
       -0.010648334 0.0057025687 0.02899563 -0.011364259
000380 d7 b5 af bb ee d0 9a 3c 4a 2e ab bc 00 00 00 00
       -0.005362253 0.018898454 -0.020896096 0.0
000390 a4 64 e7 3c 00 00 00 00 00 00 00 00 8f e9 24 3d
       0.028246231 0.0 0.0 0.0402618
0003a0 00 00 00 00 2a 0a 39 3c a9 6b b7 3b 99 9c 99 3c
       0.0 0.011293927 0.005597551 0.01875143
0003b0 7c 43 81 3c 00 00 00 00 6c e6 32 3e 39 99 96 3c
       0.01577925 0.0 0.17470711 0.01838361
0003c0 fa dd 7d 3c 8c 4a aa bb 7c e1 5c 3e 40 67 21 3c
       0.015494818 -0.005196875 0.2157039 0.009851277
0003d0 d3 9a b9 bc fb 85 06 3d aa b8 e6 bd 6c 30 a3 3c
       -0.022656834 0.032842617 -0.112656906 0.01992055
0003e0 00 00 00 00 00 00 00 00 22 0d 0d bd 87 c4 8e 3c
       0.0 0.0 -0.034436353 0.017427696
0003f0 a5 42 8f bd 1b 97 bf 3d c0 94 73 3a 6b db 54 3c
       -0.06995133 0.09354993 0.000929188 0.012991766

weight f4 [256, 256]
000000 e0 b6 cd bd b8 7c 74 3c 43 56 de 3d a0 ee 0d bd
       -0.10044646 0.014922313 0.10856297 -0.0346514
000010 6a 46 09 3e b8 a9 f0 3d 16 59 a3 3c 53 2c 38 3e
       0.13405767 0.11751121 0.01993994 0.17985658
000020 0d e9 74 3d be a0 9d bd 47 59 d9 bd 1b 83 31 be
       0.059792567 -0.07696675 -0.106127314 -0.17335169
000030 67 c4 71 3d 14 69 89 be 3c 8f 85 bd 09 07 82 3d
       0.059025194 -0.2683798 -0.065214604 0.06348998
000040 80 41 49 c0 5f fe ae bd ab 80 10 be 98 b1 60 3c
       -3.1446228 -0.08544611 -0.14111583 0.013714217
000050 b3 dd ae bb 3e f4 90 3d 49 ff 29 be 3b 62 f1 bd
       -0.005336487 0.070778355 -0.1660129 -0.11786314
000060 a6 b1 18 3d ca 1b 14 3d e6 99 36 3e 70 cb 87 bd
       0.037278794 0.036159314 0.17832145 -0.066305995
000070 dc d6 24 3d 29 2e 39 bf f4 4b bc 3c 92 cf 0b bd
       0.04024397 -0.7233606 0.022985436 -0.0341335
000080 a4 d6 2d 3e 13 3d a5 bd 0f e9 4e bc b8 5d 19 bc
       0.1697641 -0.080682896 -0.012628808 -0.009360723
000090 ee 9b 27 bd 47 eb 3a bd 3c 71 b1 bc 0c 6b 17 3e
       -0.04092019 -0.045634534 -0.02166044 0.14786929
0000a0 e9 e3 4c be dd df d2 bd f3 5f 1f be 0a 62 f4 3d
       -0.20008816 -0.10296605 -0.15563945 0.11932762
0000b0 da 3e 52 bf e7 a4 32 3d 7d c0 9c bd 97 43 9e 3d
       -0.82127154 0.043614294 -0.07653902 0.077277355
0000c0 be fb 04 bd 81 ad aa bd 2c b2 84 3d 86 76 3c 3d
       -0.032466643 -0.083338745 0.06479296 0.04601147
0000d0 85 82 ad 3e 84 68 89 3c 22 3c b7 be af 5a 3d 3d
       0.3388864 0.01677347 -0.35788065 0.04622906
0000e0 ea 0e 3c bd ac cf 52 3c be 06 14 be 72 38 2d be
       -0.04591266 0.012866896 -0.14455697 -0.16916063
0000f0 00 d0 a4 bd 17 09 02 bd f2 df 7d 3d f0 b9 7c bd
       -0.08047485 -0.03174695 0.06198115 -0.06170076
000100 65 d6 b7 3d 42 79 28 3e f7 cf 64 be 6f 84 da bc
       0.089764394 0.16452506 -0.22344957 -0.026674477
000110 89 a8 9a bc 2e a3 27 bd 91 d6 95 bd 70 37 8a 3c
       -0.018879192 -0.040927105 -0.07316316 0.016872138
000120 a1 99 99 3d 10 7b 08 3d 2c 09 32 bb 5b c2 85 bc
       0.075000055 0.033320487 -0.0027166111 -0.016328027
000130 a5 8b 05 3e 21 2e 1d 3b a5 47 bf 3d 2d 47 ac bc
       0.13041551 0.0023983794 0.09339837 -0.021030033
000140 3d dd f9 bc fc 93 36 bc 2b 5d 59 3b 6a df 1b be
       -0.030501002 -0.011143681 0.0033167105 -0.15221944
000150 a0 54 d2 bd b0 87 18 3d 2a 51 08 3e 4a 7f 3d bd
       -0.10270047 0.037238777 0.13312212 -0.04626397
000160 f7 0c 60 bd c5 be 60 bb 47 26 5f be 80 e4 80 b9
       -0.054699864 -0.0034293395 -0.21791945 -0.00024584308
000170 d9 42 83 be 27 bf b6 3d c3 a7 b5 3c 63 e3 43 3d
       -0.25636938 0.08923178 0.022174722 0.047824275
000180 64 d3 fb bb f4 c3 0a bd 1b 16 07 be 43 b5 37 3e
       -0.007685112 -0.03387828 -0.13192026 0.1794024
000190 fe 59 37 3d 6f f8 7b 3d ed 7a 85 bd fd 94 c1 3c
       0.044763558 0.06151622 -0.06517587 0.023630613
0001a0 6a 87 b3 bb 6d 01 85 3c 99 1c a7 3d b8 bb 15 be
       -0.005478789 0.016236031 0.081597514 -0.1462239
0001b0 f1 33 1f bd 07 0e ec bc 01 3f d1 bc 5e 97 11 3d
       -0.038867895 -0.028815283 -0.025542738 0.035544746
0001c0 43 e6 b5 3d 7b d4 ae bb 16 d7 67 bd cf 98 28 bd
       0.088818096 -0.0053353882 -0.056601606 -0.041161355
0001d0 7f 24 bf 3d 80 6a 84 bd ac ca ce 3b c7 11 e1 bc
       0.09333133 -0.06465626 0.0063107815 -0.027474297
0001e0 1a 09 94 3b 3b 09 cb be c9 b9 40 bd db 12 fb bd
       0.0045176866 -0.3965548 -0.04705218 -0.12259456
0001f0 e7 34 f1 3d 7a 44 31 be 6a f9 bb 3d 19 9a 7c bd
       0.117776684 -0.17311278 0.09178431 -0.061670396
000200 0b 91 d5 3c f4 27 e9 bd 67 bd 22 be 79 65 af 3b
       0.026070138 -0.113845736 -0.15892564 0.0053526727
000210 e9 89 0e 3b a1 c5 c2 3e e0 2b dd 3c 3d 0e 48 3d
       0.0021749681 0.38041404 0.02699846 0.048841704
000220 96 42 98 bd 33 ae 83 bc 64 c7 b8 bd 3f f9 22 3d
       -0.07434575 -0.016074276 -0.09022406 0.03978848
000230 02 49 06 be 89 fc f9 3d e5 57 85 bf 27 59 d5 bd
       -0.13113788 0.122063704 -1.0417448 -0.10417395
000240 83 53 e4 3b 7e 33 a6 3d 1a df 74 bd 8c 46 d9 bd
       0.006967963 0.0811529 -0.05978308 -0.10609159
000250 c1 65 df 3d 48 d7 1e bd b8 df 44 3c d6 6a 0e c0
       0.1090808 -0.038779527 0.012016229 -2.2252707
000260 06 3b 8c bc ce 1e 55 bd 53 84 a9 3d 5d 86 98 bb
       -0.017117988 -0.05203133 0.08277192 -0.004654689
000270 e8 2d fe 3c 15 cd 0e be 03 cb 55 be 3b 87 1c 3e
       0.03102775 -0.1394542 -0.20878224 0.15285961
000280 50 17 71 3e 59 04 b4 bd ad 1f fb bc 3a 9a 4c bf
       0.2354405 -0.08789892 -0.030654753 -0.7992283
000290 6d 3e cd 3d ff 1f b6 bd f4 82 cc 3d 57 96 47 be
       0.100216724 -0.088928215 0.09985915 -0.19490944
0002a0 f1 16 2c 3d ab af 00 3c 70 27 ef 3e 96 f9 4b 3d
       0.042014066 0.0078543825 0.46709776 0.04979857
0002b0 36 1d b5 bd d4 58 64 bd 5b 6b ae bd 40 15 11 3e
       -0.08843462 -0.055748776 -0.0851657 0.14168262
0002c0 32 be ba bd 39 62 e6 3c ca 77 0c 3e 92 e4 07 3c
       -0.09118308 0.028123008 0.13717571 0.0082942415
0002d0 f6 96 07 3e d9 71 20 bd c4 68 f1 bb aa 48 ce bd
       0.13241181 -0.039171074 -0.0073672254 -0.10072453
0002e0 7d 3a a6 bd 0c 0d bb 3c 84 64 75 bc 5d 14 8f bd
       -0.081166245 0.02283337 -0.014977578 -0.06986306
0002f0 45 d4 83 be 2c f4 3d 3b 8e cb e1 3d 19 f7 88 3b
       -0.25747886 0.002898465 0.11025153 0.004179847
000300 b6 d2 20 bc 5d 54 ed bc 56 c2 15 3d 21 52 93 bc
       -0.009815862 -0.028970892 0.036562286 -0.017983498
000310 a8 69 2f be 53 45 ca 3b 02 10 99 3c 7f cf db bd
       -0.17130148 0.006172815 0.018684391 -0.10732936
000320 80 ae ad 3d 50 6c c7 bc 7d 59 9b be fb ef 42 bd
       0.08480549 -0.02434364 -0.30341712 -0.047592144
000330 36 a6 05 bd 09 33 70 bd e6 30 d8 3c 16 0d 09 be
       -0.032629214 -0.05864242 0.026390504 -0.13383898
000340 40 62 35 b8 07 bc da 3c b4 bd 9b bd d0 40 bf bd
       -4.3245265e-05 0.026700987 -0.076045424 -0.09338534
000350 d2 27 8f 3d 86 f2 2f be f2 4a 8a 3c dd 4f b0 bc
       0.06990017 -0.17182359 0.01688144 -0.021522457
000360 e5 a2 bf 3c a9 e5 80 3d 7c 36 6e 3d 41 4e b4 3b
       0.023393104 0.06293804 0.05815743 0.0055024927
000370 e9 98 f2 bd 94 46 0b bd f5 b4 8c 3d 40 c3 6f c0
       -0.118455715 -0.034002855 0.06870452 -3.746292
000380 94 0a ed bd c0 9a 5a be f0 3a 46 ba 15 03 d4 3d
       -0.11574283 -0.21348095 -0.0007561883 0.1035215
000390 ff b2 d3 3c 1b 80 5c bd 91 55 9c 3c 05 31 90 3d
       0.025842188 -0.05383311 0.01908377 0.070406
0003a0 e3 94 90 bd 0b 2d d7 3c 12 67 b5 bd 71 27 a9 bd
       -0.07059648 0.026266595 -0.0885755 -0.08259476
0003b0 07 b7 71 be 4d fe b7 3c 40 7d 35 3d 3c ea 18 be
       -0.23604976 0.022460127 0.0443089 -0.14933103
0003c0 73 86 24 bd 7a 69 49 3d a9 f5 d0 3d 06 df 23 3e
       -0.040167283 0.049172856 0.10203106 0.16003045
0003d0 2a a0 3d bf c5 e0 fd 3d b7 d6 b8 3c 1a 49 11 bd
       -0.74072516 0.12396387 0.022563322 -0.035470106
0003e0 e2 c6 32 bd c2 dd da 3c 92 7c 7a be fd 55 b6 3b
       -0.0436467 0.02671707 -0.24461582 0.00556445
0003f0 cd 94 ab 3d ac df 65 bd 13 e8 45 3e b9 d3 74 bd
       0.08377991 -0.056121513 0.1932681 -0.059772227

bias f4 [256]
000000 94 86 7c 3d 16 db 62 3d b1 95 11 3d a5 d2 b1 3d
       0.06165178 0.055384718 0.035543147 0.086827554
000010 57 37 81 3d 07 5a 3c 3d 0a 54 b6 3d 96 b2 79 3d
       0.06309383 0.045984294 0.08902748 0.06096133
000020 bc 4c 95 3d 87 48 29 3d 2d 14 3f bc 5b 75 b6 3d
       0.072900265 0.041328933 -0.011662525 0.089091025
000030 3b 4a ab 3d 07 60 52 3d 23 9b d8 3d f2 b5 b8 3d
       0.08363768 0.05136111 0.10576465 0.09019078
000040 8d d8 aa 3d 2e 95 83 bc 3e 2d ea bc c3 19 0a bc
       0.08342085 -0.016062345 -0.028586026 -0.008428994
000050 d1 99 85 3d 60 46 b9 3d 53 04 2c 3e 53 c8 5b 3d
       0.06523479 0.09046626 0.16798525 0.05365784
000060 e5 83 17 bd b0 e7 74 3d ec 35 c3 3d 8c 1a 65 bc
       -0.03699102 0.059791267 0.09531769 -0.01398338
000070 11 b6 e4 3d f4 24 c7 3d 00 00 00 00 3a 04 d3 3d
       0.11167539 0.09723845 0.0 0.103035405
000080 99 7e 89 3d 6e ff 0a bd 94 e1 25 3d 2e 78 33 3d
       0.067136 -0.033935003 0.04049833 0.043815784
000090 c1 94 01 3e 35 bf d3 bb ef 51 13 bc ab f3 bb 3d
       0.12654401 -0.0064620026 -0.008991702 0.09177335
0000a0 78 ec 5e 3d 5a fe d4 3d e6 39 dd 3c a8 43 40 3d
       0.054424733 0.10400076 0.027005147 0.046939522
0000b0 4c 45 96 3d 00 2a bd bb 21 8e 7d 3d bb 26 27 bd
       0.07337436 -0.005772829 0.061903123 -0.04080842
0000c0 d8 db 42 3d db 7e d8 3d 48 0a 95 3d 01 90 30 3d
       0.04757294 0.10571071 0.072773516 0.043106083
0000d0 72 9a 8e 3d 5e 3d 31 3d a2 6f 80 3d 66 6d 8c 3d
       0.06963052 0.043271415 0.06271292 0.068568036
0000e0 03 87 5b bc 84 26 6e 3d 67 93 d7 3b 56 7f c7 3d
       -0.0133988885 0.0581422 0.006578851 0.09741084
0000f0 cc f2 9e 3d 9d f7 f9 bb fd 33 14 3d d5 e3 43 3d
       0.077611536 -0.0076283948 0.036182392 0.0478247
000100 ab 70 aa 3d 3a f9 7f 3d 1e c4 3e 3d 56 e2 35 3d
       0.08322271 0.06249354 0.04657375 0.044405304
000110 62 7a 01 bd 34 7f fb 3d 74 98 af 3d 39 e7 4c 3d
       -0.031610854 0.122801214 0.08574 0.0500252
000120 cf e5 df 3c 5a a8 5b 3d e1 be b4 3d 29 e5 29 be
       0.027331261 0.05362735 0.0882547 -0.16591324
000130 5a 55 54 3d 5b 88 9a 3d 65 3e 17 3d 29 d5 91 3d
       0.05183921 0.07545539 0.03692474 0.07120735
000140 be 9f 88 3d 0e 3b 44 3d 45 b8 89 3d d9 bb ae 3d
       0.066710934 0.04790788 0.067246 0.08531923
000150 64 9f 4e 3d f4 04 a3 3d 35 18 63 bc 6b 80 1d 3e
       0.050444975 0.07959929 -0.013860752 0.15381019
000160 1c 8e fe bb f7 ce d6 3d a7 72 2b bd b7 50 5e 3d
       -0.0077684056 0.10488694 -0.041857388 0.054276194
000170 f2 df e0 3d 3b fe 36 bd e5 99 15 3d 92 35 83 3d
       0.10980214 -0.044676047 0.03652372 0.06406702
000180 3b 8b 97 bc 9f ba 94 3d ed 93 9d 3d 6f c7 0a bc
       -0.018499007 0.07262158 0.0769423 -0.0084704
000190 0c a1 9e 3d 31 45 c3 3d 73 c7 a3 3d 46 25 2c bc
       0.07745561 0.095346816 0.07997026 -0.010506934
0001a0 7e 0f d0 3c 0c ce ad 3d 00 00 00 00 7d f8 c3 3d
       0.025398012 0.08486566 0.0 0.0956888
0001b0 76 d9 a0 3d 8f f8 83 3d 55 b9 1e 3d a2 62 59 bc
       0.078539774 0.06443893 0.038750965 -0.013268145
0001c0 35 40 6a 3d 92 a0 eb bc f4 83 bc 3d 73 bb 7e 3d
       0.05719014 -0.02876309 0.092048556 0.062190484
0001d0 16 82 14 3d c2 7c e3 3d 04 1c 9f bc 6d 06 98 3d
       0.036256872 0.1110778 -0.019422539 0.074231006
0001e0 54 82 8f 3d 0c a2 1b bc c7 6c ad 3d 17 cc 99 3d
       0.0700728 -0.009499084 0.08468013 0.0750963
0001f0 34 ca 09 bc 97 78 2b bc 41 86 c5 3d d1 44 da 3d
       -0.008410025 -0.010465763 0.096447475 0.10657657
000200 a1 59 f0 bb 6f f8 8f 3d 56 b3 b2 3d eb 55 b0 bc
       -0.0073349033 0.07029807 0.08725612 -0.021525344
000210 92 48 ac 3d a8 56 0a bd a7 32 a9 3d d8 24 71 3d
       0.08412279 -0.033774048 0.08261614 0.058873028
000220 87 68 02 bd ad 34 58 3d 64 b1 90 3d 76 09 de 3d
       -0.031837966 0.05278461 0.070650846 0.10841648
000230 bd ce 03 3e 73 e3 10 3e 48 46 13 bc 95 5e 58 3d
       0.12871833 0.14149265 -0.008988924 0.052824575
000240 9c f7 9e 3d 4c 7a 01 bc c6 f9 f7 3d 0a e6 79 3d
       0.077620715 -0.007902693 0.121081874 0.061010398
000250 1d b6 90 3d d9 9d 29 bc ea 9c c8 3d 49 0e 92 3d
       0.07065985 -0.010352575 0.09795554 0.07131631
000260 e1 a0 ab 3d 90 9e 73 3d b2 c5 ea 3d b0 fc 5b 3d
       0.083802946 0.05947739 0.11463489 0.05370778
000270 ec 4a c5 3d de 31 9c 3d 8b fd b7 3d f0 61 d8 3d
       0.09633431 0.07626699 0.08983906 0.10565555
000280 b3 38 8b 3d d1 5e b0 3d ca 38 67 bc 80 7c 8a bc
       0.06797924 0.08611835 -0.014112661 -0.01690507
000290 89 40 e5 bc b0 56 ac 3d 3a 37 e0 3d 75 89 25 3d
       -0.027984874 0.08414972 0.10948034 0.040414292
0002a0 35 d1 8c 3d d5 62 eb bb a6 71 2e 3d 37 ad 87 3d
       0.068758406 -0.0071834126 0.042588852 0.06624835
0002b0 d0 0c 88 3d 94 bd c7 3d 9a 7d fb bb 5a 76 31 bd
       0.06643069 0.09752956 -0.007674885 -0.04332576
0002c0 2d 62 cf 3d 87 ff dc 3c fd 85 06 bc a1 0c 34 bc
       0.101261474 0.026977314 -0.008210656 -0.010989339
0002d0 54 3e 7b 3d 1e 51 a9 3d 65 fc 9a 3d c1 8c c1 3d
       0.061338738 0.08267425 0.07567672 0.09450675
0002e0 3b f0 94 3d 7e 74 34 3d b3 8c 84 3d 5d 48 60 3d
       0.07272383 0.044056408 0.06472149 0.05475651
0002f0 ef 84 2e 3d 78 ed 16 bd 47 3c 9c 3d 6b 3a 4e 3d
       0.042607244 -0.03684756 0.076286845 0.05034868
000300 3b 1c 1b 3d 10 02 b9 3d 83 9c d4 3d 8b f4 c4 3d
       0.03786872 0.090335965 0.10381415 0.09616955
000310 10 b8 ae 3d 4b 53 48 bc 29 d1 01 bd b8 b5 f8 bb
       0.08531201 -0.01222689 -0.03169361 -0.007590022
000320 f6 84 4a 3d 6f bc 85 3d 93 59 81 3d ca 1b c4 bc
       0.049443208 0.065300815 0.06315913 -0.023939032
000330 61 16 12 3d ca 56 fc bc 53 b8 ac 3d 7b 46 70 3d
       0.035665873 -0.030803103 0.084335946 0.058660965
000340 77 ac 83 3d d3 c9 c4 bb 5f 93 c0 3d 6d 11 ca 3d
       0.064293794 -0.0060055046 0.09403109 0.09866605
000350 ae 55 65 3d 0c f9 97 3d 54 6a bc 3d 5e 06 09 bc
       0.055989914 0.07420549 0.09199968 -0.008363334
000360 c2 8d a3 3d 85 fe 7b bc 1f 74 61 3d 9d 83 9a 3d
       0.079860225 -0.015380506 0.055042382 0.075446345
000370 4b 9e fd bc 00 00 00 00 3f 6c de 3d 42 c6 b6 3d
       -0.030959269 0.0 0.1086049 0.089245334
000380 ba 03 8d 3d 2c 13 c9 3d 14 e6 21 bd ac e3 f1 bc
       0.068854764 0.0981811 -0.03952606 -0.029527508
000390 90 32 e0 bb b8 2b 8a 3d 6f b1 54 bc 57 05 d6 3d
       -0.006841965 0.0674662 -0.012981757 0.10450237
0003a0 41 04 3c bc 57 21 08 bc 80 c4 b8 3d 23 a3 88 3d
       -0.011475624 -0.00830873 0.090218544 0.06671741
0003b0 e6 53 99 3d 1f b2 d6 3d 6f 32 8a 3d 75 d5 c6 3d
       0.074867055 0.10483193 0.06747901 0.097086824
0003c0 87 91 22 3e ab c5 63 3d 33 46 8a 3d d8 10 a1 3d
       0.15875827 0.055608433 0.06751671 0.07864541
0003d0 68 95 77 3d ee 95 c7 3d 72 06 dd 3c 12 b2 67 3d
       0.06044522 0.09745394 0.026980612 0.056566305
0003e0 44 6c 55 3d ea c2 0f 3d fd bc b8 3d 5e f6 c9 3d
       0.052105203 0.035097994 0.09020422 0.09861444
0003f0 01 62 7c bc 4c 94 c4 3d f4 4f 81 3d af c4 91 3d
       -0.015404225 0.09598598 0.06314078 0.071175925

weight f4 [2, 256]
000000 d7 62 9a be d2 c8 8d be b5 5d 98 be 8a e5 6e 3e
       -0.30153534 -0.27692276 -0.29758993 0.2332975
000010 95 19 6f be d3 01 6d be a0 5f e1 3d 20 11 9c be
       -0.23349603 -0.23145227 0.11004567 -0.30481815
000020 2c 08 1d 3e 7d 4b 43 3d a6 90 46 bd 07 74 3e 3e
       0.15335149 0.047679413 -0.04847779 0.18598948
000030 bc d7 6f be 5c 1f 92 3e cc b7 44 3e bb c0 b3 3d
       -0.2342214 0.2853955 0.19210738 0.08776995
000040 72 3f 0a 3e 11 04 56 bd 00 80 16 bd 9d 59 aa bc
       0.13500765 -0.05224997 -0.036743164 -0.020794684
000050 f9 8a 8b be 1a c4 23 bf 84 c4 56 be 2b 51 07 be
       -0.27254465 -0.639711 -0.20973402 -0.13214557
000060 f9 b8 a9 bd 5a 5e a2 be 44 84 a3 3e a6 8e c3 bc
       -0.08287234 -0.3171261 0.31936848 -0.023871731
000070 ec a1 1e 3e 3f dd 66 3e 71 0c 25 be f9 b1 a3 3e
       0.15491456 0.22545336 -0.16118027 0.3197172
000080 ba 5e 01 bf 4c cb 72 bd 42 7c 91 be 0b 60 bc bd
       -0.50535166 -0.05927591 -0.28415114 -0.09198006
000090 d9 55 db bc 73 18 b7 bd cf c8 65 bd d3 c4 2d 3e
       -0.026774334 -0.0894021 -0.05609971 0.16969614
0000a0 29 dc 9a be 9d 57 a2 3e 36 4a 0c be 74 09 69 be
       -0.30246094 0.3170747 -0.13700184 -0.22757512
0000b0 86 8d 09 be 2c 0e 59 3c 0a 50 ee bc 61 c9 b5 3b
       -0.13432893 0.013248008 -0.0290909 0.005547688
0000c0 a9 db c5 be 4c 46 65 3e ea 9d 8c 3e 96 ef 92 3d
       -0.3864415 0.22390097 0.2746423 0.07174604
0000d0 ba 5d 80 b9 91 26 29 bf f1 0d 39 be 3f 11 b1 3e
       -0.00024483894 -0.6607447 -0.18071724 0.3458347
0000e0 cd ff c7 bd 0f 22 0d 3e 13 d3 9d 3f f9 f5 b7 3e
       -0.09765587 0.13782524 1.233004 0.3592985
0000f0 ba b3 5b bd 0c 4d 2d 3d 4c 87 cf be f8 82 28 3e
       -0.053638197 0.042309806 -0.4053291 0.1645621
000100 24 cd f6 3d 34 dd 61 be 58 c9 5b be 2a 48 8b be
       0.12050846 -0.22057039 -0.21463525 -0.27203494
000110 b8 03 80 bd 19 5b b3 3e 77 c8 a8 3e 7c e1 0d be
       -0.06250709 0.3503044 0.32965443 -0.13855547
000120 d5 3f 85 be a1 b1 a7 3d 48 44 24 3e 5f a6 41 3f
       -0.26025262 0.08188177 0.16041672 0.7564449
000130 ff d5 ba 3d 26 85 5f be 20 7d 16 be 84 1a 9d 3c
       0.09122848 -0.21828136 -0.14696169 0.019177683
000140 47 d6 52 be 53 47 c7 be ed 3a 8f 3e 3a 30 9c 3d
       -0.20589553 -0.38921604 0.27974644 0.07626386
000150 53 bd 05 be 50 ef 88 3e 98 0f 26 bd 05 e8 7d 3e
       -0.13060503 0.2674508 -0.040542215 0.2479554
000160 8b fb 70 bc eb 94 7e 3e 3e f1 ef 3c 40 4b 3c be
       -0.01470841 0.24861495 0.029289838 -0.1838808
000170 f5 25 3b bf 5e 61 68 bc 02 f8 06 be c1 f8 69 be
       -0.7310479 -0.01418337 -0.13180545 -0.22848798
000180 d6 d8 65 bd 68 96 48 be 7c e6 a6 3e 94 28 2a bd
       -0.056114994 -0.19588625 0.3259772 -0.041542605
000190 92 64 c9 3e 8b 75 38 3e 07 c3 9d 3d 9b cf b5 bd
       0.39334542 0.18013589 0.07703214 -0.08877488
0001a0 94 15 d0 bd 40 0e ca be 6c b8 18 bd f3 35 50 3e
       -0.10160366 -0.39463997 -0.037285253 0.2033308
0001b0 14 a8 db 3d c9 e0 82 be d7 eb 7e be ca f9 e8 3c
       0.10725418 -0.25562122 -0.24894653 0.028439421
0001c0 4b b0 9c be 5a ac 30 bd 30 64 47 3e ea e5 46 be
       -0.3060325 -0.043133117 0.19471812 -0.19423643
0001d0 a3 c2 0a be 3a a0 7e 3e 33 3f 21 3c c5 65 61 be
       -0.1355081 0.24865809 0.009841728 -0.22011478
0001e0 79 4b 93 3e 9d ae f3 bc c7 2b 5e 3e 64 8c 1c 3d
       0.2876852 -0.029746348 0.21696387 0.038219824
0001f0 65 45 a7 3d 58 ef bc 3d 2c b6 15 3e c1 9b 3c 3e
       0.08167533 0.09225339 0.14620274 0.1841879
000200 d2 04 18 3d 82 fd c2 bc 92 e4 63 3e f0 64 f0 bd
       0.037113972 -0.023802523 0.22255161 -0.11738002
000210 51 6c 72 3e f0 ac f6 3c 82 c3 6e 3e 81 fb c3 be
       0.23674132 0.03011176 0.23316768 -0.3827782
000220 be fd 5a 3d 05 51 a1 be 0b 66 48 be 84 b5 a9 3e
       0.053464644 -0.31507125 -0.19570176 0.33146298
000230 c7 cd 52 bf 5d d9 81 3e 03 8c 69 bb e7 e7 9e be
       -0.8234524 0.25361148 -0.0035636432 -0.31036302
000240 33 cb 7a 3e 20 bf 97 bd 39 78 2f 3e 66 85 56 3e
       0.24491577 -0.07409501 0.17135705 0.20949325
000250 8a c4 8d bd c8 ba 96 bd 10 4b 82 3e 13 08 13 bf
       -0.069222525 -0.073598444 0.25447893 -0.57434195
000260 5e 43 59 3e 39 48 b1 3e 5e cc 9c 3e 13 6c 7a be
       0.21217105 0.34625414 0.3062467 -0.2445529
000270 11 ce 70 3e 67 0a 8b be 36 bd 4c 3e 93 ba 91 3e
       0.23516108 -0.27156374 0.19994053 0.28462657
000280 e0 60 60 be b4 dc 5b 3e c3 8b 70 bb 75 96 19 bd
       -0.21911955 0.2147091 -0.0036704398 -0.037497003
000290 32 66 87 3d bc 9b 43 3e 7b 2a c9 3e 4e 5e b0 be
       0.06611289 0.19102377 0.39290223 -0.3444695
0002a0 1d 5d 0e be ac 00 f5 bc 35 25 76 be 73 e9 65 be
       -0.13902707 -0.029907547 -0.24037631 -0.22452335
0002b0 66 df fc 3b 52 2b cd 3e a7 9b bd 3c 4e a6 fa 3c
       0.007717061 0.40072113 0.02314551 0.030596878
0002c0 49 39 27 3e 23 6b 48 be 24 2a a6 bc fc 60 a6 bc
       0.16330446 -0.1957212 -0.020283766 -0.020309918
0002d0 87 93 6c be 0d ad a8 3e d8 71 03 bf 45 3e 85 3e
       -0.23103152 0.32944527 -0.51345587 0.2602407
0002e0 8d d8 61 3e 7c 93 6e be c6 3e 0b 3e 2c dc c5 3d
       0.22055264 -0.23298448 0.13598165 0.09661135
0002f0 ff 0c 18 be 58 95 b8 bd 61 e7 9c 3e 09 92 49 bf
       -0.14848708 -0.0901286 0.30645278 -0.78738457
000300 8b f6 1e be ae a8 61 3e 70 a3 19 bf c9 c1 9a 3e
       -0.15523736 0.22037002 -0.6001501 0.3022597
000310 7e d1 8c be 80 a2 e8 bc be d7 e4 bc 28 79 8a bd
       -0.2750358 -0.028397799 -0.027934905 -0.0676139
000320 2d 10 03 be ea 9f 42 be df 8f 8d 3e 23 c2 14 3d
       -0.1279914 -0.19006315 0.27648827 0.036317956
000330 16 e4 62 be 02 8b ac bb 48 50 14 3e 93 fd 4c be
       -0.2215732 -0.0052655945 0.1448375 -0.20018606
000340 cf 18 9b be e3 11 96 bc 6f 40 88 be bb e4 64 3e
       -0.30292365 -0.018319076 -0.2661166 0.22352879
000350 46 ec 87 be 1e 21 ac bd 3c da bb 3e b9 42 0d 3c
       -0.2654745 -0.08404754 0.36689937 0.008621865
000360 9e 4d 74 3e fd dd bd bc 30 83 15 be 9c f0 6b be
       0.23857734 -0.023177141 -0.14600825 -0.23041004
000370 ef 64 2d 3c bb 70 2d bc 5a 3b 83 3e ae f2 35 3c
       0.0105831465 -0.010585959 0.2563122 0.011105223
000380 a9 8e 11 bf d4 9a 97 3d 0e 04 74 bc 41 78 4c 3d
       -0.5685831 0.07402578 -0.014893545 0.04991937
000390 23 9c e3 bb 46 0a 52 be 0d 2b 49 bd 5f 79 55 3e
       -0.006946103 -0.20511732 -0.049113322 0.2084708
0003a0 a7 cd 7a 3d c3 5c 36 bd b3 9f 41 3e 2c f8 62 be
       0.06123128 -0.04452206 0.18908577 -0.22164983
0003b0 2f bd 66 3e 02 ae 3f 3e c5 1e c3 bc f5 06 80 3e
       0.22533105 0.18718722 -0.023818383 0.25005308
0003c0 7d fe 1c be f3 da ea bd 32 a3 29 bf a5 4a fc be
       -0.15331455 -0.114675425 -0.6626464 -0.492757
0003d0 70 61 e9 3d e8 04 32 3e 1b 92 73 be 16 e2 f0 bd
       0.11395538 0.17384684 -0.23786204 -0.117618725
0003e0 b2 4d 09 3e 6f 18 56 be ed 72 80 3e c5 66 24 3e
       0.13408545 -0.20907758 0.2508768 0.16054828
0003f0 3e 6f 4d 3c d6 8a 88 3e 08 00 11 3e 3f 31 bf be
       0.012538729 0.26668423 0.14160168 -0.3734226

bias f4 [2]
000000 91 f3 54 3d 71 d5 08 3d
       0.051990096 0.03340668
