exp_local/gcbc_changing/weights/24000.pt (torch, 274440 bytes, 6 tensors)

weight f4 [256, 4]
000000 72 8f 0a be 79 d6 32 be 19 93 fe 3d 4f 30 2a 3e
       -0.13531283 -0.17464627 0.124304004 0.16619991
000010 b9 a5 48 3d 8a 05 58 3e df 21 4a be 1c 0d 57 bd
       0.04898617 0.21095863 -0.19739483 -0.052502736
000020 b4 7b 8b bd c5 67 d1 3d a2 fa 40 3e a4 a5 11 bd
       -0.06810704 0.102248706 0.18845609 -0.035558358
000030 07 fe 07 3e b1 37 23 3e 55 8d 06 be df f6 23 be
       0.13280497 0.15939213 -0.13139851 -0.16012143
000040 22 57 35 3c a6 71 a4 bd d5 eb c3 bd dd f4 bd bb
       0.011068137 -0.08029489 -0.09566466 -0.0057970122
000050 43 24 d8 bd 9f a0 d9 bc eb 4e 9f bc c2 ed 5a bd
       -0.105537914 -0.026565848 -0.01944681 -0.0534494
000060 5f f7 7b be c6 56 93 39 a9 71 4a 3e 17 5e 23 3c
       -0.24606083 0.00028102676 0.1976992 0.009971163
000070 54 4b dc 3c 27 18 86 bd 53 25 19 3e 23 b2 d1 3c
       0.026891388 -0.065475754 0.14955644 0.025597638
000080 53 32 91 bd 89 d9 51 be 51 00 8d 3d 5b 10 55 3e
       -0.07089677 -0.2049314 0.06884826 0.2080702
000090 f7 e0 70 3e 64 92 f0 3d 0b fb 74 be 66 50 f6 bd
       0.23523317 0.11746672 -0.2392389 -0.120270535
0000a0 a5 e4 ca bd ff 3c 43 3e a9 6a c6 3d 2b 4a 3c be
       -0.09906892 0.19066237 0.096883126 -0.18387668
0000b0 20 27 6a 3e c1 d4 2d 3c 13 b3 43 be b9 29 8a bc
       0.22866488 0.0106098065 -0.1911128 -0.016865598
0000c0 43 1f 5a 3e 8b c3 e1 bd 7f 07 50 be 48 67 dd 3d
       0.21300988 -0.11023625 -0.2031536 0.10810715
0000d0 84 a2 67 bd c1 e5 94 3e b2 0f 59 3d d0 2f 7b be
       -0.05655147 0.29081538 0.052993484 -0.24529958
0000e0 c8 8f 32 bd 53 dd 4e 3d 92 3c 6e 3d ec 84 39 be
       -0.04359415 0.05050404 0.058163233 -0.18117112
0000f0 fc 6e e0 be de a1 9c bc 5f c5 58 3d 86 7c ea bd
       -0.43834674 -0.019120153 0.052922603 -0.11449532
000100 19 74 94 be ec 96 8b 3b 82 e0 94 3e 21 90 e2 bb
       -0.28994825 0.0042599346 0.29077536 -0.006914154
000110 68 a6 66 3d c9 ee 4a 3e 89 c1 64 bd 2e 7c 4a be
       0.05631104 0.19817652 -0.055848632 -0.19773933
000120 d8 17 24 bc d8 4d 62 3e 9d d4 2c 3c b5 ed 62 be
       -0.01001545 0.22100008 0.010548738 -0.2216099
000130 8a b8 95 bd e0 b2 60 be 7b 17 7d 3d dd 1f 40 3e
       -0.07310589 -0.21943235 0.06178997 0.18762155
000140 c3 49 bd 3d 15 66 43 3e b2 08 bc bd 1d 17 44 be
       0.092425846 0.1908191 -0.09181346 -0.19149442
000150 1f 94 4e 3e b5 69 c5 3d 23 45 5a be 6c dd c8 bd
       0.20173691 0.09639303 -0.21315436 -0.09807858
000160 fc 2e 41 3e d2 ff ef 3d fc a0 54 be 72 b1 0e be
       0.1886558 0.11718716 -0.20764536 -0.13934878
000170 2e 91 21 3e bf c9 0f 3e dd 2d 32 be d3 d3 0c be
       0.15778038 0.14041804 -0.17400308 -0.1375268
000180 70 94 ee 3c 85 4e 78 be 85 4a ef bc 82 3c 77 3e
       0.029123515 -0.24248703 -0.029210338 0.24144176
000190 fe f9 fa bd 31 30 73 3e be f6 fa 3d 4a a9 77 be
       -0.122547135 0.23748852 0.122540936 -0.24185672
0001a0 65 a2 c1 3c 5c 5b 2a be 48 2e 49 bc 38 60 6e 3e
       0.023637006 -0.16636413 -0.012279101 0.23278892
0001b0 7e 76 40 3e 30 b9 90 3d 5f 10 30 be c8 94 87 bd
       0.18795201 0.07066572 -0.17193745 -0.06620175
0001c0 b2 94 e1 3d 8d 06 44 be 26 77 dd bd 2a b2 43 3e
       0.110146895 -0.19143124 -0.108137414 0.19110933
0001d0 1a 39 99 bd 78 85 9b 3e 0a ef 96 3d 36 4f 9b be
       -0.074815944 0.30375266 0.07369812 -0.3033387
0001e0 18 0a 9a bd 1a 71 05 be a6 c8 82 3b 9e 5a 0b bd
       -0.075214565 -0.13031426 0.0039912043 -0.034021966
0001f0 ae 4d 20 3e e0 a9 04 3e 67 02 24 be 32 c2 07 be
       0.15654632 0.12955427 -0.16016541 -0.13257673
000200 03 1e 30 bf 91 d9 24 3d 8a 1a be 3d 7c c6 8d bd
       -0.68795794 0.04024655 0.09282406 -0.069226235
000210 6a 44 3f be ea a5 a5 3d 87 2c 43 3e d2 94 a7 bd
       -0.18678442 0.08088286 0.19059955 -0.08182682
000220 0c 6f eb 3d 45 4e 0b be 80 8a ea bd 71 8d 08 3e
       0.1149579 -0.13604076 -0.11452198 0.13335206
000230 fb 38 c0 bd 47 be 59 bd cd bd 1b bc 73 41 a0 bc
       -0.09385868 -0.05315998 -0.009505701 -0.019562459
000240 94 5f 3e be 8b 5f bd be c6 83 22 3e fd c7 17 be
       -0.18591148 -0.36986956 0.1587058 -0.14822383
000250 e5 86 44 3e 9a da c0 bd 55 ea 49 be d5 83 bd 3d
       0.19192083 -0.09416695 -0.19718297 0.092536606
000260 9e 19 fa 3c 8f 65 81 3c af f8 00 3d ff d5 0d bd
       0.030529793 0.015795497 0.031487163 -0.03462791
000270 5a b9 48 3e a8 7b 0a be 01 c2 4b be b3 6b 04 3e
       0.19601956 -0.13523734 -0.19898225 0.12931709
000280 7b ae 81 3d 34 48 53 3e 01 cb 90 ba bc 39 57 be
       0.06332108 0.20633012 -0.0011046828 -0.21018118
000290 43 41 2f 3e 33 2d 9d bd 18 ff 47 3d f8 ff 97 bd
       0.17114739 -0.07674637 0.04882726 -0.07421869
0002a0 79 81 fa 3d 2f 87 59 3e f6 b4 fa bd 53 d5 59 be
       0.12231726 0.21242975 -0.12241547 -0.21272783
0002b0 40 35 02 be 4d d1 3a be 0c 98 be 3d c4 d6 24 3e
       -0.12715626 -0.18243904 0.093063444 0.16097552
0002c0 01 7b 39 be 96 f5 94 3e 87 8e 47 3e 4b 1d c7 be
       -0.18113329 0.29093617 0.19487964 -0.38889536
0002d0 5f 26 74 3e 8c e9 32 bd ec 27 83 be 09 15 07 3d
       0.23842762 -0.04367976 -0.25616395 0.032979045
0002e0 1a 42 37 3b fc a2 82 bd 9e e9 9f bd 77 20 51 bd
       0.0027962984 -0.06378743 -0.07808231 -0.05105635
0002f0 ea b6 2d 3e 52 a1 4b 3e 5f 83 23 be e6 f5 47 be
       0.16964307 0.19885758 -0.15968083 -0.19527397
000300 01 2c b2 bd ff 00 f4 bb 98 8f 96 bd 24 68 5c bd
       -0.08699799 -0.007446408 -0.07351607 -0.053810254
000310 9c 87 c0 bc eb b5 81 be 93 3c be 3c f6 32 7b 3e
       -0.023502164 -0.25334105 0.023222243 0.24531159
000320 19 4d 01 3e 48 52 f9 bd 38 af fb bd b2 2e c8 3d
       0.12627067 -0.12173897 -0.1228928 0.097745314
000330 b2 3c 5c bd 62 40 21 bd 09 93 76 bd 61 53 9b bd
       -0.05376882 -0.03936804 -0.060198817 -0.07584263
000340 64 d4 b5 3e b9 12 cc bc 52 a3 b5 be 3e bc cb 3c
       0.35513604 -0.024911271 -0.35476166 0.024870034
000350 66 ea c0 3c a9 f0 62 be 65 b0 c4 bc 6e 1b 63 3e
       0.02354927 -0.22162117 -0.024009893 0.22178432
000360 65 79 fe 3c 85 40 80 3e 53 fe f3 bc 16 da 80 be
       0.031063745 0.25049224 -0.029784357 -0.25166386
000370 57 14 ad bd 91 60 03 3e 04 ea a8 be 1a b1 8f 3d
       -0.08451145 0.12829806 -0.3299104 0.07016201
000380 d3 a1 2f 3e 98 34 16 3e 4a 3f 30 be e4 b7 17 be
       0.17151575 0.146685 -0.17211643 -0.14816242
000390 23 28 7b 3c 73 dd ba be 9b 9b 0b be 0d 7f 1a bd
       0.015329394 -0.36497077 -0.13633578 -0.03771882
0003a0 74 ba 61 be c6 f0 04 bb 98 4e 61 3e 28 01 ca 3a
       -0.22043782 -0.0020285114 0.22002637 0.0015411722
0003b0 81 60 d9 bd 98 cd 3d 3e 10 d7 d8 3d 49 e7 3e be
       -0.1061411 0.18535459 0.10587895 -0.18642916
0003c0 75 5c 2e be b6 d9 27 3e 17 48 a0 3d a3 75 33 be
       -0.17027457 0.16391644 0.0782625 -0.17525344
0003d0 b0 ef 38 3e 93 29 da bd d5 2d 35 be b0 66 d9 3d
       0.18060184 -0.10652461 -0.17693265 0.10615289
0003e0 b8 68 21 3e d3 fd 1e be 5c b0 23 be 70 18 1c 3e
       0.15762603 -0.15526514 -0.15985245 0.15243697
0003f0 2a b3 d3 bd 46 2c a5 bd 28 32 e5 3d e9 35 06 bd
       -0.10336907 -0.08065085 0.11191207 -0.032766256

bias f4 [256]
000000 6b d4 d0 3c 4a f6 bd 3c ef 3d ef bd 34 43 77 3c
       0.025491914 0.023188729 -0.11681735 0.015091706
000010 05 3a f2 bb 00 00 00 00 9f 7b bf bd f4 d9 bc bd
       -0.0073921704 0.0 -0.09349751 -0.09221259
000020 60 7d 8e 3c fe 88 b5 3b 1d 4e 29 3c 15 28 1c bc
       0.017393768 0.0055400124 0.010333565 -0.009531041
000030 2f 36 f7 3b 3e d6 89 bc dc 00 99 3d bf bb 1a 3e
       0.007544301 -0.016825791 0.07470867 0.15110682
000040 d7 92 69 bc ad 81 5e 3c a2 d7 55 3c f2 8c ce 3c
       -0.014256201 0.013580722 0.013051899 0.025213692
000050 e4 a0 76 3c fa a9 fa 3b 6e 4e db 3c 6d ba c7 bd
       0.015053008 0.0076496573 0.026770797 -0.09752355
000060 5b fb 97 3c 07 a7 98 3b f7 61 85 3e 29 6b 6d bb
       0.018552473 0.004658583 0.26051304 -0.0036227203
000070 8b ce 6d 3c a9 c2 84 bc 00 00 00 00 77 74 86 3c
       0.014514576 -0.016206102 0.0 0.016412957
000080 32 56 c8 3d f7 fe 61 3c ed 29 40 3c 00 00 00 00
       0.097820655 0.0137936985 0.011728746 0.0
000090 16 3e 06 3d 80 e8 0e 3c 47 0c 8c bd a6 9d d5 3b
       0.032774054 0.0087224245 -0.06838279 0.0065190373
0000a0 99 9f 75 bc 7a f5 07 be 84 07 95 3c ed a9 2b 3d
       -0.014991664 -0.13277236 0.01819206 0.0419101
0000b0 5f d7 89 bb fe c3 79 3c 00 00 00 00 83 3a 90 bc
       -0.0042065824 0.015244482 0.0 -0.017606026
0000c0 00 00 00 00 18 ca d1 39 88 2d c5 3c 00 00 00 00
       0.0 0.00040014158 0.024069563 0.0
0000d0 1d 9c 7a bc 81 80 80 3c 17 64 84 3c c4 7a eb bc
       -0.015296009 0.015686275 0.016161008 -0.028745063
0000e0 a2 d8 84 3c e5 db 0f 3e 40 b8 71 3c aa 40 6f 3c
       0.01621658 0.14048727 0.014753401 0.014602819
0000f0 0c ea 91 3d c1 54 1d 3c 0a e7 8a 3b 40 07 93 3d
       0.07124719 0.009602726 0.004238968 0.07179117
000100 cd 21 10 3c bc 74 15 3d b5 f5 6a 3c 9b 5e cc 3c
       0.008797121 0.03648828 0.014340808 0.024947455
000110 81 0b 98 3c f9 f0 26 39 a1 53 c2 3c eb 0e 9d 3b
       0.018560173 0.00015920763 0.023721518 0.004793038
000120 f4 62 4d 3c bc 88 99 3c 00 00 00 00 e6 fd ab 3c
       0.012535799 0.018741958 0.0 0.020995092
000130 3d d9 40 3c 6d ad a7 bc f7 87 62 3c 10 c1 e9 3c
       0.011770544 -0.020468438 0.013826362 0.028534442
000140 69 2d ab 3c 55 dc 0a 3d db 10 0e 3d 52 0e 8e 3c
       0.020895677 0.03390153 0.034684043 0.017340813
000150 00 00 00 00 24 4d 29 bc e2 89 98 bc 94 08 0d 3d
       0.0 -0.010333333 -0.018620435 0.03443201
000160 03 be df 3c 03 58 4c bb f2 46 30 3c 00 00 00 00
       0.027312284 -0.0031180389 0.010759102 0.0
000170 dd c6 84 3c 71 2e 89 3b f1 4e 77 3c 81 94 2f bc
       0.016208107 0.0041864445 0.015094505 -0.010716558
000180 b4 37 5c 3d 24 4b b0 3c 2d a6 6f 3c 7c 84 81 3c
       0.05376406 0.021520205 0.014627022 0.015810244
000190 b6 1d 7e 3c 5e fc 69 3c a2 ef 34 bc e5 4f 85 3d
       0.015510013 0.01428136 -0.011043461 0.06509379
0001a0 12 c6 5b 3c 14 bf 4b bc ef 55 9d 3c 77 f4 66 3c
       0.013413923 -0.012435693 0.019206015 0.014096371
0001b0 5d 89 88 3c 00 00 00 00 0a 53 13 3c eb 8e 9d 3c
       0.016667062 0.0 0.008991966 0.019233188
0001c0 64 9a 8e 3d 40 69 9f 3c 1e 48 fd 3c df a3 bb 3c
       0.069630414 0.019459367 0.030918177 0.022905288
0001d0 83 8c cc ba 00 00 00 00 29 98 eb 3b 47 5c b0 3c
       -0.0015605841 0.0 0.0071897698 0.021528376
0001e0 ca 4a 95 3d d4 16 fb bb bf 16 c9 3c 39 13 78 3c
       0.072896555 -0.0076626334 0.024546979 0.015141302
0001f0 7a 8c d2 3c cd 5e c2 3c 30 58 b7 3c 00 00 00 00
       0.02570175 0.023726845 0.022380918 0.0
000200 de f7 23 bc 6a 33 69 3c 7c 09 97 3c 32 5e 5b bc
       -0.010007827 0.0142334495 0.01843714 -0.013389157
000210 fd e8 7a 3a 39 94 eb bb d2 4d 4d 3d f2 6f 0a 3d
       0.0009571461 -0.0071893004 0.050123043 0.033798166
000220 00 00 00 00 be 93 2f bc ef aa ad bc 80 32 16 bc
       0.0 -0.010716377 -0.021199672 -0.009167314
000230 2f d1 82 3c 8c c5 4b 3d e0 91 16 bc 9d 23 9d 3b
       0.015968887 0.049748942 -0.009190053 0.004795505
000240 4a 5c 25 3c 64 99 2b 3d 00 00 00 00 3a 3c a9 3c
       0.010092804 0.04189433 0.0 0.020658601
000250 00 00 00 00 93 db 80 3c a8 13 b9 3c 12 fe 82 bc
       0.0 0.015729701 0.02259238 -0.01599029
000260 9f c4 5c 3c a5 2b 9e 3c 79 fc 04 3c 2d f9 c4 bd
       0.0134746125 0.01930792 0.008116835 -0.09617839
000270 52 ae b9 3d 65 1b 84 3c 5f a8 92 3c 66 ff 80 3c
       0.09066452 0.016126344 0.017902551 0.015746783
000280 0d 64 9b 3e 50 45 af 3c 00 00 00 00 23 13 13 bc
       0.3034977 0.021395355 0.0 -0.0089767305
000290 47 da 0b 3c 47 e0 8f 3c 00 00 00 00 c4 8a 66 3c
       0.008535928 0.017562998 0.0 0.01407117
0002a0 00 00 00 00 fb bc 24 3c 58 75 52 bc 08 ba d0 3c
       0.0 0.010054822 -0.01284536 0.025479332
0002b0 00 00 00 00 2c 8c 72 3c 64 e8 03 3d df df 1f 3e
       0.0 0.014803927 0.032204047 0.15612744
0002c0 20 56 74 3c 51 57 17 3c 79 e2 19 bd 15 b6 ad 3c
       0.014913112 0.009237126 -0.037569497 0.021204988
0002d0 fd 27 7f 3d 64 18 5d 3c 7e 78 4c 3d cd 7b 6a 3c
       0.062293995 0.013494585 0.049919598 0.014311743
0002e0 e0 eb d4 3b 0c 15 0c bd 5b b4 49 3c 41 a9 1d 3c
       0.006497845 -0.03419976 0.0123110665 0.009622873
0002f0 4e 24 51 3c 00 00 00 00 09 91 4a bc 0e 94 ba bb
       0.012765003 0.0 -0.012363681 -0.005693919
000300 12 c6 e2 3c 63 26 bc 3c f7 ee ab 3b d7 b8 bd bd
       0.027682338 0.022967523 0.0052469927 -0.09263771
000310 cb 0c 98 3c 47 37 43 3c 64 b7 8b 3c 71 3b 86 3b
       0.018560788 0.011915035 0.01705522 0.0040964414
000320 cf 58 dc 3b be c1 91 3d dc b1 53 bc af 03 88 bb
       0.006724454 0.071170315 -0.012920823 -0.0041508297
000330 00 00 00 00 3c f6 ba 3c 47 26 89 3c 4f 72 8c 3c
       0.0 0.022822492 0.016741885 0.01714435
000340 47 35 2f bc c1 eb df bb e0 42 b8 bd 7d 8b 86 3c
       -0.010693855 -0.006833524 -0.089971304 0.016423935
000350 50 a7 cf 3c 68 7e 43 3c 75 ca ec 3d 4d fa a7 bb
       0.025348336 0.011931993 0.11562053 -0.0051262737
000360 0a 06 81 3c 43 e9 b2 3c 52 cd 1f 3d 6d 63 e1 3b
       0.01574995 0.021839743 0.039014168 0.0068783076
000370 35 77 3d bc ca dc ce 3b a8 db e0 3c f3 bb 2d bc
       -0.011564066 0.006312941 0.02744849 -0.010603893
000380 8c 89 03 bc f6 a8 92 3c a7 53 a4 bc 00 00 00 00
       -0.008028399 0.017902832 -0.02005942 0.0
000390 5c 08 21 3d 00 00 00 00 00 00 00 00 6e 9d 0f 3d
       0.039314613 0.0 0.0 0.035062246
0003a0 00 00 00 00 5e 5e 55 3c 11 96 ef 3b e7 d7 a6 3c
       0.0 0.013022987 0.0073115905 0.020366622
0003b0 5b bf 56 3c 00 00 00 00 93 3a 41 3e 01 05 90 3c
       0.013107146 0.0 0.1887 0.017580511
0003c0 b1 ba 5b 3c e3 07 36 bb a0 b1 5f 3e d9 e4 e3 3b
       0.01341121 -0.0027775697 0.21845102 0.006954771
0003d0 31 a6 a8 bc 93 d3 01 3d aa b8 e6 bd b5 d1 9a 3c
       -0.020587059 0.031695914 -0.112656906 0.018898824
0003e0 00 00 00 00 00 00 00 00 55 4d 12 bd c9 fa 93 3c
       0.0 0.0 -0.03571828 0.01806392
0003f0 9d 4b 8f bd f9 b9 ce 3d f0 fe bc ba 61 1b 94 3c
       -0.06996844 0.10094065 -0.0014419239 0.018079462

weight f4 [256, 256]
000000 77 69 d7 bd 73 80 8a 3c 0e 44 d0 3d 2e d7 2b bd
       -0.10518163 0.016906952 0.101692304 -0.04195326
000010 6a 46 09 3e b8 a9 f0 3d 16 59 a3 3c 1b ef 41 3e
       0.13405767 0.11751121 0.01993994 0.18938868
000020 aa 31 66 3d 26 4e a4 bd 0e 5e d1 bd a3 ec 31 be
       0.056199707 -0.08022718 -0.10223018 -0.17375426
000030 33 65 75 3d ae e9 92 be 6f 99 70 bd b0 09 85 3d
       0.059910964 -0.28693908 -0.058740076 0.06495988
000040 30 55 52 c0 b3 07 ba bd fb aa 15 be e9 63 f0 3b
       -3.2864494 -0.090835 -0.14616005 0.007336129
000050 57 50 3f bc ac af 80 3d 7e e7 26 be 2a de de bd
       -0.011676869 0.06283507 -0.16299245 -0.10882218
000060 fb 15 13 3d 1a a2 9d 3c 08 cb 38 3e 32 dd 88 bd
       0.035909634 0.019242335 0.180462 -0.06682815
000070 ec f9 29 3d 9c 53 5a bf f4 4b bc 3c 0c 24 2c bd
       0.04149811 -0.8528383 0.022985436 -0.042026564
000080 95 f0 37 3e ab 9a a0 bd e2 11 c3 bb b8 5d 19 bc
       0.17962869 -0.078420006 -0.0059530595 -0.009360723
000090 21 ef 5c bd 65 e8 20 bd 3c 71 b1 bc d4 8b 1c 3e
       -0.05393899 -0.03928413 -0.02166044 0.15287715
0000a0 4d 12 48 be 0a f3 c5 bd 11 3f 26 be 5f d5 ef 3d
       -0.19538231 -0.09665497 -0.16234995 0.11710619
0000b0 0d a8 4b bf 2e 23 31 3d 7d c0 9c bd 70 42 aa 3d
       -0.795533 0.04324644 -0.07653902 0.08313453
0000c0 be fb 04 bd ab 54 b0 bd d5 5d 88 3d 86 76 3c 3d
       -0.032466643 -0.08609899 0.06658522 0.04601147
0000d0 79 50 ae 3e 19 80 80 3c a2 6d ba be a6 4d 33 3d
       0.3404577 0.015686082 -0.36411768 0.043775223
0000e0 36 4c 58 bd 4e c5 28 3c 41 78 12 be f5 a2 27 be
       -0.052807055 0.010300947 -0.14303686 -0.16370757
0000f0 70 d8 99 bd 9e 20 da bc b1 c2 8d 3d de 81 81 bd
       -0.07511985 -0.026626881 0.069219 -0.06323598
000100 3c a5 bf 3d 1c 38 2e 3e 3b 20 55 be b4 ad fa bc
       0.09357688 0.17013592 -0.20813076 -0.030600406
000110 e1 f1 aa bc 5b 67 dd bc ac 36 99 bd 80 8e 6a 3c
       -0.02086729 -0.027026823 -0.07481131 0.014316201
000120 ba 6e a2 3d 83 31 0c 3d 2c 09 32 bb b6 32 92 bc
       0.07931276 0.034226906 -0.0027166111 -0.017846446
000130 ff f9 05 3e 17 25 41 3b ca c2 bf 3d be 16 98 bc
       0.13083647 0.002947157 0.09363325 -0.018565532
000140 17 01 e5 bc ee 11 d0 bb 74 7f 3c 3c 01 55 1e be
       -0.027954621 -0.0063497936 0.011504997 -0.15462114
000150 a0 54 d2 bd 5d af 10 3d 3c 1f 0d 3e 8c f5 11 bd
       -0.10270047 0.03532349 0.13781446 -0.035634562
000160 33 2d 60 bd f8 30 68 3b 3e 39 5f be 80 e4 80 b9
       -0.054730605 0.0035429578 -0.2179918 -0.00024584308
000170 f3 41 87 be 05 f1 ba 3d 56 87 b6 3c 63 e3 43 3d
       -0.26417503 0.09128002 0.02228133 0.047824275
000180 1b 88 32 bc 24 cf 1b bd 2d 1e 0f be 42 14 39 3e
       -0.010896708 -0.03803934 -0.13976355 0.18074134
000190 6e 16 2f 3d 5a 65 81 3d c1 32 87 bd 00 b5 d4 3c
       0.042746 0.063181594 -0.066014774 0.025965214
0001a0 7f b2 4f bb 87 ae 90 3c 6e b8 a6 3d 9b fb 1d be
       -0.0031692085 0.017661346 0.08140646 -0.15428011
0001b0 44 f0 34 bd 07 0e ec bc d7 53 e2 bc 46 6c f5 3c
       -0.044174448 -0.028815283 -0.027627869 0.029958855
0001c0 38 98 b5 3d 1d 49 df bb c9 38 5c bd ff 2c 28 bd
       0.08866924 -0.0068141357 -0.053765092 -0.041058537
0001d0 04 36 bb 3d 80 6a 84 bd 09 ca 7f 3c e7 35 e6 bc
       0.09141162 -0.06465626 0.015612134 -0.028101875
0001e0 f7 2b a3 3b 3a 46 fc be b7 6b 58 bd aa fa 02 be
       0.0049796063 -0.4927233 -0.0528371 -0.12790933
0001f0 4f 56 ef 3d 4a f4 31 be 3e d5 b5 3d 19 9a 7c bd
       0.11686384 -0.17378345 0.08878563 -0.061670396
000200 b2 33 ae 3c 74 43 df bd 9b ad 27 be 79 65 af 3b
       0.021264885 -0.109015375 -0.16374819 0.0053526727
000210 fe ed 42 3b f5 ac be 3e 28 f0 fe 3c 83 6a 5b 3d
       0.0029743905 0.3724133 0.031120375 0.053568374
000220 96 42 98 bd 4a 3c 59 bc 2f 40 c1 bd 3f f9 22 3d
       -0.07434575 -0.013259003 -0.0943607 0.03978848
000230 bb b4 0c be 40 bd 06 3e 5d 3f 88 bf 09 aa da bd
       -0.13740818 0.1315813 -1.0644337 -0.10676963
000240 b4 fd 15 3c c8 0c a5 3d 1a df 74 bd 23 60 d1 bd
       0.009154726 0.080590785 -0.05978308 -0.10223415
000250 c1 65 df 3d 28 1c 43 bd 7e a5 95 3c bd 72 18 c0
       0.1090808 -0.047634274 0.01826739 -2.382003
000260 69 de 8d bc 04 aa 6a bd b0 50 a7 3d 5e 6f f2 bb
       -0.017317967 -0.057291046 0.08169687 -0.00739853
000270 28 67 f8 3c 5d 4f 16 be af ff 5c be b0 bc 15 3e
       0.030322626 -0.14678712 -0.2158191 0.1462276
000280 06 26 72 3e 3f ba ab bd ad 1f fb bc 99 47 51 bf
       0.23647317 -0.08385133 -0.030654753 -0.81749874
000290 2c 0e d6 3d ad 3b bd bd f4 82 cc 3d 35 25 42 be
       0.10451922 -0.09239898 0.09985915 -0.18959506
0002a0 f1 16 2c 3d 74 15 b1 3c d1 f3 ec 3e 86 f9 56 3d
       0.042014066 0.021616675 0.46279767 0.052484058
0002b0 36 1d b5 bd 7f 2a 52 bd fe 44 aa bd c5 e6 0c 3e
       -0.08843462 -0.05131006 -0.083139405 0.13759907
0002c0 6c b4 b3 bd 76 d9 bd 3c 38 c2 0a 3e 6c 46 9e 3b
       -0.08774647 0.023174983 0.13550651 0.0048301723
0002d0 5b 09 03 3e 71 04 35 bd 67 88 bb bb 25 aa d2 bd
       0.12796538 -0.04419369 -0.0057230475 -0.10286359
0002e0 6c 05 94 bd 4b e5 a2 3c bc a0 73 bc fe d0 89 bd
       -0.07227597 0.019884726 -0.014869865 -0.06729315
0002f0 01 37 84 be 2c f4 3d 3b 4b 1b e2 3d 9b f0 3c bb
       -0.25823215 0.002898465 0.11040362 -0.0028829935
000300 55 92 ed bb 34 b1 05 bd 60 71 29 3d b6 c4 f3 3b
       -0.00725011 -0.032639697 0.04136789 0.0074392213
000310 9f 0a 30 be 96 eb d8 3b d3 9b 85 3c fb fa d9 bd
       -0.17191552 0.006619881 0.016309654 -0.10643574
000320 4a 94 bd 3d 19 4d 09 3c b2 4c 9f be 83 1d 3b bd
       0.092567995 0.008380198 -0.311132 -0.04568244
000330 36 a6 05 bd d3 02 85 bd 33 a1 c5 3c b9 34 0b be
       -0.032629214 -0.06494679 0.024124717 -0.13594331
000340 88 63 e6 3b 26 02 16 3d b4 bd 9b bd 37 e0 ce bd
       0.007030908 0.036623143 -0.076045424 -0.10101359
000350 2e b6 8c 3d d5 c0 2a be 00 d7 5e 3c dd 4f b0 bc
       0.068706855 -0.16675122 0.013601065 -0.021522457
000360 6f 6d 67 3c b2 87 83 3d 57 fe 66 3d b5 e1 dc 3b
       0.014125212 0.06422366 0.0563949 0.0067407736
000370 05 91 fa bd 01 f8 cb bc 38 d0 8d 3d 05 57 72 c0
       -0.122346915 -0.02489853 0.0692448 -3.7865613
000380 b7 37 f0 bd 10 29 5a be e8 cf dc ba 15 03 d4 3d
       -0.11729377 -0.21304727 -0.0016846629 0.1035215
000390 bc 78 15 3d 1b 80 5c bd 91 55 9c 3c 86 c6 95 3d
       0.036492094 -0.05383311 0.01908377 0.07313256
0003a0 e3 94 90 bd 5e b3 de 3c 6e a9 b1 bd dd 7f bb bd
       -0.07059648 0.027185138 -0.08674894 -0.09155247
0003b0 be e3 73 be 4d fe b7 3c 10 bd 36 3d c9 36 21 be
       -0.23817345 0.022460127 0.044613898 -0.15743555
0003c0 68 86 10 bd 21 05 41 3d e6 40 d0 3d 05 99 27 3e
       -0.03528443 0.047124032 0.101686284 0.16366966
0003d0 96 cd 3d bf a7 89 fa 3d b7 d6 b8 3c 22 3e 0f bd
       -0.74141824 0.12233286 0.022563322 -0.034971364
0003e0 e2 c6 32 bd c2 dd da 3c 62 33 85 be 99 8e 6f 3b
       -0.0436467 0.02671707 -0.26015764 0.00365535
0003f0 33 bf bf 3d 0b 9b 9a bd c0 61 35 3e 72 c1 72 bd
       0.0936264 -0.07549103 0.1771307 -0.059266515

bias f4 [256]
000000 1e 70 82 3d 9d 57 71 3d 11 0c 27 3d e2 65 b6 3d
       0.06369041 0.058921445 0.04078299 0.08906151
000010 a7 eb 86 3d 6c 9f 45 3d 74 0a b9 3d 55 c6 81 3d
       0.06587916 0.04824774 0.09035197 0.06336657
000020 c1 47 97 3d db d4 21 3d 2d 14 3f bc 75 9a ba 3d
       0.07386733 0.039509635 -0.011662525 0.091114916
000030 b1 60 b5 3d ad a4 53 3d 11 0e de 3d 8e 23 be 3d
       0.08856333 0.05167072 0.10842527 0.09284125
000040 b9 ae ad 3d 2e 95 83 bc 3e 2d ea bc c3 19 0a bc
       0.08480591 -0.016062345 -0.028586026 -0.008428994
000050 2b 18 8a 3d e9 a7 bb 3d 4c 72 32 3e c4 72 5e 3d
       0.06742891 0.09162886 0.17426413 0.054308668
000060 e5 83 17 bd 3a 23 7d 3d d1 fe c5 3d 8c 1a 65 bc
       -0.03699102 0.061801173 0.09667743 -0.01398338
000070 a8 5d ea 3d b3 74 c7 3d 00 00 00 00 d1 e8 d5 3d
       0.11443645 0.097390555 0.0 0.10444797
000080 6b 4c 8e 3d 6e ff 0a bd e7 10 2b 3d 96 c2 31 3d
       0.06948169 -0.033935003 0.041764166 0.043398462
000090 91 dd 04 3e 35 bf d3 bb ef 51 13 bc 84 d2 bf 3d
       0.12975146 -0.0064620026 -0.008991702 0.093663245
0000a0 f8 e3 6e 3d 6b 87 da 3d fa c2 e3 3c cf 1b 54 3d
       0.058322877 0.1067036 0.027802933 0.051784333
0000b0 02 64 9c 3d 00 2a bd bb d8 6a 83 3d bb 26 27 bd
       0.076362625 -0.005772829 0.06416863 -0.04080842
0000c0 e8 2a 4f 3d 88 0f d8 3d 7e 80 99 3d 8c 42 32 3d
       0.050578028 0.10549837 0.07495211 0.043520495
0000d0 e0 d2 91 3d 6b 62 2a 3d 90 8c 85 3d a7 22 8f 3d
       0.07120299 0.041597765 0.06520951 0.06989031
0000e0 03 87 5b bc 99 bd 70 3d 80 8d ac 3b ed 18 cb 3d
       -0.0133988885 0.058774564 0.0052658916 0.099168636
0000f0 7b bb a4 3d 9d f7 f9 bb de eb 17 3d dc 10 45 3d
       0.080435716 -0.0076283948 0.037090175 0.04811178
000100 72 24 ad 3d c4 45 84 3d 57 ff 40 3d aa cc 3f 3d
       0.08454217 0.06458619 0.04711851 0.046826042
000110 62 7a 01 bd 79 76 03 3e 7d 6b af 3d cd 35 4f 3d
       -0.031610854 0.12838162 0.08565424 0.050588418
000120 28 69 e4 3c c4 78 4d 3d 05 02 b9 3d 2d 71 2c be
       0.027882174 0.050164 0.09033588 -0.16840048
000130 b0 5e 58 3d b8 40 a1 3d c1 e3 18 3d 34 64 9a 3d
       0.052824676 0.07873672 0.037326578 0.075386435
000140 53 4f 8b 3d b2 72 47 3d 9e 04 8f 3d 6e 14 b4 3d
       0.06802239 0.048693366 0.069833025 0.08792959
000150 3f af 51 3d d7 65 a5 3d 35 18 63 bc b7 2f 24 3e
       0.05119252 0.08076065 -0.013860752 0.16033827
000160 1c 8e fe bb 65 c4 da 3d a7 72 2b bd bb a4 6d 3d
       -0.0077684056 0.106819905 -0.041857388 0.058018427
000170 e5 39 e9 3d 3b fe 36 bd 68 21 17 3d bc 9f 82 3d
       0.11387996 -0.044676047 0.036897093 0.06378123
000180 3b 8b 97 bc 4d 95 9a 3d e8 f1 a0 3d 6f c7 0a bc
       -0.018499007 0.07548008 0.0785864 -0.0084704
000190 db 0a a2 3d 77 77 c8 3d 62 e4 a9 3d 24 a8 15 bd
       0.07912227 0.09788411 0.08295514 -0.036537305
0001a0 0b 24 c4 3c 6a 65 b9 3d 00 00 00 00 0f b6 c8 3d
       0.023942968 0.09052546 0.0 0.0980035
0001b0 b0 7c a5 3d 04 a7 88 3d 83 71 31 3d a2 62 59 bc
       0.08080423 0.06672481 0.043321144 -0.013268145
0001c0 2e 38 75 3d 92 a0 eb bc 45 2b c1 3d 31 cc 82 3d
       0.05986803 -0.02876309 0.09432081 0.06386603
0001d0 22 23 14 3d 6e fd e7 3d 04 1c 9f bc 00 70 9e 3d
       0.036166318 0.11327635 -0.019422539 0.07736206
0001e0 50 6e 95 3d 0c a2 1b bc 44 89 b0 3d ff e6 a0 3d
       0.07296431 -0.009499084 0.08619931 0.07856559
0001f0 34 ca 09 bc 97 78 2b bc e0 ca c4 3d c8 c0 de 3d
       -0.008410025 -0.010465763 0.09609008 0.10876614
000200 a1 59 f0 bb 26 2d 98 3d 61 ac b4 3d eb 55 b0 bc
       -0.0073349033 0.074304864 0.08821941 -0.021525344
000210 68 9d b2 3d a8 56 0a bd 6f 5d a8 3d c2 62 78 3d
       0.08721429 -0.033774048 0.08220946 0.060641058
000220 87 68 02 bd bf b1 63 3d 01 63 95 3d 97 6c e3 3d
       -0.031837966 0.055589434 0.07294274 0.11104696
000230 74 68 0a 3e c7 4c 16 3e 48 46 13 bc f8 cf 5b 3d
       0.13516408 0.14677726 -0.008988924 0.05366513
000240 4c ba a3 3d 4c 7a 01 bc 72 d6 fd 3d 0f 50 7e 3d
       0.07994518 -0.007902693 0.12394418 0.06208807
000250 9c ed 9a 3d 80 e9 2a bd 45 05 ca 3d f0 df 99 3d
       0.07564852 -0.04172659 0.09864286 0.07513416
000260 79 a7 ae 3d 80 ef 7a 3d 54 d3 ee 3d 2e c4 69 3d
       0.085280366 0.06126356 0.116614014 0.057071857
000270 13 1e c9 3d 65 fa a9 3d b1 a4 ba 3d ab 42 dc 3d
       0.09820189 0.08299712 0.09113444 0.107549034
000280 7c 05 8f 3d 30 22 b7 3d ca 38 67 bc 80 7c 8a bc
       0.06983468 0.089420676 -0.014112661 -0.01690507
000290 89 40 e5 bc 41 1a ad 3d a6 41 e8 3d 41 f6 2b 3d
       -0.027984874 0.08452273 0.113406464 0.041982893
0002a0 cf 83 8f 3d d5 62 eb bb 0f 66 34 3d 4b 52 8e 3d
       0.07007562 -0.0071834126 0.044042643 0.0694929
0002b0 86 80 8e 3d 2f 0c d2 3d 9a 7d fb bb 5a 76 31 bd
       0.06958108 0.1025623 -0.007674885 -0.04332576
0002c0 ea 7b d5 3d 86 20 ea 3c fd 85 06 bc a1 0c 34 bc
       0.10424025 0.028579962 -0.008210656 -0.010989339
0002d0 4f 0f 81 3d 3e 59 af 3d 6e df 99 3d 07 4e c4 3d
       0.06301748 0.085619435 0.07513319 0.09585195
0002e0 bf 5d 97 3d 4b 2d 3a 3d 3e 86 84 3d 1d d7 52 3d
       0.073909275 0.04545335 0.06470917 0.05147468
0002f0 1c ca 2d 3d 78 ed 16 bd 61 92 a1 3d ea 24 51 3d
       0.042429075 -0.03684756 0.07889248 0.051060595
000300 bb e4 1c 3d bc 53 bd 3d e9 ba e1 3d 2a a0 c8 3d
       0.038304072 0.09244487 0.110219784 0.09796174
000310 13 cf bd 3d 4b 53 48 bc 29 d1 01 bd b8 b5 f8 bb
       0.09268012 -0.01222689 -0.03169361 -0.007590022
000320 38 97 4f 3d 37 0c 8b 3d b3 5f 82 3d ca 1b c4 bc
       0.050681323 0.06789439 0.063659094 -0.023939032
000330 67 94 13 3d ca 56 fc bc 84 40 ae 3d ec 61 7b 3d
       0.0360302 -0.030803103 0.08508399 0.061372682
000340 dc 18 8b 3d d3 c9 c4 bb 52 8b cf 3d 4f 57 ce 3d
       0.06791851 -0.0060055046 0.10133995 0.100752465
000350 7e 5c 67 3d bd 11 9c 3d 2f a4 c0 3d 5e 06 09 bc
       0.05648469 0.07620571 0.094063155 -0.008363334
000360 81 48 a6 3d 85 fe 7b bc 6a 84 6b 3d 14 4d a2 3d
       0.08119298 -0.015380506 0.057499327 0.07924858
000370 4b 9e fd bc 00 00 00 00 16 3e e2 3d 87 14 bb 3d
       -0.030959269 0.0 0.11046998 0.09134775
000380 3e cb 8f 3d 46 2e ce 3d 14 e6 21 bd ac e3 f1 bc
       0.07021187 0.1006742 -0.03952606 -0.029527508
000390 90 32 e0 bb 96 9f 90 3d 6f b1 54 bc 24 5c dc 3d
       -0.006841965 0.070616886 -0.012981757 0.10759762
0003a0 06 f6 31 bd 57 21 08 bc 7f 6f bd 3d 5d cc 8a 3d
       -0.043447517 -0.00830873 0.09249782 0.067772605
0003b0 f4 28 9d 3d 2c 13 da 3d d7 7b 8e 3d 05 87 cd 3d
       0.07673827 0.10648188 0.06957214 0.100355186
0003c0 3c 02 28 3e e5 63 6c 3d 1f f3 8a 3d 2b 1f ab 3d
       0.16407102 0.057712454 0.06784653 0.08355554
0003d0 92 6f 76 3d 59 b2 cc 3d 78 86 e8 3c 4a 41 72 3d
       0.060164995 0.099949546 0.028384432 0.059144296
0003e0 b7 da 50 3d 9f fd 1b 3d f3 e2 be 3d 8a f3 cc 3d
       0.050989833 0.03808367 0.09320631 0.10007389
0003f0 01 62 7c bc a3 fe c8 3d 82 79 84 3d d5 b2 a1 3d
       -0.015404225 0.09814193 0.06468488 0.07895438

weight f4 [2, 256]
000000 b9 fc 97 be ec 23 8c be 6d 72 9b be 07 05 73 3e
       -0.29685 -0.27371156 -0.30360737 0.23732387
000010 b5 0e 6c be 36 83 69 be d0 9b e6 3d 88 1f 9a be
       -0.23052485 -0.22803959 0.112601876 -0.3010218
000020 4d 39 23 3e b4 bb 42 3d a6 90 46 bd c7 16 3d 3e
       0.15939827 0.04754229 -0.04847779 0.1846572
000030 dc a9 71 be a2 70 93 3e a0 06 49 3e 6e d6 b6 3d
       -0.23599952 0.2879687 0.19631433 0.08927618
000040 dd e7 08 3e 11 04 56 bd 00 80 16 bd 9d 59 aa bc
       0.13369699 -0.05224997 -0.036743164 -0.020794684
000050 df 64 89 be 7c af 25 bf 87 31 57 be fc 80 03 be
       -0.2683477 -0.6472089 -0.21014987 -0.12842172
000060 f9 b8 a9 bd b2 81 a5 be 18 89 aa 3e a6 8e c3 bc
       -0.08287234 -0.32325512 0.3330772 -0.023871731
000070 e2 5e 24 3e 5b e4 67 3e 71 0c 25 be fb 24 a8 3e
       0.1605182 0.22645704 -0.16118027 0.32840714
000080 74 82 0a bf 4c cb 72 bd 8b fc 8d be 73 ab be bd
       -0.54105306 -0.05927591 -0.27731737 -0.09310045
000090 25 d0 4c bd 73 18 b7 bd cf c8 65 bd ab 55 32 3e
       -0.05000319 -0.0894021 -0.05609971 0.17415492
0000a0 5e df 96 be 41 02 a4 3e 01 32 0b be e7 e3 6c be
       -0.2946729 0.3203297 -0.13593294 -0.23133813
0000b0 92 9e 05 be 2c 0e 59 3c 2b ec c4 bc 61 c9 b5 3b
       -0.13048771 0.013248008 -0.024038395 0.005547688
0000c0 72 1d cd be c9 06 64 3e 54 14 8b 3e a0 89 99 3d
       -0.40061527 0.22268213 0.27163947 0.07496953
0000d0 d2 a7 33 3b a7 27 39 bf cf d9 35 be d5 bd b0 3e
       0.002741326 -0.7232613 -0.17758869 0.3451983
0000e0 cd ff c7 bd 65 46 0f 3e 76 6c 9e 3f cf b6 b6 3e
       -0.09765587 0.13991697 1.237685 0.35686347
0000f0 f2 f4 45 bd 0c 4d 2d 3d ca 76 e2 be a8 56 2b 3e
       -0.0483293 0.042309806 -0.44231254 0.16732275
000100 47 73 00 3e 5f 7d 5b be 96 de 58 be 2f 13 89 be
       0.12543975 -0.21434544 -0.2117866 -0.26772448
000110 b8 03 80 bd a5 bf b6 3e 64 a4 ad 3e ee c3 0e be
       -0.06250709 0.35693088 0.33914483 -0.13941929
000120 a4 a8 87 be 99 d9 a9 3d 37 78 24 3e 1d 94 41 3f
       -0.2649585 0.082934566 0.16061483 0.7561663
000130 f6 b2 ba 3d 5f 53 5d be 29 72 16 be 89 bb b5 3c
       0.09116165 -0.21613835 -0.14691986 0.02218415
000140 38 73 4c be 79 33 c9 be ff 2b 93 3e cf 58 9b 3d
       -0.19965827 -0.39297083 0.28744504 0.07585298
000150 a7 e5 05 be d2 ed 87 3e 98 0f 26 bd de 4e 7c 3e
       -0.13075887 0.2654863 -0.040542215 0.2463946
000160 8b fb 70 bc 8e ab 82 3e 3e f1 ef 3c 79 2a 39 be
       -0.01470841 0.2552151 0.029289838 -0.18082608
000170 20 34 3c bf 5e 61 68 bc 8e 42 02 be dc f8 67 be
       -0.73517036 -0.01418337 -0.12720701 -0.22653526
000180 d6 d8 65 bd a4 1a 49 be 6b fe a5 3e 94 28 2a bd
       -0.056114994 -0.19639069 0.32420668 -0.041542605
000190 fa 08 c8 3e e8 4b 3c 3e e5 cc 9e 3d de 14 b1 bd
       0.3906935 0.18388331 0.07753924 -0.08646558
0001a0 49 55 c8 bd 80 18 ce be 6c b8 18 bd ab 78 54 3e
       -0.09781892 -0.40253067 -0.037285253 0.20749156
0001b0 49 6c e7 3d 3e 7d 7f be 56 e4 82 be ca f9 e8 3c
       0.11299951 -0.2495012 -0.25564831 0.028439421
0001c0 85 3d a1 be 5a ac 30 bd 5c f2 46 3e ab d1 3f be
       -0.31492248 -0.043133117 0.1942839 -0.18732326
0001d0 9b ba 07 be dc 59 7e 3e 33 3f 21 3c 4a cd 5e be
       -0.13254778 0.24838966 0.009841728 -0.21757999
0001e0 84 3d 95 3e 9d ae f3 bc d2 50 5d 3e e4 c4 1c 3d
       0.29148495 -0.029746348 0.21612862 0.038273707
0001f0 65 45 a7 3d 58 ef bc 3d b0 6c 13 3e 4b 06 3d 3e
       0.08167533 0.09225339 0.1439693 0.18459432
000200 d2 04 18 3d b6 f0 bc bc 30 34 68 3e f0 64 f0 bd
       0.037113972 -0.023063999 0.22676158 -0.11738002
000210 95 2b 76 3e f0 ac f6 3c 3c 21 71 3e 3e 3d c7 be
       0.24040063 0.03011176 0.23547834 -0.38913912
000220 be fd 5a 3d 19 c6 9e be ff 5f 47 be 1d fd ac 3e
       0.053464644 -0.31010512 -0.19470213 0.3378686
000230 50 c1 54 bf 93 00 81 3e 03 8c 69 bb 98 2f a1 be
       -0.8310747 0.2519575 -0.0035636432 -0.31481624
000240 4a fd 7e 3e 20 bf 97 bd ad 9e 2f 3e e2 03 53 3e
       0.2490131 -0.07409501 0.17150374 0.2060695
000250 ac 77 8a bd 7e cc 8b bd be 8e 81 3e 2a af 17 bf
       -0.06761107 -0.06826113 0.25304216 -0.59251654
000260 63 b9 58 3e 93 62 b3 3e a7 ff 9c 3e b5 f8 78 be
       0.2116447 0.35036144 0.30663797 -0.24313624
000270 7a 00 70 3e 3f e9 8e be ef 55 51 3e 7f 24 91 3e
       0.23437682 -0.27912328 0.20442937 0.28348157
000280 97 99 5d be c2 ba 58 3e c3 8b 70 bb 75 96 19 bd
       -0.21640621 0.21164992 -0.0036704398 -0.037497003
000290 32 66 87 3d 22 8d 42 3e f8 f3 c9 3e ad d5 b2 be
       0.06611289 0.1899915 0.39443946 -0.34928647
0002a0 1a aa 09 be ac 00 f5 bc ca 92 6f be f1 3a 63 be
       -0.13443795 -0.029907547 -0.2339584 -0.22190453
0002b0 6c 91 1e 3c ed e7 cf 3e a7 9b bd 3c 4e a6 fa 3c
       0.009678226 0.40606633 0.02314551 0.030596878
0002c0 d5 68 2c 3e 22 28 43 be 24 2a a6 bc fc 60 a6 bc
       0.16836865 -0.19058278 -0.020283766 -0.020309918
0002d0 29 64 6b be 6d 2b ab 3e 13 36 09 bf bc ec 84 3e
       -0.22987427 0.3343157 -0.53598136 0.25961864
0002e0 b0 50 5d 3e b7 76 6b be 70 25 0d 3e 52 92 b1 3d
       0.21612811 -0.22994505 0.13783813 0.086704865
0002f0 37 80 18 be 58 95 b8 bd ac dc 9e 3e 25 53 53 bf
       -0.1489266 -0.0901286 0.31027734 -0.82548743
000300 1b ae 1f be d8 d3 5f 3e d1 e9 1b bf 3c ab 9e 3e
       -0.1559376 0.21858156 -0.6090365 0.30990016
000310 e2 01 8e be 80 a2 e8 bc be d7 e4 bc 28 79 8a bd
       -0.2773581 -0.028397799 -0.027934905 -0.0676139
000320 17 93 fb bd 24 38 3f be 4f 26 8c 3e 23 c2 14 3d
       -0.122839145 -0.1867376 0.27372977 0.036317956
000330 94 fa 5b be 02 8b ac bb 69 fc 12 3e 0d f9 49 be
       -0.21482307 -0.0052655945 0.143541 -0.19723912
000340 0c fd 96 be e3 11 96 bc aa 91 88 be 49 23 67 3e
       -0.29489934 -0.018319076 -0.26673633 0.22572054
000350 76 6a 8a be e9 84 a9 bd 74 f9 bb 3e b9 42 0d 3c
       -0.27034348 -0.08277304 0.36713755 0.008621865
000360 01 17 72 3e fd dd bd bc 10 aa 13 be 81 c0 67 be
       0.23641588 -0.023177141 -0.14420342 -0.22632028
000370 ef 64 2d 3c bb 70 2d bc 71 4a 82 3e 98 f4 3e 3c
       0.0105831465 -0.010585959 0.2544742 0.011654995
000380 7b 47 18 bf f6 6b 9a 3d 0e 04 74 bc 41 78 4c 3d
       -0.5948407 0.07540123 -0.014893545 0.04991937
000390 23 9c e3 bb ce 27 4f be 0d 2b 49 bd c9 25 55 3e
       -0.006946103 -0.20230028 -0.049113322 0.20815195
0003a0 35 bf c1 3c c3 5c 36 bd b5 9d 49 3e eb b5 5d be
       0.023650745 -0.04452206 0.19689067 -0.21651427
0003b0 c5 0d 63 3e f2 5f 3f 3e 18 8d c0 bc d8 a2 83 3e
       0.22173221 0.18688944 -0.023504779 0.25710177
0003c0 fc f2 1d be 77 d0 e7 bd 83 ec 3c bf f5 e6 03 bf
       -0.15424722 -0.113190584 -0.7379839 -0.5152429
0003d0 69 cf ec 3d a7 44 37 3e 0f ed 70 be e7 1d ef bd
       0.11562998 0.17897283 -0.2352793 -0.11675625
0003e0 fe cb 0b 3e 60 cf 54 be 31 cc 7f 3e 5a 89 27 3e
       0.13652036 -0.20782232 0.24980237 0.16360989
0003f0 3e 6f 4d 3c 10 2e 88 3e 5a b0 12 3e a3 46 c4 be
       0.012538729 0.26597643 0.14325085 -0.38335142

bias f4 [2]
000000 3b 20 53 3d 8b 17 12 3d
       0.05154441 0.035666984
