exp_local/gcbc_changing/weights/26000.pt (torch, 274440 bytes, 6 tensors)

weight f4 [256, 4]
00000000: 19ba 0bbe 1d27 36be 4e96 fc3d 3344 2b3e
00000010: abb3 493d 400b 5e3e 1fae 49be 8cc3 67bd
00000020: f591 97bd 0490 e73d f93e 433e fb98 0dbd
00000030: 6776 0a3e 32af 243e e31a 07be c852 26be
00000040: 2257 353c a671 a4bd d5eb c3bd ddf4 bdbb
00000050: 4324 d8bd 9fa0 d9bc eb4e 9fbc c2ed 5abd
00000060: 08f6 82be 4178 823b 5ff5 573e 5ae0 093c
00000070: 3091 cc3c feb8 89bd d0a2 213e 17fd aa3c
00000080: e037 8fbd 409d 57be 12c0 8b3d d22f 573e
00000090: 8230 7b3e f01f f63d a30e 7cbe fa9c fabd
000000a0: d484 cfbd f0d7 473e 079f c73d 651b 3ebe
000000b0: 9bd3 723e 8ae5 413c 0f0a 44be 013b 83bc
000000c0: d9bb 5e3e 7371 e5bd b530 52be efc0 de3d
000000d0: 6410 5dbd 8fce 983e a65d 623d 12c6 7ebe
000000e0: bfdd 45bd e647 2d3d 9182 5c3d 8efd 38be
000000f0: 5cb1 f1be 4604 e7bc 6a70 3a3d 0a6e e9bd
00000100: 1a02 97be 8cca b53b 44bc 973e 7481 85bb
00000110: 5700 683d 4dce 4c3e 3a6a 60bd dabb 4cbe
00000120: f1f2 1ebc 0b84 683e 60f5 323c 3fda 65be
00000130: 9022 9bbd 9518 63be 1ba0 763d d17d 463e
00000140: b4b8 bd3d b6a5 463e a29a b8bd 7f1d 48be
00000150: 105a 593e 5ffa cc3d 164c 5cbe b3f1 d2bd
00000160: d089 483e 4e40 ec3d 4420 5bbe 03dd 10be
00000170: afaf 293e 009e 033e 1d48 43be b93a 2ebe
00000180: 24a5 f63c 15cb 7bbe dade fabc 5f80 7a3e
00000190: ae87 fabd 3dec 7d3e 213b 043e 4fb7 7bbe
000001a0: 55d7 9a3c e17c 2dbe 1bff 9cbc c04f 6d3e
000001b0: 03cc 433e b7f6 983d b98a 2bbe 2fab 7abd
000001c0: 1403 e43d d77e 47be bf8d ddbd 4811 473e
000001d0: 19f7 8cbd 82ed a13e 998f 893d 7e6a a2be
000001e0: 180a 9abd 1a71 05be a6c8 823b 9e5a 0bbd
000001f0: 6471 1e3e a005 013e 582f 2cbe fcbc 0bbe
00000200: a51c 35bf 6158 323d 32fc e43d 43db 95bd
00000210: efcc 42be ac30 a53d 403e 483e 34bb 9fbd
00000220: 7431 f53d 403a 0cbe 75e7 f0bd 0673 093e
00000230: fb38 c0bd 47be 59bd cdbd 1bbc 7341 a0bc
00000240: 8f0e 50be e2b7 d2be d615 263e 5ff3 22be
00000250: 172b 4c3e 8993 c7bd ca79 4ebe f9f0 c03d
00000260: 9e19 fa3c 8f65 813c aff8 003d ffd5 0dbd
00000270: 4637 4f3e 86fa 0cbe 13c5 55be 751f 093e
00000280: 498a 843d 84d9 4d3e 68bc 8838 33e2 5fbe
00000290: 69f3 3c3e fea3 a0bd 6395 7c3d 8dfd 8bbd
000002a0: 5f18 fc3d 5293 5c3e b15d fabd a4bb 5dbe
000002b0: 7ae0 00be 0149 49be 5d1b ad3d 25f5 183e
000002c0: 236d 38be 141d 953e 351e 513e b26e cebe
000002d0: 410d 793e ebff 34bd d018 87be 78fc 133d
000002e0: 1a42 373b fca2 82bd 9ee9 9fbd 7720 51bd
000002f0: 861d 333e 9800 513e 6288 24be fc27 50be
00000300: 012c b2bd ff00 f4bb 988f 96bd 2468 5cbd
00000310: a3b5 afbc 10aa 84be cc25 f13c 738d 853e
00000320: ca72 013e ab20 f2bd e58f fdbd 6fdb cb3d
00000330: b23c 5cbd 6240 21bd 0993 76bd 6153 9bbd
00000340: b8b8 ba3e 9d58 cdbc 1cda babe aafa c13c
00000350: 293c d23c a8a3 67be 380c cbbc 3112 663e
00000360: c24b 003d 88cc 823e aba4 eebc 9e85 82be
00000370: 7f00 b1bd fb8b 023e 352d b3be 368f 993d
00000380: 3b5d 303e d05f 143e acc2 33be f7d4 1ebe
00000390: dc62 0e3b 2c08 ccbe 5b54 0abe 0399 6ebd
000003a0: 3ef4 64be 7a35 12bb efaa 653e b09a 383b
000003b0: 41d1 d9bd 0dbe 433e baae db3d 66df 3fbe
000003c0: 979b 31be 6237 2b3e d728 a33d c1a3 36be
000003d0: 1989 3d3e f033 d8bd 22c3 3abe 708c d33d
000003e0: 3eb9 253e 3fca 27be aec1 28be ce7d 203e
000003f0: 561f debd 622c b0bd e49f d63d 85cd 11bd
-0.1364521 -0.17788358 0.12333356 0.16725235 0.04924361 0.21683979 -0.19695328 -0.056582972
-0.07400886 0.11306766 0.19066991 -0.03456972 0.1352173 0.16082457 -0.1319385 -0.16242516
0.011068137 -0.08029489 -0.09566466 -0.0057970122 -0.105537914 -0.026565848 -0.01944681 -0.0534494
-0.25578332 0.0039816205 0.21089695 0.008415306 0.024971575 -0.067247376 0.15784764 0.020872636
-0.06993079 -0.2105608 0.06823744 0.21014336 0.24530223 0.1201781 -0.24614958 -0.12236972
-0.10132757 0.19515967 0.09747129 -0.18565138 0.23713534 0.0118345115 -0.19144462 -0.016019346
0.21751346 -0.11203279 -0.20526393 0.10876643 -0.05397071 0.29845092 0.05526509 -0.24880245
-0.048307177 0.042304896 0.053835455 -0.18065473 -0.47205627 -0.02820028 0.045517363 -0.113979414
-0.2949379 0.005547827 0.29635823 -0.00407427 0.05664095 0.20000573 -0.054788806 -0.19993535
-0.009701476 0.2270662 0.01092276 -0.22446536 -0.07574952 -0.22177346 0.060211282 0.19383933
0.09263745 0.19399151 -0.09013869 -0.19542502 0.21225762 0.10008692 -0.215134 -0.10300007
0.19583821 0.11535703 -0.21399027 -0.1414681 0.16570924 0.12853241 -0.19070478 -0.17014588
0.030108042 -0.24589188 -0.030623842 0.24463032 -0.1223291 0.24797149 0.12913181 -0.24581645
0.018901506 -0.16942169 -0.019164613 0.23174953 0.19120793 0.07468932 -0.16752137 -0.06119841
0.111333996 -0.1948198 -0.108180515 0.19440186 -0.06883068 0.31626517 0.06716842 -0.31721872
-0.075214565 -0.13031426 0.0039912043 -0.034021966 0.15472943 0.12599802 -0.16814935 -0.1364631
-0.70746833 0.043541316 0.11180915 -0.073172115 -0.19023488 0.08065924 0.19554996 -0.07799378
0.11972323 -0.13694096 -0.11762897 0.13422784 -0.09385868 -0.05315998 -0.009505701 -0.019562459
-0.20318054 -0.41155916 0.16219267 -0.15913151 0.19938312 -0.09744937 -0.20163646 0.09420962
0.030529793 0.015795497 0.031487163 -0.03462791 0.20235929 -0.13767442 -0.20875959 0.13390906
0.06471688 0.20102507 6.520079e-05 -0.21863632 0.18452229 -0.07843779 0.061665904 -0.0683547
0.12309336 0.21540573 -0.122249015 -0.2165361 -0.12585631 -0.19656755 0.08452485 0.14937265
-0.18010382 0.29123747 0.2042168 -0.4031883 0.24321462 -0.044189375 -0.26386118 0.036129445
0.0027962984 -0.06378743 -0.07808231 -0.05105635 0.17491731 0.20410383 -0.16067651 -0.20327753
-0.08699799 -0.007446408 -0.07351607 -0.053810254 -0.021448916 -0.25910997 0.029436968 0.2608448
0.12641445 -0.11822637 -0.12380961 0.09953963 -0.05376882 -0.03936804 -0.060198817 -0.07584263
0.36469054 -0.025066668 -0.3649453 0.023679096 0.025663452 -0.22621024 -0.0247861 0.22467877
0.03132225 0.2554667 -0.029131254 -0.25492567 -0.08642673 0.12748711 -0.34995428 0.074980184
0.17223065 0.14489675 -0.1755473 -0.15510927 0.0021726405 -0.39849985 -0.13508742 -0.058251392
-0.22358796 -0.0022309707 0.22428487 0.0028168373 -0.10635615 0.19115467 0.10726686 -0.18737563
-0.17344509 0.16720346 0.07966774 -0.17835905 0.1850933 -0.10556781 -0.182385 0.10329521
0.16183946 -0.16385745 -0.16480133 0.1567299 -0.108458206 -0.08602215 0.104797155 -0.03559639

bias f4 [256]
00000000: b8ff dd3c 5f5e a93c f676 07be 792d 7b3c
00000010: 053a f2bb 0000 0000 0865 c8bd 05ad ccbd
00000020: 5af6 893c e6a0 ef3b dc65 383c 3ea4 17bc
00000030: b484 d33b e950 5bbc 8a12 b33d e384 233e
00000040: e423 76bc de84 603c 00ab 5c3c 3409 d13c
00000050: 2b66 7d3c d66e 093c 86a1 f13c 0a5c d8bd
00000060: 4e80 853c 0ca9 953b 369d 833e eb2c a2bb
00000070: 4068 5a3c a2ca 71bc 0000 0000 3be9 a73c
00000080: da54 c93d 9dce 813c 9bcd 363c 0000 0000
00000090: 8a23 0d3d 5922 043c 470c 8cbd ecbf de3b
000000a0: 2cf0 20bc a499 0abe e41c 993c c0ac 273d
000000b0: 0e87 adbb ed7d 9a3c 0000 0000 85df 87bc
000000c0: 0000 0000 7f57 15bc fb39 b03c 0000 0000
000000d0: e300 84bc 4d9f 793c 965b 883c 0224 d7bc
000000e0: 7726 9c3c 072e 263e b872 843c 6046 7f3c
000000f0: 9b90 993d b24d 073c 4688 873b 7d3a ad3d
00000100: f3e2 193c 3444 453d 35be 7f3c d2d8 dd3c
00000110: e40e 8e3c 1dab 1e3a f8cf d43c c4f7 913b
00000120: 64f5 4c3c 5590 893c 0000 0000 ad50 a63c
00000130: 37f3 3b3c 120e cbbc cb9b 6f3c 6b04 ad3c
00000140: 593c a13c 16f8 1d3d 1026 1d3d ce7c 7d3c
00000150: 0000 0000 bc2a 17bc fcf1 8dbc d111 113d
00000160: be1e bb3c 83af feba a8c4 4e3c 0000 0000
00000170: fbc4 8b3c c4c6 513b 72b8 753c 8194 2fbc
00000180: 5187 563d eb37 9d3c d56d 7b3c bd51 713c
00000190: e9a7 773c 44b8 613c 63a7 3fbc 7796 743d
000001a0: 4106 333c 3e86 48bc 7fb8 8d3c 0933 6d3c
000001b0: 0c31 8b3c 0000 0000 c5fe e63b e4ec a03c
000001c0: f9a6 793d c320 833c 92ab 113d 8b85 a33c
000001d0: 8f21 edb9 0000 0000 4885 9e3b 661c 983c
000001e0: 4c6e aa3d 0241 3cbc 20d9 cb3c 35d1 763c
000001f0: 6e00 d13c 4abb 003d f99d b83c 0000 0000
00000200: 126b 4ebc d372 843c da90 923c 325e 5bbc
00000210: 5491 9f39 bc64 f9bb caf2 3b3d 68ef 123d
00000220: 0000 0000 fc5f 1fbc 5b70 a6bc 8032 16bc
00000230: 345d 833c 28a2 5f3d f473 31bc 6d59 ef3a
00000240: 73d1 ef3b 1b05 2f3d 0000 0000 d3e0 d63c
00000250: 0000 0000 1b44 863c d387 a73c cfae 80bc
00000260: 0ede 543c e828 a43c 1241 fb3b 9dce e2bd
00000270: d8f4 d83d cca5 823c ff52 993c 6391 7f3c
00000280: 01d6 9b3e a720 9a3c 0000 0000 24f4 10bc
00000290: 687e 0e3c a73f 983c 0000 0000 5296 7d3c
000002a0: 0000 0000 9e39 e33c a65f 64bc 1cf3 c33c
000002b0: 0000 0000 3021 953c edb7 013d 308f 243e
000002c0: 6d05 763c ac4b 183c 6e38 18bd d360 aa3c
000002d0: 9979 873d b2cb 583c 91ca 4f3d 413a 673c
000002e0: 8181 e73b 2301 0dbd f35f 633c 0523 2c3c
000002f0: 25e8 653c 0000 0000 29db 4cbc 5360 b3bb
00000300: 1dfc ce3c 1aa5 b73c 475a da3b e3dc c7bd
00000310: b41e 9c3c 7ab8 6a3c 9eba 843c 2403 873b
00000320: 868c 053c fcf5 9b3d 7bc4 47bc 4aae fcba
00000330: 0000 0000 41c5 bd3c 878a 843c 9448 7b3c
00000340: 6b5f 7bbc 7a42 c0bb c197 bbbd aef6 843c
00000350: c904 bc3c 2cdf 1c3c 2a7c f33d 4dfa a7bb
00000360: 66e1 823c 140b be3c a9b6 d23c 057b 8b3c
00000370: 4a35 2cbc 82af 2bbb 9376 c53c f894 2dbc
00000380: e8da f3bb e88e 973c f05d b0bc 0000 0000
00000390: 6ad7 1d3d 0000 0000 0000 0000 7172 0c3d
000003a0: 0000 0000 9d0c 463c e57b e03b f5fe 9a3c
000003b0: 0988 743c 0000 0000 7b5b 4f3e c2d9 8d3c
000003c0: e0e6 253c 38ab 1bbb c071 5f3e ecdf e53b
000003d0: 942b aabc f329 e43c aab8 e6bd 0500 973c
000003e0: 0000 0000 0000 0000 06cb 0bbd 9d24 8c3c
000003f0: cb1c 91bd 48f7 e53d 48fc 47bb fe3a b53c
0.027099475 0.020674882 -0.13228974 0.015330666 -0.0073921704 0.0 -0.09784895 -0.09993938
0.016841102 0.0073128818 0.011254754 -0.009255467 0.0064550284 -0.01338599 0.087437704 0.15968661
-0.015023205 0.013703553 0.013468504 0.025517084 0.015466253 0.008388242 0.029495966 -0.1056443
0.016296532 0.004567271 0.2570588 -0.0049492023 0.013330519 -0.014757784 0.0 0.020496955
0.09830637 0.015845591 0.011157419 0.0 0.03445772 0.00806483 -0.06838279 0.006797781
-0.009822886 -0.13535172 0.018690534 0.04093623 -0.005295641 0.018858874 0.0 -0.016586075
0.0 -0.009115099 0.021512022 0.0 -0.016113704 0.015235734 0.016645234 -0.026262287
0.01906131 0.16228496 0.016167983 0.015580744 0.074982844 0.00825827 0.004136118 0.084584214
0.009392488 0.048160747 0.015609314 0.027080927 0.017341085 0.00060527195 0.025978073 0.004454585
0.012509678 0.016792456 0.0 0.020302141 0.011471561 -0.024786983 0.014624546 0.02112027
0.019682096 0.03856667 0.038366377 0.01547165 0.0 -0.009226497 -0.017327301 0.03541738
0.022841807 -0.0019430969 0.012620129 0.0 0.017061701 0.0032009343 0.0149975885 -0.010716558
0.05237514 0.019191703 0.01534601 0.014728961 0.0151157165 0.0137768425 -0.011697623 0.059713807
0.010926784 -0.012239037 0.017299889 0.0144775 0.01699116 0.0 0.007049414 0.019644208
0.060950253 0.016006833 0.035564013 0.01996114 -0.00045229166 0.0 0.0048376657 0.018568229
0.08321819 -0.011490108 0.024883807 0.015064527 0.0255129 0.031428613 0.022536265 0.0
-0.01259877 0.016168034 0.017891336 -0.013389157 0.0003043512 -0.0076108854 0.04588584 0.035872847
0.0 -0.009727474 -0.020317247 -0.009167314 0.016035654 0.054598004 -0.010830868 0.0018260904
0.0073186695 0.04272948 0.0 0.026230251 0.0 0.016389897 0.020450508 -0.015708355
0.012992395 0.020039037 0.007667669 -0.110745646 0.10593575 0.015948199 0.018716333 0.015598628
0.3043671 0.018814398 0.0 -0.00884727 0.00869713 0.01858504 0.0 0.015477734
0.0 0.027737435 -0.01393882 0.023919635 0.0 0.018204302 0.031669546 0.16070247
0.015015942 0.009295385 -0.03716319 0.020798123 0.0661499 0.0132321585 0.05073029 0.01411301
0.0070649986 -0.034424912 0.013877857 0.010506396 0.014032398 0.0 -0.012503424 -0.005474129
0.025266701 0.022417594 0.006663594 -0.09758928 0.01905761 0.014326209 0.016202267 0.0041202474
0.008151179 0.07615277 -0.012192841 -0.0019278016 0.0 0.023165347 0.016179336 0.015337128
-0.015342574 -0.0058672996 -0.09159804 0.016230907 0.0229515 0.009574693 0.11888917 -0.0051262737
0.015976619 0.023198642 0.025721865 0.017026434 -0.010510752 -0.002619714 0.024104392 -0.010594599
-0.007441867 0.01850076 -0.021529168 0.0 0.038535513 0.0 0.0 0.034288827
0.0 0.012087968 0.006850707 0.018920401 0.014925011 0.0 0.20249741 0.01731575
0.010125846 -0.0023753177 0.21820736 0.007015219 -0.020772733 0.027852034 -0.112656906 0.018432627
0.0 0.0 -0.034129165 0.017107302 -0.0708557 0.11228806 -0.0030515362 0.022122856

weight f4 [256, 256]
00000000: ad8c dfbd de2c ac3c 64f6 be3d 77a0 4fbd
00000010: 6a46 093e b8a9 f03d 1659 a33c 0309 493e
00000020: 8670 5a3d 3509 aebd ae40 c9bd 5b61 34be
00000030: 185d 7e3d 0425 9cbe 69ab 59bd 354b 763d
00000040: 61b5 59c0 d6ec c7bd b4dc 19be 4fa0 14b7
00000050: 8b2f a0bc f3ce 643d c1d2 29be 9c2a 36be
00000060: 9a5f 113d ed11 c03c 94dd 393e fdce 8fbd
00000070: 4b81 333d 4489 6ebf f44b bc3c 3539 3bbd
00000080: 62d9 3f3e 584b 96bd 9e9f 2938 b85d 19bc
00000090: 96ee e2bd b58e 12bd 3c71 b1bc 4386 1f3e
000000a0: 0199 47be 5210 d2bd 6c59 2fbe 6239 ee3d
000000b0: 641e 46bf 5b9e 213d 7dc0 9cbd 6f43 a93d
000000c0: befb 04bd 33d7 b4bd 7f54 853d 8676 3c3d
000000d0: 5c83 ae3e f508 733c 45bf bdbe 5b44 313d
000000e0: 5f0d 7abd b78e 143a 43b2 0fbe 868b 22be
000000f0: 23ce 93bd 1567 b3bc 1411 963d cb5d 8abd
00000100: e536 c43d 27c6 3d3e a9fa 47be c438 0abd
00000110: 6ddb c4bc 850f 84bc 9c41 9fbd 155e 193c
00000120: b864 ab3d b8c0 173d 2c09 32bb ef87 8ebc
00000130: 87b4 053e 8794 a73b f27e bc3d 9ed8 88bc
00000140: 15d7 c7bc f107 16bb 8aef af3c f9ea 22be
00000150: a054 d2bd 0391 f43c 306d 0e3e db49 e3bc
00000160: 4818 62bd 8186 843b 6914 61be 80e4 80b9
00000170: eab7 8bbe 1d2e bb3d 1ef9 b93c 63e3 433d
00000180: ecd5 2fbc 207e 34bd b9d2 18be fe60 3c3e
00000190: 9a2e 293d c8db 833d cba2 8bbd 39f0 e23c
000001a0: af6b 92ba 1755 873c a5ef a53d ccc6 26be
000001b0: 53af 52bd 070e ecbc d7d8 0bbd 9c40 cf3c
000001c0: d81b b53d 45bc 03bc fe98 55bd 9093 2abd
000001d0: 6e6c b63d 806a 84bd 678e c13c 708c edbc
000001e0: 4422 5b3b 342a 1fbf c8ae 6abd 8841 04be
000001f0: e551 ec3d 8f40 36be dcc4 ae3d 199a 7cbd
00000200: 0932 873c 7db7 d4bd 3a13 2dbe 7965 af3b
00000210: 3249 903b 3bb4 b93e c326 093d 3480 683d
00000220: 9642 98bd bd90 65bc 37c1 c0bd 3ff9 223d
00000230: 5aec 13be 1c48 1a3e 5e99 8abf 2c42 e5bd
00000240: c2b4 283c cb3e a93d 1adf 74bd a85f bcbd
00000250: c165 df3d e1ea 69bd 642c d53c ebca 1ec0
00000260: 2456 90bc f13a 7dbd ebbb 9e3d 4ff9 74bc
00000270: 72ed fe3c 7e91 1cbe 8de1 61be 8b0b 0d3e
00000280: d57d 723e 2d58 a4bd ad1f fbbc 9858 4fbf
00000290: d633 dc3d 4b39 c7bd f482 cc3d 38e4 3bbe
000002a0: f116 2c3d 9114 063d 1e76 ea3e f569 603d
000002b0: 361d b5bd e117 37bd 5e56 a7bd 1e38 173e
000002c0: bc50 acbd 6b30 913c 032d 093e eb79 bb3a
000002d0: 1461 fd3d 46a5 4ebd 546a 59bb 1d25 d0bd
000002e0: a5ff 87bd d7bb be3c 10bd 88bc 0f38 84bd
000002f0: 073f 84be 2cf4 3d3b 4566 dc3d ef2f 31bc
00000300: bbef 85bb f6e0 0fbd 7da7 353d 0e89 d83c
00000310: ea5c 30be 226a 6a3b 1d0c 683c 9021 e0bd
00000320: fb48 ca3d 4d80 1c3d e368 a2be f334 38bd
00000330: 36a6 05bd 24b0 8ebd b851 b73c d0b6 0fbe
00000340: 734f 2a3c 00bf 2e3d b4bd 9bbd 49fa e2bd
00000350: d7e2 8c3d 5448 26be 4e4d 7d3c dd4f b0bc
00000360: 99d3 833b da24 833d 0dfe 5f3d 6517 0e3c
00000370: 82f6 00be 7aa8 76bc c65f 8f3d 08fa 71c0
00000380: 9f92 f9bd 1988 58be f988 76bb 1503 d43d
00000390: 74d0 aa3c 1b80 5cbd 9155 9c3c 3091 973d
000003a0: e394 90bd ebc6 ee3c db7c b5bd ade4 c4bd
000003b0: 6009 75be 4dfe b73c bc62 253d a1e8 25be
000003c0: 53fc 01bd c705 423d 4e46 ce3d 29be 293e
000003d0: baa3 3ebf ff10 f83d b7d6 b83c 2442 0bbd
000003e0: e2c6 32bd c2dd da3c a20e 93be 4e10 143b
000003f0: 9ee5 af3d dabc debd 2e16 323e 3909 7ebd
-0.10915504 0.021017488 0.09324339 -0.05069014 0.13405767 0.11751121 0.01993994 0.19632344
0.053329967 -0.0849785 -0.0982679 -0.17615263 0.0621005 -0.3049699 -0.053141985 0.060130317
-3.4016955 -0.0976197 -0.15025598 -8.858812e-06 -0.01955392 0.055861425 -0.16584302 -0.17789692
0.035491563 0.023446048 0.18150932 -0.07021902 0.043824475 -0.931782 0.022985436 -0.045708854
0.18735269 -0.073385894 4.0441395e-05 -0.009360723 -0.11080663 -0.035780627 -0.02166044 0.1557856
-0.1949196 -0.10257019 -0.17123955 0.11632039 -0.7739012 0.03945766 -0.07653902 0.08264815
-0.032466643 -0.088301085 0.06510257 0.04601147 0.34084594 0.0148336785 -0.3705999 0.04327808
-0.061047908 0.0005667018 -0.14032845 -0.15873536 -0.07217052 -0.02189974 0.07327476 -0.06756171
0.09580783 0.1853262 -0.19529213 -0.033745542 -0.024030412 -0.016120682 -0.07776186 0.00936081
0.0836882 0.037049025 -0.0027166111 -0.017398803 0.13057147 0.0051141414 0.092039004 -0.016704854
-0.024394551 -0.0022892917 0.021476526 -0.15909947 -0.10270047 0.029854303 0.13908839 -0.027745178
-0.055198938 0.0040443544 -0.21980442 -0.00024584308 -0.27288753 0.09139655 0.022701796 0.047824275
-0.010732155 -0.044065595 -0.14924134 0.18396375 0.04130421 0.06438404 -0.0681816 0.027702438
-0.0011171008 0.016520066 0.08102349 -0.16286772 -0.051436733 -0.028815283 -0.03414234 0.025299363
0.088432014 -0.008040492 -0.052147858 -0.041644633 0.089074 -0.06465626 0.023627473 -0.02899763
0.0033437172 -0.6217377 -0.05729559 -0.12915623 0.11539058 -0.17798065 0.08533642 -0.061670396
0.01650335 -0.1038656 -0.16901866 0.0053526727 0.004403257 0.36270317 0.03348423 0.05676289
-0.07434575 -0.014011559 -0.09411853 0.03978848 -0.1444563 0.1506657 -1.0828054 -0.11194262
0.010297002 0.0826393 -0.05978308 -0.091979325 0.1090808 -0.057108764 0.026022144 -2.4811351
-0.0176192 -0.06182379 0.07750686 -0.014952018 0.031119082 -0.15289876 -0.22058697 0.13773935
0.23680814 -0.08024631 -0.030654753 -0.8099456 0.107520744 -0.09727725 0.09985915 -0.18348777
0.042014066 0.032734457 0.4579324 0.05478855 -0.08843462 -0.044700507 -0.0817077 0.14767501
-0.08413836 0.017723283 0.13396077 0.0014303302 0.12372032 -0.050450586 -0.0033174949 -0.10163329
-0.06640557 0.023282928 -0.016691715 -0.06456005 -0.25829336 0.002898465 0.10761694 -0.010814651
-0.004087416 -0.03512665 0.044349182 0.02643254 -0.17222944 0.0035768826 0.014163044 -0.109439015
0.09877201 0.038208295 -0.31720647 -0.04497237 -0.032629214 -0.0696719 0.022377834 -0.14034581
0.010394919 0.04266262 -0.076045424 -0.11082894 0.06879204 -0.16238528 0.015460325 -0.021522457
0.004023027 0.06403513 0.05468564 0.00867257 -0.12594035 -0.015054816 0.07000689 -3.7808857
-0.12186169 -0.21145667 -0.0037618263 0.1035215 0.020851351 -0.05383311 0.01908377 0.07400739
-0.07059648 0.029147586 -0.08861705 -0.09613929 -0.23929358 0.022460127 0.040377364 -0.16202022
-0.031734776 0.04736879 0.10072003 0.16576447 -0.74468577 0.12112617 0.022563322 -0.033998623
-0.0436467 0.02671707 -0.287221 0.0022592726 0.08588718 -0.10875864 0.17391273 -0.062020514

bias f4 [256]
00000000: 354b 853d d6da 7a3d fa2d 433d c275 bb3d
00000010: 066c 8b3d 0b69 4b3d 09a6 b93d 93b7 843d
00000020: 045c 993d 50f8 193d e544 57bd 47be bb3d
00000030: 62d7 be3d ec93 533d 297c e03d 38c8 c33d
00000040: a881 aa3d 2e95 83bc 3e2d eabc c319 0abc
00000050: 26c4 8e3d fb08 c53d c888 3b3e e4e9 673d
00000060: e583 17bd ceb0 833d 8eb8 c53d 8c1a 65bc
00000070: 4ab6 ef3d 5a9f c63d 0000 0000 f505 d63d
00000080: e6a3 913d 6eff 0abd 8ffa 313d 6420 2e3d
00000090: 86ed 093e 35bf d3bb ef51 13bc 3981 c33d
000000a0: 91aa 793d 56a4 db3d 0291 eb3c 8253 6f3d
000000b0: 3754 a23d 002a bdbb b69d 8a3d bb26 27bd
000000c0: deb3 583d dbfd d83d 2685 9c3d 6081 2c3d
000000d0: 6f88 943d acff 263d a1d3 883d 3887 8b3d
000000e0: 0387 5bbc 7e3b 6a3d bab5 323b c9d5 d03d
000000f0: 92ad ab3d 9df7 f9bb 71bb 1b3d adf7 413d
00000100: cf26 af3d d462 893d 52b6 423d ca12 3d3d
00000110: 627a 01bd 0159 073e 25ce b03d 63d9 4f3d
00000120: fdd4 ea3c 92e8 253d fbd2 b53d 2615 2ebe
00000130: 9730 5d3d 007c a73d 21e1 193d 88d0 a13d
00000140: d02e 903d 56c3 4d3d 147b 903d be42 b83d
00000150: 5057 513d 699b a93d 3518 63bc e473 283e
00000160: 1c8e febb d88b dc3d a772 2bbd 7e33 773d
00000170: 51e3 f13d 3bfe 36bd 1536 1a3d d46a 833d
00000180: 3b8b 97bc 0480 9c3d 8610 a63d 6fc7 0abc
00000190: 862a a73d 2bef cd3d 97f2 ae3d 24a8 15bd
000001a0: bfe0 b63c af68 c23d 0000 0000 bbee cb3d
000001b0: 4d70 a63d 1f93 8d3d 9814 4d3d a262 59bc
000001c0: 1945 803d 92a0 ebbc e58b c53d 6eda 873d
000001d0: 1dd1 0b3d 7ac4 e93d 041c 9fbc 8913 a53d
000001e0: 05a0 9a3d 0ca2 1bbc 12dc b23d 2994 a63d
000001f0: 34ca 09bc 9778 2bbc d2df c33d 5734 e23d
00000200: a159 f0bb ba75 9d3d 7b2e b53d eb55 b0bc
00000210: a248 b53d a856 0abd 3aa4 a73d ab0f 823d
00000220: 8768 02bd 6740 6e3d 9394 9c3d f4b3 e63d
00000230: 886c 0f3e 8d8c 1b3e 4846 13bc e62b 693d
00000240: f859 a43d 4c7a 01bc 4fc8 023e b28d 823d
00000250: 204f a53d 80e9 2abd 0359 c93d 06a5 9f3d
00000260: 21d1 b13d bccf 7e3d 3f5e f13d 9aee 7a3d
00000270: fb7b cc3d d449 b83d 39c2 ba3d b06a e03d
00000280: 5b09 913d cbe7 b93d ca38 67bc 807c 8abc
00000290: 8940 e5bc 3499 af3d 84ea ea3d f259 343d
000002a0: 60f3 923d d562 ebbb 26e9 413d e035 933d
000002b0: 1679 933d a85f d93d 9a7d fbbb 5a76 31bd
000002c0: e574 da3d 0a63 ee3c fd85 06bc a10c 34bc
000002d0: a027 843d 0e9c b53d 2b6f 993d a331 c73d
000002e0: ae6b 9b3d ecce 3c3d 8890 823d a37a 4d3d
000002f0: c022 2b3d 78ed 16bd 40f0 a53d fe99 593d
00000300: aa76 1c3d 3f4b c23d 4505 f53d 76e7 ca3d
00000310: 7956 c93d 4b53 48bc 29d1 01bd b8b5 f8bb
00000320: 8d25 5a3d 3a7e 8d3d ebf4 833d ca1b c4bc
00000330: e408 183d ca56 fcbc 4d5f ae3d 35c8 813d
00000340: 2e1c 923d d3c9 c4bb 4c67 dd3d 043e d13d
00000350: c6e6 6b3d 2c8d a03d 26a8 c23d 5e06 09bc
00000360: e013 a83d 85fe 7bbc 1140 733d 0b45 a73d
00000370: 4b9e fdbc 0000 0000 43ff e43d 484c be3d
00000380: b390 913d 85af d43d 14e6 21bd ace3 f1bc
00000390: 9032 e0bb 1ab1 953d 6fb1 54bc 49c6 e33d
000003a0: 06f6 31bd 5721 08bc cec0 be3d 0a4e 8f3d
000003b0: 1d2f 9f3d 123b dd3d 8e56 943d f912 d23d
000003c0: 7555 2e3e 1aa4 753d 6434 8a3d acdd af3d
000003d0: 300a 6c3d 1f81 d03d 3ef6 f73c f953 773d
000003e0: a227 493d e48e 283d ef2f c33d c5a8 cb3d
000003f0: 0162 7cbc 6a02 cd3d bb38 853d 4bd1 ad3d
0.06508485 0.061243854 0.04765127 0.0915332 0.06807713 0.049660724 0.09064872 0.064803265
0.07488254 0.037590325 -0.052555937 0.09167152 0.09318425 0.05165474 0.10961182 0.09559673
0.08325511 -0.016062345 -0.028586026 -0.008428994 0.06971006 0.096208535 0.18313897 0.05661954
-0.03699102 0.06430207 0.09654342 -0.01398338 0.11704691 0.09698363 0.0 0.10450355
0.07111339 -0.033935003 0.043451842 0.04251136 0.13469514 -0.0064620026 -0.008991702 0.09546132
0.06095368 0.10724704 0.028755669 0.05842925 0.07926219 -0.005772829 0.06768362 -0.04080842
0.05290591 0.10595294 0.076425835 0.04211557 0.07252585 0.04077117 0.0668099 0.068129
-0.0133988885 0.057185642 0.0027268962 0.10197026 0.08382715 -0.0076283948 0.038020555 0.047355343
0.08552324 0.06708303 0.047537155 0.046160497 -0.031610854 0.13217546 0.08633069 0.050744426
0.028666014 0.040505 0.08878132 -0.17000255 0.054001417 0.08177948 0.037568215 0.07901102
0.07040179 0.050235115 0.07054725 0.08997105 0.05110866 0.08281595 -0.013860752 0.16450459
-0.0077684056 0.107688606 -0.041857388 0.06035184 0.11810935 -0.044676047 0.037649233 0.0641686
-0.018499007 0.076416045 0.0810862 -0.0084704 0.081624076 0.10055383 0.08542364 -0.036537305
0.022323964 0.09492623 0.0 0.099576436 0.081268884 0.06912827 0.050068468 -0.013268145
0.06263179 -0.02876309 0.096458234 0.06633459 0.034134973 0.11414428 -0.019422539 0.08060367
0.075500526 -0.009499084 0.08733381 0.08133728 -0.008410025 -0.010465763 0.09564175 0.11045139
-0.0073349033 0.0768847 0.08846756 -0.021525344 0.08851744 -0.033774048 0.081856206 0.06350645
-0.031837966 0.058166888 0.07645526 0.11264792 0.14006245 0.15190335 -0.008988924 0.05692663
0.08024973 -0.007902693 0.12771724 0.063746825 0.080717325 -0.04172659 0.09831431 0.077951476
0.08682466 0.06220983 0.11785554 0.061262704 0.09984585 0.089984566 0.09119076 0.10957849
0.070818625 0.09077414 -0.014112661 -0.01690507 -0.027984874 0.08574143 0.114705116 0.04403109
0.07175326 -0.0071834126 0.04734149 0.0718801 0.0720083 0.10613948 -0.007674885 -0.04332576
0.10666827 0.02909996 -0.008210656 -0.010989339 0.0645287 0.08867656 0.07491907 0.09726264
0.07588898 0.046095774 0.063752234 0.050165784 0.041781187 -0.03684756 0.08102465 0.053125374
0.038199104 0.09487008 0.11963896 0.09907429 0.098309465 -0.01222689 -0.03169361 -0.007590022
0.053258467 0.069088414 0.06443199 -0.023939032 0.037117854 -0.030803103 0.08514271 0.063370146
0.07134281 -0.0060055046 0.10810718 0.10216907 0.05759313 0.078394264 0.09504728 -0.008363334
0.08206916 -0.015380506 0.05938727 0.08167466 -0.030959269 0.0 0.111815 0.09291893
0.07107677 0.1038504 -0.03952606 -0.029527508 -0.006841965 0.0730917 -0.012981757 0.11121804
-0.043447517 -0.00830873 0.09314118 0.06997307 0.07772658 0.108022824 0.072430715 0.10257525
0.17024787 0.059970953 0.06748274 0.085872024 0.057626903 0.10180878 0.030268785 0.060382817
0.049110062 0.041151896 0.09530627 0.099442996 -0.015404225 0.10010226 0.06504961 0.08487185

weight f4 [2, 256]
00000000: 43fe 93be b57e 8abe 71c6 9ebe 8085 753e
00000010: 50e7 68be 9df7 65be bab8 e93d 963f 98be
00000020: 3866 293e 0566 353d a925 21bd 9318 3b3e
00000030: 2ab6 73be 15b7 943e 64dc 4b3e 5db0 b93d
00000040: cf84 063e 1104 56bd 0080 16bd 9d59 aabc
00000050: 4d3d 87be 982a 28bf c88b 57be 4809 ffbd
00000060: f9b8 a9bd fa9f a4be ec29 b13e a68e c3bc
00000070: c063 293e 6061 673e 710c 25be c6d0 ac3e
00000080: 726d 13bf 4ccb 72bd 0836 8abe 9e58 bdbd
00000090: f204 47bd 7318 b7bd cfc8 65bd 76f5 353e
000000a0: bdf6 91be e01e a63e 21a0 08be 4a0a 71be
000000b0: f7e3 00be 2c0e 593c 0d30 8fbc 61c9 b53b
000000c0: 8a9e d3be 6e7a 633e 7f3c 893e eb2d 993d
000000d0: 39bc cf3b b1b4 48bf b28b 32be ec46 b03e
000000e0: cdff c7bd 2cee 0e3e f6c4 9e3f 2538 b53e
000000f0: d09d 28bd 0c4d 2d3d d6d8 f1be 6678 2b3e
00000100: 1925 063e 16c9 52be 4626 57be e4ed 86be
00000110: b803 80bd 9658 ba3e 7e4b b13e 689c 0dbe
00000120: 4439 88be 6298 a73d b58a 233e 927b 413f
00000130: d678 ba3d 5f4a 5cbe 4d42 14be 257a e33c
00000140: 3319 45be bced cabe f000 963e 47f0 993d
00000150: f166 03be 7a93 863e 980f 26bd f9a5 7a3e
00000160: 8bfb 70bc af35 863e 3ef1 ef3c 3ff9 34be
00000170: 71f8 3cbf 5e61 68bc 2ff9 fbbd 4917 67be
00000180: d6d8 65bd bf10 48be afd3 a43e 9428 2abd
00000190: 4760 c63e d18c 3f3e a951 a03d de14 b1bd
000001a0: cc65 bdbd 21a7 d1be 6cb8 18bd c9be 573e
000001b0: 6dce f13d cf1a 76be 364d 86be caf9 e83c
000001c0: 5654 a3be 5aac 30bd 2506 463e 1574 37be
000001d0: 2cab 02be 58dc 7c3e 333f 213c f0ee 58be
000001e0: 518e 973e 9dae f3bc 075e 5c3e ddf2 1c3d
000001f0: 6545 a73d 58ef bc3d c67d 103e a8c2 3b3e
00000200: d204 183d e3a6 b7bc c372 6b3e f064 f0bd
00000210: 6ee6 793e f0ac f63c c393 753e d264 c8be
00000220: befd 5a3d 1409 9cbe 59fb 43be 7d9a af3e
00000230: 3a8e 56bf 2706 803e 038c 69bb b712 a5be
00000240: ac87 813e 20bf 97bd 8876 2e3e 840d 4f3e
00000250: 04a6 88bd 7ecc 8bbd a8c3 803e 579f 1abf
00000260: 1805 583e 6548 b53e f317 9d3e 5f0a 75be
00000270: a71a 6f3e 3fb8 92be 04da 563e 5d30 903e
00000280: 5222 57be 5228 553e c38b 70bb 7596 19bd
00000290: 3266 873d 1bbf 413e 8f03 cb3e 1b9d b4be
000002a0: a6e2 03be ac00 f5bc 2936 68be ea92 60be
000002b0: f97e 473c 5e7e d23e a79b bd3c 4ea6 fa3c
000002c0: 6d16 313e 8a13 3dbe 242a a6bc fc60 a6bc
000002d0: bd48 6bbe 297f ad3e 15a8 0dbf 7086 843e
000002e0: 072a 583e 6b30 68be 9eeb 0b3e 125b 9a3d
000002f0: 8bc5 16be 5895 b8bd 74ce a03e 9182 5cbf
00000300: 63f5 1ebe 5282 5d3e 0c1e 1ebf 0f61 a23e
00000310: a633 8fbe 80a2 e8bc bed7 e4bc 2879 8abd
00000320: b35c efbd 4bc4 3bbe 3e4a 8a3e 23c2 143d
00000330: 275e 54be 028b acbb 77a8 103e 4eac 46be
00000340: d6ce 91be e311 96bc 8bf1 88be adff 6a3e
00000350: 13ce 8bbe dba6 a4bd 6a2e bc3e b942 0d3c
00000360: 90f6 6e3e fddd bdbc 3e03 11be 83e0 63be
00000370: ef64 2d3c bb70 2dbc 6d07 813e 853e 453c
00000380: 93b0 1fbf 1972 9d3d 0e04 74bc 4178 4c3d
00000390: 239c e3bb 26d4 4bbe 0d2b 49bd 6a31 543e
000003a0: 35bf c13c c35c 36bd e63b 513e c613 58be
000003b0: 94ae 5e3e 0d89 3e3e c746 bbbc b681 873e
000003c0: bdea 1dbe ee47 e2bd 9a32 4fbf cbfe 08bf
000003d0: 211c eb3d d4e4 3b3e d172 6ebe 9e6d ebbd
000003e0: 7c46 0b3e 62ed 53be fd3f 7e3e 15dd 2b3e
000003f0: 3e6f 4d3c b89e 873e 1774 143e 663f c9be
-0.28904924 -0.27049795 -0.31010774 0.23976707 -0.22744489 -0.22457738 0.11412187 -0.29736012
0.165429 0.044286747 -0.039342556 0.18271093 -0.23799959 0.2904593 0.19908291 0.09066842
0.131366 -0.05224997 -0.036743164 -0.020794684 -0.26413956 -0.6568999 -0.21049416 -0.12452942
-0.08287234 -0.32153302 0.34602296 -0.023871731 0.16541958 0.2259574 -0.16118027 0.33753031
-0.57588875 -0.05927591 -0.26994348 -0.09245418 -0.0485887 -0.0894021 -0.05609971 0.17769417
-0.2850856 0.3244543 -0.13342334 -0.23539081 -0.12586962 0.013248008 -0.017478967 0.005547688
-0.41331893 0.22214672 0.26803967 0.07479461 0.0063395766 -0.78400713 -0.17436102 0.3442911
-0.09765587 0.13958043 1.2403858 0.35394397 -0.041166127 0.042309806 -0.47235745 0.16745147
0.13100089 -0.2058452 -0.21010694 -0.2635337 -0.06250709 0.3639571 0.34627908 -0.13829195
-0.2660619 0.081833616 0.15970881 0.7557918 0.09105079 -0.21512745 -0.14478417 0.027768204
-0.19247894 -0.39634502 0.2929759 0.075165324 -0.12832238 0.2628439 -0.040542215 0.24477376
-0.01470841 0.26212832 0.029289838 -0.17673205 -0.7381659 -0.01418337 -0.123033874 -0.22567476
-0.056114994 -0.19537638 0.32192752 -0.041542605 0.3874533 0.18706061 0.078280754 -0.08646558
-0.09247932 -0.40947822 -0.037285253 0.21068873 0.11806951 -0.24033664 -0.26230782 0.028439421
-0.3190028 -0.043133117 0.19338281 -0.17915376 -0.1276061 0.2469343 0.009841728 -0.21184897
0.29600766 -0.029746348 0.21520244 0.03831755 0.08167533 0.09225339 0.14110479 0.18335974
0.037113972 -0.022418445 0.22992997 -0.11738002 0.24404308 0.03011176 0.23982148 -0.3913942
0.053464644 -0.30475676 -0.1913885 0.34297553 -0.8381077 0.25004694 -0.0035636432 -0.3224084
0.25298822 -0.07409501 0.17037404 0.2022 -0.0667229 -0.06826113 0.25149274 -0.60399383
0.21095693 0.35406795 0.30682334 -0.23929738 0.23350011 -0.28656194 0.20981604 0.28161898
-0.21009186 0.20816162 -0.0036704398 -0.037497003 0.06611289 0.18920557 0.39651152 -0.35276112
-0.12879428 -0.029907547 -0.2267691 -0.21931043 0.012176269 0.41112036 0.02314551 0.030596878
0.17293711 -0.18464485 -0.020283766 -0.020309918 -0.22976966 0.33886078 -0.553346 0.25883818
0.21109782 -0.2267472 0.136641 0.075369015 -0.14723794 -0.0901286 0.3140751 -0.8613673
-0.15523295 0.21631745 -0.617646 0.31714675 -0.27969092 -0.028397799 -0.027934905 -0.0676139
-0.11687603 -0.18336599 0.27009767 0.036317956 -0.20739041 -0.0052655945 0.14126764 -0.19401667
-0.28478116 -0.018319076 -0.26746783 0.22949095 -0.2730566 -0.08039638 0.3675416 0.008621865
0.23336244 -0.023177141 -0.14161393 -0.22253613 0.0105831465 -0.010585959 0.25200978 0.012038832
-0.62378806 0.07687778 -0.014893545 0.04991937 -0.006946103 -0.19905147 -0.049113322 0.20721975
0.023650745 -0.04452206 0.20433006 -0.21101293 0.21746284 0.18606968 -0.022860898 0.2646615
-0.15421577 -0.11048876 -0.80936587 -0.53513783 0.114799745 0.1834901 -0.23285986 -0.11495517
0.13601106 -0.20696023 0.24829097 0.16783555 0.012538729 0.2648828 0.1449741 -0.39306182

bias f4 [2]
00000000: 6f69 4b3d ff28 1a3d
0.049661096 0.037636753
