exp_local/gcbc_changing/weights/28000.pt (torch, 274440 bytes, 6 tensors)

weight f4 [256, 4]
000000 2e a4 0d be 66 b8 38 be 3f f7 f4 3d 53 99 2d 3e
       -0.13832161 -0.18039092 0.11961221 0.1695302
000010 63 a4 4f 3d 96 0d 60 3e 9b 57 49 be 45 60 85 bd
       0.05069388 0.21880183 -0.19662325 -0.065125026
000020 f5 e7 90 bd d6 cc ee 3d 42 4b 50 3e 96 02 10 bd
       -0.07075492 0.11660163 0.20341209 -0.035158716
000030 48 46 0b 3e c6 f9 26 3e cd e1 07 be b3 7a 26 be
       0.13601029 0.16306219 -0.1326973 -0.16257744
000040 22 57 35 3c a6 71 a4 bd d5 eb c3 bd dd f4 bd bb
       0.011068137 -0.08029489 -0.09566466 -0.0057970122
000050 43 24 d8 bd 9f a0 d9 bc eb 4e 9f bc c2 ed 5a bd
       -0.105537914 -0.026565848 -0.01944681 -0.0534494
000060 3a cb 8a be a0 1b ed bb 0a 2d 65 3e f1 8d ee 3c
       -0.27108175 -0.007235959 0.22380462 0.029120417
000070 7d 19 e4 3c 40 be 86 bd 54 14 2e 3e 01 a3 a0 3c
       0.027844185 -0.06579256 0.16999942 0.019608976
000080 9f 62 90 bd f5 e2 5b be f3 f5 86 3d be 68 59 3e
       -0.070500605 -0.21473296 0.0658988 0.21231362
000090 8e 11 82 3e 7b fa fa 3d 9b e6 81 be 08 95 00 be
       0.25404018 0.122548066 -0.2537125 -0.12556851
0000a0 76 e6 d2 bd b3 a1 49 3e 19 de cc 3d ec d7 40 be
       -0.10297863 0.1969059 0.10003299 -0.18832368
0000b0 f6 ce 74 3e 61 72 40 3c e8 ad 4a be 50 a4 88 bc
       0.23907074 0.01174602 -0.19792902 -0.016679913
0000c0 0d d6 61 3e 46 07 e8 bd 50 0a 56 be 7d de dd 3d
       0.2205431 -0.11329512 -0.20902371 0.10833452
0000d0 ba 89 5f bd 4e 94 9a 3e e8 86 63 3d 27 8d 82 be
       -0.054574706 0.30191272 0.05554858 -0.25498316
0000e0 9e c1 3f bd 9a 57 01 3d 54 66 64 3d 98 d4 3c be
       -0.046815507 0.031577684 0.05576165 -0.18440473
0000f0 7c ae fd be bd 17 16 bd 13 77 35 3d b6 e4 eb bd
       -0.49547184 -0.036643732 0.04430301 -0.115182325
000100 5e 0e 99 be b5 a7 cb 3b dd ee 9a 3e 56 55 85 bb
       -0.29893774 0.0062150606 0.30260363 -0.0040690107
000110 4c e7 68 3d f0 6d 4d 3e fd 5f 5c bd e5 82 4e be
       0.056861207 0.20061469 -0.05380248 -0.2016712
000120 8f a6 23 bc 5e 6a 6b 3e 71 7b 41 3c 8f 84 69 be
       -0.009988441 0.22989795 0.011809216 -0.22804473
000130 a6 e4 94 bd cc ed 68 be 79 43 82 3d d0 bf 49 3e
       -0.07270174 -0.22746962 0.06360526 0.19702077
000140 55 df ba 3d 8f da 49 3e c1 24 b8 bd e7 22 4a be
       0.091246285 0.1971228 -0.08991385 -0.19739877
000150 50 fa 5b 3e c6 20 d3 3d 85 ec 68 be 31 ee d7 bd
       0.21482205 0.103089854 -0.22746475 -0.10543478
000160 e9 af 4c 3e ee 09 e7 3d 37 49 63 be db 41 13 be
       0.1998898 0.11281191 -0.22195898 -0.1438059
000170 0a 07 43 3e df 46 02 3e 48 de 42 be 46 54 38 be
       0.19045654 0.12722348 -0.19030106 -0.18000898
000180 b8 31 05 3d 03 02 7e be 36 5b 01 bd 0c 67 7e 3e
       0.03251812 -0.24805455 -0.031581126 0.24843997
000190 07 71 02 be 3a d4 81 3e 93 d4 07 3e 4c 95 81 be
       -0.12738429 0.2535723 0.13264684 -0.25309217
0001a0 25 22 91 3c b7 d8 2c be b5 50 b3 bc cc b6 6e 3e
       0.017716477 -0.16879545 -0.02188907 0.23311919
0001b0 a5 51 42 3e a6 46 9a 3d c7 2c 2c be 65 bf 7a bd
       0.18976457 0.07533006 -0.16813956 -0.061217684
0001c0 42 23 e6 3d f2 ae 4b be e3 f8 df bd 5d e4 49 3e
       0.11237194 -0.19890955 -0.10936143 0.1971602
0001d0 ad b4 7d bd e0 a6 a8 3e c2 fc 7d 3d 70 0e a9 be
       -0.061939884 0.32939816 0.062008627 -0.33018827
0001e0 18 0a 9a bd 1a 71 05 be a6 c8 82 3b 9e 5a 0b bd
       -0.075214565 -0.13031426 0.0039912043 -0.034021966
0001f0 a7 ef 1c 3e 75 a5 fd 3d 54 d5 34 be c0 1e 0e be
       0.15325795 0.12385074 -0.17659503 -0.13878918
000200 9d ec 3b bf 59 f9 16 3d 5f f0 f3 3d a2 b5 9f bd
       -0.7340792 0.03685889 0.119110815 -0.077983156
000210 ec 20 49 be de 97 a0 3d 95 20 4b 3e d9 7e 9e bd
       -0.19641465 0.07841466 0.19836648 -0.07739038
000220 00 38 fb 3d ce 4f 0d be 17 4c f7 bd 52 e2 0b 3e
       0.122665405 -0.13799974 -0.1207506 0.13660553
000230 fb 38 c0 bd 47 be 59 bd cd bd 1b bc 73 41 a0 bc
       -0.09385868 -0.05315998 -0.009505701 -0.019562459
000240 34 d5 56 be b4 76 e5 be 28 f4 34 3e 1b 8b 21 be
       -0.20979768 -0.44817126 0.17671263 -0.15775721
000250 a1 af 50 3e b8 b4 c8 bd c7 fc 54 be 32 c5 cb 3d
       0.20379497 -0.09800094 -0.20799552 0.099497214
000260 9e 19 fa 3c 8f 65 81 3c af f8 00 3d ff d5 0d bd
       0.030529793 0.015795497 0.031487163 -0.03462791
000270 c2 b7 58 3e 44 c8 0f be c3 5f 5f be ab e2 09 3e
       0.21163848 -0.14041239 -0.21813874 0.13465373
000280 94 fb 82 3d 65 2f 4f 3e 42 8c 5d ba c6 ef 61 be
       0.06395641 0.20232923 -0.0008451381 -0.22064123
000290 58 dd 41 3e ad da c0 bd 76 de 85 3d d6 db a3 bd
       0.18932092 -0.09416709 0.06536572 -0.08000915
0002a0 bf 60 fb 3d 3b 79 5e 3e 05 b1 fa bd 60 53 61 be
       0.12274312 0.21725933 -0.12240795 -0.22004461
0002b0 7e 5d 11 be b9 52 3e be 20 32 79 3d 65 db 18 3e
       -0.1419582 -0.18586244 0.06083882 0.14927442
0002c0 d8 1d 3f be b5 5a 97 3e d3 46 52 3e fb 7c d0 be
       -0.18663728 0.2956139 0.2053483 -0.40720353
0002d0 c6 e0 79 3e be 9b 36 bd 5c c9 8c be 36 88 1e 3d
       0.2440215 -0.04458212 -0.27497375 0.03870412
0002e0 1a 42 37 3b fc a2 82 bd 9e e9 9f bd 77 20 51 bd
       0.0027962984 -0.06378743 -0.07808231 -0.05105635
0002f0 d0 25 31 3e 04 01 59 3e 2c fe 2b be ee 4a 53 be
       0.1729958 0.21191794 -0.16796178 -0.20634052
000300 01 2c b2 bd ff 00 f4 bb 98 8f 96 bd 24 68 5c bd
       -0.08699799 -0.007446408 -0.07351607 -0.053810254
000310 6d 58 c8 bc 87 25 8b be 20 32 ef 3c de ef 8a 3e
       -0.024456227 -0.2717707 0.029198706 0.2713613
000320 df c5 00 3e a8 62 f2 bd 83 94 fa bd 47 ec c9 3d
       0.12575482 -0.118352234 -0.122353576 0.098595195
000330 b2 3c 5c bd 62 40 21 bd 09 93 76 bd 61 53 9b bd
       -0.05376882 -0.03936804 -0.060198817 -0.07584263
000340 33 5c bf 3e 32 26 d5 bc ab a3 bf be c9 c2 bc 3c
       0.3737503 -0.02601919 -0.37429556 0.0230421
000350 89 b0 db 3c c7 6d 6b be 3e 45 d9 bc 1f a9 69 3e
       0.026817577 -0.22991095 -0.026522275 0.22818421
000360 50 4c f8 3c d0 31 84 3e 00 15 ea bc 2c 67 84 be
       0.030309826 0.25819254 -0.028574467 -0.25859964
000370 40 cb d2 bd 8f 68 f7 3d 69 a9 c2 be e8 43 95 3d
       -0.10292673 0.1208049 -0.38019875 0.07288343
000380 65 16 32 3e 76 44 17 3e b5 61 35 be 2a 93 20 be
       0.17391355 0.1477221 -0.17713054 -0.15681139
000390 14 e6 26 bc 46 56 da be 81 51 10 be 9c cc af bd
       -0.010186691 -0.42643946 -0.14093591 -0.08583948
0003a0 76 a1 6a be fb fb 37 ba c1 95 67 3e 64 fa 8d 3b
       -0.22913155 -0.0007018444 0.2261572 0.0043328274
0003b0 50 02 df bd b6 db 45 3e c1 32 dd 3d dc 22 43 be
       -0.10889113 0.19322094 0.10800696 -0.19056267
0003c0 ac 93 34 be c4 c4 2d 3e 33 ea a8 3d 9d 63 3c be
       -0.17634457 0.16969591 0.08247795 -0.18397374
0003d0 c9 b0 42 3e 8f fe d5 bd 98 f5 3d be 26 b7 cf 3d
       0.1901275 -0.10448944 -0.18550718 0.10142355
0003e0 0d af 28 3e 6c 48 2d be 74 82 2e be 0b 55 27 3e
       0.16473027 -0.16922158 -0.17041951 0.16341035
0003f0 a0 b7 e7 bd 31 10 b0 bd f2 35 ce 3d bb 5f 0a bd
       -0.113143206 -0.08596838 0.10068883 -0.033782702

bias f4 [256]
000000 21 d2 df 3c c8 47 9f 3c 66 06 10 be 88 bf 77 3c
       0.027321877 0.019443408 -0.14064941 0.015121348
000010 05 3a f2 bb 00 00 00 00 ce 73 ce bd 3d 2d d6 bd
       -0.0073921704 0.0 -0.10080682 -0.10457847
000020 e7 9b 94 3c dd f3 96 3b f8 54 31 3c 7d bb 18 bc
       0.018140746 0.0046067075 0.010823481 -0.009322044
000030 8e 0d ed 3b 43 de 8c bc 6c 74 c3 3d a9 cd 2d 3e
       0.007234282 -0.017195826 0.0954369 0.16972984
000040 d9 d1 73 bc 49 14 62 3c 3c 7f 58 3c 4b 2e ca 3c
       -0.014881575 0.013798782 0.013213929 0.024680277
000050 66 e7 78 3c b3 02 28 3c 30 ab fe 3c ed 89 c4 bd
       0.015191888 0.01025455 0.031087488 -0.0959662
000060 78 37 91 3c da 05 af 3a cd ff 83 3e bc 3e 9d bb
       0.017726645 0.0013353184 0.25781098 -0.0047987383
000070 40 11 3b 3c 51 4d 90 bc 00 00 00 00 a0 33 b3 3c
       0.011417687 -0.017614992 0.0 0.021875203
000080 a3 45 da 3d af 81 68 3c 68 4d 02 3c 00 00 00 00
       0.106578134 0.014191075 0.007953025 0.0
000090 4c 98 27 3d 40 cb bb 3b 47 0c 8c bd 27 eb c0 3b
       0.040916726 0.0057310164 -0.06838279 0.0058874073
0000a0 db 62 33 bc b9 28 13 be 09 15 97 3c c5 63 55 3d
       -0.010948862 -0.14371003 0.018442648 0.0520971
0000b0 b4 cf d9 bb 7f 35 91 3c 00 00 00 00 01 e6 96 bc
       -0.0066470746 0.017725704 0.0 -0.018420221
0000c0 00 00 00 00 00 d6 2f bc 30 6c b4 3c 00 00 00 00
       0.0 -0.010732174 0.022024244 0.0
0000d0 32 2c 98 bc 3c 45 76 3c 48 5d 84 3c db 95 72 bc
       -0.018575761 0.015031155 0.016157761 -0.014806236
0000e0 3b 0c 97 3c 12 bd 37 3e 0e 1f 68 3c b5 36 76 3c
       0.01843845 0.17943218 0.01416756 0.015027692
0000f0 c8 97 9b 3d d1 d2 0d 3c 2d 97 a5 3b a0 4d c2 3d
       0.07597309 0.00865622 0.005053422 0.09487462
000100 13 4f 9f 3b 35 52 75 3d 1f 14 81 3c c6 fd ec 3c
       0.0048617213 0.05989285 0.015756665 0.028929602
000110 fa a1 8e 3c 67 94 31 ba be 50 fe 3c 2e c7 dd 3b
       0.01741122 -0.0006774128 0.03104436 0.006768129
000120 64 a2 c1 39 1a b4 94 3c 00 00 00 00 20 33 c4 3c
       0.0003693282 0.018152285 0.0 0.02395016
000130 7d 04 56 3c 9b 0b c0 bc 48 05 5a 3c b4 34 6f 3c
       0.0130625935 -0.023443034 0.013306923 0.014599968
000140 ea 2f a5 3c f2 50 2e 3d 56 91 1f 3d 02 d1 59 3c
       0.020164449 0.042557664 0.038956963 0.01329446
000150 00 00 00 00 fe d0 42 bc 35 4a 9a bc ae 42 0e 3d
       0.0 -0.011890648 -0.018834213 0.03473156
000160 3d 22 cd 3c e9 ed 1f bb 59 fa 39 3c 00 00 00 00
       0.02504074 -0.002440328 0.011351191 0.0
000170 0a f3 87 3c e1 62 04 bc b0 25 72 3c 81 94 2f bc
       0.016595382 -0.008080215 0.014779493 -0.010716558
000180 86 ea 68 3d 60 53 8d 3c c1 27 79 3c 59 e7 88 3c
       0.056864284 0.01725167 0.015207232 0.016711878
000190 b3 f3 76 3c de fd 49 3c 10 b2 42 bc 7a 1f 64 3d
       0.015072751 0.012328593 -0.011883274 0.05569408
0001a0 5f 54 31 3c 2a 9b 82 bc 2e f7 9a 3c 2d be 6a 3c
       0.010823338 -0.015943129 0.018916693 0.014327568
0001b0 3e b1 74 3c 00 00 00 00 2d 43 b0 ba 6c 4c a0 3c
       0.014934836 0.0 -0.0013447754 0.01956769
0001c0 0f a4 5c 3d b0 16 9e 3c 25 cf 34 3d 4f 1d ab 3c
       0.053867396 0.019297928 0.04414286 0.020887999
0001d0 3e df e2 ba 00 00 00 00 1f a2 a2 3b 42 08 b1 3c
       -0.0017308963 0.0 0.004963174 0.021610383
0001e0 7f 29 ad 3d 8b ad 7a bc 78 e1 cb 3c 4c cd 12 3c
       0.084551804 -0.015300165 0.024887785 0.008960079
0001f0 a8 c8 0d 3d 29 8e 20 3d bb af bc 3c 00 00 00 00
       0.03461519 0.039198074 0.023033014 0.0
000200 b4 3d 5d bc bc a0 89 3c 0a f2 8e 3c 32 5e 5b bc
       -0.013503481 0.016800277 0.017449398 -0.013389157
000210 ce 0f b7 ba 98 a9 06 bc 79 b4 40 3d 0c fe 54 3d
       -0.0013966502 -0.008219145 0.047047112 0.05200009
000220 00 00 00 00 41 2e 50 bc 5f fe bd bc 80 32 16 bc
       0.0 -0.01270634 -0.023192583 -0.009167314
000230 1f c2 84 3c d0 53 58 3d b0 5c 2c bc 85 0d 0f ba
       0.016205845 0.052814305 -0.010520145 -0.00054570317
000240 52 12 0c 3c 1c eb 29 3d 00 00 00 00 04 54 d5 3c
       0.00854929 0.041483983 0.0 0.026041038
000250 00 00 00 00 13 f8 85 3c 07 6b b3 3c 56 db 76 bc
       0.0 0.016353643 0.02190162 -0.015066942
000260 d8 c4 4e 3c 38 00 a0 3c 4f c2 e1 3b 74 73 f9 bd
       0.012620173 0.019531354 0.0068896185 -0.12180224
000270 12 6e e8 3d 93 1a b3 3c aa 9a 97 3c f5 b3 7a 3c
       0.11349119 0.021863258 0.018506367 0.015301694
000280 93 d6 9c 3e fe d5 a4 3c 00 00 00 00 58 49 1a bc
       0.30632457 0.02012157 0.0 -0.009416901
000290 41 10 ce 3b 14 1a a2 3c 00 00 00 00 7e 0c 80 3c
       0.0062885587 0.019787826 0.0 0.015630957
0002a0 00 00 00 00 49 4f 3b 3d 73 42 66 bc ff e7 cc 3c
       0.0 0.04572991 -0.014053929 0.025012968
0002b0 00 00 00 00 59 2f 91 3c 5a 24 01 3d 7a 54 2b 3e
       0.0 0.017722772 0.03152881 0.16731444
0002c0 f7 15 4b 3c 07 9d 23 3c 20 76 21 bd ae 62 b4 3c
       0.012395374 0.009986169 -0.039419293 0.02201971
0002d0 2a 32 91 3d 78 44 63 3c d2 c2 5a 3d 80 dc 5f 3c
       0.07089646 0.013871305 0.05340845 0.013663411
0002e0 42 10 c3 3b 7d 8b 0a bd 81 86 3e 3c 82 8d 55 3c
       0.005952866 -0.033824433 0.011628748 0.013034226
0002f0 12 07 58 3c 00 00 00 00 a3 de 4d bc fe fc cc bb
       0.013185279 0.0 -0.012565288 -0.006255745
000300 03 bc d1 3c bf d8 ab 3c b9 d4 b3 3b 68 5a d7 bd
       0.025602346 0.020977376 0.005488005 -0.105152905
000310 fc 10 9b 3c ce 8c 5c 3c 27 ea 87 3c 1f f4 89 3b
       0.018928997 0.013461305 0.016591145 0.0042100097
000320 4a 75 9f 3b be 3f a2 3d 1b 44 6a bc e2 fc 9c ba
       0.004866277 0.07922314 -0.014298464 -0.001197722
000330 00 00 00 00 89 28 c9 3c 17 78 85 3c 72 40 5b 3c
       0.0 0.024555461 0.016292615 0.013382064
000340 6a 6c 68 bc ee 41 a6 bb b5 f0 ba bd 75 f3 82 3c
       -0.014186004 -0.0050737774 -0.091279425 0.01598523
000350 88 e9 c2 3c 03 06 10 3c d4 d4 f9 3d 4d fa a7 bb
       0.023792997 0.008790496 0.12198797 -0.0051262737
000360 92 5a 80 3c 73 6d d9 3c 5c 8a 97 3c 42 e3 f0 3c
       0.015668187 0.026541447 0.018498592 0.02940524
000370 40 77 6f bc 86 a6 ed ba cf 2e c5 3c 66 0c 34 bc
       -0.014615834 -0.0018131293 0.024070172 -0.010989284
000380 04 b7 58 bc d9 22 8a 3c 58 b8 ab bc 00 00 00 00
       -0.013227228 0.01686232 -0.020961925 0.0
000390 12 a7 36 3d 00 00 00 00 00 00 00 00 51 2b e9 3c
       0.044592924 0.0 0.0 0.028463038
0003a0 00 00 00 00 e4 f7 2d 3c 0b 58 c3 3b 50 e4 97 3c
       0.0 0.010618184 0.0059614233 0.018541485
0003b0 2e 14 5a 3c 00 00 00 00 c5 44 59 3e 26 13 87 3c
       0.013310475 0.0 0.2121764 0.016488623
0003c0 a8 e5 51 3c d9 54 ba ba aa 65 5e 3e ab 5d c9 3b
       0.012811102 -0.001421596 0.2171847 0.0061451993
0003d0 da 3e b7 bc 6e c4 e8 3c aa b8 e6 bd d8 80 92 3c
       -0.022368837 0.028413977 -0.112656906 0.017883703
0003e0 00 00 00 00 00 00 00 00 0e ed 12 bd f8 10 91 3c
       0.0 0.0 -0.035870604 0.017708287
0003f0 83 1f 91 bd 24 7b fb 3d be 8c b0 3a 1f 88 99 3c
       -0.070860885 0.122793466 0.0013469679 0.018741665

weight f4 [256, 256]
000000 e1 a7 e4 bd 09 66 a0 3c cd fe ac 3d 08 fa 64 bd
       -0.11164833 0.019579904 0.08447037 -0.05590251
000010 6a 46 09 3e b8 a9 f0 3d 16 59 a3 3c 46 6f 54 3e
       0.13405767 0.11751121 0.01993994 0.20745572
000020 1b 6d 56 3d ab 7d b4 bd d2 15 c5 bd f9 09 38 be
       0.052350145 -0.08813032 -0.096233025 -0.17972554
000030 5c eb 83 3d f3 13 a9 be 37 c4 2f bd 33 37 5a 3d
       0.064413756 -0.33023033 -0.042911734 0.0532753
000040 dc 39 61 c0 5e fe d0 bd ac e5 1e be 1c e6 a6 bb
       -3.5191565 -0.10204767 -0.155173 -0.005093349
000050 23 b3 ca bc aa 96 50 3d d9 ae 2c be 20 f3 3d be
       -0.024743622 0.050924934 -0.16863574 -0.18549776
000060 d0 07 17 3d 81 03 24 3c ea d8 3b 3e d6 7c 93 bd
       0.036872685 0.010010601 0.18344465 -0.07201545
000070 20 29 43 3d 14 1c 86 bf f4 4b bc 3c e2 d0 41 bd
       0.04764664 -1.0477319 0.022985436 -0.047318347
000080 63 a9 6b 3e 2a 72 82 bd 15 e2 ac 3b b8 5d 19 bc
       0.23013835 -0.06369431 0.0052759745 -0.009360723
000090 ff 19 4c be f4 79 02 bd 3c 71 b1 bc e1 2b 24 3e
       -0.19931792 -0.031854585 -0.02166044 0.16032363
0000a0 ae 03 4a be d9 d4 d1 bd 96 9b 36 be 76 d4 f1 3d
       -0.19727966 -0.102456756 -0.17832789 0.11808102
0000b0 5c 03 3f bf f8 07 1b 3d 7d c0 9c bd a4 6f b0 3d
       -0.746145 0.037849396 -0.07653902 0.08615044
0000c0 be fb 04 bd 80 24 b6 bd a6 77 84 3d 86 76 3c 3d
       -0.032466643 -0.088936806 0.06468134 0.04601147
0000d0 f3 37 ae 3e d6 00 75 3c 70 3f c1 be 7c 99 10 3d
       0.3402706 0.014953813 -0.3774371 0.035302624
0000e0 56 06 86 bd 71 b3 45 ba dd 14 07 be 1c 2b 1e be
       -0.06544177 -0.00075416925 -0.13191552 -0.15446132
0000f0 7b b3 8f bd f9 d5 8f bc af 36 9e 3d de ea 8a bd
       -0.07016655 -0.017558085 0.07725274 -0.067830786
000100 57 18 cc 3d 3b 7d 4a 3e 86 e0 39 be 77 97 0e bd
       0.0996558 0.19774334 -0.18152055 -0.034812417
000110 83 e8 d0 bc 8f e0 78 bb 44 85 a2 bd 52 ff e8 3b
       -0.025501495 -0.0037975644 -0.07935575 0.0071105147
000120 17 ee b9 3d b9 94 37 3d 2c 09 32 bb 6f e9 77 bc
       0.09078615 0.044819567 -0.0027166111 -0.0151313385
000130 6d 09 08 3e 6e ba df 3b b5 4d bb 3d fc a7 32 bc
       0.13284846 0.006827644 0.09145681 -0.010904308
000140 04 f7 87 bc 9d 36 fe 3a d5 de 00 3d 1b 04 28 be
       -0.016597278 0.0019394938 0.03146251 -0.16407816
000150 a0 54 d2 bd 65 99 db 3c f1 4b 13 3e 07 eb bf bc
       -0.10270047 0.026806543 0.14384438 -0.0234275
000160 fc 1d 5f bd 44 b9 c8 3b 5b f4 61 be 80 e4 80 b9
       -0.054471955 0.006125601 -0.2206587 -0.00024584308
000170 a7 99 8e be f6 4a bd 3d 39 da c5 3c 63 e3 43 3d
       -0.27851602 0.09242813 0.024151908 0.047824275
000180 6c d2 73 bc 7f 64 47 bd c6 77 1f be 0b 83 44 3e
       -0.014881711 -0.048679825 -0.15573034 0.19190614
000190 36 b4 28 3d eb 2a 88 3d 27 6f 91 bd a4 12 fd 3c
       0.041187488 0.06648811 -0.07101279 0.030892678
0001a0 50 19 e1 3a 6a c9 7b 3c d7 fe a7 3d 63 42 2d be
       0.0017173681 0.015367845 0.08202904 -0.16919856
0001b0 ed 13 68 bd 07 0e ec bc 9a 80 1c bd a2 7e af 3c
       -0.056659628 -0.028815283 -0.03820858 0.021422688
0001c0 2e d1 b4 3d eb fb 02 bc 0a 5f 27 bd 29 ff 26 bd
       0.0882896 -0.007994632 -0.04086212 -0.040770683
0001d0 6d b8 b2 3d 80 6a 84 bd 87 61 f3 3c 50 1a e8 bc
       0.08726583 -0.06465626 0.02970959 -0.02833286
0001e0 60 dd 24 3c 0f 78 44 bf 8d b8 73 bd dc 56 04 be
       0.010062546 -0.76745695 -0.059502173 -0.12923759
0001f0 5d 8c e3 3d 37 25 36 be 3c 58 ab 3d 19 9a 7c bd
       0.111107565 -0.17787634 0.08366439 -0.061670396
000200 a9 a7 58 3c db 58 c9 bd 2a f4 32 be 79 65 af 3b
       0.013223567 -0.09831401 -0.17475954 0.0053526727
000210 b5 9b da 3b 9f 22 b5 3e d4 0c 18 3d 47 f3 80 3d
       0.0066713938 0.35377976 0.03712161 0.062964015
000220 96 42 98 bd e2 33 68 bc db f9 cf bd 3f f9 22 3d
       -0.07434575 -0.014172526 -0.10155078 0.03978848
000230 50 d4 18 be cb 0f 17 3e 2d 40 8b bf 6d ad ea bd
       -0.14924741 0.14752118 -1.087896 -0.114588596
000240 38 8f 84 3c 5e 9b ac 3d 1a df 74 bd 85 a1 a7 bd
       0.016181573 0.084280714 -0.05978308 -0.08185104
000250 c1 65 df 3d 90 29 83 bd 4d 5f 15 3d cc ad 25 c0
       0.1090808 -0.06404412 0.03646784 -2.5887327
000260 9b 54 8a bc d7 23 84 bd 12 60 a3 3d e0 d2 86 bc
       -0.016886046 -0.064521484 0.07977308 -0.016457975
000270 21 e1 0c 3d 6e d0 1a be 42 77 69 be 1c 86 07 3e
       0.034394387 -0.15118572 -0.227994 0.13234752
000280 e0 d8 73 3e bf 66 95 bd ad 1f fb bc 31 c9 51 bf
       0.238132 -0.07294988 -0.030654753 -0.8194762
000290 08 8a e5 3d 5c 7b cd bd f4 82 cc 3d 2c 6f 30 be
       0.11207968 -0.100332946 0.09985915 -0.17229909
0002a0 f1 16 2c 3d 08 da 67 3d 76 02 e8 3e 4d 09 76 3d
       0.042014066 0.056604415 0.45314378 0.060067464
0002b0 36 1d b5 bd 8d f9 11 bd 49 c4 a3 bd f7 c8 21 3e
       -0.08843462 -0.03563838 -0.07996423 0.15799318
0002c0 25 4d a5 bd fb 0e 6b 3c 31 74 0b 3e a4 e4 b0 39
       -0.08071355 0.014346833 0.13618542 0.00033739686
0002d0 0c a9 f7 3d 16 68 5f bd 4e 45 d9 b9 ed 91 c1 bd
       0.1209279 -0.054542623 -0.000414411 -0.09451661
0002e0 31 8f 72 bd 7e 73 99 3c d4 01 8e bc 11 c7 6c bd
       -0.05921859 0.018731829 -0.017334856 -0.057807032
0002f0 86 05 86 be 2c f4 3d 3b 65 a9 d4 3d bc a9 8c bc
       -0.2617609 0.002898465 0.10383872 -0.01717078
000300 cb aa 30 3a 2f 19 0c bd 47 6b 45 3d 19 fa 3f 3d
       0.00067393173 -0.034203704 0.04819801 0.04686937
000310 bd de 2e be f0 67 76 3b 9d 5e 61 3c ae 9b e2 bd
       -0.17077155 0.0037598573 0.013755468 -0.1106485
000320 3c a1 d5 3d ef 5c 85 3d e4 62 a8 be 06 16 30 bd
       0.10431144 0.06511866 -0.32887948 -0.042989753
000330 36 a6 05 bd 09 85 95 bd 34 6b b3 3c 9e 13 13 be
       -0.032629214 -0.07300765 0.021901704 -0.14362952
000340 af 15 53 3c 5d 67 48 3d b4 bd 9b bd 1b e6 f2 bd
       0.012883588 0.0489267 -0.076045424 -0.118602954
000350 6b 60 90 3d 3a 2f 22 be c4 b4 c2 3b dd 4f b0 bc
       0.0704964 -0.15838328 0.005941959 -0.021522457
000360 32 d1 33 bb 65 9f 8d 3d 97 98 5f 3d cd 52 88 3c
       -0.0027437923 0.06915168 0.05458888 0.016641045
000370 6a a1 04 be cc ad 0f bb 54 89 95 3d 6d 8b 70 c0
       -0.129522 -0.002192366 0.07301584 -3.7585099
000380 b3 4d 01 be 4f 5b 5a be dd 5a d2 bb 15 03 d4 3d
       -0.12627296 -0.21323894 -0.006419523 0.1035215
000390 09 cd be bc 1b 80 5c bd 91 55 9c 3c 5e a5 9a 3d
       -0.023291128 -0.05383311 0.01908377 0.075510725
0003a0 e3 94 90 bd 96 f6 06 3d 52 94 ad bd 1c 8b c2 bd
       -0.07059648 0.032950006 -0.084755555 -0.09499189
0003b0 62 1d 79 be 4d fe b7 3c 2d 11 f2 3c 69 aa 2c be
       -0.24327615 0.022460127 0.029549206 -0.16861881
0003c0 53 28 c3 bc 8b a8 54 3d c5 e9 cd 3d 08 f9 2d 3e
       -0.023822939 0.051918548 0.100543536 0.16989529
0003d0 f4 19 3f bf c1 fd f8 3d b7 d6 b8 3c dd a2 04 bd
       -0.74648976 0.12157775 0.022563322 -0.03238188
0003e0 e2 c6 32 bd c2 dd da 3c 22 b8 99 be ea 76 18 3b
       -0.0436467 0.02671707 -0.30023295 0.0023264238
0003f0 cb 19 a0 3d 6d e3 be bd 39 a7 22 3e 61 a2 84 bd
       0.078174196 -0.09320722 0.15884103 -0.06476284

bias f4 [256]
000000 a2 df 89 3d 4e f5 81 3d 03 19 59 3d 0c c6 c2 3d
       0.06732108 0.06345616 0.05300237 0.09510431
000010 72 8f 8f 3d f9 d4 53 3d a1 0a bb 3d 43 d4 88 3d
       0.07009782 0.05171678 0.09132887 0.06681111
000020 27 cf 9c 3d cb a3 14 3d e5 44 57 bd 50 1b bf 3d
       0.07656699 0.036289018 -0.052555937 0.09331381
000030 22 ae c6 3d 33 d9 4e 3d 42 6d e5 3d 81 a8 cb 3d
       0.09701182 0.050500106 0.1120248 0.09944249
000040 26 4a a8 3d 2e 95 83 bc 3e 2d ea bc c3 19 0a bc
       0.08217268 -0.016062345 -0.028586026 -0.008428994
000050 29 a0 90 3d 88 15 c9 3d 7c 34 41 3e e5 05 76 3d
       0.07061798 0.0981856 0.18867677 0.060064215
000060 e5 83 17 bd 9a 2a 89 3d 15 e5 c3 3d 8c 1a 65 bc
       -0.03699102 0.06697579 0.09565178 -0.01398338
000070 61 7a f6 3d 43 23 c7 3d 00 00 00 00 bb 2b d8 3d
       0.12035061 0.097235225 0.0 0.10555216
000080 f9 b1 94 3d 6e ff 0a bd ee 9f 3a 3d 08 06 2c 3d
       0.07260508 -0.033935003 0.045562677 0.04199794
000090 a7 30 0f 3e 35 bf d3 bb ef 51 13 bc 26 fb c9 3d
       0.13983403 -0.0064620026 -0.008991702 0.09862356
0000a0 e1 df 84 3d 64 2e de 3d 41 7d f3 3c 94 c6 81 3d
       0.06488014 0.10848692 0.029722812 0.06336704
0000b0 a2 1e a6 3d 00 2a bd bb 24 b1 91 3d bb 26 27 bd
       0.081113115 -0.005772829 0.07113865 -0.04080842
0000c0 4b 8f 68 3d 55 9b d9 3d 8d 47 9e 3d 44 85 29 3d
       0.05677728 0.1062533 0.07728491 0.041386858
0000d0 a8 b0 9a 3d 3f 32 28 3d 7e 35 8c 3d 56 eb 87 3d
       0.07553226 0.041063543 0.0684614 0.06636684
0000e0 03 87 5b bc bd e5 6b 3d 8b b5 3a bb 70 8b d6 3d
       -0.0133988885 0.057592142 -0.0028489556 0.10475814
0000f0 01 48 b4 3d 9d f7 f9 bb f5 48 23 3d 5e a2 43 3d
       0.08802796 -0.0076283948 0.0398645 0.047762267
000100 7b db b4 3d 5d 0f 90 3d 13 2b 3e 3d 99 bd 38 3d
       0.08830925 0.0703418 0.046427798 0.04510269
000110 62 7a 01 bd f7 fc 09 3e e1 4c b3 3d 13 8a 4f 3d
       -0.031610854 0.13475405 0.08754898 0.050668787
000120 27 71 f4 3c 7c 81 21 3d ea 15 bc 3d 6b 02 34 be
       0.029839111 0.039430127 0.09183867 -0.17579047
000130 73 57 5f 3d 50 bf af 3d 5a 81 1c 3d 10 5e a8 3d
       0.054526757 0.08581412 0.038209297 0.08221066
000140 29 ec 97 3d 3a 15 56 3d 4c ee 92 3d 09 92 ba 3d
       0.07418091 0.052266337 0.07174358 0.09109885
000150 8c eb 4f 3d 7e 29 ac 3d 35 18 63 bc 13 b3 2b 3e
       0.050761744 0.084063515 -0.013860752 0.1676753
000160 1c 8e fe bb c4 58 df 3d a7 72 2b bd c4 ce 7c 3d
       -0.0077684056 0.109056026 -0.041857388 0.061720625
000170 e8 34 f8 3d 3b fe 36 bd b0 a4 1e 3d ef fe 82 3d
       0.12119466 -0.044676047 0.038731277 0.06396281
000180 3b 8b 97 bc be 9d 9f 3d 89 76 a8 3d 6f c7 0a bc
       -0.018499007 0.07793759 0.08225734 -0.0084704
000190 c7 f2 a9 3d 78 85 d7 3d 6c 09 b4 3d 24 a8 15 bd
       0.08298259 0.10523504 0.087908596 -0.036537305
0001a0 f1 ec a3 3c 5e a8 c7 3d 00 00 00 00 e5 38 d3 3d
       0.020010443 0.0974891 0.0 0.10313586
0001b0 16 b4 a9 3d c5 ab 8f 3d 81 fb 62 3d a2 62 59 bc
       0.08286302 0.07015184 0.055415634 -0.013268145
0001c0 fb 72 83 3d 92 a0 eb bc be 2c cb 3d 37 8d 8d 3d
       0.06418415 -0.02876309 0.09920643 0.069117
0001d0 8f a3 06 3d f2 9f e7 3d 04 1c 9f bc 00 54 aa 3d
       0.032870825 0.11309804 -0.019422539 0.08316803
0001e0 56 95 a0 3d 0c a2 1b bc 26 6b b8 3d a4 c9 aa 3d
       0.078409836 -0.009499084 0.09004812 0.08339241
0001f0 34 ca 09 bc 97 78 2b bc 6f 13 c2 3d a7 10 e8 3d
       -0.008410025 -0.010465763 0.09476363 0.11331301
000200 a1 59 f0 bb eb c8 a1 3d 59 8f b7 3d eb 55 b0 bc
       -0.0073349033 0.0789965 0.08962888 -0.021525344
000210 78 51 b9 3d a8 56 0a bd be 98 a8 3d c3 ba 86 3d
       0.09048742 -0.033774048 0.08232258 0.06578591
000220 87 68 02 bd c2 b7 75 3d f9 7f a2 3d 1d 45 e7 3d
       -0.031837966 0.0599897 0.07934565 0.11292479
000230 f9 07 13 3e 5a a2 21 3e 48 46 13 bc 1e 82 78 3d
       0.1435851 0.15784588 -0.008988924 0.060670964
000240 86 2d aa 3d 4c 7a 01 bc c0 b2 06 3e 01 24 84 3d
       0.08309464 -0.007902693 0.13154125 0.0645218
000250 ee 49 ad 3d 80 e9 2a bd 90 36 cc 3d 71 62 a3 3d
       0.084613666 -0.04172659 0.099713445 0.079777606
000260 10 83 b8 3d 50 7e 83 3d 9e ed f5 3d 92 f9 87 3d
       0.09009373 0.064205766 0.120082125 0.06639399
000270 0c 3e d3 3d ed f5 c6 3d 97 61 bc 3d 72 8c e5 3d
       0.10314569 0.09714875 0.09198301 0.112084284
000280 ac 87 94 3d 30 1a bd 3d ca 38 67 bc 80 7c 8a bc
       0.0725244 0.092335105 -0.014112661 -0.01690507
000290 89 40 e5 bc f1 07 b1 3d 25 82 ef 3d a7 ae 3c 3d
       -0.027984874 0.08644093 0.11694745 0.046065
0002a0 95 79 96 3d d5 62 eb bb b4 a3 4e 3d 00 9f 97 3d
       0.07347409 -0.0071834126 0.05044909 0.07403374
0002b0 ba 9e 9b 3d d9 c7 df 3d 9a 7d fb bb 5a 76 31 bd
       0.07598634 0.1092679 -0.007674885 -0.04332576
0002c0 52 80 e2 3d ca 0c f8 3c fd 85 06 bc a1 0c 34 bc
       0.110596314 0.030279536 -0.008210656 -0.010989339
0002d0 32 0f 87 3d dc fc ba 3d 9e b1 99 3d 40 0c cc 3d
       0.06594695 0.0913026 0.07504581 0.09963274
0002e0 22 ba 9b 3d c6 bc 41 3d 73 9f 82 3d 53 65 4a 3d
       0.076038614 0.04729917 0.06378069 0.049413037
0002f0 64 ac 24 3d 78 ed 16 bd c0 9d a8 3d ff a2 61 3d
       0.040203467 -0.03684756 0.082332134 0.055087086
000300 0a 18 19 3d 22 09 c7 3d 3a d6 00 3e dc 2c cb 3d
       0.03737644 0.09718539 0.12581721 0.099206656
000310 30 8b d5 3d 4b 53 48 bc 29 d1 01 bd b8 b5 f8 bb
       0.104269385 -0.01222689 -0.03169361 -0.007590022
000320 a3 61 68 3d 10 4f 90 3d b5 1a 85 3d ca 1b c4 bc
       0.05673374 0.0704633 0.064992346 -0.023939032
000330 a9 41 22 3d ca 56 fc bc 29 19 b0 3d bd f9 84 3d
       0.0396134 -0.030803103 0.08598549 0.06492946
000340 5c 40 99 3d 15 2e 22 bb b7 ef eb 3d 25 aa d3 3d
       0.07482979 -0.0024746705 0.11520331 0.10335187
000350 c5 13 75 3d 85 b7 a3 3d a7 d8 c5 3d 5e 06 09 bc
       0.059833307 0.07993988 0.09660464 -0.008363334
000360 34 05 a9 3d 85 fe 7b bc 9a b2 78 3d 74 2f ac 3d
       0.082529455 -0.015380506 0.060717203 0.084074885
000370 4b 9e fd bc 00 00 00 00 25 80 e8 3d 2b 22 c0 3d
       -0.030959269 0.0 0.11352567 0.09381517
000380 7f e5 92 3d d6 46 db 3d 14 e6 21 bd ac e3 f1 bc
       0.07172679 0.1070687 -0.03952606 -0.029527508
000390 90 32 e0 bb 9c 26 9a 3d 6f b1 54 bc 28 8b eb 3d
       -0.006841965 0.075268954 -0.012981757 0.11501151
0003a0 06 f6 31 bd 57 21 08 bc 2c a2 c1 3d 78 f2 94 3d
       -0.043447517 -0.00830873 0.0945476 0.0727281
0003b0 e4 ab a0 3d bd b9 dc 3d f8 11 99 3d a0 aa d6 3d
       0.078452855 0.10777614 0.074741304 0.10481763
0003c0 fb b4 34 3e e7 2d 7f 3d 3a 60 87 3d 33 1e b4 3d
       0.17647164 0.062299635 0.06610151 0.087948225
0003d0 89 15 69 3d 93 ef d6 3d 9b b9 00 3d d3 8b 7d 3d
       0.056905303 0.10494914 0.031427007 0.061900925
0003e0 07 40 47 3d 03 d1 35 3d 12 7f c9 3d 3c 57 cb 3d
       0.048645046 0.044388782 0.0983869 0.09928748
0003f0 01 62 7c bc 49 37 d3 3d 8f 01 86 3d 5d 49 bf 3d
       -0.015404225 0.10313279 0.06543266 0.09340165

weight f4 [2, 256]
000000 39 9c 90 be 1e f0 88 be 9a 9c a2 be 2b 46 77 3e
       -0.28244188 -0.26745695 -0.31760103 0.2414786
000010 ff d7 65 be ee 55 62 be 39 cb ee 3d 3a 8c 96 be
       -0.22445677 -0.22103092 0.116598554 -0.2940386
000020 a3 cc 2e 3e fb 82 2a 3d a9 25 21 bd c2 df 36 3e
       0.1707025 0.04162882 -0.039342556 0.17858794
000030 a7 63 76 be 42 79 95 3e 31 12 4d 3e e5 41 bd 3d
       -0.24061452 0.29194075 0.2002647 0.09241084
000040 2e 29 01 3e 11 04 56 bd 00 80 16 bd 9d 59 aa bc
       0.12613365 -0.05224997 -0.036743164 -0.020794684
000050 3e 2e 85 be cb f1 29 bf 7e af 57 be fa de f6 bd
       -0.26011842 -0.6638457 -0.21063039 -0.12054248
000060 f9 b8 a9 bd 4a 21 a3 be a0 c3 b7 3e a6 8e c3 bc
       -0.08287234 -0.31861335 0.35891438 -0.023871731
000070 44 03 2d 3e cf 70 68 3e 71 0c 25 be 1e fa b1 3e
       0.16895777 0.22699283 -0.16118027 0.34761137
000080 89 d9 1b bf 4c cb 72 bd 0f ff 86 be 07 8d b8 bd
       -0.6087881 -0.05927591 -0.2636647 -0.09011274
000090 7f 9b 33 bd 73 18 b7 bd cf c8 65 bd f8 c7 37 3e
       -0.043849465 -0.0894021 -0.05609971 0.17947376
0000a0 76 ef 8d be 2b 16 a8 3e 62 5b 04 be 18 17 76 be
       -0.27721757 0.32829413 -0.12925485 -0.24032247
0000b0 e5 e4 f8 bd 2c 0e 59 3c 02 2e 47 bc 61 c9 b5 3b
       -0.12153033 0.013248008 -0.012156965 0.005547688
0000c0 46 26 d9 be 77 3d 64 3e 4f d2 86 3e 66 e1 99 3d
       -0.42412013 0.22289072 0.26332328 0.075136945
0000d0 1c 07 1c 3c 3e 51 58 bf fb 89 2f be 12 63 b0 3e
       0.009523179 -0.84498966 -0.17142479 0.34450585
0000e0 cd ff c7 bd f8 d8 0f 3e 5d 41 9f 3f ae 0c b4 3e
       -0.09765587 0.14047611 1.2441822 0.35165924
0000f0 32 11 10 bd 0c 4d 2d 3d 32 42 00 bf c1 18 2d 3e
       -0.03517265 0.042309806 -0.50101006 0.16903974
000100 98 20 0b 3e 19 84 4b be ff 4f 56 be 45 71 85 be
       0.13586652 -0.1987461 -0.20928954 -0.2606298
000110 b8 03 80 bd 60 27 be 3e e1 eb b4 3e 9f 33 0a be
       -0.06250709 0.37139416 0.3533621 -0.13496254
000120 26 4d 87 be 31 a3 ac 3d 53 30 24 3e 10 49 41 3f
       -0.26426047 0.08429564 0.16034059 0.7550211
000130 6b f9 bc 3d c9 99 5b be 7c 67 10 be 0e 30 00 3d
       0.0922726 -0.21445383 -0.14101976 0.03129583
000140 df 2d 3e be 0a ae cc be 08 fe 98 3e 86 b4 96 3d
       -0.18572186 -0.3997653 0.2988131 0.07358651
000150 77 b2 fe bd ae b8 84 3e 98 0f 26 bd 9a 88 78 3e
       -0.12436383 0.2592215 -0.040542215 0.2427086
000160 8b fb 70 bc 09 70 89 3e 3e f1 ef 3c e6 fd 30 be
       -0.01470841 0.2684329 0.029289838 -0.17284355
000170 15 28 3d bf 5e 61 68 bc 15 59 f3 bd 52 29 67 be
       -0.73889285 -0.01418337 -0.118822254 -0.22574356
000180 d6 d8 65 bd 60 56 45 be 0b 3b a3 3e 94 28 2a bd
       -0.056114994 -0.1927123 0.31880984 -0.041542605
000190 3b 43 c4 3e 97 e4 40 3e 83 42 a2 3d de 14 b1 bd
       0.38332543 0.188372 0.07922842 -0.08646558
0001a0 98 66 ae bd d6 5a d3 be 6c b8 18 bd 72 0a 59 3e
       -0.08515662 -0.4128024 -0.037285253 0.21195391
0001b0 df f7 fb 3d ae 42 6f be 07 2a 8a be ca f9 e8 3c
       0.12303137 -0.2336528 -0.2698519 0.028439421
0001c0 41 0b a4 be 5a ac 30 bd a3 73 45 3e 3e a4 2f be
       -0.32039836 -0.043133117 0.19282393 -0.17152497
0001d0 f9 4c f7 bd 9d 98 7c 3e 33 3f 21 3c d4 c1 53 be
       -0.12075228 0.24667592 0.009841728 -0.20679408
0001e0 8d 89 99 3e 9d ae f3 bc 24 66 5b 3e 47 31 19 3d
       0.29987755 -0.029746348 0.21425682 0.03740051
0001f0 65 45 a7 3d 58 ef bc 3d ef 86 0d 3e ed 90 3a 3e
       0.08167533 0.09225339 0.13821004 0.18219347
000200 d2 04 18 3d c6 43 b8 bc 1d 4d 6e 3e f0 64 f0 bd
       0.037113972 -0.022493254 0.23271604 -0.11738002
000210 b8 75 7d 3e f0 ac f6 3c ac 37 7b 3e 1c 1a c9 be
       0.24751937 0.03011176 0.24532956 -0.39277732
000220 be fd 5a 3d be 16 99 be e0 a2 42 be 12 88 b2 3e
       0.053464644 -0.29900163 -0.19007444 0.34869438
000230 3c 64 57 bf 0c 3a 7e 3e 03 8c 69 bb aa 2d a9 be
       -0.8413732 0.2482683 -0.0035636432 -0.3304265
000240 3c 7a 83 3e 20 bf 97 bd cb 41 2e 3e 3d d8 49 3e
       0.25679195 -0.07409501 0.17017286 0.19711395
000250 3d 1e 8b bd 7e cc 8b bd 18 e1 7f 3e 79 95 1c bf
       -0.06792877 -0.06826113 0.2498821 -0.6116558
000260 b0 c1 57 3e 62 a7 b6 3e 42 11 9d 3e 0f 23 72 be
       0.2106998 0.35674578 0.3067723 -0.23646186
000270 b4 7e 6e 3e 3b 3a 96 be a4 50 5b 3e 1b 73 8f 3e
       0.23290521 -0.293413 0.2141748 0.28017506
000280 be 1a 51 be e6 31 50 3e c3 8b 70 bb 75 96 19 bd
       -0.20420358 0.20331535 -0.0036704398 -0.037497003
000290 32 66 87 3d 4f f8 40 3e ff a5 cc 3e 50 1e b6 be
       0.06611289 0.18844722 0.39970395 -0.35570002
0002a0 3c 83 fd bd ac 00 f5 bc 27 f5 60 be ba 1d 5e be
       -0.123785466 -0.029907547 -0.21968518 -0.21691027
0002b0 b8 08 72 3c 31 b8 d4 3e a7 9b bd 3c 4e a6 fa 3c
       0.0147725865 0.41546777 0.02314551 0.030596878
0002c0 56 fa 33 3e df e7 37 be 24 2a a6 bc fc 60 a6 bc
       0.17575964 -0.17959546 -0.020283766 -0.020309918
0002d0 b7 a6 6b be 90 21 b0 3e 9a 44 11 bf e0 21 84 3e
       -0.23012815 0.34400606 -0.567453 0.25807095
0002e0 af 3a 51 3e 57 bd 65 be 3d 10 0c 3e 71 4a 7d 3d
       0.20432542 -0.22435509 0.1367807 0.06183857
0002f0 6a 0a 13 be 58 95 b8 bd c5 3e a2 3e 5a d3 64 bf
       -0.14359441 -0.0901286 0.31688514 -0.89384997
000300 28 92 1c be 5c a1 5b 3e d1 69 1f bf 6a 0d a6 3e
       -0.15290129 0.21448272 -0.6227084 0.3243211
000310 cd 5d 90 be 80 a2 e8 bc be d7 e4 bc 28 79 8a bd
       -0.28196564 -0.028397799 -0.027934905 -0.0676139
000320 ba c4 e3 bd f2 b8 38 be f6 e2 87 3e 23 c2 14 3d
       -0.11121507 -0.18039301 0.26540345 0.036317956
000330 13 f5 4d be 02 8b ac bb df c3 0f 3e 2c a4 43 be
       -0.2011302 -0.0052655945 0.14039563 -0.19105595
000340 e5 8a 8d be 4c 71 a9 bb b3 4c 89 be 5e 9e 6e 3e
       -0.2764503 -0.0051709767 -0.2681633 0.233026
000350 f8 85 8d be c7 74 9f bd ed 8c bc 3e b9 42 0d 3c
       -0.27641273 -0.077859454 0.36826268 0.008621865
000360 87 a3 6a 3e fd dd bd bc 38 cc 0d be 51 88 60 be
       0.22913943 -0.023177141 -0.13847435 -0.21927
000370 ef 64 2d 3c bb 70 2d bc 70 e3 7d 3e 84 62 3c 3c
       0.0105831465 -0.010585959 0.24793792 0.011498097
000380 91 3e 27 bf 9f ee a0 3d 0e 04 74 bc 41 78 4c 3d
       -0.65329844 0.07858013 -0.014893545 0.04991937
000390 23 9c e3 bb 9a c6 48 be 0d 2b 49 bd 65 f7 53 3e
       -0.006946103 -0.1960701 -0.049113322 0.20699842
0003a0 35 bf c1 3c c3 5c 36 bd 2e 00 5a 3e 61 79 52 be
       0.023650745 -0.04452206 0.21289131 -0.20554115
0003b0 e1 df 58 3e 2b c6 3b 3e 16 85 ba bc 55 ea 8a 3e
       0.21179153 0.18337314 -0.022768538 0.27131906
0003c0 bd 9d 1d be 0d f5 da bd 9d da 5f bf d8 a8 0c bf
       -0.15392204 -0.10691271 -0.8744295 -0.54945135
0003d0 b6 5f ec 3d 9b 47 3f 3e b2 1c 6c be 3c a0 e7 bd
       0.11541693 0.18679659 -0.23057821 -0.11309859
0003e0 9b 2c 0c 3e 2e 4a 53 be 1c 3e 7d 3e c1 42 2f 3e
       0.1368889 -0.20633766 0.24730724 0.17115308
0003f0 3e 6f 4d 3c 9c 62 87 3e 64 08 17 3e a0 22 cd be
       0.012538729 0.2644242 0.14749295 -0.4006548

bias f4 [2]
000000 92 a9 41 3d e6 e0 23 3d
       0.047280855 0.0400094
