exp_local/bc_changing/weights/12000.pt (torch, 272392 bytes, 6 tensors)

weight f4 [256, 2]
000000 56 55 9f be 97 24 f6 3c ac 20 53 3d 04 b1 22 bd
       -0.31119794 0.030046744 0.05154483 -0.039719597
000010 3d c3 ef be f6 d8 a8 3d f5 35 00 3e f4 74 cd 3d
       -0.46828642 0.08244507 0.12520583 0.10032073
000020 9e aa 79 3e 31 f0 8a 3d 95 bb 78 3c 53 5f ad be
       0.24381492 0.06784094 0.015181442 -0.3386179
000030 00 f9 24 be e3 d3 4d 3e 4b 15 2a 3e 0f 2b 3f 3d
       -0.16110611 0.2010036 0.16609685 0.046671923
000040 a1 02 a2 bd b3 51 fd bd 01 f1 3e be 66 e4 6e bb
       -0.07910658 -0.123690985 -0.18646623 -0.0036452054
000050 3f f9 f8 bd 02 fb 66 be f3 4e b5 3b 4a a6 54 3e
       -0.12156915 -0.2255669 0.005533093 0.20766559
000060 78 d5 06 bf 7b c5 9e 3d e2 a5 2d 3d ea d6 7c 3e
       -0.5266948 0.0775251 0.042394526 0.24691358
000070 2b cd 8f bd e8 41 eb bd dd 52 99 3e ad 6d 07 be
       -0.070215546 -0.1148718 0.29946032 -0.13225432
000080 f6 04 f6 3b 09 24 3f 3d b4 d0 6a bd e7 89 49 bd
       0.0075079156 0.046665225 -0.05732794 -0.04920378
000090 61 93 f5 be c2 4e 89 bd e1 b4 e5 bd 54 54 a2 bd
       -0.47964004 -0.06704475 -0.112161405 -0.079262406
0000a0 3d 33 b5 bd 38 15 06 bd e4 57 cc bb 23 d2 6d bc
       -0.088476636 -0.03273508 -0.0062360633 -0.0145154325
0000b0 22 74 20 bc 23 10 83 bd 9f 76 8f bc fa 75 44 bd
       -0.009793313 -0.06399562 -0.017512618 -0.047964074
0000c0 ff fc e0 3d dc c4 d3 be 47 02 58 bb 3d ca e6 bc
       0.10985755 -0.4136113 -0.0032960342 -0.028172607
0000d0 ad fe c5 3d 9a 82 de 3d b8 c0 6a be 74 4f dd 3d
       0.09667716 0.10864754 -0.22925079 0.1080617
0000e0 37 f3 e6 bb 41 6f 55 3c 88 ed ff be c1 c8 94 bd
       -0.0070480364 0.013027013 -0.4998591 -0.07264853
0000f0 f1 45 8e bd 04 3d 8f bc bf 19 02 be 7f 7f 7e 3e
       -0.06946934 -0.01748515 -0.12705134 0.24853323
000100 b8 81 93 bd f0 63 9c 3d de f8 aa 3b 0c 52 e9 3d
       -0.07202476 0.07636249 0.0052176556 0.11392602
000110 bc 72 85 bd 09 52 b1 bc e9 ec 05 bf 5d 63 28 3d
       -0.065160245 -0.021645563 -0.5231462 0.041110385
000120 0b 8b e6 bc ec 40 aa bc 22 41 28 bd 81 b3 84 bd
       -0.028142473 -0.02078291 -0.04107774 -0.0647955
000130 77 12 65 be 9b 1d ab 3d d7 3f 7a 3e 13 c1 98 be
       -0.22370325 0.08355256 0.24438415 -0.29834804
000140 da ea 37 bf 0a 51 45 3d e1 a9 11 3e 06 d9 3c bd
       -0.7184273 0.048172988 0.1422496 -0.046105407
000150 22 63 4f 3d e1 45 34 3c f4 f3 71 3e c7 b5 1f bd
       0.05063165 0.011002989 0.23628217 -0.038991716
000160 f4 02 05 3e b8 14 ff 3d 7a 89 0d be 14 5f aa bd
       0.12989408 0.12455124 -0.13821974 -0.08318916
000170 0d 83 23 be 00 fc a3 3e 7c 3d 40 3e bc d5 96 bd
       -0.1596796 0.32028198 0.18773454 -0.07364985
000180 88 3c a8 3c 60 a0 b6 3c db 9a 97 bd 53 43 80 bc
       0.020536676 0.02229327 -0.07402583 -0.015657103
000190 21 fc f2 be d1 9c cb 3d b1 3f e4 3a 3e a2 69 3c
       -0.47457984 0.0994202 0.0017414001 0.014259873
0001a0 de cf ff bc 2a f8 bb bd 6c b8 4a bd 8c 17 f6 bb
       -0.031227048 -0.09178193 -0.049492285 -0.007510131
0001b0 72 c1 15 be 07 c6 a7 bd 98 14 cc 3d 51 f0 b9 3d
       -0.14624575 -0.081920676 0.099648654 0.0907904
0001c0 8e 9c 8b bc 28 96 fa bd 6a a3 b7 3d 28 2a fb 3c
       -0.017042425 -0.12235671 0.08966716 0.03065975
0001d0 51 ca 1b bc 6a 92 70 3c 62 f1 24 bf 28 53 fe 3d
       -0.009508685 0.014683345 -0.6443082 0.124182045
0001e0 f0 b4 81 3d c9 97 42 be 39 4f ca bb ce 49 2f 3d
       0.06333339 -0.19003214 -0.006173995 0.042794995
0001f0 6b 22 e6 bd 99 fd 46 3e 67 7e 6b bd 35 e2 a5 be
       -0.112370335 0.19432677 -0.057493594 -0.32399145
000200 4b a5 5a 3d 72 39 bc 3d de e2 ef be b8 f2 45 3e
       0.053380292 0.09190644 -0.46852773 0.19330871
000210 a8 38 42 3e 8d 15 a9 3d 2b c4 73 bc 2e 95 00 bd
       0.18966925 0.082560636 -0.014878313 -0.03139227
000220 39 15 21 bd 34 0b ee bb 7f 32 81 bd d7 16 0f be
       -0.03932688 -0.007264519 -0.063084595 -0.13973556
000230 05 7a b0 bd 64 03 20 bd 6f e6 2d 3c d8 0a c7 bb
       -0.086170234 -0.039065734 0.010614022 -0.0060742907
000240 2b 51 0d be 3f 2a 66 3e 6e d7 bb bd 42 03 1f bd
       -0.13800494 0.22477053 -0.09171949 -0.038821466
000250 57 e8 e2 bd 02 17 36 3e 4f 7a f6 be 35 eb 3c 3e
       -0.110794716 0.17782214 -0.4814019 0.184491
000260 db 50 34 be 58 f6 ba 3d eb c8 5e bd 94 81 99 bd
       -0.17608969 0.091290176 -0.05439083 -0.07495418
000270 05 ca 1a bd b3 b2 fc ba d4 47 e4 3d d4 09 2b bf
       -0.037790317 -0.0019279331 0.11146513 -0.6681187
000280 c9 d3 0b be 90 88 65 bd a6 5e c6 bc f3 85 10 bd
       -0.13655008 -0.05603844 -0.024215054 -0.035283994
000290 fd af 27 3e 0a 5f 03 bf 43 69 06 3e ba 7d 05 bf
       0.16375728 -0.51316893 0.13126092 -0.5214497
0002a0 8d 24 a5 bd 7c 2f 78 bd 5c c5 b0 bd ff ca 22 bd
       -0.08063612 -0.06059216 -0.08631393 -0.039744373
0002b0 32 53 82 bc 59 9d 5c bd cb f8 8d 3e 88 a5 02 be
       -0.015908811 -0.053860996 0.27728876 -0.12758458
0002c0 e4 33 09 be f1 87 4a 3e ed 94 82 bd a5 93 8a bc
       -0.13398701 0.1977842 -0.063760616 -0.016916106
0002d0 22 07 a2 ba 15 89 dd bd b3 a0 98 3d ce 9f 0e bb
       -0.0012361745 -0.10817162 0.07452526 -0.0021762731
0002e0 89 6e 68 3b 80 66 b0 bd 88 9e b4 bc 3f a1 b0 bb
       0.0035466275 -0.086133 -0.02204825 -0.005390316
0002f0 38 0c af bc 64 f6 7f bd a6 22 72 bd 52 6f 30 bb
       -0.021368131 -0.062490836 -0.059115075 -0.002692182
000300 60 4e 6b bd e4 cc 1e be 2c aa 00 bd 24 6e 08 3c
       -0.05744779 -0.15507847 -0.03141229 0.008327041
000310 84 76 62 bd f0 fd 82 be bb 44 71 bd 63 ae 5f bd
       -0.055288807 -0.25584364 -0.058903437 -0.054609668
000320 84 b5 67 bd 35 15 12 3c c5 bf 94 3d d5 84 32 3e
       -0.05656959 0.008916189 0.0726314 0.17433484
000330 f7 16 0f bd 31 7f 99 be 51 07 03 bf 72 90 19 3e
       -0.03493401 -0.29979852 -0.5118304 0.14996508
000340 ab eb e1 3d b6 84 d0 3d 20 d7 33 bc 95 ef a9 b9
       0.11031278 0.101815626 -0.010976583 -0.00032412694
000350 7c ad 07 be e5 65 38 3e 5e 02 a9 3b 40 63 9f 3c
       -0.13249773 0.1800762 0.005157753 0.019456506
000360 1d da 15 3e 8e 40 08 bf 6d 90 10 bd a1 8a 1f bd
       0.14633985 -0.532235 -0.035293985 -0.038950566
000370 be 18 04 be a1 27 84 bc 1d d0 08 bf 45 4c 4c 3e
       -0.12900063 -0.016132178 -0.53442556 0.1995097
000380 b0 b3 24 bf 7b 56 09 3e 71 ef 62 3e 4d 2d ba bc
       -0.6433668 0.13411896 0.22161652 -0.02272668
000390 86 3d b8 bd 9e c2 48 bd 57 09 04 3e b2 fc 7c 3c
       -0.0899611 -0.049013726 0.12894188 0.015441107
0003a0 36 b5 21 bd f6 7c 0a be a3 04 d3 bd b4 8e de bd
       -0.039479457 -0.13524231 -0.10303619 -0.10867062
0003b0 b5 5c d2 bd e0 6d 46 bd 8a 9e 36 3e 65 52 cc be
       -0.10271589 -0.04844463 0.17833915 -0.39906612
0003c0 c2 6a f4 be b1 a8 92 3d 76 0c e1 bd c7 23 21 bf
       -0.477377 0.071610816 -0.10988705 -0.62945217
0003d0 ef 91 c4 3d d4 2a 87 3b 5b d4 0c 3e ed 2f 91 bc
       0.09598147 0.0041249786 0.13752882 -0.017723048
0003e0 6f 43 3f 3e a8 f4 60 3d 42 90 8c bb 57 3b ec bb
       0.18678068 0.054920822 -0.004289658 -0.0072092223
0003f0 ff 51 18 3d d4 c6 87 3d 77 f8 8b 3d d3 ff 2d bd
       0.037187573 0.0662972 0.068345 -0.0424803

bias f4 [256]
000000 03 0f d5 3d dc e7 61 bd 22 1c 80 3d 7a 45 08 be
       0.10403254 -0.05515276 0.06255366 -0.13307753
000010 75 36 01 be 13 46 a1 3d 99 c5 b8 bd 6b 21 df bd
       -0.1261843 0.07874694 -0.09022064 -0.10895046
000020 d1 07 a5 3d 78 c9 c4 bb 2d b2 1b 3e c1 bd 3f bd
       0.080581315 -0.0060054623 0.15204687 -0.046811823
000030 dd b5 b9 3b e6 b2 a9 bd 00 00 00 00 b8 82 e2 bd
       0.0056674317 -0.08286075 0.0 -0.11060089
000040 6f 28 5a bd 00 00 00 00 b3 3e 02 3e 00 00 00 00
       -0.053261217 0.0 0.1271923 0.0
000050 00 00 00 00 00 00 00 00 00 00 00 00 00 00 00 00
       0.0 0.0 0.0 0.0
000060 3a 3a 9c bd 00 00 00 00 e3 84 08 bd bc 4a 53 3d
       -0.07628293 0.0 -0.033329856 0.051584944
000070 b6 4c 5f bc 3d f0 08 3e 00 00 00 00 07 f3 d2 bd
       -0.013629129 0.13372894 0.0 -0.1030026
000080 4c aa 8d bd ce 64 d4 bc 00 00 00 00 0b 2c 5f 3d
       -0.06917247 -0.025926974 0.0 0.054485362
000090 00 00 00 00 00 00 00 00 32 12 6a 3d d2 0a 8a bd
       0.0 0.0 0.05714626 -0.06740345
0000a0 04 80 9c 3d ff 0b a6 bd 63 79 7a bd 9f 16 98 bd
       0.076416045 -0.08107757 -0.06115092 -0.0742619
0000b0 9f f3 f9 bd 9f e0 9e 3d ca 0f 0c be 91 97 c2 bd
       -0.1220467 0.07757687 -0.13677898 -0.09501565
0000c0 d9 3e 3b bd 00 00 00 00 48 0b a4 3a b7 f1 b5 bc
       -0.045714233 0.0 0.0012515569 -0.022209985
0000d0 00 00 00 00 00 00 00 00 00 00 00 00 4d e5 e8 bd
       0.0 0.0 0.0 -0.11371861
0000e0 00 00 00 00 46 92 df bc 6a 3d 79 bc a0 83 be bc
       0.0 -0.027291428 -0.015212396 -0.023256123
0000f0 fb b3 93 bd f3 0a 2f bd 3a 66 fe bd 92 6e e8 3d
       -0.07212063 -0.04273505 -0.12421842 0.113492146
000100 57 4c 36 bd 4f dc a1 bd 32 b0 f1 bd 00 00 00 00
       -0.044506397 -0.07903349 -0.11801185 0.0
000110 00 00 00 00 00 00 00 00 00 00 00 00 0e 42 36 bc
       0.0 0.0 0.0 -0.011124147
000120 54 af dc bd 00 00 00 00 f6 9a de bd a8 fc 8e bd
       -0.10775629 0.0 -0.108694 -0.06981784
000130 77 9d 1b 3d 00 00 00 00 2d 14 81 39 7e 21 4d 3b
       0.037991967 0.0 0.0002461983 0.003130048
000140 00 00 00 00 00 00 00 00 df 7e 3a bd 26 e4 17 bd
       0.0 0.0 -0.04553115 -0.037082814
000150 00 00 00 00 00 00 00 00 00 00 00 00 ef 2e cc bd
       0.0 0.0 0.0 -0.099698894
000160 7b 4f ea bd 00 00 00 00 9b b5 09 bc 13 af 5d bd
       -0.11440941 0.0 -0.0084051145 -0.054122042
000170 88 5b 01 bc 00 00 00 00 00 00 00 00 00 00 00 00
       -0.007895358 0.0 0.0 0.0
000180 00 00 00 00 89 13 fc bb 00 e8 0b 3e 00 00 00 00
       0.0 -0.0076927585 0.1366272 0.0
000190 ef 4b f7 bb ba b8 0e be 45 28 d1 3d 7f 5b 3e 3d
       -0.007546894 -0.13937655 0.10212759 0.046473976
0001a0 33 81 02 be 8d 22 03 bc 38 09 cb bd eb 98 00 bd
       -0.12744598 -0.008003843 -0.09913868 -0.031395834
0001b0 6f 0b 1f bd 00 00 00 00 00 00 00 00 1b 07 92 bd
       -0.038829263 0.0 0.0 -0.071302615
0001c0 4b 9c f7 bc 2e 63 9a bd 00 00 00 00 9e 9b 16 bd
       -0.030225893 -0.07538448 0.0 -0.036769502
0001d0 00 00 00 00 bc aa 20 3e 0a dd 7d 3d 87 3a c0 bc
       0.0 0.1569013 0.061978377 -0.023465408
0001e0 23 69 90 3d 1e 38 14 3e fc 02 cb bd 26 09 bb bd
       0.07051303 0.14474532 -0.099126786 -0.09132604
0001f0 b8 1e c1 bd 0d ac b4 bb 4a 8e cd bd c2 2f 4d bd
       -0.09429687 -0.005513674 -0.10036905 -0.050094374
000200 f9 1b 08 be 0a 3b 9d bc 00 00 00 00 c3 89 fc bd
       -0.1329192 -0.019193191 0.0 -0.123309635
000210 00 00 00 00 46 f1 db 3d f5 a9 e4 bd 00 00 00 00
       0.0 0.10739379 -0.11165229 0.0
000220 63 e6 a5 3d 7d 98 d2 bc 7a 49 a8 bd 20 47 0d bd
       0.081005834 -0.025707478 -0.082171395 -0.03449166
000230 a8 19 37 bc 21 45 fa bd 2a 72 35 bd 7c 86 c2 bc
       -0.0111755505 -0.122202165 -0.04429833 -0.023745768
000240 00 00 00 00 c3 27 31 3e 00 00 00 00 9d 90 05 3e
       0.0 0.17300324 0.0 0.13043447
000250 00 00 00 00 d0 8e c5 bc 86 17 8d bb b3 b2 79 bd
       0.0 -0.02411595 -0.0043057827 -0.060961436
000260 19 e6 0c 3e 00 00 00 00 ab b3 03 be 00 00 00 00
       0.1375965 0.0 -0.12861507 0.0
000270 74 47 92 bd 00 00 00 00 d2 eb dc 3c 9b da d8 bd
       -0.07142535 0.0 0.026967917 -0.10588571
000280 74 da 0c be 00 00 00 00 7c 15 33 3d 7d cc 88 bd
       -0.13755208 0.0 0.04372166 -0.06679628
000290 fb 7d 07 bd 46 d2 2e 3e 00 00 00 00 64 73 69 bd
       -0.03307913 0.170724 0.0 -0.05699481
0002a0 6c 3f 18 bd c7 80 c4 bd 1f 88 9d bd 00 00 00 00
       -0.03716986 -0.09594875 -0.07691979 0.0
0002b0 06 4f 5c bd 00 00 00 00 16 4d 08 be 45 6b 4b bd
       -0.0537863 0.0 -0.13310656 -0.049662847
0002c0 21 4b b2 bd 19 05 a0 3d 00 00 00 00 f8 fe 82 3d
       -0.08705736 0.07813472 0.0 0.06396288
0002d0 6a 62 0d bb a2 c3 a7 3d 08 5d a1 bd 1b cb 23 be
       -0.0021573552 0.08191611 -0.078790724 -0.15995447
0002e0 61 c5 66 bd 83 72 b2 bc 00 00 00 00 ca 06 e5 bd
       -0.05634058 -0.021783119 0.0 -0.111829355
0002f0 e4 7f 0c 3b a8 36 13 3e 30 3e ba bd 00 00 00 00
       0.0021438533 0.14376318 -0.090938926 0.0
000300 70 b2 a7 bd 19 f8 b6 bc 00 00 00 00 00 00 00 00
       -0.08188331 -0.022335099 0.0 0.0
000310 f6 ee ac bd 39 b7 05 be 00 00 00 00 7c f0 5c 3d
       -0.08444016 -0.13058175 0.0 0.05394028
000320 72 cb 3e 3d 6e 79 73 bd 00 00 00 00 31 f7 10 bd
       0.04658074 -0.059441976 0.0 -0.03539199
000330 00 00 00 00 66 36 6e bd 72 41 fe bc 0e bd b8 3d
       0.0 -0.058157347 -0.031037066 0.09020434
000340 8e 95 41 3d bd 1b 1e bc c1 1e 0d bd df f6 44 bd
       0.047261767 -0.009650168 -0.034453157 -0.048086997
000350 00 00 00 00 e3 17 01 be 00 00 00 00 42 e1 3c be
       0.0 -0.12606768 0.0 -0.18445304
000360 00 00 00 00 00 00 00 00 2a 29 5e 3b 97 49 aa bd
       0.0 0.0 0.0033899047 -0.083148174
000370 00 00 00 00 00 00 00 00 00 00 00 00 78 8d 66 bd
       0.0 0.0 0.0 -0.05628726
000380 b0 7b cc bd 63 f3 be bd 00 00 00 00 6a 5c 12 bd
       -0.09984529 -0.09323766 0.0 -0.035732664
000390 00 00 00 00 71 c5 92 bc 00 00 00 00 29 24 92 3c
       0.0 -0.017916413 0.0 0.017839508
0003a0 97 f3 18 3e c3 9e 1d bc 00 00 00 00 54 4c bb 3d
       0.14936672 -0.009620371 0.0 0.09145418
0003b0 0f 3a 34 3d 02 06 26 3d cc 39 81 bd 00 00 00 00
       0.04400068 0.040533073 -0.06309852 0.0
0003c0 2f b7 f6 bc 00 00 00 00 00 00 00 00 45 c2 be bd
       -0.030116646 0.0 0.0 -0.09314398
0003d0 7b 86 fe bd 8a 04 1f bd 00 00 00 00 00 00 00 00
       -0.12427994 -0.03882269 0.0 0.0
0003e0 ef 1b 36 bd 0f e2 fc bc 0b c7 11 be b3 35 d8 3d
       -0.044460233 -0.030869512 -0.14236085 0.10557117
0003f0 4a af 9c bd df c8 a8 3d 0f 90 ac bd 57 f4 be bc
       -0.07650621 0.08241438 -0.084259145 -0.02330987

weight f4 [256, 256]
000000 b6 1b bc bd 89 10 83 bd 28 25 c0 3b e0 e3 04 3d
       -0.09184973 -0.06399638 0.0058638044 0.03244388
000010 c3 5c 00 be 3b 99 aa bb fb 67 3e be b2 13 87 bc
       -0.12535386 -0.005206255 -0.18594353 -0.016488884
000020 de 59 8b 3a 7b ce 53 3c 3c ec 12 3e 91 bf 0c 3c
       0.0010631641 0.012927647 0.14347929 0.008590595
000030 e5 c5 d3 bc 0b 58 f2 3c 2b 59 5d bd 7f df af bc
       -0.0258512 0.029582998 -0.054040115 -0.021468876
000040 99 21 e6 3c 4d bd be bd 21 13 d4 3d e9 63 3b bb
       0.028092192 -0.0931345 0.10355211 -0.0028593487
000050 68 a1 9b bd de a8 5e bd 12 c4 cc bc 11 e6 a9 bd
       -0.07599145 -0.054360263 -0.024995837 -0.08295835
000060 0a cd 4a 3d 13 30 ca 3d 9b 71 98 3d c9 15 78 3d
       0.049511947 0.09872451 0.074435435 0.06056765
000070 b2 f9 0c 3d de ba 16 3d eb b2 a7 3d 78 cb ed 3d
       0.034417816 0.036799304 0.08188423 0.11611074
000080 22 94 b4 bd 3d 18 d2 bd ba fa a1 bc d8 41 ef 3d
       -0.088173166 -0.10258529 -0.019772876 0.116824806
000090 23 15 a4 3d 3c c7 79 3d cc 06 77 bd e5 7c 98 bd
       0.08011844 0.06098102 -0.060309216 -0.07445697
0000a0 d8 03 b1 3c 72 a2 3f bd 1c ff f9 3c f0 fe 88 bd
       0.021608278 -0.04678578 0.030517153 -0.066892505
0000b0 5e 02 4a bc de 6d 87 bd f8 10 02 3c bc a0 b6 bd
       -0.012329666 -0.066127524 0.007938616 -0.089173764
0000c0 8a c7 d8 3d 9c 52 77 bd 7f 8c d8 bd 46 66 25 3d
       0.10584934 -0.060381517 -0.105736725 0.04038074
0000d0 ae b2 d1 3c be e0 7f 3d 76 45 7c 3d 33 88 88 bd
       0.025597896 0.06247019 0.06158968 -0.06666603
0000e0 50 ad 05 3d e4 e4 8b 3c 69 83 9b 3d e2 6e cd bd
       0.032635987 0.017076917 0.07593424 -0.10030915
0000f0 ea 67 09 bc 59 db d0 3d 53 07 dd bc 8b c2 6f bc
       -0.008386591 0.10198087 -0.026981032 -0.014633785
000100 79 97 d1 bc d6 dc 9b bd cb 34 d2 3c 8d 22 d8 3c
       -0.025584923 -0.076104805 0.02565994 0.026383663
000110 32 47 09 3d 6a 3c b5 3d 4c 7a 07 3c ad 32 e3 bc
       0.033515163 0.08849414 0.008268904 -0.027734125
000120 a1 19 f8 3c fc 84 db 3c a2 5e d9 3b 25 e6 93 bd
       0.030285658 0.02679681 0.0066335956 -0.07221631
000130 bb 85 40 3b d2 cc d0 bd 80 79 0c 3d b3 ba b4 3d
       0.0029376585 -0.101953164 0.03429556 0.088246725
000140 26 ee ad 3b 9c e6 d9 3c 7c b6 7c bc 89 af 37 bc
       0.0053079305 0.026599221 -0.015424367 -0.011211284
000150 92 14 77 3d 82 f6 6c bd c2 c7 2e bd 55 81 66 bd
       0.06032235 -0.057852276 -0.042670973 -0.056275684
000160 6c 91 aa 3c 5d 6c 00 bd 4c 9c 3a bd f6 c7 33 bd
       0.020821296 -0.031353343 -0.045559213 -0.04389187
000170 6a 25 a9 3d e5 43 de 3d 1f ad 7e bd 4c f5 b6 3d
       0.08259089 0.108527936 -0.06217682 0.089335054
000180 aa 43 51 3d f6 f1 c6 bd 6e 89 d8 bc ee 28 5e 3e
       0.05108992 -0.09714119 -0.02643272 0.21695301
000190 e3 05 18 3b e2 7b c5 bc fb 34 15 3d da 65 a2 bc
       0.0023196868 -0.024106923 0.03642748 -0.019823957
0001a0 26 52 9d bd 1e ec 88 bd 38 19 89 bd 88 a8 66 bc
       -0.07681684 -0.06685661 -0.06694263 -0.014078267
0001b0 bf 78 30 3e 00 86 14 bc f0 47 b0 bc 4e 12 aa bd
       0.17233561 -0.009065151 -0.021518677 -0.083042726
0001c0 28 6a 14 3d bb 82 bc bd c6 49 18 bc 85 81 4b bd
       0.03623405 -0.09204622 -0.009294933 -0.049684066
0001d0 82 d8 f3 bb bc e7 fd bc f9 19 a5 3d 58 3c 29 3d
       -0.007441581 -0.030994289 0.080615945 0.041317314
0001e0 90 82 15 bd 83 8c 55 bd c0 3f 4e 3d b7 94 28 be
       -0.036501467 -0.052135956 0.050353765 -0.1646298
0001f0 6e 86 c9 bb 3f fb 8b bd 20 82 e0 3a 13 5d d1 3b
       -0.0061500585 -0.06835031 0.0017128624 0.006389269
000200 28 27 5e 3d fd 1d ff 3d 56 c7 d5 bc d7 66 1c be
       0.05423656 0.12456892 -0.026096027 -0.15273605
000210 a5 42 ca bd 1d d8 9d 3d e9 aa 2a bb e5 83 91 3d
       -0.09875993 0.07707236 -0.0026041812 0.07105235
000220 94 24 2b bd 4d 7b 03 bd a0 48 81 3b 29 17 c7 3c
       -0.04178293 -0.03210001 0.003945425 0.024303036
000230 93 ff f1 bd d3 3c 55 bd 35 27 98 ba 4d e5 25 bd
       -0.11816325 -0.05205996 -0.0011608364 -0.04050188
000240 cc 35 ed bc 1a 68 86 bd 7a ee 1f 3b 3c 51 3a bd
       -0.028956316 -0.065628245 0.0024403618 -0.045487627
000250 54 df 75 3d 3e fd 17 be 9c bc 24 bd 60 c9 a1 bd
       0.060027435 -0.14842698 -0.040218934 -0.07899737
000260 fb 30 e9 3d 20 0c a7 3c 92 a3 3e bd fc ca 90 3d
       0.113862954 0.020391524 -0.04654271 0.07069966
000270 c4 0b 97 3c 48 39 2f ba d1 c4 38 bd 4a c4 97 b9
       0.018438227 -0.0006684256 -0.045109574 -0.0002894721
000280 4b 67 b6 bc 90 ec 93 3d da a4 79 bd 2c 10 c0 bc
       -0.02226605 0.07222855 -0.06094823 -0.023445211
000290 96 23 f9 3d f8 b4 1d be 1c d3 cb bd 79 cd 9d bd
       0.121649906 -0.15401065 -0.09952375 -0.077052064
0002a0 7c a8 b4 bc 59 08 25 3d 11 62 db bd 8d bf e1 bc
       -0.022052996 0.040291164 -0.10712064 -0.027557159
0002b0 93 40 e3 bc 1e 48 9a 3d e9 47 7d 3d d3 c4 95 bc
       -0.027740752 0.075332865 0.061836157 -0.01828233
0002c0 f7 27 92 3d 42 5f 75 bd 84 13 8b 3b fb 33 0e bd
       0.07136529 -0.059905298 0.00424427 -0.03471754
0002d0 d6 a9 43 bd ad 63 05 3d 4d 4c 92 3c 63 67 f1 bc
       -0.04776939 0.03256576 0.017858649 -0.029468244
0002e0 33 c6 1f 3d 1b 5a a9 bd 66 7f 3f bd 57 b1 40 3d
       0.039007377 -0.082691394 -0.046752356 0.047044124
0002f0 82 3f 67 3d 67 4c 26 bd c3 85 8e 3d be 20 ff bc
       0.05645705 -0.040600207 0.06959107 -0.031143542
000300 10 5b 30 be f7 9b 52 3c 03 e8 c0 bd 74 c3 67 bd
       -0.17222238 0.012854568 -0.09419253 -0.056582883
000310 3f 6c 6c 3c a0 6f 26 bd a6 5c 1b 3d bc 72 b8 3d
       0.014430105 -0.040633798 0.037930153 0.09006259
000320 68 1c db 3c 8e 61 c0 bc d2 90 52 bd 04 40 71 bd
       0.026746944 -0.023484018 -0.051407643 -0.05889894
000330 2a 79 50 bd 12 99 10 3d 41 80 6f bd ec e2 cd 3d
       -0.0508968 0.03530223 -0.05847192 0.100530475
000340 f8 6b 8f 3d 9d 60 13 bc 96 18 84 3d 74 32 83 3d
       0.07003015 -0.008995202 0.06450002 0.064061075
000350 ae c7 92 3c f4 dc b6 bc 06 77 1f bc 2b c6 91 3c
       0.01791748 -0.022322156 -0.009732967 0.01779469
000360 1f 57 7e bd bf 89 e0 bc 4f 57 a6 3c 47 97 3b 3d
       -0.062094804 -0.027409432 0.020305304 0.045798566
000370 bc 0a 4c 3d 04 7f fe 3b 75 88 21 bd 34 8e b2 3d
       0.049814925 0.0077666063 -0.039436776 0.08718529
000380 f7 66 2b bd 92 68 c6 3d dc e8 83 bd c8 c3 89 bd
       -0.04184624 0.09687914 -0.06440899 -0.067267954
000390 90 f4 d5 3b 65 d1 b7 3c 6a ab e8 bc 27 5e 42 3d
       0.0065293983 0.022438714 -0.02840205 0.047453072
0003a0 66 e5 4c 3c c4 f1 0f 3b 8a f2 1c 3e 36 3a ff bd
       0.012505865 0.0021964172 0.15326896 -0.12462275
0003b0 91 72 0d 3d 31 0e a2 bd 46 4e 28 bd 45 31 79 bd
       0.034533087 -0.07912863 -0.041090272 -0.060838003
0003c0 89 35 93 bc 62 cc 6e 3d 74 da 36 bc 46 b0 a6 bd
       -0.017969863 0.058300383 -0.011160482 -0.0813909
0003d0 22 8a 5a bd 5d 75 2d 3c 64 c5 31 bd b2 5e a2 3d
       -0.05335439 0.010587064 -0.043401137 0.07928218
0003e0 bd 4f 61 bd 40 27 1a bd cd f9 2c 3d ab 77 b9 bd
       -0.055007685 -0.037635088 0.042230416 -0.09056028
0003f0 ba 65 c8 b8 e8 62 30 bd 23 52 9b 3d 4a 61 ff 3c
       -9.555691e-05 -0.043063074 0.07584026 0.03117432

bias f4 [256]
000000 cb a7 9d 3a 48 8e b9 bd f0 de 19 be ee 19 14 38
       0.0012028156 -0.09060341 -0.1502645 3.53101e-05
000010 8b 29 26 3d 4d 6e 3c be 8f 70 61 be 53 52 1f bc
       0.040566962 -0.18401451 -0.22015594 -0.0097242175
000020 f4 c2 0d bb 9f be b1 bc 31 5a 18 bd d0 60 fc bc
       -0.0021631094 -0.02169734 -0.03719539 -0.030807883
000030 d3 83 88 bc 42 bf b6 bb 9d d0 d8 3c f5 21 8f bc
       -0.016664421 -0.005576999 0.026466662 -0.017472247
000040 01 2e 04 bd 4f bb 06 bc ee 5f 2f bd 2c 9a ea bd
       -0.032270435 -0.008223369 -0.042816095 -0.11455187
000050 c1 62 bd bc 3b 40 17 bd 0d a1 e2 bc 39 46 9b 3d
       -0.023118379 -0.03692649 -0.027664686 0.07581753
000060 ed fa a7 bc 71 39 56 bd d0 f6 e1 3c b2 d1 1d 3d
       -0.020505393 -0.052300874 0.02758351 0.03853006
000070 0a a4 06 3d 0c bd 61 3d 9e 5d a4 3d b8 d6 e1 bd
       0.032871284 0.05511193 0.080256686 -0.110272825
000080 7c f7 d5 3c dc 46 be bc 00 00 00 00 b0 03 98 3b
       0.026118986 -0.023227148 0.0 0.0046391115
000090 35 ee b6 bc c8 f9 e9 bc de 85 99 3d d3 4c ae 3c
       -0.022330383 -0.028561488 0.07496236 0.021276867
0000a0 22 2a 20 3c b6 f2 90 bd b2 16 17 bc 25 db af bb
       0.00977567 -0.070775434 -0.00922172 -0.0053667002
0000b0 00 56 53 bd cd 03 a9 3c 80 8b 33 3c 73 79 9f bd
       -0.051595688 0.020631695 0.010958552 -0.077868365
0000c0 a6 9c d4 bc d6 c9 c4 bb f3 7d 7e 3c 00 00 00 00
       -0.025953602 -0.006005506 0.015532958 0.0
0000d0 16 4e 83 3b 95 e8 13 bd 58 db ef bd 94 c2 24 3d
       0.0040071113 -0.03611048 -0.117117584 0.040224627
0000e0 da a3 1e bd 82 4e 0b bd b3 df 91 bd af 50 57 be
       -0.03873048 -0.034010418 -0.07122745 -0.21026872
0000f0 59 aa 98 3d d6 3a 28 bd e0 5f f5 bc 21 a8 43 3d
       0.07454366 -0.041071735 -0.029952943 0.047767762
000100 bf 69 c0 bc 63 6e b8 bc a9 bc 0c be 75 4b 08 be
       -0.023487924 -0.022513574 -0.13743843 -0.13310035
000110 b1 04 80 bd 49 ff 14 3d ed a6 2c be 77 57 c5 bd
       -0.06250895 0.03637627 -0.16860552 -0.09635823
000120 35 46 25 bd 0b 74 73 bd 6b 1f f2 bc c9 22 ff bb
       -0.040350158 -0.05943684 -0.029555997 -0.007786129
000130 ce 5d 88 3d 98 68 86 bc 5f bd 2b bb f7 c0 18 bd
       0.06658517 -0.016407296 -0.0026205403 -0.0372934
000140 df 50 b1 bc 36 57 a4 3d f9 0c c9 bc 60 1d ce 3c
       -0.021645008 0.08024447 -0.024542319 0.025160491
000150 11 25 4e bd 18 02 a9 bc 54 7f 1c 3c 3d 3c 3d 3b
       -0.050328318 -0.020630881 0.009551842 0.0028875016
000160 5b f4 4a bc eb f6 d9 bc be b0 ca 3d d0 e7 87 bd
       -0.01238736 -0.026606997 0.09896992 -0.066360116
000170 63 40 2e bc 4b 2e 03 be 31 88 01 bd 66 ef 43 bc
       -0.010635468 -0.12810628 -0.031624023 -0.0119589325
000180 8a b0 19 bc 92 c4 aa bd d0 2a 3b b8 4f ed 13 bd
       -0.009380469 -0.08338274 -4.4624147e-05 -0.036114987
000190 25 10 02 be 56 5c 9a 3d cf 29 14 be b4 f2 01 be
       -0.12701471 0.07537143 -0.14469074 -0.1269024
0001a0 b3 c3 63 bd e6 91 b5 bc ba b2 ee 3d 48 c4 2f 3c
       -0.055606555 -0.022164296 0.11655183 0.010727949
0001b0 00 14 50 be b0 99 0b bc 29 06 42 3d f8 2f 00 3d
       -0.2032013 -0.008520529 0.047369156 0.031295747
0001c0 d2 73 ad bd 1a 41 a0 bd ed 48 b3 bd 77 97 5a be
       -0.084693566 -0.07824917 -0.08754144 -0.21346842
0001d0 92 5c 62 be 85 2e 4b bd 75 88 8d bc 42 a8 63 3d
       -0.22105625 -0.04960491 -0.017276982 0.055580385
0001e0 9e 6f f8 3b f7 28 45 be 9e c9 bd 3c 3d ea e7 bc
       0.007581665 -0.19253908 0.023167428 -0.028309936
0001f0 ce ae 75 bc f4 ef 38 3c 17 8e 02 be 47 1a 57 bc
       -0.01499529 0.011287678 -0.12749515 -0.013128824
000200 4d 68 31 bd ba d9 d9 bb c1 cc 57 bd 3a 9a dc bc
       -0.04331236 -0.0066482695 -0.052685503 -0.02692901
000210 d7 00 48 3c 0b ba 98 3d 09 26 27 3c 33 95 86 3b
       0.0122072315 0.0745736 0.010201939 0.0041071414
000220 b7 a4 0f bc e2 da 19 bc e4 16 7d bd f6 9f 10 3d
       -0.008767298 -0.009390565 -0.06178941 0.0353088
000230 10 ea f3 bc ce e9 0e bd 77 00 1f 3d 86 bd a2 3d
       -0.029774696 -0.034890942 0.038818803 0.07946305
000240 a5 47 86 3c cc fd d0 bd c7 8f e6 bd 43 c6 2c bd
       0.016391585 -0.10204658 -0.11257892 -0.042181265
000250 82 f4 73 bd 28 b8 f7 bb e5 a3 bb 3c ad 2e 5d bd
       -0.059559353 -0.007559795 0.0229053 -0.05399959
000260 6f 76 87 bb 53 f3 44 bd b8 97 95 bd 70 f4 ad 3d
       -0.0041339914 -0.048083615 -0.07304329 0.084938884
000270 c5 91 23 3d 29 ac af 3d 99 de 95 ba 57 cf 3e 3d
       0.03993394 0.08577759 -0.0011434137 0.046584453
000280 04 4c 3d bd f7 d6 31 3c 46 96 df bc b1 23 ff bb
       -0.046215072 0.010854474 -0.027293336 -0.007786237
000290 34 27 3c bd 58 6c 73 bd d6 d8 05 bc 74 15 bc bd
       -0.045935825 -0.059429497 -0.0081693735 -0.09183779
0002a0 37 09 00 be 75 e4 0d 3d fd 48 a5 3d 0b 34 15 be
       -0.12503515 0.0346417 0.08070562 -0.14570634
0002b0 e1 18 00 bc f9 a0 c1 bd 3c 9d b5 3d 15 fa 0e bb
       -0.007818432 -0.09454531 0.08867881 -0.002181654
0002c0 78 49 fd 3b eb cd 45 bd 00 00 00 00 b7 63 03 bd
       0.0077297054 -0.04829208 0.0 -0.032077517
0002d0 fe e0 97 bd 3e 28 37 bd 81 63 16 3d d1 57 fb 3c
       -0.07415961 -0.044716112 0.036715988 0.030681523
0002e0 13 82 60 bd 28 69 dd bd 65 d5 3a bd f8 de 0a 3d
       -0.05481155 -0.108110726 -0.045613665 0.033904046
0002f0 8e 64 a3 bd ca 2c 93 3c 14 60 ec bc fa 51 7b be
       -0.07978164 0.017965693 -0.028854407 -0.2454299
000300 e0 5f 32 3e c3 73 d0 bc d8 f5 a5 bc 0d a7 04 bd
       0.17419386 -0.025445824 -0.020258829 -0.032385875
000310 9e 4c 1d bd 4d 33 99 3d a2 cc 8c bc 85 f3 05 be
       -0.038403146 0.07480488 -0.01718742 -0.13081177
000320 4e f3 8a bc 54 4d e7 3b 7a 23 e9 bc 93 5b 5b bd
       -0.01696172 0.007058779 -0.0284593 -0.05355413
000330 5e 33 b7 bb ad 24 08 bd 9e 03 28 bc 8b 47 02 be
       -0.0055908402 -0.0332381 -0.010254769 -0.12722604
000340 45 db c7 3c 78 65 26 3c 40 3c 9b 3d 99 a8 8f bc
       0.024396548 0.010156028 0.07579851 -0.017536448
000350 85 dc c8 3c c3 b5 fa bc 47 2d 4c 3c 4d 19 05 bd
       0.024519214 -0.030604249 0.012461967 -0.03249483
000360 17 cb 3c be ed 74 02 bd ec 60 ca bb 09 6a 38 be
       -0.18436848 -0.03184979 -0.006176105 -0.18009199
000370 fe 51 1c bb a4 b5 ce bc 1a 30 e3 bc 66 d4 e1 3c
       -0.0023852582 -0.025233097 -0.027732898 0.0275671
000380 85 7d d8 bb 55 c8 35 bc 43 c4 83 3d ce 44 89 bc
       -0.00660676 -0.011095126 0.06433918 -0.016756441
000390 3a ef e4 bc ba 25 f5 bc 36 f4 e4 bd 00 00 00 00
       -0.027946103 -0.029925216 -0.11179392 0.0
0003a0 e8 e2 c0 bd d1 b5 66 3c 09 5c b0 3d d8 ff 82 39
       -0.09418279 0.014081434 0.08611304 0.0002498615
0003b0 d2 4e 59 3d 4f ba f6 bd 4d 91 72 bc a7 fc 57 be
       0.053053685 -0.12047254 -0.01480515 -0.21092473
0003c0 d3 7e de bd e5 e1 f8 bc 67 94 d8 bb 4b 71 0a be
       -0.108640336 -0.030381152 -0.006609488 -0.1351978
0003d0 eb ca c4 bd e0 af 3c bc 7f ae 3c bd 1b a2 41 bd
       -0.09609016 -0.011516541 -0.04606485 -0.047273736
0003e0 aa cf 74 bc a7 c9 67 bd 1a 37 f7 bc 07 63 cf bd
       -0.014942089 -0.056588795 -0.030177642 -0.1012631
0003f0 06 00 02 bd 84 89 d9 bc 5e a1 9c bd 56 ba 00 bc
       -0.031738304 -0.02655483 -0.07647966 -0.007856926

weight f4 [2, 256]
000000 0b a5 64 ba 1a 25 23 3e a8 6d b6 3d c1 c5 1b bd
       -0.0008722103 0.15932122 0.08907634 -0.03803039
000010 2c 3a 2c be b4 df 14 bf 64 38 58 bf 0b 64 bf bc
       -0.16819066 -0.58153844 -0.84461045 -0.023363134
000020 59 9f 18 3c 28 60 9a bd 23 0d 9d bd 8b df 44 bc
       0.009315335 -0.075378716 -0.07668521 -0.012016187
000030 f9 98 13 bd 7d a3 a2 bc 48 d0 d9 be 0e 22 84 bd
       -0.036034558 -0.019853348 -0.42541718 -0.06451808
000040 29 26 b9 bc 91 6a 7c bd 2a 23 d0 3d 55 bf ea be
       -0.022601204 -0.061625067 0.10162957 -0.458491
000050 7a 78 cf 3d b1 ab a7 bd c0 ee 81 3b 11 0d 0b 3e
       0.10130401 -0.081870444 0.003965229 0.13579203
000060 3e b2 80 be 38 2d 65 bd 6e 13 a3 3d 59 7b bf bd
       -0.25135988 -0.055951327 0.0796269 -0.093496986
000070 27 2d 04 3f 7c 64 b9 bc ae f0 5b 3e 74 3b 09 3e
       0.51631397 -0.022630922 0.21478531 0.13401586
000080 9e de cf bd ea 65 d5 3d c7 81 bb bd 93 86 e7 3c
       -0.10149883 0.10419829 -0.091556124 0.028262412
000090 d7 1e 82 3d 61 9b 78 bd d9 bd 1c be 0b 81 1b be
       0.063535385 -0.060695056 -0.15306796 -0.15185945
0000a0 80 de dd 3b 63 08 19 3e 62 eb 86 3d 42 78 a3 bc
       0.006770909 0.14944606 0.065878645 -0.019954804
0000b0 4b d6 ae 3e 2f f1 be bd 03 25 01 bd 18 ba 84 be
       0.34147868 -0.09323346 -0.031529438 -0.25923228
0000c0 ab ff c0 bd 5f e6 d8 3c d7 d4 f9 3d e7 32 13 bc
       -0.09423765 0.026477037 0.12198799 -0.008984304
0000d0 f4 37 2b be be ed ae bd 46 5d 12 be b1 85 10 bd
       -0.16720563 -0.085414395 -0.14293393 -0.035283748
0000e0 7c 90 f2 3d 60 52 27 3e 4f 1f b1 3e 25 6c 21 bf
       0.118439645 0.16340017 0.345942 -0.6305564
0000f0 25 34 3f 3e 54 e1 dc bc 99 85 a7 bc c5 7b 82 bd
       0.18672235 -0.026962914 -0.020449447 -0.063712634
000100 38 6f 4c 3d 5e d5 9b 3b 0c b5 b0 be b0 bb 8a 3e
       0.049910754 0.00475566 -0.34513128 0.2709632
000110 0d 7f 6f 3c b8 93 a2 bc ed 59 d4 be 45 f1 29 3f
       0.014617694 -0.019845828 -0.41474858 0.66383773
000120 85 50 81 3d 06 0b 12 bd 14 c9 4f bc 53 1a 70 bc
       0.06314186 -0.035655044 -0.012682218 -0.014654714
000130 87 51 05 3e fc 90 5e 3c 22 23 81 3b f0 7f 10 bc
       0.13019381 0.013584372 0.0039409557 -0.008819565
000140 5a 8a c4 bc 4e e8 10 be 40 4b 0e 3d 1c ad 2d 3e
       -0.023991752 -0.14151117 0.034739733 0.16960567
000150 a1 f1 a9 be cb 1f e5 bd 6a ba 1c 3c 6c fb 82 3c
       -0.3319216 -0.11187705 0.009565929 0.015989028
000160 37 5f 8b bc 43 12 03 3b ca 84 08 be b3 d1 c8 3d
       -0.017013175 0.0019999899 -0.13331905 0.09805622
000170 8a c5 e8 3b cd e4 0b bf 80 e1 e8 3c 95 51 8f bd
       0.0071036266 -0.54646 0.02842784 -0.069979824
000180 d9 6e 99 3d 3a a9 4d 3e 82 64 da bd 89 15 98 bd
       0.07491846 0.20084086 -0.106637016 -0.074259825
000190 2a 33 83 bd 1c 05 12 3e c7 9a 08 3e 18 be b6 3e
       -0.06406243 0.14259762 0.13340293 0.35691905
0001a0 e5 52 46 bc fe c4 3b bc ae fa c9 be 18 7a 26 be
       -0.0121047245 -0.011460541 -0.39449066 -0.16257513
0001b0 a4 6f 23 bf ac eb 96 bc c6 ce 10 3f d5 e4 01 be
       -0.63842225 -0.018422924 0.5656551 -0.12684949
0001c0 22 25 90 3e 06 73 39 bd 0a 47 bb 3d 37 9b 1c 3f
       0.2815333 -0.04527571 0.09144409 0.6117434
0001d0 02 3a 3b bf b9 08 e3 3e f0 2d a5 bc 57 70 c7 bd
       -0.7313539 0.44342592 -0.020163506 -0.09738224
0001e0 f1 b7 20 be a4 83 18 bf 8b 60 cf 3e d5 d9 85 be
       -0.15695168 -0.5957587 0.40503344 -0.26142755
0001f0 79 f7 26 bd aa 1c ef 3b 81 56 f4 bb 71 44 af bc
       -0.040763352 0.007297118 -0.007456601 -0.02139494
000200 4f 31 a5 bd 6a ae c3 be 58 b2 55 be dc 4a bd 3c
       -0.080660455 -0.38219005 -0.20868814 0.023106985
000210 98 90 8d bd 6d 9d 37 3e 0b 42 ba bd 31 a3 fa 3b
       -0.06912345 0.17931147 -0.09094628 0.0076488485
000220 a1 ca 56 bd 6d 98 d0 3c 6f 60 8c 3d 92 2f 0b be
       -0.052439336 0.025463307 0.06854331 -0.13592365
000230 2a 6b ab bd b1 73 36 be f7 e4 0c be b8 23 61 3e
       -0.08370049 -0.1781757 -0.13759218 0.21986282
000240 6e 3e 10 be 98 37 40 be db b2 9b 3e 27 71 85 3c
       -0.14086315 -0.18771207 0.30409893 0.016289307
000250 60 d0 70 bd be 2f e4 bd 9b 58 f9 3c af b7 17 be
       -0.058792472 -0.111419186 0.030437758 -0.14816163
000260 77 e4 a7 3c 4b 0c cc 3c 13 8f 95 bc ef 1e 74 3e
       0.020494683 0.024908205 -0.0182567 0.23839925
000270 c4 81 d3 bd e9 d1 64 3d b8 be c3 3e 53 71 03 3e
       -0.10327485 0.05586425 0.38231444 0.12836199
000280 bb 92 af 3d e5 bf a3 3c ed 8a 21 3d 46 9c 4b bd
       0.085729085 0.019988963 0.03943913 -0.04970958
000290 15 cf ea 3d 4f 60 3b bd 46 08 00 3c ad f8 13 3f
       0.11465279 -0.045746144 0.007814473 0.57801324
0002a0 75 1d 59 3e 84 23 17 be fa 3f 90 be 95 94 5b be
       0.21202643 -0.14759642 -0.2817381 -0.21443398
0002b0 aa 5a 8e bd 4c 78 38 3f 5f e8 4e be 41 15 c4 3c
       -0.069508865 0.7205856 -0.2020583 0.023935916
0002c0 1a 71 90 3c d6 95 0b bf 58 8e a7 bb b4 54 71 bd
       0.017632056 -0.54525506 -0.0051134042 -0.05891867
0002d0 d6 77 c1 3c 61 09 20 ba ba 08 3a 3e 3d 4d 62 be
       0.023616713 -0.0006104913 0.18167391 -0.22099777
0002e0 37 3c 3d 3d ac 10 39 3f 24 3b 04 3d 64 b6 f6 bd
       0.046200003 0.72291064 0.032282963 -0.12046507
0002f0 df 45 99 3e e9 a7 9c 3b 9e 65 1a 3c 00 35 34 bf
       0.2993612 0.0047807586 0.0094236415 -0.7039337
000300 6d a8 77 3e 73 07 bb bc 5c 76 2a ba 30 99 67 3c
       0.24185343 -0.0228307 -0.0006502622 0.014135644
000310 2d 3f 98 be 71 f4 a8 3e 1d 46 b4 bb 14 87 d6 be
       -0.297357 0.32998994 -0.005501522 -0.4189993
000320 d9 e5 15 3c a1 95 b1 bd 4c c7 c5 bc 22 36 bb 3e
       0.009149038 -0.086711176 -0.024142884 0.36564738
000330 3c 62 33 bc 5e 7f 90 bd bb 42 ae 3d 74 ee 80 be
       -0.010948714 -0.07055543 0.085088216 -0.25181925
000340 dd 31 06 bd e8 0d 80 39 44 96 42 bd be 7e 1f bd
       -0.032762397 0.00024424423 -0.047506586 -0.03893923
000350 68 31 b7 3d 63 d8 a4 3d d7 89 06 3e be fb 07 bc
       0.0894497 0.08049085 0.13138519 -0.008299766
000360 0e 02 65 3e c4 7d c5 bb 98 81 2d bd 59 c8 54 be
       0.22364065 -0.0060269553 -0.04235992 -0.20779552
000370 2a ae 8a 3b e7 a4 9c bd e2 6c b8 3a e8 05 8b be
       0.0042321878 -0.0764864 0.0014070536 -0.27152944
000380 76 20 89 3d 2a 9e 46 3c 50 aa 1b be 49 2b 25 bc
       0.066956446 0.01212267 -0.15201688 -0.010081121
000390 71 cd ed bc 90 a4 3a 3d bb 5e 43 3e 6f 2a 50 3c
       -0.029028626 0.045567095 0.19079106 0.012705429
0003a0 54 85 5d be b1 be 6c bd f5 c6 97 3e 62 f2 a2 3d
       -0.21632892 -0.057799045 0.2964398 0.07956387
0003b0 af 24 cc bd 3c b3 c7 3e 22 00 e0 3b 40 3b 28 bf
       -0.09967934 0.39003932 0.0068359533 -0.6571541
0003c0 5d 1b e2 3e 61 0a 1f 3d 93 62 0e bd fc c2 70 3e
       0.44161502 0.038828257 -0.034761976 0.2351188
0003d0 04 a1 b5 bd 00 16 f6 bc eb a2 32 bd db 89 05 bd
       -0.08868602 -0.030039787 -0.043612402 -0.032602172
0003e0 b6 2b b0 bd eb ad 66 3d fc 13 05 be b6 c7 c5 bd
       -0.08602087 0.056318205 -0.12995905 -0.096572325
0003f0 6e b8 1a 3d c3 82 2f bd 25 8d 85 bd 5e 36 fd bc
       0.037773542 -0.042849313 -0.06521062 -0.030909713

bias f4 [2]
000000 c7 fc 1f 3c 0a 02 cc bc
       0.009764857 -0.024903316
