exp_local/bc_changing/weights/18000.pt (torch, 272392 bytes, 6 tensors)

weight f4 [256, 2]
-0.3602728 0.06223811 0.05154483 -0.039719597 -0.5488555 0.10441586 0.17382069 0.101702526
0.27844802 0.056604046 0.020272765 -0.42061788 -0.1906324 0.24331142 0.21421444 0.038433935
-0.09882576 -0.20355979 -0.18646623 -0.0036452054 -0.15212592 -0.28974426 0.011968274 0.21807568
-0.80452764 0.06499076 0.048584994 0.30328375 -0.070215546 -0.1148718 0.33286315 -0.1453721
0.0075079156 0.046665225 -0.05732794 -0.04920378 -0.5695595 -0.08107837 -0.112161405 -0.079262406
-0.088476636 -0.03273508 -0.0062360633 -0.0145154325 -0.009793313 -0.06399562 -0.017512618 -0.047964074
0.14643754 -0.61029845 -0.0032960342 -0.028172607 0.095070764 0.1151857 -0.28296968 0.11570489
-0.0070480364 0.013027013 -0.59745723 -0.09407693 -0.06946934 -0.01748515 -0.14283486 0.27879947
-0.07941273 0.06900093 0.012250845 0.101028435 -0.065160245 -0.021645563 -0.6943371 0.018809764
-0.028142473 -0.02078291 -0.04107774 -0.0647955 -0.28325513 0.101143494 0.283123 -0.33852383
-0.877301 0.01791216 0.17545539 -0.12064987 0.05063165 0.011002989 0.2628587 -0.057312246
0.16117772 0.14883019 -0.19156182 -0.09221739 -0.17445834 0.35327345 0.26002002 -0.09623221
0.020536676 0.02229327 -0.07402583 -0.015657103 -0.6035059 0.12764037 0.0017414001 0.014259873
-0.031227048 -0.09178193 -0.049492285 -0.007510131 -0.14624575 -0.081920676 0.13551486 0.069551095
-0.017042425 -0.12235671 0.05417479 0.0021579692 -0.009508685 0.014683345 -0.939249 0.14851229
0.06333339 -0.19003214 -0.006173995 0.042794995 -0.14678782 0.26130858 -0.06125654 -0.38662082
0.060388494 0.10081676 -0.5711467 0.23656553 0.23073718 0.10179608 -0.014878313 -0.03139227
-0.03932688 -0.007264519 -0.063084595 -0.13973556 -0.086170234 -0.039065734 0.010614022 -0.0060742907
-0.19718312 0.24979351 -0.09171949 -0.038821466 -0.12928957 0.24082994 -0.6006141 0.22656521
-0.22567014 0.10006715 -0.05439083 -0.07495418 -0.037790317 -0.0019279331 0.16547407 -0.8917193
-0.13655008 -0.05603844 -0.024215054 -0.035283994 0.20957531 -0.5891513 0.16417243 -0.6588228
-0.08063612 -0.06059216 -0.08631393 -0.039744373 -0.015908811 -0.053860996 0.30976677 -0.13736328
-0.1511514 0.2551606 -0.063760616 -0.016916106 -0.0012361745 -0.10817162 0.06362354 -0.011001063
0.0035466275 -0.086133 -0.02204825 -0.005390316 -0.021368131 -0.062490836 -0.059115075 -0.002692182
-0.05744779 -0.15507847 -0.03141229 0.008327041 -0.06590586 -0.30007258 -0.058903437 -0.054609668
-0.05656959 0.008916189 0.09494068 0.21107577 -0.0534031 -0.34967828 -0.5745445 0.1773572
0.16603705 0.099826805 -0.010976583 -0.00032412694 -0.13637656 0.23060901 0.005157753 0.019456506
0.18543546 -0.7013444 -0.035293985 -0.038950566 -0.12900063 -0.016132178 -0.6431984 0.24102208
-0.90434 0.17142935 0.2594035 -0.032633487 -0.0899611 -0.049013726 0.08295336 -0.027325455
-0.039479457 -0.13524231 -0.12333273 -0.116805 -0.14009221 -0.08041697 0.21558025 -0.4703595
-0.5660054 0.09888417 -0.12183946 -0.7598453 0.09598147 0.0041249786 0.20282929 -0.0638065
0.19998841 0.06654598 -0.004289658 -0.0072092223 0.037187573 0.0662972 0.06567608 -0.053799983
00000000: ad75 b8be 63ed 7e3d ac20 533d 04b1 22bd
00000010: cb81 0cbf fbd7 d53d 0dfe 313e 6a49 d03d
00000020: bd90 8e3e a5d9 673d 1213 a63c 3a5b d7be
00000030: 2435 43be a126 793e 085b 5b3e e76c 1d3d
00000040: 2965 cabd fa71 50be 01f1 3ebe 66e4 6ebb
00000050: e6c6 1bbe 5c59 94be 9416 443c 3b4f 5f3e
00000060: 86f5 4dbf e019 853d 0f01 473d 0248 9b3e
00000070: 2bcd 8fbd e841 ebbd 0a6d aa3e 6cdc 14be
00000080: f604 f63b 0924 3f3d b4d0 6abd e789 49bd
00000090: a7ce 11bf 6b0c a6bd e1b4 e5bd 5454 a2bd
000000a0: 3d33 b5bd 3815 06bd e457 ccbb 23d2 6dbc
000000b0: 2274 20bc 2310 83bd 9f76 8fbc fa75 44bd
000000c0: b9f3 153e 853c 1cbf 4702 58bb 3dca e6bc
000000d0: 76b4 c23d 7be6 eb3d 67e1 90be aff6 ec3d
000000e0: 37f3 e6bb 416f 553c f5f2 18bf 68ab c0bd
000000f0: f145 8ebd 043d 8fbc 4d43 12be cebe 8e3e
00000100: 24a3 a2bd 5c50 8d3d c5b7 483c ffe7 ce3d
00000110: bc72 85bd 0952 b1bc 14c0 31bf ef16 9a3c
00000120: 0b8b e6bc ec40 aabc 2241 28bd 81b3 84bd
00000130: d106 91be 5224 cf3d 7ff5 903e ff52 adbe
00000140: cc96 60bf 86bc 923c 94aa 333e 4717 f7bd
00000150: 2263 4f3d e145 343c 6a95 863e 3fc0 6abd
00000160: c60b 253e f166 183e c828 44be 79dc bcbd
00000170: 35a5 32be 42e0 b43e 5821 853e 6515 c5bd
00000180: 883c a83c 60a0 b63c db9a 97bd 5343 80bc
00000190: 5d7f 1abf 28b4 023e b13f e43a 3ea2 693c
000001a0: decf ffbc 2af8 bbbd 6cb8 4abd 8c17 f6bb
000001b0: 72c1 15be 07c6 a7bd 68c4 0a3e ce70 8e3d
000001c0: 8e9c 8bbc 2896 fabd 62e6 5d3d b76c 0d3b
000001d0: 51ca 1bbc 6a92 703c 9f72 70bf 9b13 183e
000001e0: f0b4 813d c997 42be 394f cabb ce49 2f3d
000001f0: 8c4f 16be 3dca 853e 23e8 7abd 2af3 c5be
00000200: ed59 773d 0479 ce3d ac36 12bf 3c3e 723e
00000210: 5e46 6c3e 777a d03d 2bc4 73bc 2e95 00bd
00000220: 3915 21bd 340b eebb 7f32 81bd d716 0fbe
00000230: 057a b0bd 6403 20bd 6fe6 2d3c d80a c7bb
00000240: 5fea 49be dfc9 7f3e 6ed7 bbbd 4203 1fbd
00000250: 7c64 04be 209c 763e d8c1 19bf b600 683e
00000260: 1316 67be 02f0 cc3d ebc8 5ebd 9481 99bd
00000270: 05ca 1abd b3b2 fcba 0972 293e b747 64bf
00000280: c9d3 0bbe 9088 65bd a65e c6bc f385 10bd
00000290: e99a 563e 9fd2 16bf d11c 283e 9ca8 28bf
000002a0: 8d24 a5bd 7c2f 78bd 5cc5 b0bd ffca 22bd
000002b0: 3253 82bc 599d 5cbd c099 9e3e f6a8 0cbe
000002c0: 6fc7 1abe 69a4 823e ed94 82bd a593 8abc
000002d0: 2207 a2ba 1589 ddbd 0f4d 823d cd3d 34bc
000002e0: 896e 683b 8066 b0bd 889e b4bc 3fa1 b0bb
000002f0: 380c afbc 64f6 7fbd a622 72bd 526f 30bb
00000300: 604e 6bbd e4cc 1ebe 2caa 00bd 246e 083c
00000310: a7f9 86bd 1da3 99be bb44 71bd 63ae 5fbd
00000320: 84b5 67bd 3515 123c 4270 c23d 3f24 583e
00000330: 36bd 5abd 0809 b3be 5915 13bf 209d 353e
00000340: 9e05 2a3e ff71 cc3d 20d7 33bc 95ef a9b9
00000350: 4ca6 0bbe c524 6c3e 5e02 a93b 4063 9f3c
00000360: cbe2 3d3e 4e8b 33bf 6d90 10bd a18a 1fbd
00000370: be18 04be a127 84bc a6a8 24bf 7ece 763e
00000380: d482 67bf 2d8b 2f3e 89d0 843e b1aa 05bd
00000390: 863d b8bd 9ec2 48bd 74e3 a93d a2d9 dfbc
000003a0: 36b5 21bd f67c 0abe df95 fcbd 7637 efbd
000003b0: 5574 0fbe a7b1 a4bd 12c1 5c3e f6d2 f0be
000003c0: bbe5 10bf c983 ca3d f886 f9bd 3985 42bf
000003d0: ef91 c43d d42a 873b 7bb2 4f3e fbac 82bd
000003e0: c3c9 4c3e 4249 883d 4290 8cbb 573b ecbb
000003f0: ff51 183d d4c6 873d 2e81 863d 5f5d 5cbd

bias f4 [256]
0.118146315 -0.05515276 0.07520171 -0.17289837 -0.13760138 0.08240433 -0.11548928 -0.14602673
0.1332911 -0.0060054623 0.19342197 -0.064100526 0.03230688 -0.09886184 0.0 -0.113218755
-0.053261217 0.0 0.14308265 0.0 0.0 0.0 0.0 0.0
-0.09942612 0.0 -0.045212105 0.05978842 -0.013629129 0.15420188 0.0 -0.11976173
-0.09076056 -0.03742338 0.0 0.07334481 0.0 0.0 0.06385565 -0.076790005
0.09700599 -0.13030027 -0.06115092 -0.08043043 -0.14901456 0.122990176 -0.15324077 -0.1413604
-0.045714233 0.0 0.002383554 -0.022209985 0.0 0.0 0.0 -0.16769584
0.0 -0.055685118 -0.015212396 -0.00053470436 -0.07212063 -0.04273505 -0.15123527 0.13736811
-0.052138254 -0.09300478 -0.14802003 0.0 0.0 0.0 0.0 -0.011124147
-0.1093614 0.0 -0.14472051 -0.08107259 0.042479336 0.0 0.0002461983 -0.005337653
0.0 0.0 -0.07163638 -0.034800325 0.0 0.0 0.0 -0.11258478
-0.1454434 0.0 -0.0084051145 -0.06368594 -0.007895358 0.0 0.0 0.0
0.0 -0.0076927585 0.16075833 0.0 -0.007546894 -0.16837466 0.12674235 0.056962218
-0.1684416 -0.008003843 -0.12934071 -0.031395834 -0.048732713 0.0 0.0 -0.08504666
-0.04260792 -0.078539215 0.0 -0.058542777 0.0 0.17965212 0.07387585 -0.032055963
0.07610298 0.1736735 -0.099126786 -0.11761025 -0.116750434 -0.005513674 -0.10036905 -0.06814645
-0.16244031 -0.019193191 0.0 -0.14921735 0.0 0.12860347 -0.1284089 0.0
0.10343095 -0.039531928 -0.093669094 -0.070767716 -0.022221068 -0.14789027 -0.04429833 -0.028750656
0.0 0.19335088 0.0 0.16372696 0.0 -0.028103124 -0.0043057827 -0.07013271
0.1599218 0.0 -0.1761631 0.0 -0.13383566 0.0 0.039894406 -0.14154668
-0.17315546 0.0 0.04736764 -0.07847328 -0.04222188 0.19802743 0.0 -0.05699481
-0.043217003 -0.098791055 -0.07691979 0.0 -0.06379773 0.0 -0.1607086 -0.049662847
-0.12204963 0.093059674 0.0 0.0751912 -0.0021573552 0.116033964 -0.08836848 -0.18506011
-0.05634058 -0.021783119 0.0 -0.12627293 0.0021438533 0.16784084 -0.10029283 0.0
-0.10380232 -0.022335099 0.0 0.0 -0.0956765 -0.1596367 0.0 0.056171488
0.039264657 -0.07009254 0.0 -0.04878974 0.0 -0.08432525 -0.037177864 0.106666096
0.062255073 -0.009650168 -0.034453157 -0.06537011 0.0 -0.16293608 0.0 -0.20639943
0.0 0.0 0.0018888895 -0.096243136 0.0 0.0 0.0 -0.059923586
-0.13023998 -0.10316931 0.0 -0.035732664 0.0 -0.033431523 0.0 0.020437125
0.17575431 -0.009620371 0.0 0.11206047 0.053212292 0.04309855 -0.06309852 0.0
-0.030802483 0.0 0.0 -0.098319426 -0.15030544 -0.059455905 0.0 0.0
-0.057056233 -0.049555946 -0.17388242 0.11439307 -0.08733373 0.104847446 -0.08913133 -0.02330987
00000000: b2f6 f13d dce7 61bd 5b03 9a3d 450c 31be
00000010: 60e7 0cbe 9ac3 a83d a585 ecbd 0888 15be
00000020: 767d 083e 78c9 c4bb 6910 463e 2347 83bd
00000030: 3854 043d 1478 cabd 0000 0000 3cdf e7bd
00000040: 6f28 5abd 0000 0000 4284 123e 0000 0000
00000050: 0000 0000 0000 0000 0000 0000 0000 0000
00000060: ec9f cbbd 0000 0000 5430 39bd b4e4 743d
00000070: b64c 5fbc 19e7 1d3e 0000 0000 a345 f5bd
00000080: ace0 b9bd 4249 19bd 0000 0000 ce35 963d
00000090: 0000 0000 0000 0000 c0c6 823d 1444 9dbd
000000a0: 14ab c63d 6f6d 05be 6379 7abd b6b8 a4bd
000000b0: 4697 18be 46e2 fb3d 26eb 1cbe c8c0 10be
000000c0: d93e 3bbd 0000 0000 6635 1c3b b7f1 b5bc
000000d0: 0000 0000 0000 0000 0000 0000 75b8 2bbe
000000e0: 0000 0000 1416 64bd 6a3d 79bc 672b 0cba
000000f0: fbb3 93bd f30a 2fbd 6bdd 1abe 3aaa 0c3e
00000100: ec8e 55bd 4a79 bebd 9092 17be 0000 0000
00000110: 0000 0000 0000 0000 0000 0000 0e42 36bc
00000120: dff8 dfbd 0000 0000 9d31 14be 6309 a6bd
00000130: d0fe 2d3d 0000 0000 2d14 8139 7be7 aebb
00000140: 0000 0000 0000 0000 18b6 92bd c98a 0ebd
00000150: 0000 0000 0000 0000 0000 0000 d992 e6bd
00000160: 1def 14be 0000 0000 9bb5 09bc c66d 82bd
00000170: 885b 01bc 0000 0000 0000 0000 0000 0000
00000180: 0000 0000 8913 fcbb d59d 243e 0000 0000
00000190: ef4b f7bb 686a 2cbe bfc8 013e 3751 693d
000001a0: f47b 2cbe 8d22 03bc e471 04be eb98 00bd
000001b0: f49b 47bd 0000 0000 0000 0000 f12c aebd
000001c0: a485 2ebd 2bd9 a0bd 0000 0000 8dca 6fbd
000001d0: 0000 0000 baf6 373e 394c 973d 1d4d 03bd
000001e0: e1db 9b3d 77d7 313e fc02 cbbd a5dd f0bd
000001f0: da1a efbd 0dac b4bb 4a8e cdbd 5e90 8bbd
00000200: c156 26be 0a3b 9dbc 0000 0000 6fcc 18be
00000210: 0000 0000 a1b0 033e 9f7d 03be 0000 0000
00000220: 9bd3 d33d 3bec 21bd 95d5 bfbd aaee 90bd
00000230: f508 b6bc 8c70 17be 2a72 35bd 7f86 ebbc
00000240: 0000 0000 c6fd 453e 0000 0000 0aa8 273e
00000250: 0000 0000 8638 e6bc 8617 8dbb bda1 8fbd
00000260: 8ac2 233e 0000 0000 1a64 34be 0000 0000
00000270: 370c 09be 0000 0000 5168 233d 9df1 10be
00000280: aa4f 31be 0000 0000 9204 423d 99b6 a0bd
00000290: daf0 2cbd b4c7 4a3e 0000 0000 6473 69bd
000002a0: 5004 31bd f752 cabd 1f88 9dbd 0000 0000
000002b0: 62a8 82bd 0000 0000 cc90 24be 456b 4bbd
000002c0: 28f5 f9bd 1296 be3d 0000 0000 d8fd 993d
000002d0: 6a62 0dbb 37a3 ed3d 89fa b4bd 6680 3dbe
000002e0: 61c5 66bd 8372 b2bc 0000 0000 b14d 01be
000002f0: e47f 0c3b 78de 2b3e 5466 cdbd 0000 0000
00000300: 5096 d4bd 19f8 b6bc 0000 0000 0000 0000
00000310: 0af2 c3bd ce77 23be 0000 0000 1314 663d
00000320: fad3 203d ad8c 8fbd 0000 0000 c0d7 47bd
00000330: 0000 0000 b7b2 acbd d147 18bd c173 da3d
00000340: 2dff 7e3d bd1b 1ebc c11e 0dbd c4e0 85bd
00000350: 0000 0000 b7d8 26be 0000 0000 5f5a 53be
00000360: 0000 0000 0000 0000 9d94 f73a 1f1b c5bd
00000370: 0000 0000 0000 0000 0000 0000 6f72 75bd
00000380: a15d 05be 6e4a d3bd 0000 0000 6a5c 12bd
00000390: 0000 0000 7eef 08bd 0000 0000 c26b a73c
000003a0: f0f8 333e c39e 1dbc 0000 0000 f67f e53d
000003b0: 22f5 593d 1b88 303d cc39 81bd 0000 0000
000003c0: 7d55 fcbc 0000 0000 0000 0000 b25b c9bd
000003d0: abe9 19be 0988 73bd 0000 0000 0000 0000
000003e0: ccb3 69bd 2dfb 4abd 3c0e 32be ea46 ea3d
000003f0: 07dc b2bd 42ba d63d 7d8a b6bd 57f4 bebc

weight f4 [256, 256]
-0.09184973 -0.06399638 0.0058638044 0.03244388 -0.12535386 -0.005206255 -0.18594353 -0.016488884
0.0010631641 0.012927647 0.14347929 0.008590595 -0.0258512 0.029582998 -0.054040115 -0.021468876
0.028092192 -0.0931345 0.10355211 -0.0028593487 -0.07599145 -0.054360263 -0.024995837 -0.08295835
0.049511947 0.09872451 0.074435435 0.06056765 0.034417816 0.036799304 0.08188423 0.11611074
-0.088173166 -0.10258529 -0.019772876 0.116824806 0.08011844 0.06098102 -0.060309216 -0.07445697
0.021608278 -0.04678578 0.030517153 -0.066892505 -0.012329666 -0.066127524 0.007938616 -0.089173764
0.10584934 -0.060381517 -0.105736725 0.04038074 0.025597896 0.06247019 0.06158968 -0.06666603
0.032635987 0.017076917 0.07593424 -0.10030915 -0.008386591 0.10198087 -0.026981032 -0.014633785
-0.025584923 -0.076104805 0.02565994 0.026383663 0.033515163 0.08849414 0.008268904 -0.027734125
0.030285658 0.02679681 0.0066335956 -0.07221631 0.0029376585 -0.101953164 0.03429556 0.088246725
0.0053079305 0.026599221 -0.015424367 -0.011211284 0.06032235 -0.057852276 -0.042670973 -0.056275684
0.020821296 -0.031353343 -0.045559213 -0.04389187 0.08259089 0.108527936 -0.06217682 0.089335054
0.05108992 -0.09714119 -0.02643272 0.21695301 0.0023196868 -0.024106923 0.03642748 -0.019823957
-0.07681684 -0.06685661 -0.06694263 -0.014078267 0.17233561 -0.009065151 -0.021518677 -0.083042726
0.03623405 -0.09204622 -0.009294933 -0.049684066 -0.007441581 -0.030994289 0.080615945 0.041317314
-0.036501467 -0.052135956 0.050353765 -0.1646298 -0.0061500585 -0.06835031 0.0017128624 0.006389269
0.05423656 0.12456892 -0.026096027 -0.15273605 -0.09875993 0.07707236 -0.0026041812 0.07105235
-0.04178293 -0.03210001 0.003945425 0.024303036 -0.11816325 -0.05205996 -0.0011608364 -0.04050188
-0.028956316 -0.065628245 0.0024403618 -0.045487627 0.060027435 -0.14842698 -0.040218934 -0.07899737
0.113862954 0.020391524 -0.04654271 0.07069966 0.018438227 -0.0006684256 -0.045109574 -0.0002894721
-0.02226605 0.07222855 -0.06094823 -0.023445211 0.121649906 -0.15401065 -0.09952375 -0.077052064
-0.022052996 0.040291164 -0.10712064 -0.027557159 -0.027740752 0.075332865 0.061836157 -0.01828233
0.07136529 -0.059905298 0.00424427 -0.03471754 -0.04776939 0.03256576 0.017858649 -0.029468244
0.039007377 -0.082691394 -0.046752356 0.047044124 0.05645705 -0.040600207 0.06959107 -0.031143542
-0.17222238 0.012854568 -0.09419253 -0.056582883 0.014430105 -0.040633798 0.037930153 0.09006259
0.026746944 -0.023484018 -0.051407643 -0.05889894 -0.0508968 0.03530223 -0.05847192 0.100530475
0.07003015 -0.008995202 0.06450002 0.064061075 0.01791748 -0.022322156 -0.009732967 0.01779469
-0.062094804 -0.027409432 0.020305304 0.045798566 0.049814925 0.0077666063 -0.039436776 0.08718529
-0.04184624 0.09687914 -0.06440899 -0.067267954 0.0065293983 0.022438714 -0.02840205 0.047453072
0.012505865 0.0021964172 0.15326896 -0.12462275 0.034533087 -0.07912863 -0.041090272 -0.060838003
-0.017969863 0.058300383 -0.011160482 -0.0813909 -0.05335439 0.010587064 -0.043401137 0.07928218
-0.055007685 -0.037635088 0.042230416 -0.09056028 -9.555691e-05 -0.043063074 0.07584026 0.03117432
00000000: b61b bcbd 8910 83bd 2825 c03b e0e3 043d
00000010: c35c 00be 3b99 aabb fb67 3ebe b213 87bc
00000020: de59 8b3a 7bce 533c 3cec 123e 91bf 0c3c
00000030: e5c5 d3bc 0b58 f23c 2b59 5dbd 7fdf afbc
00000040: 9921 e63c 4dbd bebd 2113 d43d e963 3bbb
00000050: 68a1 9bbd dea8 5ebd 12c4 ccbc 11e6 a9bd
00000060: 0acd 4a3d 1330 ca3d 9b71 983d c915 783d
00000070: b2f9 0c3d deba 163d ebb2 a73d 78cb ed3d
00000080: 2294 b4bd 3d18 d2bd bafa a1bc d841 ef3d
00000090: 2315 a43d 3cc7 793d cc06 77bd e57c 98bd
000000a0: d803 b13c 72a2 3fbd 1cff f93c f0fe 88bd
000000b0: 5e02 4abc de6d 87bd f810 023c bca0 b6bd
000000c0: 8ac7 d83d 9c52 77bd 7f8c d8bd 4666 253d
000000d0: aeb2 d13c bee0 7f3d 7645 7c3d 3388 88bd
000000e0: 50ad 053d e4e4 8b3c 6983 9b3d e26e cdbd
000000f0: ea67 09bc 59db d03d 5307 ddbc 8bc2 6fbc
00000100: 7997 d1bc d6dc 9bbd cb34 d23c 8d22 d83c
00000110: 3247 093d 6a3c b53d 4c7a 073c ad32 e3bc
00000120: a119 f83c fc84 db3c a25e d93b 25e6 93bd
00000130: bb85 403b d2cc d0bd 8079 0c3d b3ba b43d
00000140: 26ee ad3b 9ce6 d93c 7cb6 7cbc 89af 37bc
00000150: 9214 773d 82f6 6cbd c2c7 2ebd 5581 66bd
00000160: 6c91 aa3c 5d6c 00bd 4c9c 3abd f6c7 33bd
00000170: 6a25 a93d e543 de3d 1fad 7ebd 4cf5 b63d
00000180: aa43 513d f6f1 c6bd 6e89 d8bc ee28 5e3e
00000190: e305 183b e27b c5bc fb34 153d da65 a2bc
000001a0: 2652 9dbd 1eec 88bd 3819 89bd 88a8 66bc
000001b0: bf78 303e 0086 14bc f047 b0bc 4e12 aabd
000001c0: 286a 143d bb82 bcbd c649 18bc 8581 4bbd
000001d0: 82d8 f3bb bce7 fdbc f919 a53d 583c 293d
000001e0: 9082 15bd 838c 55bd c03f 4e3d b794 28be
000001f0: 6e86 c9bb 3ffb 8bbd 2082 e03a 135d d13b
00000200: 2827 5e3d fd1d ff3d 56c7 d5bc d766 1cbe
00000210: a542 cabd 1dd8 9d3d e9aa 2abb e583 913d
00000220: 9424 2bbd 4d7b 03bd a048 813b 2917 c73c
00000230: 93ff f1bd d33c 55bd 3527 98ba 4de5 25bd
00000240: cc35 edbc 1a68 86bd 7aee 1f3b 3c51 3abd
00000250: 54df 753d 3efd 17be 9cbc 24bd 60c9 a1bd
00000260: fb30 e93d 200c a73c 92a3 3ebd fcca 903d
00000270: c40b 973c 4839 2fba d1c4 38bd 4ac4 97b9
00000280: 4b67 b6bc 90ec 933d daa4 79bd 2c10 c0bc
00000290: 9623 f93d f8b4 1dbe 1cd3 cbbd 79cd 9dbd
000002a0: 7ca8 b4bc 5908 253d 1162 dbbd 8dbf e1bc
000002b0: 9340 e3bc 1e48 9a3d e947 7d3d d3c4 95bc
000002c0: f727 923d 425f 75bd 8413 8b3b fb33 0ebd
000002d0: d6a9 43bd ad63 053d 4d4c 923c 6367 f1bc
000002e0: 33c6 1f3d 1b5a a9bd 667f 3fbd 57b1 403d
000002f0: 823f 673d 674c 26bd c385 8e3d be20 ffbc
00000300: 105b 30be f79b 523c 03e8 c0bd 74c3 67bd
00000310: 3f6c 6c3c a06f 26bd a65c 1b3d bc72 b83d
00000320: 681c db3c 8e61 c0bc d290 52bd 0440 71bd
00000330: 2a79 50bd 1299 103d 4180 6fbd ece2 cd3d
00000340: f86b 8f3d 9d60 13bc 9618 843d 7432 833d
00000350: aec7 923c f4dc b6bc 0677 1fbc 2bc6 913c
00000360: 1f57 7ebd bf89 e0bc 4f57 a63c 4797 3b3d
00000370: bc0a 4c3d 047f fe3b 7588 21bd 348e b23d
00000380: f766 2bbd 9268 c63d dce8 83bd c8c3 89bd
00000390: 90f4 d53b 65d1 b73c 6aab e8bc 275e 423d
000003a0: 66e5 4c3c c4f1 0f3b 8af2 1c3e 363a ffbd
000003b0: 9172 0d3d 310e a2bd 464e 28bd 4531 79bd
000003c0: 8935 93bc 62cc 6e3d 74da 36bc 46b0 a6bd
000003d0: 228a 5abd 5d75 2d3c 64c5 31bd b25e a23d
000003e0: bd4f 61bd 4027 1abd cdf9 2c3d ab77 b9bd
000003f0: ba65 c8b8 e862 30bd 2352 9b3d 4a61 ff3c

bias f4 [256]
0.0012028156 -0.10495035 -0.17533544 0.0069085127 0.036742717 -0.22486895 -0.31122413 -0.0097242175
-0.037031267 -0.02169734 -0.03719539 -0.07972641 -0.016664421 -0.06099868 0.047696687 -0.04468586
-0.100176066 -0.008223369 -0.042816095 -0.13592584 -0.023118379 -0.03692649 -0.030739399 0.08887956
-0.01794773 -0.0703563 0.047144763 0.031482045 0.009439319 0.071949184 0.08647311 -0.14136
0.025956051 -0.03301118 -0.031765547 0.0064499658 -0.022330383 -0.028561488 0.08885811 0.014816388
-0.009886937 -0.1517832 -0.00922172 -0.0053667002 -0.12684445 0.0185615 0.0007247132 -0.1036808
-0.025953602 -0.006005506 0.008147481 -0.035799295 0.006479156 -0.03611048 -0.13155702 0.041186094
-0.039714944 -0.050656203 -0.0825791 -0.22870272 0.076140545 -0.06380434 -0.029952943 0.046008755
-0.023487924 -0.022513574 -0.15683633 -0.16439682 -0.06250895 0.041752197 -0.24768329 -0.13819245
-0.040350158 -0.08462409 -0.029555997 -0.007786129 0.077168554 -0.016407296 -0.019497525 -0.0372934
-0.021645008 0.07264861 -0.069955476 0.031401496 -0.03741276 -0.020630881 0.009551842 0.0028875016
-0.01238736 -0.026606997 0.10838973 -0.19697052 -0.04239475 -0.16203757 -0.031624023 -0.021564908
-0.009380469 -0.11660251 0.0036706158 -0.036114987 -0.14652714 0.09003628 -0.16695128 -0.15452355
-0.055606555 -0.022164296 0.13044105 0.00903157 -0.23188576 -0.008520529 0.023931384 0.035261136
-0.09090577 -0.081078105 -0.11190932 -0.27155602 -0.30604523 -0.048480947 -0.055469964 0.052824687
0.02800557 -0.22617267 0.024624573 -0.019791393 -0.01499529 0.0047299745 -0.15100941 -0.009231624
-0.04331236 -0.018030807 -0.037233688 -0.02692901 0.025382059 0.06506773 0.020668318 0.0041071414
-0.008767298 -0.009390565 -0.080472335 0.044719122 -0.029774696 -0.042097062 0.04087388 0.07217522
0.024323525 -0.12156334 -0.11866514 -0.042181265 -0.07303576 -0.007559795 0.03458127 -0.050083876
-0.011760943 -0.048083615 -0.078987956 0.090942696 0.038567606 0.09609207 -0.01447706 0.07369106
-0.20839565 -0.0022855087 -0.046211127 -0.007786237 -0.05888731 -0.14947376 -0.0081693735 -0.12242864
-0.13573194 0.036504675 0.07599491 -0.21960606 -0.007818432 -0.12603648 0.08594807 -0.002181654
0.030479345 -0.05504698 -0.027188586 -0.05516329 -0.10642878 -0.044716112 0.0374357 0.032769583
-0.08029541 -0.14469038 -0.045613665 0.022653585 -0.10676372 0.048965503 -0.028854407 -0.26710916
0.20051219 -0.022035576 -0.020258829 -0.032385875 -0.04732266 0.08209229 -0.017607499 -0.16803847
-0.01696172 0.02121876 -0.0284593 -0.07390051 -0.0055908402 -0.0012727951 -0.010254769 -0.10488434
0.051334325 -0.033347443 0.0845739 -0.017536448 0.038641125 -0.030604249 -0.008495829 -0.03249483
-0.25318947 -0.03184979 -0.006176105 -0.23374419 -0.0023852582 -0.025233097 -0.027732898 0.04123077
-0.00660676 -0.011095126 0.068200946 -0.016756441 -0.027946103 -0.029925216 -0.13247912 0.0
-0.11471976 0.015822053 0.09185641 0.036283385 0.04396573 -0.16159296 -0.052887246 -0.24987084
-0.108493805 -0.030381152 -0.006609488 -0.16500506 -0.110542625 -0.011516541 -0.04606485 -0.0713027
-0.014942089 -0.052792665 -0.030177642 -0.124502726 -0.031738304 -0.02655483 -0.07869966 0.00023503252
00000000: cba7 9d3a 36f0 d6bd 228b 33be ce60 e23b
00000010: 887f 163d 0c44 66be c558 9fbe 5352 1fbc
00000020: 19ae 17bd 9fbe b1bc 315a 18bd 9a47 a3bd
00000030: d383 88bc c0d9 79bd 9a5d 433d 8508 37bd
00000040: 1c29 cdbd 4fbb 06bc ee5f 2fbd 2530 0bbe
00000050: c162 bdbc 3b40 17bd 31d1 fbbc 7d06 b63d
00000060: 1e07 93bc f716 90bd de1a 413d 51f3 003d
00000070: 60a7 1a3c 185a 933d d018 b13d adc0 10be
00000080: c9a1 d43c bb36 07bd 971c 02bd 3c5a d33b
00000090: 35ee b6bc c8f9 e9bc 3efb b53d 6fc0 723c
000000a0: d2fc 21bc 0e6d 1bbe b216 17bc 25db afbb
000000b0: 83e3 01be 490e 983c aefa 3d3a 9956 d4bd
000000c0: a69c d4bc d6c9 c4bb 037d 053c 48a2 12bd
000000d0: 1a4f d43b 95e8 13bd e2b6 06be c0b2 283d
000000e0: 23ac 22bd e17c 4fbd 3b1f a9bd 0c31 6abe
000000f0: 93ef 9b3d daab 82bd e05f f5bc ad73 3c3d
00000100: bf69 c0bc 636e b8bc b499 20be a457 28be
00000110: b104 80bd 5a04 2b3d b0a0 7dbe 5282 0dbe
00000120: 3546 25bd 654f adbd 6b1f f2bc c922 ffbb
00000130: 8c0a 9e3d 9868 86bc 46b9 9fbc f7c0 18bd
00000140: df50 b1bc cbc8 943d d144 8fbd db9e 003d
00000150: 1f3e 19bd 1802 a9bc 547f 1c3c 3d3c 3d3b
00000160: 5bf4 4abc ebf6 d9bc 6ffb dd3d a4b2 49be
00000170: 1ea6 2dbd 2ded 25be 3188 01bd e4a8 b0bc
00000180: 8ab0 19bc 4ccd eebd b78e 703b 4fed 13bd
00000190: 360b 16be f164 b83d 47f5 2abe 6c3b 1ebe
000001a0: b3c3 63bd e691 b5bc 5792 053e 26f9 133c
000001b0: 7673 6dbe b099 0bbc c00b c43c fb6d 103d
000001c0: ce2c babd 470c a6bd b730 e5bd 6409 8bbe
000001d0: f6b1 9cbe f593 46bd 7934 63bd b35e 583d
000001e0: f06b e53c cf99 67be 79b9 c93c 8f21 a2bc
000001f0: ceae 75bc e7fd 9a3b 36a2 1abe 3d40 17bc
00000200: 4d68 31bd 58b5 93bc 5a82 18bd 3a9a dcbc
00000210: 09ee cf3c 3b42 853d 9b50 a93c 3395 863b
00000220: b7a4 0fbc e2da 19bc aece a4bd 662b 373d
00000230: 10ea f3bc f86d 2cbd 5f6b 273d 9ad0 933d
00000240: 2142 c73c 33f6 f8bd b506 f3bd 43c6 2cbd
00000250: c693 95bd 28b8 f7bb 17a5 0d3d c024 4dbd
00000260: f8b0 40bc 53f3 44bd 70c4 a1bd 2a40 ba3d
00000270: 11f9 1d3d ebcb c43d 3131 6dbc 57eb 963d
00000280: ab65 55be 79c8 15bb e147 3dbd b123 ffbb
00000290: d233 71bd a60f 19be d6d8 05bc debb fabd
000002a0: 50fd 0abe ed85 153d 38a3 9b3d 69e0 60be
000002b0: e118 00bc b50f 01be 8b05 b03d 15fa 0ebb
000002c0: d2af f93c f178 61bd 99ba debc e7f2 61bd
000002d0: 55f7 d9bd 3e28 37bd 2d56 193d 6639 063d
000002e0: eb71 a4bd b729 14be 65d5 3abd 0394 b93c
000002f0: f0a6 dabd 0d90 483d 1460 ecbc 88c2 88be
00000300: 1153 4d3e f483 b4bc d8f5 a5bc 0da7 04bd
00000310: 68d5 41bd 0120 a83d 9a3d 90bc 4712 2cbe
00000320: 4ef3 8abc f7d2 ad3c 7a23 e9bc 2759 97bd
00000330: 5e33 b7bb ebd3 a6ba 9e03 28bc 9acd d6bd
00000340: f143 523d 5497 08bd 1535 ad3d 99a8 8fbc
00000350: 2846 1e3d c3b5 fabc 1732 0bbc 4d19 05bd
00000360: 0da2 81be ed74 02bd ec60 cabb a35a 6fbe
00000370: fe51 1cbb a4b5 cebc 1a30 e3bc 99e1 283d
00000380: 857d d8bb 55c8 35bc f0ac 8b3d ce44 89bc
00000390: 3aef e4bc ba25 f5bc 9ba8 07be 0000 0000
000003a0: 32f2 eabd 409d 813c 371f bc3d e39d 143d
000003b0: 6915 343d a078 25be 4ca0 58bd 24de 7fbe
000003c0: 0032 debd e5e1 f8bc 6794 d8bb 16f7 28be
000003d0: 2c64 e2bd e0af 3cbc 7fae 3cbd 2607 92bd
000003e0: aacf 74bc 1f3d 58bd 1a37 f7bc 49fb febd
000003f0: 0600 02bd 8489 d9bc 4a2d a1bd 1073 7639

weight f4 [2, 256]
-0.0008722103 0.29926166 0.11993108 -0.047682665 -0.18527104 -0.6772225 -1.541391 -0.023363134
0.024897315 -0.075378716 -0.07668521 0.005269462 -0.036034558 0.0055084 -0.49122825 -0.09555871
-0.31511828 -0.061625067 0.10162957 -0.37285638 0.10130401 -0.081870444 0.00020111166 0.11563472
-0.38021287 -0.0041803224 0.12185122 -0.076438695 0.5112314 -0.015075157 0.19318746 0.27432784
-0.07781414 0.18470839 -0.062823504 0.014278165 0.063535385 -0.060695056 -0.13105306 -0.17280647
-0.016382677 0.62122154 0.065878645 -0.019954804 0.5344848 -0.09748055 -0.0038797692 -0.2602558
-0.09423765 0.026477037 0.11768085 -0.0026030887 -0.25323677 -0.085414395 -0.15884446 -0.017827177
0.062146407 0.16396804 0.4535286 -0.747694 0.14732842 -0.072385035 -0.020449447 -0.06537394
0.049910754 0.00475566 -0.370052 0.41613612 0.014617694 0.012943777 -1.1601933 0.6913851
0.06314186 -0.28566486 -0.012682218 -0.014654714 0.10257238 0.013584372 -0.013575875 -0.008819565
-0.023991752 -0.1618343 0.05526582 0.2674797 -0.31434724 -0.11187705 0.009565929 0.015989028
-0.017013175 0.0019999899 -0.13302954 0.7558167 0.0358992 -0.6986913 0.02842784 -0.030984255
0.07491846 0.2496088 -0.16167815 -0.074259825 -0.09737153 0.15850878 0.18466353 0.42320502
-0.0121047245 -0.011460541 -0.41082713 -0.19572541 -0.7216346 -0.018422924 0.5951146 -0.1168478
0.37097958 -0.034642957 0.04134739 0.3121395 -1.556075 0.46426502 0.006182466 -0.09141066
-0.3057436 -0.6768256 0.5870506 -0.2652713 -0.040763352 0.007282756 0.045352336 0.0030943297
-0.080660455 -0.47582728 -0.20893794 0.023106985 -0.10134403 0.16880359 -0.13223118 0.0076488485
-0.052439336 0.025463307 0.008244687 -0.19964027 -0.08370049 -0.22957473 -0.13487189 0.18431896
-0.13486183 -0.028397107 0.3109562 0.016289307 -0.019562537 -0.111419186 0.069848984 -0.11737196
0.0998268 0.024908205 -0.028610194 0.22381343 -0.094227605 0.064877324 0.6825136 0.20639141
1.0645849 0.10972284 0.030802106 -0.04970958 0.43841675 -0.70338845 0.007814473 0.6535205
0.14648287 -0.12668592 -0.29742602 -0.93034565 -0.069508865 0.8645667 -0.21312816 0.023935916
0.11042654 -0.7045352 0.023417143 -0.11901027 0.030829668 -0.0006104913 0.13274641 -0.22505686
0.11905258 0.9902831 0.032282963 -0.10709118 0.40530416 0.049077343 0.0094236415 -0.81565255
0.29813164 -0.019905373 -0.0006502622 0.014135644 -0.4273126 0.31879443 -0.0054916907 -0.60259545
0.009149038 -0.22424307 -0.024142884 0.47856915 -0.010948714 -0.13638572 0.085088216 -0.21321505
-0.09425339 -0.01449272 -0.045213062 -0.03893923 0.07550606 0.08049085 0.16312335 -0.008299766
0.21873918 -0.0060269553 -0.04235992 -0.37259915 0.0042321878 -0.0764864 0.0014070536 -0.44265524
0.066956446 0.01212267 -0.14982484 -0.010081121 -0.029028626 0.045567095 0.16249168 0.012705429
-0.20458882 -0.027012844 0.2893175 0.4211918 -0.03144159 0.41022426 0.038815744 -0.69591093
0.5853437 0.038828257 -0.034761976 0.28814027 -0.10845243 -0.030039787 -0.043612402 -0.021894956
-0.08602087 0.051038507 -0.12995905 -0.10621021 0.037773542 -0.042849313 -0.10570722 0.033061527
00000000: 0ba5 64ba d338 993e 6d9e f53d e64e 43bd
00000010: b1b7 3dbe 745e 2dbf 4d4c c5bf 0b64 bfbc
00000020: 74f5 cb3c 2860 9abd 230d 9dbd 73ab ac3b
00000030: f998 13bd cf7f b43b 4582 fbbe 49b4 c3bd
00000040: 2f57 a1be 916a 7cbd 2a23 d03d 08e7 bebe
00000050: 7a78 cf3d b1ab a7bd 80e1 5239 e5d1 ec3d
00000060: 43ab c2be 16fb 88bb 228d f93d e48b 9cbd
00000070: 10e0 023f cbfd 76bc efd2 453e b374 8c3e
00000080: 055d 9fbd 3224 3d3e 9ca9 80bd f7ee 693c
00000090: d71e 823d 619b 78bd c632 06be 2ef4 30be
000000a0: f734 86bc 6008 1f3f 62eb 863d 4278 a3bc
000000b0: ffd3 083f e2a3 c7bd ba43 7ebb 4040 85be
000000c0: abff c0bd 5fe6 d83c a802 f13d 9598 2abb
000000d0: 40a8 81be beed aebd 1fa8 22be 4d0a 92bc
000000e0: 3b8d 7e3d 3de7 273e e734 e83e e068 3fbf
000000f0: 43dd 163e 9b3e 94bd 9985 a7bc c6e2 85bd
00000100: 386f 4c3d 5ed5 9b3b 7577 bdbe cb0f d53e
00000110: 0d7f 6f3c 2312 543c 3781 94bf 9dfe 303f
00000120: 8550 813d aa42 92be 14c9 4fbc 531a 70bc
00000130: 7811 d23d fc90 5e3c 596d 5ebc f07f 10bc
00000140: 5a8a c4bc e4b7 25be 6a5e 623d 19f3 883e
00000150: 1ff2 a0be cb1f e5bd 6aba 1c3c 6cfb 823c
00000160: 375f 8bbc 4312 033b e538 08be 347d 413f
00000170: 0a0b 133d 6fdd 32bf 80e1 e83c b1d2 fdbc
00000180: d96e 993d 7399 7f3e f58e 25be 8915 98bd
00000190: ba6a c7bd 2050 223e 7018 3d3e 54ae d83e
000001a0: e552 46bc fec4 3bbc ef57 d2be 3e6c 48be
000001b0: 0cbd 38bf aceb 96bc 6e59 183f e64d efbd
000001c0: 09f1 bd3e c6e5 0dbd e15b 293d c0d0 9f3e
000001d0: 772d c7bf 25b4 ed3e 4996 ca3b 8335 bbbd
000001e0: 6d8a 9cbe 7144 2dbf f348 163f a4d1 87be
000001f0: 79f7 26bd 2fa4 ee3b 5fc3 393d 3dca 4a3b
00000200: 4f31 a5bd a29f f3be d4f3 55be dc4a bd3c
00000210: 758d cfbd d9da 2c3e 9c67 07be 31a3 fa3b
00000220: a1ca 56bd 6d98 d03c b914 073c 806e 4cbe
00000230: 2a6b abbd a315 6bbe db1b 0abe 1cbe 3c3e
00000240: 3819 0abe 0da1 e8bc a735 9f3e 2771 853c
00000250: 9d41 a0bc be2f e4bd fc0c 8f3d b660 f0bd
00000260: fe71 cc3d 4b0c cc3c ed5f eabc 592f 653e
00000270: 67fa c0bd 67de 843d 36b9 2e3f 4558 533e
00000280: 5144 883f 5eb6 e03d b354 fc3c 469c 4bbd
00000290: 2978 e03e 4411 34bf 4608 003c 1f4d 273f
000002a0: 9bff 153e f4b9 01be 3948 98be 222b 6ebf
000002b0: aa5a 8ebd 3e54 5d3f 453e 5abe 4115 c43c
000002c0: 4f27 e23d 6b5c 34bf 4fd5 bf3c a8bb f3bd
000002d0: 808e fc3c 6109 20ba adee 073e 4e75 66be
000002e0: d7d1 f33d 3183 7d3f 243b 043d 9f52 dbbd
000002f0: 0784 cf3e 5305 493d 9e65 1a3c 9bce 50bf
00000300: b6a4 983e 9810 a3bc 5c76 2aba 3099 673c
00000310: b8c8 dabe 0639 a33e a4f3 b3bb b243 1abf
00000320: d9e5 153c fa9f 65be 4cc7 c5bc 0407 f53e
00000330: 3c62 33bc b3a8 0bbe bb42 ae3d 0c55 5abe
00000340: ec07 c1bd e072 6dbc 5531 39bd be7e 1fbd
00000350: eca2 9a3d 63d8 a43d cf09 273e befb 07bc
00000360: 2afd 5f3e c47d c5bb 9881 2dbd 51c5 bebe
00000370: 2aae 8a3b e7a4 9cbd e26c b83a b5a3 e2be
00000380: 7620 893d 2a9e 463c af6b 19be 492b 25bc
00000390: 71cd edbc 90a4 3a3d 3864 263e 6f2a 503c
000003a0: bb7f 51be 0a4a ddbc 6c21 943e 74a6 d73e
000003b0: e6c8 00bd ea08 d23e 42fd 1e3d 3827 32bf
000003c0: 16d9 153f 610a 1f3d 9362 0ebd 1f87 933e
000003d0: 4f1c debd 0016 f6bc eba2 32bd 0d5d b3bc
000003e0: b62b b0bd c10d 513d fc13 05be bd84 d9bd
000003f0: 6eb8 1a3d c382 2fbd 077d d8bd 866b 073d

bias f4 [2]
0.012950284 -0.043884594
00000000: 6e2d 543c 55c0 33bd
