exp_local/bc_changing/weights/22000.pt (torch, 272392 bytes, 6 tensors)

weight f4 [256, 2]
000000 a7 5b c3 be 6b 06 90 3d ac 20 53 3d 04 b1 22 bd
       -0.38155863 0.07032474 0.05154483 -0.039719597
000010 a4 57 16 bf ef 26 e3 3d 5c 86 49 3e 99 13 e9 3d
       -0.5872748 0.1109141 0.1968016 0.11380691
000020 91 82 95 3e 01 d3 38 3d 1c 78 ca 3c 7c 1e e9 be
       0.29201177 0.045123104 0.024715476 -0.4553107
000030 65 3d 57 be c5 ed 81 3e 34 d6 77 3e 7b cd 32 3d
       -0.21019514 0.25376716 0.24202806 0.043652993
000040 4c e2 e7 bd 94 35 81 be 01 f1 3e be 66 e4 6e bb
       -0.113224596 -0.2523619 -0.18646623 -0.0036452054
000050 b0 38 37 be 8c 18 a3 be 22 0f ba 3c f2 7b 75 3e
       -0.17892718 -0.31854665 0.022712294 0.23973063
000060 51 ec 73 bf 92 59 bc 3d ca 68 3e 3d 06 cf ac 3e
       -0.95282465 0.09196772 0.046486653 0.33751696
000070 2b cd 8f bd e8 41 eb bd 2f 24 b1 3e 5a d4 21 be
       -0.070215546 -0.1148718 0.34597918 -0.15803662
000080 f6 04 f6 3b 09 24 3f 3d b4 d0 6a bd e7 89 49 bd
       0.0075079156 0.046665225 -0.05732794 -0.04920378
000090 49 2d 1d bf 0f 8f 95 bd e1 b4 e5 bd 54 54 a2 bd
       -0.61397225 -0.07302677 -0.112161405 -0.079262406
0000a0 3d 33 b5 bd 38 15 06 bd e4 57 cc bb 23 d2 6d bc
       -0.088476636 -0.03273508 -0.0062360633 -0.0145154325
0000b0 22 74 20 bc 23 10 83 bd 9f 76 8f bc fa 75 44 bd
       -0.009793313 -0.06399562 -0.017512618 -0.047964074
0000c0 cf f8 28 3e 89 23 45 bf 47 02 58 bb 3d ca e6 bc
       0.16501163 -0.7700735 -0.0032960342 -0.028172607
0000d0 f8 7a be 3d a3 a7 fc 3d ef 2a 9c be df dd 04 3e
       0.09300798 0.12336662 -0.30501506 0.12975262
0000e0 37 f3 e6 bb 41 6f 55 3c fb 57 23 bf b9 2d c0 bd
       -0.0070480364 0.013027013 -0.6380612 -0.09383721
0000f0 f1 45 8e bd 04 3d 8f bc aa d1 13 be 52 23 98 3e
       -0.06946934 -0.01748515 -0.14435449 0.29714447
000100 24 a3 a2 bd 5c 50 8d 3d 7a 14 5d 3b eb 5f c6 3d
       -0.07941273 0.06900093 0.0033734129 0.09686264
000110 bc 72 85 bd 09 52 b1 bc e0 cc 46 bf e9 01 ae 3c
       -0.065160245 -0.021645563 -0.77656364 0.021241145
000120 0b 8b e6 bc ec 40 aa bc 22 41 28 bd 81 b3 84 bd
       -0.028142473 -0.02078291 -0.04107774 -0.0647955
000130 2f 76 9b be c5 f3 ee 3d f6 2d 9b 3e ee e7 b4 be
       -0.30363604 0.11667589 0.30308503 -0.35333198
000140 e5 53 74 bf 06 a9 b3 39 11 95 4b 3e 9f fb 3c be
       -0.9544051 0.00034267473 0.19881083 -0.18455361
000150 22 63 4f 3d e1 45 34 3c d8 42 8f 3e ab 11 8c bd
       0.05063165 0.011002989 0.27980685 -0.068393074
000160 c3 21 38 3e f8 60 27 3e ec c3 62 be e4 6a f7 bd
       0.17981629 0.16345584 -0.22145051 -0.12080935
000170 e7 96 39 be d3 9e bf 3e fd 57 97 3e d2 2c e6 bd
       -0.18123971 0.3742586 0.29559317 -0.112390175
000180 88 3c a8 3c 60 a0 b6 3c db 9a 97 bd 53 43 80 bc
       0.020536676 0.02229327 -0.07402583 -0.015657103
000190 6e 70 29 bf b8 9a 13 3e b1 3f e4 3a 3e a2 69 3c
       -0.6618718 0.1441449 0.0017414001 0.014259873
0001a0 de cf ff bc 2a f8 bb bd 6c b8 4a bd 8c 17 f6 bb
       -0.031227048 -0.09178193 -0.049492285 -0.007510131
0001b0 72 c1 15 be 07 c6 a7 bd 6f 61 26 3e 67 d0 3c 3d
       -0.14624575 -0.081920676 0.16248105 0.046097185
0001c0 8e 9c 8b bc 28 96 fa bd 62 e6 5d 3d b7 6c 0d 3b
       -0.017042425 -0.12235671 0.05417479 0.0021579692
0001d0 51 ca 1b bc 6a 92 70 3c 25 15 8e bf b8 20 10 3e
       -0.009508685 0.014683345 -1.1100203 0.14074981
0001e0 f0 b4 81 3d c9 97 42 be 39 4f ca bb ce 49 2f 3d
       0.06333339 -0.19003214 -0.006173995 0.042794995
0001f0 47 f5 27 be 37 bd 94 3e a7 de aa bd 19 9f d3 be
       -0.1640216 0.2905061 -0.08343249 -0.4133232
000200 ed 8d 01 3d 8e 13 78 3d 6c 13 1e bf 96 bd 82 3e
       0.03162949 0.060565524 -0.61748385 0.25535268
000210 51 f3 81 3e 4a 26 e3 3d 2b c4 73 bc 2e 95 00 bd
       0.25380948 0.110912874 -0.014878313 -0.03139227
000220 39 15 21 bd 34 0b ee bb 7f 32 81 bd d7 16 0f be
       -0.03932688 -0.007264519 -0.063084595 -0.13973556
000230 05 7a b0 bd 64 03 20 bd 6f e6 2d 3c d8 0a c7 bb
       -0.086170234 -0.039065734 0.010614022 -0.0060742907
000240 32 ca 4f be c7 2b 8d 3e 6e d7 bb bd 42 03 1f bd
       -0.20291975 0.27572462 -0.09171949 -0.038821466
000250 68 9d 15 be 0a bb 89 3e 67 06 28 bf c1 2f 79 3e
       -0.14610827 0.26900512 -0.6563477 0.24334623
000260 98 6a 72 be 1c 94 ea 3d eb c8 5e bd 94 81 99 bd
       -0.23673475 0.11454031 -0.05439083 -0.07495418
000270 05 ca 1a bd b3 b2 fc ba c0 83 38 3e 65 1f 80 bf
       -0.037790317 -0.0019279331 0.18019009 -1.0009581
000280 c9 d3 0b be 90 88 65 bd a6 5e c6 bc f3 85 10 bd
       -0.13655008 -0.05603844 -0.024215054 -0.035283994
000290 5b 58 6c 3e 79 d8 25 bf 84 b7 36 3e 82 c1 46 bf
       0.2308058 -0.64783436 0.17843443 -0.7763902
0002a0 8d 24 a5 bd 7c 2f 78 bd 5c c5 b0 bd ff ca 22 bd
       -0.08063612 -0.06059216 -0.08631393 -0.039744373
0002b0 32 53 82 bc 59 9d 5c bd 47 20 a6 3e 8b ae 17 be
       -0.015908811 -0.053860996 0.324465 -0.14812677
0002c0 75 4e 25 be b1 ae 92 3e ed 94 82 bd a5 93 8a bc
       -0.1614321 0.28648904 -0.063760616 -0.016916106
0002d0 22 07 a2 ba 15 89 dd bd 0f 4d 82 3d cd 3d 34 bc
       -0.0012361745 -0.10817162 0.06362354 -0.011001063
0002e0 89 6e 68 3b 80 66 b0 bd 88 9e b4 bc 3f a1 b0 bb
       0.0035466275 -0.086133 -0.02204825 -0.005390316
0002f0 38 0c af bc 64 f6 7f bd a6 22 72 bd 52 6f 30 bb
       -0.021368131 -0.062490836 -0.059115075 -0.002692182
000300 60 4e 6b bd e4 cc 1e be 2c aa 00 bd 24 6e 08 3c
       -0.05744779 -0.15507847 -0.03141229 0.008327041
000310 f8 43 9e bd 85 e5 aa be bb 44 71 bd 63 ae 5f bd
       -0.07727808 -0.33378235 -0.058903437 -0.054609668
000320 84 b5 67 bd 35 15 12 3c 7e 12 d1 3d 9d 8a 6b 3e
       -0.05656959 0.008916189 0.10208605 0.23002096
000330 7b 10 6e bd 3d 18 be be 06 9c 1c bf b0 49 34 3e
       -0.058121186 -0.37127867 -0.6117557 0.17606235
000340 2a 5c 41 3e 54 6d f0 3d 20 d7 33 bc 95 ef a9 b9
       0.18882814 0.11739603 -0.010976583 -0.00032412694
000350 10 41 1e be 87 c5 84 3e 5e 02 a9 3b 40 63 9f 3c
       -0.15454507 0.2593195 0.005157753 0.019456506
000360 92 b1 4c 3e 89 63 55 bf 6d 90 10 bd a1 8a 1f bd
       0.19989613 -0.83355004 -0.035293985 -0.038950566
000370 be 18 04 be a1 27 84 bc ab 57 31 bf 59 0e 84 3e
       -0.12900063 -0.016132178 -0.69274396 0.25792196
000380 3d 8b 7b bf 2a 4a 4b 3e 8d e0 8b 3e b9 73 41 bd
       -0.98259336 0.1985251 0.27319756 -0.047229502
000390 86 3d b8 bd 9e c2 48 bd 27 3f 88 3d f3 37 7a bc
       -0.0899611 -0.049013726 0.0665267 -0.015272128
0003a0 36 b5 21 bd f6 7c 0a be ca 69 03 be 2e f7 fb bd
       -0.039479457 -0.13524231 -0.12833324 -0.12303005
0003b0 ea 3b 2f be 92 c4 9c bd 67 4f 6a 3e 8f 3e 0a bf
       -0.17112699 -0.0765468 0.22881852 -0.54001707
0003c0 ea cd 1a bf 56 0b df 3d ed db f8 bd 12 3f 52 bf
       -0.6047045 0.10890834 -0.121513225 -0.8212749
0003d0 ef 91 c4 3d d4 2a 87 3b 02 67 79 3e c5 50 a7 bd
       0.09598147 0.0041249786 0.243557 -0.081697024
0003e0 b4 f3 56 3e 0e 46 a8 3d 42 90 8c bb 57 3b ec bb
       0.20991403 0.08216487 -0.004289658 -0.0072092223
0003f0 ff 51 18 3d d4 c6 87 3d 2e 81 86 3d 5f 5d 5c bd
       0.037187573 0.0662972 0.06567608 -0.053799983

bias f4 [256]
000000 66 d3 08 3e dc e7 61 bd 3e e8 b0 3d db 49 42 be
       0.13361892 -0.05515276 0.08638047 -0.18973486
000010 0f 2d 19 be 9b 75 c0 3d a2 63 13 be f2 9d 24 be
       -0.14958595 0.093974315 -0.14393476 -0.16075876
000020 d0 0a 22 3e 78 c9 c4 bb cd 5e 63 3e 1c b5 8d bd
       0.15824437 -0.0060054623 0.22204132 -0.069193095
000030 46 c5 0d 3d 2a 0c da bd 00 00 00 00 81 b2 f2 bd
       0.034611963 -0.10646851 0.0 -0.11850453
000040 6f 28 5a bd 00 00 00 00 fd 37 23 3e 00 00 00 00
       -0.053261217 0.0 0.15939327 0.0
000050 00 00 00 00 00 00 00 00 00 00 00 00 00 00 00 00
       0.0 0.0 0.0 0.0
000060 89 c5 d1 bd 00 00 00 00 53 0d 27 bd 0f 8e 67 3d
       -0.10242755 0.0 -0.04078419 0.056531962
000070 b6 4c 5f bc c1 a2 34 3e 00 00 00 00 c4 23 03 be
       -0.013629129 0.1764021 0.0 -0.12806612
000080 ac e0 b9 bd 70 e4 e5 bc 00 00 00 00 a1 0f a9 3d
       -0.09076056 -0.028063029 0.0 0.08254934
000090 00 00 00 00 00 00 00 00 bd f8 8d 3d 2a 17 a5 bd
       0.0 0.0 0.06932209 -0.08061059
0000a0 94 ad e5 3d ae b3 19 be 63 79 7a bd f3 62 b4 bd
       0.11214748 -0.15009949 -0.06115092 -0.088079356
0000b0 5d 58 20 be b2 5d 05 3e b2 6c 21 be 0f 23 22 be
       -0.15658708 0.13024023 -0.1576412 -0.15833686
0000c0 d9 3e 3b bd 00 00 00 00 42 4e 66 3b b7 f1 b5 bc
       -0.045714233 0.0 0.003514186 -0.022209985
0000d0 00 00 00 00 00 00 00 00 00 00 00 00 2d 84 35 be
       0.0 0.0 0.0 -0.17726202
0000e0 00 00 00 00 14 16 64 bd 6a 3d 79 bc 5b f1 14 3c
       0.0 -0.055685118 -0.015212396 0.009090747
0000f0 fb b3 93 bd f3 0a 2f bd 6a 20 30 be 1c 86 13 3e
       -0.07212063 -0.04273505 -0.17199865 0.14406627
000100 f2 27 ad bd e0 eb d3 bd 9a 6b 25 be 00 00 00 00
       -0.084548846 -0.10347724 -0.16154328 0.0
000110 00 00 00 00 00 00 00 00 00 00 00 00 0e 42 36 bc
       0.0 0.0 0.0 -0.011124147
000120 90 3e fa bd 00 00 00 00 8c f8 2a be 54 2c bc bd
       -0.12218964 0.0 -0.16696376 -0.091881424
000130 45 16 27 3d 00 00 00 00 2d 14 81 39 59 41 b6 bb
       0.040792722 0.0 0.0002461983 -0.0055619893
000140 00 00 00 00 00 00 00 00 98 c1 af bd 85 00 33 bd
       0.0 0.0 -0.08581847 -0.043701667
000150 00 00 00 00 00 00 00 00 00 00 00 00 b1 db ee bd
       0.0 0.0 0.0 -0.116629966
000160 6e 6d 29 be 00 00 00 00 9b b5 09 bc c6 6d 82 bd
       -0.1654565 0.0 -0.0084051145 -0.06368594
000170 88 5b 01 bc 00 00 00 00 00 00 00 00 00 00 00 00
       -0.007895358 0.0 0.0 0.0
000180 00 00 00 00 89 13 fc bb 24 5a 36 3e 00 00 00 00
       0.0 -0.0076927585 0.17807823 0.0
000190 ef 4b f7 bb 63 cb 3e be 5b 3b 08 3e ed 3f 68 3d
       -0.007546894 -0.18632273 0.13303892 0.05670159
0001a0 87 bc 3e be 8d 22 03 bc 62 16 17 be eb 98 00 bd
       -0.18626605 -0.008003843 -0.14754632 -0.031395834
0001b0 d3 2d 59 bd 00 00 00 00 00 00 00 00 58 c2 c1 bd
       -0.053022217 0.0 0.0 -0.09460896
0001c0 e9 7c 41 bd 57 0f c5 bd 00 00 00 00 da 3f 88 bd
       -0.047238264 -0.096220665 0.0 -0.06652804
0001d0 00 00 00 00 5a 36 41 3e 2a 7c 9f 3d 66 99 f4 bc
       0.0 0.1886839 0.07787354 -0.029858302
0001e0 0e 92 b6 3d a1 92 4c 3e fc 02 cb bd cd 02 0f be
       0.089145765 0.1997781 -0.099126786 -0.13965912
0001f0 3a 64 01 be 0d ac b4 bb 4a 8e cd bd 5e 90 8b bd
       -0.1263589 -0.005513674 -0.10036905 -0.06814645
000200 91 e1 38 be 0a 3b 9d bc 00 00 00 00 35 6f 23 be
       -0.18054797 -0.019193191 0.0 -0.15960391
000210 00 00 00 00 c9 d9 05 3e f4 ad 07 be 00 00 00 00
       0.0 0.1307136 -0.13249952 0.0
000220 fd 36 ff 3d c7 68 35 bd 8e 7d bb bd 69 4f ac bd
       0.1246166 -0.044289377 -0.09154807 -0.08413584
000230 9a 4f ea bc 71 40 1c be 2a 72 35 bd 95 32 05 bd
       -0.02860241 -0.15258957 -0.04429833 -0.032518942
000240 00 00 00 00 9c c5 51 3e 00 00 00 00 a9 c3 35 3e
       0.0 0.20485538 0.0 0.1775042
000250 00 00 00 00 7e 0b 08 bd 86 17 8d bb a6 1f 9a bd
       0.0 -0.033214085 -0.0043057827 -0.07525568
000260 fb 4a 33 3e 00 00 00 00 a2 78 49 be 00 00 00 00
       0.17509072 0.0 -0.19674924 0.0
000270 ae d6 2c be 00 00 00 00 bc 45 4b 3d 81 a9 1f be
       -0.16878769 0.0 0.04962705 -0.15592004
000280 db ca 3f be 00 00 00 00 fd f1 40 3d 08 98 a9 bd
       -0.18729727 0.0 0.047105778 -0.08280951
000290 da f0 2c bd e8 e1 56 3e 00 00 00 00 64 73 69 bd
       -0.04222188 0.20984614 0.0 -0.05699481
0002a0 d2 d4 1d bd 06 2e e2 bd 1f 88 9d bd 00 00 00 00
       -0.03853304 -0.110439345 -0.07691979 0.0
0002b0 4c 0f 8d bd 00 00 00 00 78 0f 35 be 45 6b 4b bd
       -0.06887683 0.0 -0.17681682 -0.049662847
0002c0 b3 32 0e be 9c 8f da 3d 00 00 00 00 c1 ad b0 3d
       -0.13886528 0.106719226 0.0 0.08626891
0002d0 6a 62 0d bb 6d 96 ee 3d 47 c2 ca bd 1d 3d 4c be
       -0.0021573552 0.11649785 -0.09900337 -0.19945188
0002e0 61 c5 66 bd 83 72 b2 bc 00 00 00 00 0a 00 11 be
       -0.05634058 -0.021783119 0.0 -0.14160171
0002f0 e4 7f 0c 3b b0 4a 36 3e e1 e7 e0 bd 00 00 00 00
       0.0021438533 0.17801929 -0.109817274 0.0
000300 3c 42 e9 bd 19 f8 b6 bc 00 00 00 00 00 00 00 00
       -0.11389586 -0.022335099 0.0 0.0
000310 25 29 cc bd bd 07 2b be 00 00 00 00 0e 40 60 3d
       -0.09968785 -0.1670217 0.0 0.054748587
000320 c4 77 4e 3d 8b 66 98 bd 00 00 00 00 82 03 2d bd
       0.050407186 -0.074414335 0.0 -0.042239673
000330 00 00 00 00 c7 e6 d6 bd dd 95 08 bd a9 7b d7 3d
       0.0 -0.10493236 -0.033346046 0.10521633
000340 af 46 80 3d bd 1b 1e bc c1 1e 0d bd 84 6a 7c bd
       0.06263482 -0.009650168 -0.034453157 -0.06162502
000350 00 00 00 00 99 68 39 be 00 00 00 00 63 c9 62 be
       0.0 -0.18106307 0.0 -0.22147135
000360 00 00 00 00 00 00 00 00 83 49 24 3a 8e a5 d8 bd
       0.0 0.0 0.00062670576 -0.10578452
000370 00 00 00 00 00 00 00 00 00 00 00 00 7e e7 7f bd
       0.0 0.0 0.0 -0.062476628
000380 85 5a 23 be cf 46 00 be 00 00 00 00 6a 5c 12 bd
       -0.15952499 -0.12527011 0.0 -0.035732664
000390 00 00 00 00 21 0b 16 bd 00 00 00 00 9f 26 b7 3c
       0.0 -0.036631707 0.0 0.022357283
0003a0 db c7 46 3e c3 9e 1d bc 00 00 00 00 26 af fa 3d
       0.19412176 -0.009620371 0.0 0.12240438
0003b0 fd 68 96 3d 94 6c 51 3d cc 39 81 bd 00 00 00 00
       0.07344244 0.05112894 -0.06309852 0.0
0003c0 ab 14 3f bd 00 00 00 00 00 00 00 00 a3 75 00 be
       -0.04665057 0.0 0.0 -0.12544875
0003d0 54 f0 24 be 58 64 b6 bd 00 00 00 00 00 00 00 00
       -0.16107303 -0.08905858 0.0 0.0
0003e0 71 36 7f bd 3b b2 5d bd 1d 3e 47 be 07 0b f7 3d
       -0.06230778 -0.054125052 -0.19457288 0.1206265
0003f0 c8 36 c4 bd 9e 4c ea 3d 9f 22 c4 bd 57 f4 be bc
       -0.09580761 0.11440395 -0.09576916 -0.02330987

weight f4 [256, 256]
000000 b6 1b bc bd 89 10 83 bd 28 25 c0 3b e0 e3 04 3d
       -0.09184973 -0.06399638 0.0058638044 0.03244388
000010 c3 5c 00 be 3b 99 aa bb fb 67 3e be b2 13 87 bc
       -0.12535386 -0.005206255 -0.18594353 -0.016488884
000020 de 59 8b 3a 7b ce 53 3c 3c ec 12 3e 91 bf 0c 3c
       0.0010631641 0.012927647 0.14347929 0.008590595
000030 e5 c5 d3 bc 0b 58 f2 3c 2b 59 5d bd 7f df af bc
       -0.0258512 0.029582998 -0.054040115 -0.021468876
000040 99 21 e6 3c 4d bd be bd 21 13 d4 3d e9 63 3b bb
       0.028092192 -0.0931345 0.10355211 -0.0028593487
000050 68 a1 9b bd de a8 5e bd 12 c4 cc bc 11 e6 a9 bd
       -0.07599145 -0.054360263 -0.024995837 -0.08295835
000060 0a cd 4a 3d 13 30 ca 3d 9b 71 98 3d c9 15 78 3d
       0.049511947 0.09872451 0.074435435 0.06056765
000070 b2 f9 0c 3d de ba 16 3d eb b2 a7 3d 78 cb ed 3d
       0.034417816 0.036799304 0.08188423 0.11611074
000080 22 94 b4 bd 3d 18 d2 bd ba fa a1 bc d8 41 ef 3d
       -0.088173166 -0.10258529 -0.019772876 0.116824806
000090 23 15 a4 3d 3c c7 79 3d cc 06 77 bd e5 7c 98 bd
       0.08011844 0.06098102 -0.060309216 -0.07445697
0000a0 d8 03 b1 3c 72 a2 3f bd 1c ff f9 3c f0 fe 88 bd
       0.021608278 -0.04678578 0.030517153 -0.066892505
0000b0 5e 02 4a bc de 6d 87 bd f8 10 02 3c bc a0 b6 bd
       -0.012329666 -0.066127524 0.007938616 -0.089173764
0000c0 8a c7 d8 3d 9c 52 77 bd 7f 8c d8 bd 46 66 25 3d
       0.10584934 -0.060381517 -0.105736725 0.04038074
0000d0 ae b2 d1 3c be e0 7f 3d 76 45 7c 3d 33 88 88 bd
       0.025597896 0.06247019 0.06158968 -0.06666603
0000e0 50 ad 05 3d e4 e4 8b 3c 69 83 9b 3d e2 6e cd bd
       0.032635987 0.017076917 0.07593424 -0.10030915
0000f0 ea 67 09 bc 59 db d0 3d 53 07 dd bc 8b c2 6f bc
       -0.008386591 0.10198087 -0.026981032 -0.014633785
000100 79 97 d1 bc d6 dc 9b bd cb 34 d2 3c 8d 22 d8 3c
       -0.025584923 -0.076104805 0.02565994 0.026383663
000110 32 47 09 3d 6a 3c b5 3d 4c 7a 07 3c ad 32 e3 bc
       0.033515163 0.08849414 0.008268904 -0.027734125
000120 a1 19 f8 3c fc 84 db 3c a2 5e d9 3b 25 e6 93 bd
       0.030285658 0.02679681 0.0066335956 -0.07221631
000130 bb 85 40 3b d2 cc d0 bd 80 79 0c 3d b3 ba b4 3d
       0.0029376585 -0.101953164 0.03429556 0.088246725
000140 26 ee ad 3b 9c e6 d9 3c 7c b6 7c bc 89 af 37 bc
       0.0053079305 0.026599221 -0.015424367 -0.011211284
000150 92 14 77 3d 82 f6 6c bd c2 c7 2e bd 55 81 66 bd
       0.06032235 -0.057852276 -0.042670973 -0.056275684
000160 6c 91 aa 3c 5d 6c 00 bd 4c 9c 3a bd f6 c7 33 bd
       0.020821296 -0.031353343 -0.045559213 -0.04389187
000170 6a 25 a9 3d e5 43 de 3d 1f ad 7e bd 4c f5 b6 3d
       0.08259089 0.108527936 -0.06217682 0.089335054
000180 aa 43 51 3d f6 f1 c6 bd 6e 89 d8 bc ee 28 5e 3e
       0.05108992 -0.09714119 -0.02643272 0.21695301
000190 e3 05 18 3b e2 7b c5 bc fb 34 15 3d da 65 a2 bc
       0.0023196868 -0.024106923 0.03642748 -0.019823957
0001a0 26 52 9d bd 1e ec 88 bd 38 19 89 bd 88 a8 66 bc
       -0.07681684 -0.06685661 -0.06694263 -0.014078267
0001b0 bf 78 30 3e 00 86 14 bc f0 47 b0 bc 4e 12 aa bd
       0.17233561 -0.009065151 -0.021518677 -0.083042726
0001c0 28 6a 14 3d bb 82 bc bd c6 49 18 bc 85 81 4b bd
       0.03623405 -0.09204622 -0.009294933 -0.049684066
0001d0 82 d8 f3 bb bc e7 fd bc f9 19 a5 3d 58 3c 29 3d
       -0.007441581 -0.030994289 0.080615945 0.041317314
0001e0 90 82 15 bd 83 8c 55 bd c0 3f 4e 3d b7 94 28 be
       -0.036501467 -0.052135956 0.050353765 -0.1646298
0001f0 6e 86 c9 bb 3f fb 8b bd 20 82 e0 3a 13 5d d1 3b
       -0.0061500585 -0.06835031 0.0017128624 0.006389269
000200 28 27 5e 3d fd 1d ff 3d 56 c7 d5 bc d7 66 1c be
       0.05423656 0.12456892 -0.026096027 -0.15273605
000210 a5 42 ca bd 1d d8 9d 3d e9 aa 2a bb e5 83 91 3d
       -0.09875993 0.07707236 -0.0026041812 0.07105235
000220 94 24 2b bd 4d 7b 03 bd a0 48 81 3b 29 17 c7 3c
       -0.04178293 -0.03210001 0.003945425 0.024303036
000230 93 ff f1 bd d3 3c 55 bd 35 27 98 ba 4d e5 25 bd
       -0.11816325 -0.05205996 -0.0011608364 -0.04050188
000240 cc 35 ed bc 1a 68 86 bd 7a ee 1f 3b 3c 51 3a bd
       -0.028956316 -0.065628245 0.0024403618 -0.045487627
000250 54 df 75 3d 3e fd 17 be 9c bc 24 bd 60 c9 a1 bd
       0.060027435 -0.14842698 -0.040218934 -0.07899737
000260 fb 30 e9 3d 20 0c a7 3c 92 a3 3e bd fc ca 90 3d
       0.113862954 0.020391524 -0.04654271 0.07069966
000270 c4 0b 97 3c 48 39 2f ba d1 c4 38 bd 4a c4 97 b9
       0.018438227 -0.0006684256 -0.045109574 -0.0002894721
000280 4b 67 b6 bc 90 ec 93 3d da a4 79 bd 2c 10 c0 bc
       -0.02226605 0.07222855 -0.06094823 -0.023445211
000290 96 23 f9 3d f8 b4 1d be 1c d3 cb bd 79 cd 9d bd
       0.121649906 -0.15401065 -0.09952375 -0.077052064
0002a0 7c a8 b4 bc 59 08 25 3d 11 62 db bd 8d bf e1 bc
       -0.022052996 0.040291164 -0.10712064 -0.027557159
0002b0 93 40 e3 bc 1e 48 9a 3d e9 47 7d 3d d3 c4 95 bc
       -0.027740752 0.075332865 0.061836157 -0.01828233
0002c0 f7 27 92 3d 42 5f 75 bd 84 13 8b 3b fb 33 0e bd
       0.07136529 -0.059905298 0.00424427 -0.03471754
0002d0 d6 a9 43 bd ad 63 05 3d 4d 4c 92 3c 63 67 f1 bc
       -0.04776939 0.03256576 0.017858649 -0.029468244
0002e0 33 c6 1f 3d 1b 5a a9 bd 66 7f 3f bd 57 b1 40 3d
       0.039007377 -0.082691394 -0.046752356 0.047044124
0002f0 82 3f 67 3d 67 4c 26 bd c3 85 8e 3d be 20 ff bc
       0.05645705 -0.040600207 0.06959107 -0.031143542
000300 10 5b 30 be f7 9b 52 3c 03 e8 c0 bd 74 c3 67 bd
       -0.17222238 0.012854568 -0.09419253 -0.056582883
000310 3f 6c 6c 3c a0 6f 26 bd a6 5c 1b 3d bc 72 b8 3d
       0.014430105 -0.040633798 0.037930153 0.09006259
000320 68 1c db 3c 8e 61 c0 bc d2 90 52 bd 04 40 71 bd
       0.026746944 -0.023484018 -0.051407643 -0.05889894
000330 2a 79 50 bd 12 99 10 3d 41 80 6f bd ec e2 cd 3d
       -0.0508968 0.03530223 -0.05847192 0.100530475
000340 f8 6b 8f 3d 9d 60 13 bc 96 18 84 3d 74 32 83 3d
       0.07003015 -0.008995202 0.06450002 0.064061075
000350 ae c7 92 3c f4 dc b6 bc 06 77 1f bc 2b c6 91 3c
       0.01791748 -0.022322156 -0.009732967 0.01779469
000360 1f 57 7e bd bf 89 e0 bc 4f 57 a6 3c 47 97 3b 3d
       -0.062094804 -0.027409432 0.020305304 0.045798566
000370 bc 0a 4c 3d 04 7f fe 3b 75 88 21 bd 34 8e b2 3d
       0.049814925 0.0077666063 -0.039436776 0.08718529
000380 f7 66 2b bd 92 68 c6 3d dc e8 83 bd c8 c3 89 bd
       -0.04184624 0.09687914 -0.06440899 -0.067267954
000390 90 f4 d5 3b 65 d1 b7 3c 6a ab e8 bc 27 5e 42 3d
       0.0065293983 0.022438714 -0.02840205 0.047453072
0003a0 66 e5 4c 3c c4 f1 0f 3b 8a f2 1c 3e 36 3a ff bd
       0.012505865 0.0021964172 0.15326896 -0.12462275
0003b0 91 72 0d 3d 31 0e a2 bd 46 4e 28 bd 45 31 79 bd
       0.034533087 -0.07912863 -0.041090272 -0.060838003
0003c0 89 35 93 bc 62 cc 6e 3d 74 da 36 bc 46 b0 a6 bd
       -0.017969863 0.058300383 -0.011160482 -0.0813909
0003d0 22 8a 5a bd 5d 75 2d 3c 64 c5 31 bd b2 5e a2 3d
       -0.05335439 0.010587064 -0.043401137 0.07928218
0003e0 bd 4f 61 bd 40 27 1a bd cd f9 2c 3d ab 77 b9 bd
       -0.055007685 -0.037635088 0.042230416 -0.09056028
0003f0 ba 65 c8 b8 e8 62 30 bd 23 52 9b 3d 4a 61 ff 3c
       -9.555691e-05 -0.043063074 0.07584026 0.03117432

bias f4 [256]
000000 cb a7 9d 3a c1 b6 d4 bd 1e 1a 48 be d6 30 e7 3a
       0.0012028156 -0.1038642 -0.19541213 0.0017638456
000010 32 bd 38 3d b4 00 81 be 7b 77 b6 be 53 52 1f bc
       0.045102306 -0.2519585 -0.3563803 -0.0097242175
000020 38 00 2d bd 9f be b1 bc 31 5a 18 bd 5e f4 f2 bd
       -0.042236537 -0.02169734 -0.03719539 -0.118630156
000030 d3 83 88 bc 91 27 c7 bd 31 38 80 3d 85 08 37 bd
       -0.016664421 -0.097243436 0.06260718 -0.04468586
000040 65 d5 cd bd 4f bb 06 bc ee 5f 2f bd 3a ff 17 be
       -0.100504674 -0.008223369 -0.042816095 -0.14843455
000050 c1 62 bd bc 3b 40 17 bd 31 d1 fb bc 9c 9c ba 3d
       -0.023118379 -0.03692649 -0.030739399 0.09111902
000060 f0 68 99 bc 55 49 e2 bd 54 36 53 3d 20 2e ea 3c
       -0.018726796 -0.11049143 0.051565483 0.028586447
000070 b3 87 76 3b b9 4f aa 3d ee b6 ba 3d 8e ab 2a be
       0.0037617504 0.08315987 0.09116922 -0.16667005
000080 6c a5 bc 3c 3e c4 f0 bc 97 1c 02 bd a2 86 99 bb
       0.023028098 -0.02939045 -0.031765547 -0.004685239
000090 53 8f 5d bd c8 f9 e9 bc 32 55 b9 3d 4e 34 d1 3c
       -0.054091763 -0.028561488 0.09049453 0.025537636
0000a0 d2 fc 21 bc ee 3e 4d be b2 16 17 bc 25 db af bb
       -0.009886937 -0.20043537 -0.00922172 -0.0053667002
0000b0 dd f7 43 be 7e 89 c9 3c 60 3e 00 bc 30 97 e4 bd
       -0.19137521 0.024601694 -0.007827371 -0.11161649
0000c0 a6 9c d4 bc d6 c9 c4 bb f0 d2 f4 3a 48 a2 12 bd
       -0.025953602 -0.006005506 0.0018678587 -0.035799295
0000d0 44 2d 02 3c 95 e8 13 bd 4f 2b 14 be cb 15 28 3d
       0.0079453625 -0.03611048 -0.14469646 0.04103641
0000e0 23 ac 22 bd c3 7f 6d bd d6 c5 d7 bd 8c 8f 6e be
       -0.039714944 -0.05798317 -0.10535781 -0.23296946
0000f0 80 de 8a 3d 4a 06 86 bd e0 5f f5 bc 60 69 3f 3d
       0.0678072 -0.06544168 -0.029952943 0.046731353
000100 bf 69 c0 bc 63 6e b8 bc eb 50 26 be 40 93 43 be
       -0.023487924 -0.022513574 -0.16241805 -0.1909914
000110 b1 04 80 bd 21 d0 ae 3c d3 3a 9b be e0 fc 11 be
       -0.06250895 0.021339478 -0.30318317 -0.1425662
000120 35 46 25 bd 3d 76 af bd 6b 1f f2 bc c9 22 ff bb
       -0.040350158 -0.08567474 -0.029555997 -0.007786129
000130 8f eb 97 3d 98 68 86 bc 46 b9 9f bc f7 c0 18 bd
       0.07417976 -0.016407296 -0.019497525 -0.0372934
000140 df 50 b1 bc 6b a7 a7 3d d1 44 8f bd d3 4b 0b 3d
       -0.021645008 0.08186229 -0.069955476 0.03400786
000150 dd 35 81 bc 18 02 a9 bc 54 7f 1c 3c 3d 3c 3d 3b
       -0.015772754 -0.020630881 0.009551842 0.0028875016
000160 5b f4 4a bc eb f6 d9 bc e0 ea dc 3d a2 7c 89 be
       -0.01238736 -0.026606997 0.10786986 -0.268529
000170 1e a6 2d bd 50 16 2d be 31 88 01 bd 10 bc 20 bd
       -0.04239475 -0.16903043 -0.031624023 -0.03924185
000180 8a b0 19 bc 6d 61 06 be 4f 35 b0 3c 4f ed 13 bd
       -0.009380469 -0.13123102 0.021509795 -0.036114987
000190 a9 b2 25 be b3 95 cb 3d 42 4d 3a be ce ea 21 be
       -0.16181435 0.09940662 -0.18193534 -0.15812227
0001a0 b3 c3 63 bd e6 91 b5 bc 4d d0 15 3e bd 21 ec 3b
       -0.055606555 -0.022164296 0.14630242 0.0072061704
0001b0 dd 48 81 be b0 99 0b bc e0 eb d5 3c 24 ce 1c 3d
       -0.25250903 -0.008520529 0.02611345 0.03828253
0001c0 42 ed c2 bd 25 2f b6 bd a7 73 e3 bd f5 c1 90 be
       -0.095179096 -0.08895711 -0.11106043 -0.28272977
0001d0 63 c8 b1 be e4 c7 4a bd 79 34 63 bd d5 9c 6a 3d
       -0.34723195 -0.049507037 -0.055469964 0.057278473
0001e0 e1 fe 24 3d db 5a 74 be ab ee c9 3c 3e 1b 96 bc
       0.040282134 -0.23862784 0.024649939 -0.018323537
0001f0 ce ae 75 bc e7 fd 9a 3b 66 6e 2a be ab b4 5e bc
       -0.01499529 0.0047299745 -0.16643676 -0.013592879
000200 4d 68 31 bd 47 f8 36 bd 6f 05 d6 bc 3a 9a dc bc
       -0.04331236 -0.04467037 -0.026125638 -0.02692901
000210 a3 33 07 3d 0a ed 8e 3d 03 05 01 3d 55 46 a5 bb
       0.03300823 0.06978805 0.03149892 -0.0050437846
000220 b7 a4 0f bc e2 da 19 bc 79 0c e0 bd 54 77 27 3d
       -0.008767298 -0.009390565 -0.10939879 0.040885285
000230 10 ea f3 bc a6 fe 0d bd 30 8f 28 3d 3c f6 7c 3d
       -0.029774696 -0.03466668 0.04115218 0.061758265
000240 f3 be 8c 3c 6f 00 15 be 83 db 06 be 43 c6 2c bd
       0.017180895 -0.14550947 -0.13169675 -0.042181265
000250 a7 85 f7 bd 28 b8 f7 bb 33 b4 68 3d 52 ad 40 bd
       -0.12086039 -0.007559795 0.056812476 -0.04704029
000260 44 e6 73 3a 53 f3 44 bd 58 8e bc bd ab 3e be 3d
       0.00093040266 -0.048083615 -0.092068374 0.09289297
000270 4b 82 2d 3d 22 3c c4 3d e5 3c 3a bc 74 d3 ae 3d
       0.042360585 0.09581782 -0.011367057 0.08536425
000280 04 41 8b be 88 7d 7f bb c8 9c a4 bd b1 23 ff bb
       -0.2719804 -0.0038984735 -0.08037716 -0.007786237
000290 c4 d8 91 bd f3 58 4e be d6 d8 05 bc af 88 0f be
       -0.07121423 -0.20151119 -0.0081693735 -0.14016984
0002a0 ef 7c 04 be f0 f0 28 3d dd 24 97 3d 92 0a 76 be
       -0.12938283 0.0412454 0.07380078 -0.2402747
0002b0 e1 18 00 bc e4 8a 1f be 84 07 b3 3d 15 fa 0e bb
       -0.007818432 -0.15580326 0.08741668 -0.002181654
0002c0 4a bd 5a 3d d7 91 5f bd 99 ba de bc ee 45 8b bd
       0.053403176 -0.054582443 -0.027188586 -0.068004474
0002d0 6c 1b da bd 3e 28 37 bd 04 4a 3f 3d d5 36 27 3d
       -0.106497616 -0.044716112 0.046701446 0.040823776
0002e0 5d 8b ee bd 48 c6 35 be 65 d5 3a bd 32 14 d2 3c
       -0.11647675 -0.1775142 -0.045613665 0.025644396
0002f0 7a be 00 be 9f 0e 76 3d 14 60 ec bc 17 bf 8d be
       -0.12572661 0.060072538 -0.028854407 -0.27684852
000300 4f 61 4f 3e 17 18 10 bd d8 f5 a5 bc 0d a7 04 bd
       0.20251964 -0.035179224 -0.020258829 -0.032385875
000310 eb 99 70 bd 30 94 ac 3d 9a 3d 90 bc ed 9e 36 be
       -0.058740538 0.08426702 -0.017607499 -0.17834063
000320 4e f3 8a bc b7 f6 11 3d 7a 23 e9 bc d2 2f a2 bd
       -0.01696172 0.035635676 -0.0284593 -0.07919277
000330 5e 33 b7 bb bb fd 3c 3b 9e 03 28 bc db 4c d9 bd
       -0.0055908402 0.0028837759 -0.010254769 -0.10610362
000340 90 95 84 3d c0 13 17 bd 73 63 b2 3d 99 a8 8f bc
       0.06473839 -0.03688407 0.08710375 -0.017536448
000350 74 b0 3e 3d c3 b5 fa bc a0 4c 56 bc 4d 19 05 bd
       0.046554998 -0.030604249 -0.013079792 -0.03249483
000360 f4 bf 90 be ed 74 02 bd ec 60 ca bb 0a 15 68 be
       -0.2827145 -0.03184979 -0.006176105 -0.22664276
000370 fe 51 1c bb 01 77 69 bd 1a 30 e3 bc 1c 7c 5a 3d
       -0.0023852582 -0.056998257 -0.027732898 0.053341016
000380 85 7d d8 bb 55 c8 35 bc 10 33 88 3d ce 44 89 bc
       -0.00660676 -0.011095126 0.066503644 -0.016756441
000390 3a ef e4 bc ba 25 f5 bc a1 e0 0c be 00 00 00 00
       -0.027946103 -0.029925216 -0.13757564 0.0
0003a0 3b f2 01 be 64 64 69 39 18 fb bd 3d 8d f3 75 3d
       -0.1269006 0.0002225801 0.09276408 0.06004672
0003b0 3d fe 16 3d d1 60 34 be 4c a0 58 bd 6e bb 86 be
       0.036863554 -0.17615058 -0.052887246 -0.26314873
0003c0 75 89 05 be e5 e1 f8 bc 67 94 d8 bb 02 38 39 be
       -0.13040717 -0.030381152 -0.006609488 -0.18087772
0003d0 f4 a0 01 be e0 af 3c bc 7f ae 3c bd 1e f3 bb bd
       -0.12659055 -0.011516541 -0.04606485 -0.0917723
0003e0 aa cf 74 bc 73 e5 33 bd 1a 37 f7 bc 73 82 03 be
       -0.014942089 -0.04391999 -0.030177642 -0.12842731
0003f0 06 00 02 bd 84 89 d9 bc 34 ca 99 bd ce a0 20 3c
       -0.031738304 -0.02655483 -0.0750927 0.009803964

weight f4 [2, 256]
000000 0b a5 64 ba 5b 25 aa 3e f8 9d 1e 3e 30 2e cb bc
       -0.0008722103 0.33231625 0.15489948 -0.024802297
000010 de 71 4c be 3b 36 28 bf 67 ab ed bf 0b 64 bf bc
       -0.19965312 -0.6570775 -1.8567933 -0.023363134
000020 68 dc ad 3c 28 60 9a bd 23 0d 9d bd d0 2b 96 3d
       0.021223262 -0.075378716 -0.07668521 0.07332575
000030 f9 98 13 bd 29 62 1c 3d 5e 44 09 bf 49 b4 c3 bd
       -0.036034558 0.03817955 -0.53619945 -0.09555871
000040 fd b8 f6 be 91 6a 7c bd 2a 23 d0 3d 63 d2 b5 be
       -0.4818801 -0.061625067 0.10162957 -0.35512075
000050 7a 78 cf 3d b1 ab a7 bd 80 e1 52 39 5d e8 d0 3d
       0.10130401 -0.081870444 0.00020111166 0.1020057
000060 53 92 e7 be 46 23 91 3d f7 07 1d 3e 61 f5 8a bd
       -0.45228824 0.07086806 0.1533507 -0.067850836
000070 05 92 01 3f fd eb b4 3b e0 fe 3c 3e fc 4d a7 3e
       0.50613433 0.005521296 0.18456602 0.32676685
000080 b1 99 90 bd 56 75 85 3e 9c a9 80 bd e9 02 cd 3b
       -0.07060564 0.26066083 -0.062823504 0.0062564504
000090 08 57 0b 3d 61 9b 78 bd bc ba 01 be 6a df 47 be
       0.034018546 -0.060695056 -0.1266889 -0.1951882
0000a0 f7 34 86 bc 4f 12 51 3f 62 eb 86 3d 42 78 a3 bc
       -0.016382677 0.8166856 0.065878645 -0.019954804
0000b0 5c 3e 64 3f 44 4d ed bd b3 3d 26 bb ea 41 7f be
       0.8915765 -0.11587003 -0.0025366365 -0.24927488
0000c0 ab ff c0 bd 5f e6 d8 3c a9 dd e9 3d 95 98 2a bb
       -0.09423765 0.026477037 0.114192314 -0.0026030887
0000d0 cc 67 80 be be ed ae bd f8 66 33 be b3 e4 7d bc
       -0.2507919 -0.085414395 -0.17519748 -0.015496421
0000e0 3b 8d 7e 3d 9e 09 32 3e dc 4d 03 3f ba 4b 4b bf
       0.062146407 0.17386481 0.5129068 -0.79412425
0000f0 2d 8a 08 3e e0 ec e5 bd 99 85 a7 bc ac 2b a7 bd
       0.1333396 -0.11226821 -0.020449447 -0.081626266
000100 38 6f 4c 3d 5e d5 9b 3b 33 7a d5 be 9e ee fc 3e
       0.049910754 0.00475566 -0.41694793 0.494008
000110 0d 7f 6f 3c 01 e9 1f 3d 64 91 cc bf 5d bd 3b 3f
       0.014617694 0.03904057 -1.598187 0.7333582
000120 85 50 81 3d 05 3d cd be 14 c9 4f bc 53 1a 70 bc
       0.06314186 -0.40085617 -0.012682218 -0.014654714
000130 39 8c a2 3d fc 90 5e 3c 59 6d 5e bc f0 7f 10 bc
       0.079369016 0.013584372 -0.013575875 -0.008819565
000140 5a 8a c4 bc fd c3 37 be 6a 5e 62 3d 2c 5d 9e 3e
       -0.023991752 -0.17945857 0.05526582 0.3093046
000150 28 ed 9e be cb 1f e5 bd 6a ba 1c 3c 6c fb 82 3c
       -0.3104031 -0.11187705 0.009565929 0.015989028
000160 37 5f 8b bc 43 12 03 3b be 44 0d be 34 b9 b1 3f
       -0.017013175 0.0019999899 -0.13795754 1.3884645
000170 0a 0b 13 3d db bf 3c bf 80 e1 e8 3c d8 d0 09 bd
       0.0358992 -0.7373025 0.02842784 -0.033646435
000180 d9 6e 99 3d cd a6 7f 3e 79 f2 56 be 89 15 98 bd
       0.07491846 0.24965973 -0.20990933 -0.074259825
000190 02 dc 25 be f2 44 2a 3e 0f 12 6a 3e c2 1a da 3e
       -0.16197208 0.16627863 0.22858451 0.4259854
0001a0 e5 52 46 bc fe c4 3b bc 4f 43 d1 be 21 dc 62 be
       -0.0121047245 -0.011460541 -0.40871665 -0.22154285
0001b0 60 e4 43 bf ac eb 96 bc d0 61 21 3f 6e ec f8 bd
       -0.7652035 -0.018422924 0.63039875 -0.121544704
0001c0 d8 00 e6 3e f6 58 20 bd 14 db e2 3c 48 d3 e6 3d
       0.4492252 -0.03914734 0.027692355 0.112707675
0001d0 fc 4e 01 c0 2d e4 f6 3e 49 96 ca 3b 59 67 bf bd
       -2.0204458 0.4822096 0.006182466 -0.09345884
0001e0 28 30 b5 be c1 d5 41 bf e2 aa 2a 3f 7e 99 86 be
       -0.35388303 -0.7571679 0.66666996 -0.2628898
0001f0 79 f7 26 bd 2f a4 ee 3b c7 2d 96 3d d9 a4 89 3c
       -0.040763352 0.007282756 0.0733295 0.016802238
000200 4f 31 a5 bd a8 02 01 bf 10 28 67 be dc 4a bd 3c
       -0.080660455 -0.5039468 -0.22573876 0.023106985
000210 32 68 da bd 94 65 33 3e af 78 14 be 67 41 74 bc
       -0.10664405 0.17519218 -0.14499162 -0.014908171
000220 a1 ca 56 bd 6d 98 d0 3c 17 c7 04 bd 99 d6 64 be
       -0.052439336 0.025463307 -0.03241643 -0.22347488
000230 2a 6b ab bd ec 7d 9b be 13 34 06 be 6d 97 24 3e
       -0.08370049 -0.30369508 -0.13105802 0.1607339
000240 c8 e5 00 be 62 8c b9 3d ab a0 9e 3e 27 71 85 3c
       -0.12587655 0.09059979 0.30981955 0.016289307
000250 4d 99 3e be be 2f e4 bd 21 91 11 3e 15 f5 d4 bd
       -0.18613167 -0.111419186 0.14215519 -0.10398308
000260 69 15 12 3e 4b 0c cc 3c f6 f6 32 bd fb 21 5f 3e
       0.1426598 0.024908205 -0.04369255 0.21790306
000270 23 24 bd bd a1 9c 5d 3d bb e9 4d 3f 47 f8 7a 3e
       -0.09235408 0.05410445 0.8043477 0.24508773
000280 e3 9c e0 3f b6 b5 19 3e 8f e4 fc 3c 46 9c 4b bd
       1.7547878 0.15010723 0.030870704 -0.04970958
000290 5a 98 12 3f a1 6f a0 bf 46 08 00 3c 9e 7f 28 3f
       0.5726372 -1.2534066 0.007814473 0.6581973
0002a0 86 1d d4 3d 73 4f ff bd e1 85 9c be e2 66 a2 bf
       0.10357194 -0.124663256 -0.30570891 -1.2687647
0002b0 aa 5a 8e bd 3e e6 6d 3f a4 87 63 be 41 15 c4 3c
       -0.069508865 0.92929447 -0.22219712 0.023935916
0002c0 ce e8 43 3e 90 5f 3a bf 4f d5 bf 3c ec 5f 06 be
       0.19131777 -0.72802067 0.023417143 -0.13122529
0002d0 21 1d 23 3d 61 09 20 ba ef ef fd 3d 0a f7 68 be
       0.0398227 -0.0006104913 0.12399279 -0.22750488
0002e0 65 af 18 3e 15 85 8c 3f 24 3b 04 3d 9e 63 06 be
       0.14910658 1.0978113 0.032282963 -0.13123938
0002f0 ad 0a f1 3e 6a aa 67 3d 9e 65 1a 3c 32 11 5a bf
       0.47078457 0.056559004 0.0094236415 -0.8518249
000300 55 e6 a0 3e 46 31 a8 bc 5c 76 2a ba 30 99 67 3c
       0.3142573 -0.020531308 -0.0006502622 0.014135644
000310 e6 82 f4 be 41 c0 a1 3e a4 f3 b3 bb 3d da 2a bf
       -0.47756118 0.3159199 -0.0054916907 -0.66739255
000320 d9 e5 15 3c 29 5f 97 be 4c c7 c5 bc 87 1f 03 3f
       0.009149038 -0.2956479 -0.024142884 0.5121998
000330 3c 62 33 bc e4 4b 23 be bb 42 ae 3d b5 8c 3b be
       -0.010948714 -0.15946919 0.085088216 -0.18315394
000340 fa ba bc bd 55 41 0c bd d1 3e 68 bd be 7e 1f bd
       -0.092153504 -0.034241993 -0.05670053 -0.03893923
000350 2d 06 89 3d 63 d8 a4 3d 73 d7 47 3e be fb 07 bc
       0.06690631 0.08049085 0.19515781 -0.008299766
000360 48 1f 4b 3e c4 7d c5 bb 98 81 2d bd ae d6 ef be
       0.19836152 -0.0060269553 -0.04235992 -0.46843475
000370 2a ae 8a 3b 27 3c 37 bd e2 6c b8 3a 82 41 0b bf
       0.0042321878 -0.0447351 0.0014070536 -0.5439683
000380 76 20 89 3d 2a 9e 46 3c fa 2e 1e be 49 2b 25 bc
       0.066956446 0.01212267 -0.15447608 -0.010081121
000390 71 cd ed bc 90 a4 3a 3d fa 3f 1a 3e 6f 2a 50 3c
       -0.029028626 0.045567095 0.15063468 0.012705429
0003a0 00 d2 43 be 03 e7 de bc 29 ec 93 3e d6 51 14 3f
       -0.19123077 -0.027209764 0.28891113 0.5793737
0003b0 a0 28 27 3d 66 bf dc 3e 42 fd 1e 3d ca fc 3d bf
       0.040810227 0.43114775 0.038815744 -0.7421385
0003c0 2e e2 11 3f 61 0a 1f 3d 93 62 0e bd 16 2f ab 3e
       0.5698575 0.038828257 -0.034761976 0.3343436
0003d0 f0 e6 03 be 00 16 f6 bc eb a2 32 bd f4 54 88 bc
       -0.12881064 -0.030039787 -0.043612402 -0.016642071
0003e0 b6 2b b0 bd 20 7a 82 3d fc 13 05 be 3a 13 cc bd
       -0.08602087 0.0637095 -0.12995905 -0.09964605
0003f0 6e b8 1a 3d c3 82 2f bd c2 fd e3 bd 09 b4 02 3e
       0.037773542 -0.042849313 -0.11132385 0.1276399

bias f4 [2]
000000 16 54 23 3c f5 5b 54 bd
       0.009968778 -0.05184551
