exp_local/bc_changing/weights/4000.pt (torch, 272392 bytes, 6 tensors)

weight f4 [256, 2]
000000 63 3f 28 be 14 53 f8 bb da 2d 5a 3d 13 ec 02 bd
       -0.1643043 -0.007578263 0.053266384 -0.03196342
000010 53 d9 98 be 7c eb a0 3d 6f fc b8 3d 19 a2 90 3d
       -0.29853305 0.07857415 0.09032523 0.07062168
000020 4f 55 24 3e 31 f2 4b 3d 20 34 1f 3c f7 9d 82 be
       0.16048168 0.04979152 0.009717017 -0.25511143
000030 28 0f cc bd 40 61 13 3e 51 cd cb 3d 95 80 2d 3d
       -0.09963828 0.14392567 0.0995127 0.042358954
000040 7e 28 72 bd 5e b5 24 bd 01 f1 3e be 66 e4 6e bb
       -0.059120648 -0.040212028 -0.18646623 -0.0036452054
000050 c7 8a 66 bd 59 6b 05 be 39 a9 a2 3c da 13 55 3e
       -0.056284692 -0.13029231 0.019856082 0.20808354
000060 9d 3d ac be 15 82 c4 3d 7c 18 ec 3a 44 72 2c 3e
       -0.33640757 0.09595124 0.0018012668 0.16840464
000070 2b cd 8f bd e8 41 eb bd fd 5f 59 3e 7e dd e5 bd
       -0.070215546 -0.1148718 0.21228023 -0.11223887
000080 f6 04 f6 3b 09 24 3f 3d b4 d0 6a bd e7 89 49 bd
       0.0075079156 0.046665225 -0.05732794 -0.04920378
000090 fe e4 b2 be c3 1a 68 bd e1 b4 e5 bd 54 54 a2 bd
       -0.34940332 -0.056666147 -0.112161405 -0.079262406
0000a0 3d 33 b5 bd 38 15 06 bd e4 57 cc bb 23 d2 6d bc
       -0.088476636 -0.03273508 -0.0062360633 -0.0145154325
0000b0 22 74 20 bc 23 10 83 bd 9f 76 8f bc fa 75 44 bd
       -0.009793313 -0.06399562 -0.017512618 -0.047964074
0000c0 0d eb 6a 3d 61 ea 57 bd 47 02 58 bb 3d ca e6 bc
       0.05735307 -0.052713756 -0.0032960342 -0.028172607
0000d0 d5 c4 e5 3d b2 b5 80 3d d9 e3 f7 bd 60 5d 45 3d
       0.11219183 0.06284656 -0.12104005 0.048184752
0000e0 37 f3 e6 bb 41 6f 55 3c 2e 21 b1 be c0 48 64 bd
       -0.0070480364 0.013027013 -0.34595627 -0.055733442
0000f0 f1 45 8e bd 04 3d 8f bc a6 70 ac bd 90 3f 3a 3e
       -0.06946934 -0.01748515 -0.084199235 0.1818831
000100 b4 f1 38 bd 1c 83 be 3d 45 e7 a7 bc bf 95 0d 3e
       -0.04515238 0.09302351 -0.02049602 0.13826655
000110 bc 72 85 bd 09 52 b1 bc f5 ba 7e be 08 79 33 3d
       -0.065160245 -0.021645563 -0.24876006 0.043816596
000120 0b 8b e6 bc ec 40 aa bc 22 41 28 bd 81 b3 84 bd
       -0.028142473 -0.02078291 -0.04107774 -0.0647955
000130 47 e0 f1 bd 09 8c 50 3d a5 3c 20 3e f3 b8 6f be
       -0.11810356 0.050914798 0.15648134 -0.23410396
000140 3e c0 e1 be bb 0c 5c 3d 52 e2 ac 3d 93 22 a6 bd
       -0.44091982 0.05372308 0.08441605 -0.08112063
000150 12 a6 07 3d f1 d0 35 3c 95 39 45 3e e6 56 72 bd
       0.03311736 0.011097179 0.19260247 -0.059164904
000160 86 33 be 3d 3e 20 b4 3d df 0d 9a bd f8 9a 05 bd
       0.09287171 0.08795212 -0.07522177 -0.032618493
000170 c2 83 f3 bd 37 e0 84 3e 95 ef c8 3d 9c 57 86 bd
       -0.11890365 0.25952312 0.09811322 -0.06559679
000180 88 3c a8 3c 60 a0 b6 3c db 9a 97 bd 53 43 80 bc
       0.020536676 0.02229327 -0.07402583 -0.015657103
000190 01 b1 8c be 79 ed 89 3d b1 3f e4 3a 3e a2 69 3c
       -0.27478793 0.067347474 0.0017414001 0.014259873
0001a0 de cf ff bc 2a f8 bb bd 6c b8 4a bd 8c 17 f6 bb
       -0.031227048 -0.09178193 -0.049492285 -0.007510131
0001b0 72 c1 15 be 07 c6 a7 bd 24 8a 67 3d 9d 94 8c 3d
       -0.14624575 -0.081920676 0.056528226 0.06864283
0001c0 8e 9c 8b bc 28 96 fa bd 2a 72 f5 3d e4 1a d2 3c
       -0.017042425 -0.12235671 0.11984666 0.025647588
0001d0 51 ca 1b bc 6a 92 70 3c 59 eb 84 be b0 89 80 3d
       -0.009508685 0.014683345 -0.25960806 0.06276262
0001e0 61 15 56 3d 6f 1d 57 bd d7 1d d4 3c 8e dd 69 3d
       0.052266482 -0.052518304 0.025893135 0.057096057
0001f0 1d f1 38 bd 1d 90 cc 3d 0f fc b2 bc 9f 0c 70 be
       -0.04515182 0.09988425 -0.021848707 -0.23442315
000200 a1 e3 57 3d 7c 0c e2 3d aa d1 49 be 0e 2b b1 3d
       0.05270732 0.110375375 -0.19708887 0.0865079
000210 a8 ca c5 3d ed 36 6f 3d 2b c4 73 bc 2e 95 00 bd
       0.09657794 0.05840199 -0.014878313 -0.03139227
000220 39 15 21 bd 34 0b ee bb 7f 32 81 bd d7 16 0f be
       -0.03932688 -0.007264519 -0.063084595 -0.13973556
000230 05 7a b0 bd 64 03 20 bd 6f e6 2d 3c d8 0a c7 bb
       -0.086170234 -0.039065734 0.010614022 -0.0060742907
000240 87 86 a8 bd f3 3f 36 3e 6e d7 bb bd 42 03 1f bd
       -0.08228784 0.17797832 -0.09171949 -0.038821466
000250 d0 f3 7e bc 79 32 c3 3d ee d3 45 be 12 7a 9e 3d
       -0.015561059 0.09531111 -0.19319126 0.07738127
000260 63 ed e1 bd 4d 26 45 3d eb c8 5e bd 94 81 99 bd
       -0.11031606 0.04813223 -0.05439083 -0.07495418
000270 05 ca 1a bd b3 b2 fc ba 09 16 cc 3d 9d e7 b4 be
       -0.037790317 -0.0019279331 0.0996514 -0.35332957
000280 c9 d3 0b be 90 88 65 bd a6 5e c6 bc f3 85 10 bd
       -0.13655008 -0.05603844 -0.024215054 -0.035283994
000290 94 49 e1 3d bf 82 b1 be c8 2c b7 3d 49 2c ac be
       0.11000362 -0.34670064 0.08944088 -0.33627537
0002a0 8d 24 a5 bd 7c 2f 78 bd 5c c5 b0 bd ff ca 22 bd
       -0.08063612 -0.06059216 -0.08631393 -0.039744373
0002b0 32 53 82 bc 59 9d 5c bd 4e 26 46 3e fd 4d d6 bd
       -0.015908811 -0.053860996 0.1935055 -0.10464094
0002c0 e5 34 9f bd 01 aa 1b 3e ed 94 82 bd a5 93 8a bc
       -0.07773761 0.1520157 -0.063760616 -0.016916106
0002d0 22 07 a2 ba 15 89 dd bd 6c cb e6 3d 66 7c 1e bb
       -0.0012361745 -0.10817162 0.112692684 -0.0024183034
0002e0 89 6e 68 3b 80 66 b0 bd 88 9e b4 bc 3f a1 b0 bb
       0.0035466275 -0.086133 -0.02204825 -0.005390316
0002f0 38 0c af bc 64 f6 7f bd a6 22 72 bd 52 6f 30 bb
       -0.021368131 -0.062490836 -0.059115075 -0.002692182
000300 60 4e 6b bd e4 cc 1e be 2c aa 00 bd 24 6e 08 3c
       -0.05744779 -0.15507847 -0.03141229 0.008327041
000310 ed 2b 40 bd b5 a8 14 be bb 44 71 bd 63 ae 5f bd
       -0.04691689 -0.14517482 -0.058903437 -0.054609668
000320 84 b5 67 bd 35 15 12 3c e5 b7 4c 3d 20 24 de 3d
       -0.05656959 0.008916189 0.049980063 0.10846734
000330 e1 e6 02 bc 75 e8 74 be 10 03 b8 be 55 0e 99 3d
       -0.007989616 -0.239168 -0.35939837 0.07473437
000340 b1 8c 92 3d 66 45 97 3d 20 d7 33 bc 95 ef a9 b9
       0.07155741 0.073862836 -0.010976583 -0.00032412694
000350 16 66 99 bd df 0b 0e 3e 5e 02 a9 3b 40 63 9f 3c
       -0.074901745 0.13871716 0.005157753 0.019456506
000360 0c 8b b2 3d 1e 54 9b be 6d 90 10 bd a1 8a 1f bd
       0.08717927 -0.30337614 -0.035293985 -0.038950566
000370 be 18 04 be a1 27 84 bc a4 a6 84 be 7e 8d d8 3d
       -0.12900063 -0.016132178 -0.25908387 0.105738625
000380 8b 78 71 be a5 2b 4d 3d 87 6d 1c 3e bc 7b fc bb
       -0.2358114 0.05009045 0.15276156 -0.00770518
000390 86 3d b8 bd 9e c2 48 bd 08 8e 31 3e 22 e3 b6 3c
       -0.0899611 -0.049013726 0.17339337 0.022325102
0003a0 36 b5 21 bd f6 7c 0a be cf 60 52 bd b0 dc 97 bd
       -0.039479457 -0.13524231 -0.051361855 -0.0741514
0003b0 aa 25 7f bd 16 34 30 bc 0b 8e e6 3d 57 23 34 be
       -0.06229178 -0.010754606 0.11257561 -0.17591606
0003c0 dc c4 8c be 06 c4 35 3d 51 28 29 bd d5 87 ae be
       -0.27493942 0.044376396 -0.041298214 -0.34088007
0003d0 92 60 d1 3d 86 79 df bb 7f a3 0a 3e 28 94 d8 bc
       0.102234975 -0.0068199066 0.13538931 -0.026437834
0003e0 5c 76 06 3e 63 97 1e 3c 42 90 8c bb 57 3b ec bb
       0.13131088 0.009679648 -0.004289658 -0.0072092223
0003f0 fd c9 18 3d 79 b6 a2 3d 9d 64 cc 3d b5 fa af ba
       0.037302006 0.0794496 0.09980128 -0.0013426157

bias f4 [256]
000000 51 12 9d 3d 51 af a8 bc 56 48 a6 3c ab 0a 97 bd
       0.07669509 -0.02059141 0.020298164 -0.07375082
000010 7f 1d b0 bd bb 24 a4 3d 29 07 94 bd 8a d1 80 bd
       -0.08599376 0.08014818 -0.07227928 -0.062899664
000020 e3 68 75 3d 78 c9 c4 bb 87 68 ab 3d 01 44 8c bc
       0.05991448 -0.0060054623 0.083695464 -0.01712227
000030 39 7e 7c 3c a0 1e 30 bd 00 00 00 00 ab 36 82 bd
       0.015410953 -0.042997956 0.0 -0.06358083
000040 6f 28 5a bd 00 00 00 00 1e 3f c1 3d 00 00 00 00
       -0.053261217 0.0 0.09435867 0.0
000050 00 00 00 00 00 00 00 00 00 00 00 00 00 00 00 00
       0.0 0.0 0.0 0.0
000060 ff 71 49 bd 00 00 00 00 42 f3 a6 bc 59 73 05 3d
       -0.04918098 0.0 -0.020379666 0.032580707
000070 b6 4c 5f bc 6a 80 c5 3d 00 00 00 00 39 f1 99 bd
       -0.013629129 0.09643634 0.0 -0.07516713
000080 d0 12 20 bc f3 00 b3 bc 00 00 00 00 06 23 a3 3c
       -0.00977011 -0.021851039 0.0 0.019914161
000090 00 00 00 00 00 00 00 00 0c 5c d0 3c 0f 92 d5 bc
       0.0 0.0 0.025434516 -0.026070623
0000a0 2b 22 54 3d 94 28 0e bc 7f c6 e8 bc 02 b7 38 bd
       0.051790398 -0.008676667 -0.028414963 -0.045096405
0000b0 62 4e ad bd d9 d4 54 3d 00 de dc bd a6 88 54 bd
       -0.08462216 0.0519608 -0.10784531 -0.05188813
0000c0 d9 3e 3b bd 00 00 00 00 b4 7d 07 bc b7 f1 b5 bc
       -0.045714233 0.0 -0.008269716 -0.022209985
0000d0 00 00 00 00 00 00 00 00 00 00 00 00 0e 0e 7a bd
       0.0 0.0 0.0 -0.06104856
0000e0 00 00 00 00 80 3a 1d bc 6a 3d 79 bc 58 00 ce bb
       0.0 -0.009596467 -0.015212396 -0.006286662
0000f0 4e 01 38 bd dd f0 2b bc 7d 7a 85 bd e1 03 9d 3d
       -0.04492312 -0.010494438 -0.065175034 0.076667555
000100 40 d6 bf bc 43 4c 3b bd 54 26 9a bd 00 00 00 00
       -0.023417592 -0.045727026 -0.07526842 0.0
000110 00 00 00 00 00 00 00 00 00 00 00 00 0e 42 36 bc
       0.0 0.0 0.0 -0.011124147
000120 e6 a7 95 bd 00 00 00 00 65 29 92 bd a0 5d 02 bd
       -0.07307415 0.0 -0.07136802 -0.03182757
000130 09 b9 b1 3c 00 00 00 00 2d 14 81 39 71 fd 5c bc
       0.021694677 0.0 0.0002461983 -0.0134881595
000140 00 00 00 00 00 00 00 00 df 06 d9 bc b2 ff b0 bc
       0.0 0.0 -0.026492534 -0.0216063
000150 00 00 00 00 00 00 00 00 00 00 00 00 b4 34 69 bd
       0.0 0.0 0.0 -0.056935027
000160 12 e5 71 bd 00 00 00 00 9b b5 09 bc 2d d3 e0 bb
       -0.05905635 0.0 -0.0084051145 -0.0068611116
000170 88 5b 01 bc 00 00 00 00 00 00 00 00 00 00 00 00
       -0.007895358 0.0 0.0 0.0
000180 00 00 00 00 89 13 fc bb 11 9f a4 3d 00 00 00 00
       0.0 -0.0076927585 0.08038152 0.0
000190 ef 4b f7 bb a5 e8 ab bd c7 78 af 3d 3a 57 22 3d
       -0.007546894 -0.08393983 0.08567958 0.039633967
0001a0 72 f0 92 bd 8d 22 03 bc a7 62 52 bd eb 98 00 bd
       -0.071747676 -0.008003843 -0.051363613 -0.031395834
0001b0 48 70 d2 bc 00 00 00 00 00 00 00 00 23 04 22 bd
       -0.025688305 0.0 0.0 -0.039554726
0001c0 f7 05 61 bc d5 88 5e bd 00 00 00 00 ce 83 2a bc
       -0.013734332 -0.054329712 0.0 -0.010407401
0001d0 00 00 00 00 12 46 b9 3d 35 ff 86 3d d6 48 e4 bc
       0.0 0.09046568 0.06591646 -0.027866762
0001e0 b2 6b 8c 3c dc a2 7f 3d 1c 2a 1d bd 36 ac a1 bc
       0.017141197 0.062411174 -0.038370237 -0.019735437
0001f0 2f 12 64 bd 0d ac b4 bb 01 81 80 bd 3e 67 2b bc
       -0.055681404 -0.005513674 -0.062746055 -0.010461627
000200 0d 78 c1 bd 0a 3b 9d bc 00 00 00 00 c2 df a3 bd
       -0.09446726 -0.019193191 0.0 -0.08001663
000210 00 00 00 00 a8 f3 87 3d b0 04 ad bd 00 00 00 00
       0.0 0.066382706 -0.0844816 0.0
000220 88 eb 1d 3d 57 d8 92 bc 6e 58 6b bd fc 74 a5 bc
       0.0385547 -0.017925425 -0.05745738 -0.020197384
000230 a7 e6 39 bb b1 70 a3 bd 2a 72 35 bd 1c 36 10 bd
       -0.002836624 -0.079804786 -0.04429833 -0.035207853
000240 00 00 00 00 ad c1 d7 3d 00 00 00 00 ef e2 9c 3d
       0.0 0.105349876 0.0 0.07660472
000250 00 00 00 00 70 a2 d0 bc 86 17 8d bb 87 7d 94 bc
       0.0 -0.025468081 -0.0043057827 -0.018126262
000260 52 3c 94 3d 00 00 00 00 b5 f6 79 bd 00 00 00 00
       0.07238068 0.0 -0.061026294 0.0
000270 b3 1f e2 bc 00 00 00 00 8d a7 15 3b df a2 81 bd
       -0.027603006 0.0 0.0022835464 -0.06329893
000280 e8 36 a6 bd 00 00 00 00 45 25 40 3d ae 74 21 bd
       -0.08115941 0.0 0.046910543 -0.039417915
000290 51 7b e0 bb 58 be d6 3d 00 00 00 00 7f 86 c5 bc
       -0.006850638 0.10485524 0.0 -0.024111984
0002a0 b7 70 cf bc 32 62 7c bd 55 33 78 bc 00 00 00 00
       -0.025322301 -0.061617084 -0.015148957 0.0
0002b0 f8 c9 a6 bc 00 00 00 00 95 e1 d0 bd 3b ee f9 bc
       -0.020359978 0.0 -0.10199276 -0.030509105
0002c0 d7 d1 30 bd 18 89 a1 3d 00 00 00 00 14 7f 79 3c
       -0.04316887 0.07887477 0.0 0.015228052
0002d0 8c 88 61 3b a5 ee 01 3d 3d 7d 32 bd 4e e1 f0 bd
       0.0034413664 0.03172173 -0.043576468 -0.117617235
0002e0 5f 28 e5 bc 80 9a b0 bc 00 00 00 00 fa 57 98 bd
       -0.027973352 -0.021558046 0.0 -0.07438655
0002f0 2a 6c f4 3c 23 80 a6 3d d3 75 86 bd 00 00 00 00
       0.029836733 0.08129909 -0.06565442 0.0
000300 54 5d 86 bd 19 f8 b6 bc 00 00 00 00 00 00 00 00
       -0.0656077 -0.022335099 0.0 0.0
000310 12 c4 82 bd fd e5 b2 bd 00 00 00 00 ef 50 d0 3c
       -0.06385054 -0.08735273 0.0 0.025429217
000320 3b 79 45 3d 29 cb bc bc 00 00 00 00 a0 32 a9 bc
       0.048211318 -0.023046093 0.0 -0.020654023
000330 00 00 00 00 fe fe a0 bc 52 b4 b7 bc 73 3d 71 3d
       0.0 -0.01965284 -0.02242485 0.058896493
000340 a3 39 07 3d bd 1b 1e bc b3 63 e9 bc 98 62 33 bd
       0.03301395 -0.009650168 -0.028489923 -0.0437952
000350 00 00 00 00 44 b1 a4 bd 00 00 00 00 1b c3 09 be
       0.0 -0.08041623 0.0 -0.13453333
000360 00 00 00 00 00 00 00 00 2c d5 42 bc 46 af 13 bd
       0.0 0.0 -0.011891644 -0.036055826
000370 00 00 00 00 00 00 00 00 00 00 00 00 f0 a9 26 bd
       0.0 0.0 0.0 -0.04068941
000380 af ea 49 bd f3 49 81 bd 00 00 00 00 6a 5c 12 bd
       -0.049296077 -0.06312933 0.0 -0.035732664
000390 00 00 00 00 f3 fb 4d 3c 00 00 00 00 4b 9d fe 3b
       0.0 0.012572276 0.0 0.0077702156
0003a0 9b 33 ae 3d c3 9e 1d bc 00 00 00 00 c6 b0 3e 3d
       0.08505937 -0.009620371 0.0 0.046555303
0003b0 b8 65 01 3d 44 50 83 3c cc 39 81 bd 00 00 00 00
       0.031591147 0.016029485 -0.06309852 0.0
0003c0 5a 66 0c bc 00 00 00 00 00 00 00 00 cf d3 6b bd
       -0.008569324 0.0 0.0 -0.057575043
0003d0 12 5c 9a bd 5c 4f a9 bb 00 00 00 00 00 00 00 00
       -0.07537092 -0.005166931 0.0 0.0
0003e0 09 41 ae bc d5 27 f9 bb 8d 15 8a bd 19 08 88 3d
       -0.021271246 -0.0076036253 -0.06742392 0.066421695
0003f0 b9 25 48 bd 48 1e 2a 3d 50 34 72 bd 8b 7f b2 bc
       -0.0488641 0.041532785 -0.05913192 -0.021789333

weight f4 [256, 256]
000000 d5 52 b8 bd 89 10 83 bd 5c f0 ca 3b 25 f7 05 3d
       -0.09000174 -0.06399638 0.006193204 0.0327064
000010 d1 b7 ff bd 1b a6 4c bb 7d b9 3b be b2 13 87 bc
       -0.12486232 -0.0031226936 -0.18332477 -0.016488884
000020 f7 50 3c 3a 7b ce 53 3c 49 d7 15 3e ab 16 29 3c
       0.00071836956 0.012927647 0.14632906 0.010320346
000030 16 c7 d3 bc 1e d7 fe 3c 2b 59 5d bd 7f df af bc
       -0.025851768 0.031108435 -0.054040115 -0.021468876
000040 99 21 e6 3c 4d bd be bd db 3b da 3d e9 63 3b bb
       0.028092192 -0.0931345 0.10655948 -0.0028593487
000050 68 a1 9b bd de a8 5e bd 12 c4 cc bc 11 e6 a9 bd
       -0.07599145 -0.054360263 -0.024995837 -0.08295835
000060 0a cd 4a 3d 13 30 ca 3d ad ce 99 3d 28 33 7e 3d
       0.049511947 0.09872451 0.075101234 0.062060505
000070 b2 f9 0c 3d de 4a 23 3d eb b2 a7 3d df 23 f9 3d
       0.034417816 0.03986632 0.08188423 0.12165045
000080 22 7f b4 bd 27 05 d0 bd ba fa a1 bc fe 8b ef 3d
       -0.08813311 -0.10157233 -0.019772876 0.11696623
000090 23 15 a4 3d 3c c7 79 3d 49 4f 72 bd e5 7c 98 bd
       0.08011844 0.06098102 -0.059157643 -0.07445697
0000a0 26 98 b6 3c 4a 9f 3f bd 1c ff f9 3c 96 fc 88 bd
       0.022289347 -0.04678277 0.030517153 -0.06688802
0000b0 8d 2b 20 bc a3 bf 86 bd 08 c1 38 3c bc a0 b6 bd
       -0.009776008 -0.065795206 0.011276491 -0.089173764
0000c0 8a c7 d8 3d 9c 52 77 bd 7f 8c d8 bd 46 66 25 3d
       0.10584934 -0.060381517 -0.105736725 0.04038074
0000d0 ae b2 d1 3c be e0 7f 3d 76 45 7c 3d d1 4f 88 bd
       0.025597896 0.06247019 0.06158968 -0.06655849
0000e0 50 ad 05 3d 7b 98 8f 3c 69 83 9b 3d e2 6e cd bd
       0.032635987 0.017528763 0.07593424 -0.10030915
0000f0 ea 67 09 bc db 90 d1 3d 2d c8 d9 bc 17 bd 4d bc
       -0.008386591 0.10232707 -0.026584709 -0.01255729
000100 d6 c6 c9 bc d6 dc 9b bd 25 0e d8 3c 8d 22 d8 3c
       -0.024630945 -0.076104805 0.026373932 0.026383663
000110 32 47 09 3d 6a 3c b5 3d 4c 7a 07 3c ad 32 e3 bc
       0.033515163 0.08849414 0.008268904 -0.027734125
000120 0a a6 0e 3d fc 84 db 3c f8 46 05 3c 25 e6 93 bd
       0.034826316 0.02679681 0.008134596 -0.07221631
000130 5a af 74 3b d2 cc d0 bd 80 79 0c 3d fe ba b4 3d
       0.0037335963 -0.101953164 0.03429556 0.088247284
000140 26 ee ad 3b 9c e6 d9 3c 7c b6 7c bc 89 af 37 bc
       0.0053079305 0.026599221 -0.015424367 -0.011211284
000150 92 14 77 3d 82 f6 6c bd c2 c7 2e bd 55 81 66 bd
       0.06032235 -0.057852276 -0.042670973 -0.056275684
000160 18 1c dd 3c 5d 6c 00 bd 4c 9c 3a bd 46 7f 34 bd
       0.026990935 -0.031353343 -0.045559213 -0.04406669
000170 6a 25 a9 3d e5 43 de 3d 1f ad 7e bd 4c f5 b6 3d
       0.08259089 0.108527936 -0.06217682 0.089335054
000180 aa 43 51 3d f6 f1 c6 bd cf ef bc bc ee 28 5e 3e
       0.05108992 -0.09714119 -0.023063568 0.21695301
000190 e3 05 18 3b 21 da 8f bc 88 1b 1e 3d 90 1a 8e bc
       0.0023196868 -0.017560067 0.038600475 -0.01734665
0001a0 fd ba 9b bd 1e ec 88 bd ff 33 80 bd 88 a8 66 bc
       -0.076040246 -0.06685661 -0.062599175 -0.014078267
0001b0 bf 78 30 3e 00 86 14 bc f0 47 b0 bc 4e 12 aa bd
       0.17233561 -0.009065151 -0.021518677 -0.083042726
0001c0 28 6a 14 3d b6 70 bc bd c6 49 18 bc be 5b 49 bd
       0.03623405 -0.092011854 -0.009294933 -0.049159758
0001d0 82 d8 f3 bb a4 46 ee bc 06 f8 a6 3d 58 3c 29 3d
       -0.007441581 -0.029086418 0.081527755 0.041317314
0001e0 a9 51 15 bd b7 38 46 bd 46 3f 4e 3d 66 94 28 be
       -0.03645483 -0.04839393 0.05035331 -0.1646286
0001f0 33 6e bf bb 3f fb 8b bd 6d 6a e9 3a be 11 cc 3b
       -0.005841994 -0.06835031 0.0017808207 0.006227701
000200 8c 1b 76 3d fd 1d ff 3d 56 c7 d5 bc 19 4c 19 be
       0.060084864 0.12456892 -0.026096027 -0.14970435
000210 a5 42 ca bd ed 3e a4 3d fd e4 12 3b e5 83 91 3d
       -0.09875993 0.08019815 0.002241432 0.07105235
000220 46 1d 2a bd 47 f3 ef bc 55 df 95 3b 29 17 c7 3c
       -0.041531824 -0.029290808 0.0045737424 0.024303036
000230 93 ff f1 bd 73 88 4f bd 35 27 98 ba 4d e5 25 bd
       -0.11816325 -0.050667237 -0.0011608364 -0.04050188
000240 cc 35 ed bc 86 79 83 bd 7a ee 1f 3b ae 93 30 bd
       -0.028956316 -0.06419663 0.0024403618 -0.04310959
000250 54 df 75 3d 3e fd 17 be 9c bc 24 bd bc c1 a1 bd
       0.060027435 -0.14842698 -0.040218934 -0.0789828
000260 d8 c1 ef 3d 20 0c a7 3c f4 ad 3c bd fc ca 90 3d
       0.11706895 0.020391524 -0.046064332 0.07069966
000270 c4 0b 97 3c 48 39 2f ba d1 c4 38 bd 4e 6d fb 38
       0.018438227 -0.0006684256 -0.045109574 0.00011988972
000280 43 c0 a6 bc 90 ec 93 3d d9 d2 61 bd 2c 10 c0 bc
       -0.02035535 0.07222855 -0.05513272 -0.023445211
000290 6a 0f f9 3d 9a d4 1b be 1c d3 cb bd ce 26 9e bd
       0.12161143 -0.1521782 -0.09952375 -0.07722245
0002a0 f9 b2 ab bc 59 08 25 3d b4 9f db bd 8d bf e1 bc
       -0.020959364 0.040291164 -0.1072382 -0.027557159
0002b0 f2 0e e3 bc 1e 48 9a 3d dc fb 89 3d d3 c4 95 bc
       -0.027717087 0.075332865 0.067374915 -0.01828233
0002c0 d1 61 92 3d 23 a5 6c bd 84 13 8b 3b 64 db 0d bd
       0.07147563 -0.057774674 0.00424427 -0.034633055
0002d0 51 89 43 bd 6d 37 08 3d 6d 2e ad 3c 0d 0e de bc
       -0.047738377 0.033255983 0.021140302 -0.02710631
0002e0 e2 d7 1f 3d 1b 5a a9 bd 66 7f 3f bd 41 73 41 3d
       0.03902424 -0.082691394 -0.046752356 0.047229055
0002f0 61 b3 67 3d e3 ee 21 bd 5d 71 8f 3d be 20 ff bc
       0.056567553 -0.03953446 0.07004044 -0.031143542
000300 0c 2f 2c be f7 9b 52 3c 03 e8 c0 bd 74 c3 67 bd
       -0.16814822 0.012854568 -0.09419253 -0.056582883
000310 ee 6c 7c 3c e2 eb 1d bd a6 5c 1b 3d 1c 8e bb 3d
       0.01540683 -0.038555034 0.037930153 0.091579646
000320 ff 7c dd 3c 8e 61 c0 bc d2 90 52 bd 8a 5c 6a bd
       0.027037142 -0.023484018 -0.051407643 -0.05721716
000330 2a 79 50 bd b0 6e 15 3d df 49 64 bd 04 52 d0 3d
       -0.0508968 0.036482513 -0.05573451 0.10171893
000340 fd a3 91 3d 9d 60 13 bc 96 18 84 3d 03 b1 8c 3d
       0.071113564 -0.008995202 0.06450002 0.068697
000350 ae c7 92 3c f3 b7 b2 bc 06 77 1f bc dc c3 a2 3c
       0.01791748 -0.02181623 -0.009732967 0.019868784
000360 1f 57 7e bd bf 89 e0 bc dc 78 a6 3c 47 97 3b 3d
       -0.062094804 -0.027409432 0.020321302 0.045798566
000370 bc 0a 4c 3d 04 7f fe 3b 75 88 21 bd df 0c b8 3d
       0.049814925 0.0077666063 -0.039436776 0.0898683
000380 35 19 1e bd 6e 07 d5 3d dc e8 83 bd c8 c3 89 bd
       -0.038598258 0.10401808 -0.06440899 -0.067267954
000390 90 f4 d5 3b cd e8 b5 3c 6a ab e8 bc 69 73 4a 3d
       0.0065293983 0.022205735 -0.02840205 0.04942647
0003a0 7d 08 56 3c c4 f1 0f 3b 8a f2 1c 3e 63 e0 fe bd
       0.013063547 0.0021964172 0.15326896 -0.12445142
0003b0 ee 6e 0f 3d 3c 00 a2 bd 46 4e 28 bd 45 31 79 bd
       0.0350179 -0.07910201 -0.041090272 -0.060838003
0003c0 fc 19 8a bc 62 cc 6e 3d 74 da 36 bc 46 b0 a6 bd
       -0.016858093 0.058300383 -0.011160482 -0.0813909
0003d0 6f 55 50 bd 19 9e 3c 3c 64 c5 31 bd b2 5e a2 3d
       -0.050862726 0.011512303 -0.043401137 0.07928218
0003e0 bd 4f 61 bd 1c 6d 17 bd 2f 76 32 3d a8 77 b6 bd
       -0.055007685 -0.03696929 0.04356974 -0.08909541
0003f0 47 75 a4 3b 81 73 2f bd 23 52 9b 3d 4a 61 ff 3c
       0.0050188634 -0.042834762 0.07584026 0.03117432

bias f4 [256]
000000 5c d9 1c 3b e0 64 34 bd 58 5b 99 bd 85 03 4f bc
       0.0023933267 -0.044041514 -0.074881256 -0.012635116
000010 df a4 0e 3d fb 16 d9 bd e3 88 23 bd fd 5d c8 bb
       0.034825202 -0.10600086 -0.039925467 -0.00611472
000020 c5 1d 46 3c 89 28 5d bc 04 d9 c3 bb 4e 3c 8c 3a
       0.012092059 -0.013498434 -0.005976798 0.0010699125
000030 d3 83 88 bc f6 54 44 3a 2f 52 fa bc f5 21 8f bc
       -0.016664421 0.0007489467 -0.030556766 -0.017472247
000040 1f 09 0e 3b 4f bb 06 bc 79 1b 4b bc e2 34 98 bd
       0.0021672917 -0.008223369 -0.012396687 -0.074319616
000050 c1 62 bd bc 5d 21 a9 bb 1c 2f c7 bb cc d2 18 3d
       -0.023118379 -0.005161448 -0.006078614 0.037310407
000060 8d ee e8 bc a5 f4 05 bd a6 ac ca 3c 8d 01 a7 3c
       -0.028434062 -0.032704014 0.024740528 0.020386482
000070 92 e2 5c 3d 72 ce f8 3b 2d 80 45 3d 7f 85 8f bd
       0.05392701 0.0075929696 0.04821794 -0.07007884
000080 07 f6 13 3c 0b 7c cb bb 00 00 00 00 89 cc 1c bb
       0.009030825 -0.0062098554 0.0 -0.0023925623
000090 73 75 0f bc 16 e9 dc bb 5d 57 34 3d 31 11 a6 3c
       -0.008756029 -0.006741653 0.04402863 0.02027187
0000a0 f8 c9 8a 3c 40 69 c2 3b b2 16 17 bc 25 db af bb
       0.01694201 0.005932957 -0.00922172 -0.0053667002
0000b0 67 86 f6 3c b6 96 c2 ba 59 44 9e bc 1e 74 97 bd
       0.030093385 -0.0014845941 -0.0193197 -0.073951945
0000c0 a6 9c d4 bc d6 c9 c4 bb 9e 8d 9b ba 00 00 00 00
       -0.025953602 -0.006005506 -0.0011867767 0.0
0000d0 ef e4 9f bc 95 e8 13 bd 36 2f ae bd b6 2e 2d 3d
       -0.019518344 -0.03611048 -0.085050985 0.042280875
0000e0 3d 11 dd bc 3c 98 5d bc 23 a5 33 bd ee 8a f1 bd
       -0.026985759 -0.013525065 -0.04385866 -0.11794077
0000f0 c5 f5 35 3d 6c cb 6f bc 00 38 74 bc b3 2f 4d 3d
       0.044423837 -0.014635902 -0.01490593 0.050094318
000100 bf 69 c0 bc f3 79 13 ba 2c 97 98 bd 20 e7 ea bd
       -0.023487924 -0.0005625777 -0.07450709 -0.11469865
000110 1d 93 e9 bb da fe 11 3d 5d 0b c3 bc d9 cd 44 bd
       -0.007128133 0.035643436 -0.02380913 -0.048047874
000120 c7 a7 0c bc 30 c7 85 3b 6b 1f f2 bc a6 d6 7e 3a
       -0.008584923 0.004082583 -0.029555997 0.0009721316
000130 dd 70 16 3d 98 68 86 bc 90 d4 b6 3c c5 4c b7 bb
       0.03672873 -0.016407296 0.022318155 -0.0055938684
000140 c7 94 69 bc 74 fb 6a 3d 0a e4 98 3c 78 80 90 3b
       -0.014256663 0.05736871 0.018663425 0.004409846
000150 2e ae 2d bd 18 02 a9 bc fe ac c3 3c c8 75 80 3c
       -0.04240244 -0.020630881 0.0238862 0.015681162
000160 5b f4 4a bc d8 c9 c4 bb 37 03 8e 3d f4 ef 6c 3c
       -0.01238736 -0.006005507 0.06934207 0.014461506
000170 63 40 2e bc a5 21 6f bd 00 00 00 00 f1 e4 c8 bc
       -0.010635468 -0.058381695 0.0 -0.02452323
000180 8a b0 19 bc ed 62 06 bd a2 7c 9e bc 4f ed 13 bd
       -0.009380469 -0.032809187 -0.019346539 -0.036114987
000190 d8 49 ad bd 18 bc 1d 3d 3c b9 95 bd 59 e4 fa bd
       -0.0846135 0.03850946 -0.07310721 -0.12250585
0001a0 74 49 e9 bb c9 8e b5 bc 9a e5 7f 3d 51 a8 ad 3c
       -0.007119352 -0.022162812 0.062474824 0.021198424
0001b0 36 e3 e5 bd b0 99 0b bc f7 3a 69 3d 69 d6 22 3c
       -0.11224978 -0.008520529 0.056941 0.009938815
0001c0 66 8b 39 bd 09 b1 47 bd 10 1a 2f bd 4f a8 3c bd
       -0.045298956 -0.04875282 -0.042749465 -0.04605895
0001d0 e4 51 55 bd 66 fd 8d bd f4 6d 4a bc f5 05 ba 3c
       -0.05208005 -0.069330975 -0.012355316 0.022707919
0001e0 ce 7d f2 bc f4 0c e6 bd 4c 35 42 3c 70 b2 56 bd
       -0.029601004 -0.11232939 0.011853527 -0.052416265
0001f0 34 fa a7 bb 9f e2 56 3c 43 c1 72 bd 48 93 b4 38
       -0.005126262 0.013115554 -0.05926634 8.610502e-05
000200 04 01 3e bc 79 5f 2d bc ff f7 29 bd 22 25 27 bc
       -0.011596922 -0.0105818445 -0.041496273 -0.010201724
000210 77 bf ae bb 78 a1 18 3d 60 ec 71 bc 1b be a9 3c
       -0.005332883 0.037263364 -0.014765829 0.020720532
000220 b7 a4 0f bc e2 da 19 bc 6f 88 fc bc 5f 0a 3b 3d
       -0.008767298 -0.009390565 -0.030826775 0.045664188
000230 10 ea f3 bc 77 f8 f6 bc b1 dd 62 3c 4f d7 50 3d
       -0.029774696 -0.030147774 0.013846801 0.050986584
000240 0d 25 70 bc 21 5f 57 bd 05 4b 5c bd ec aa 86 bc
       -0.014657271 -0.052580956 -0.05378248 -0.016438924
000250 8f 73 31 bd 28 b8 f7 bb 33 b2 c8 3c 92 85 24 bd
       -0.043323096 -0.007559795 0.024499035 -0.040166445
000260 f7 49 0c 3c 8c cd 85 bc 0d dd 1a bd e1 e2 83 3d
       0.0085625565 -0.016333364 -0.037808467 0.06439758
000270 87 f5 7a 3c 30 c9 50 3d e8 28 c4 3c 07 d7 cf 3c
       0.015317327 0.050973117 0.023945287 0.025371088
000280 52 0c 9d 3c 01 b7 3c bc bd 53 69 bc b1 23 ff bb
       0.019170914 -0.011518241 -0.014241156 -0.007786237
000290 8f 14 26 bd 26 60 c8 bc 5b 9f ef 3b de ea e7 bb
       -0.04054695 -0.02445991 0.007312698 -0.007077559
0002a0 d5 16 f3 bd 20 9c e4 3c a7 4e 25 3d 7c d7 9a bc
       -0.11869589 0.027906477 0.04035821 -0.01890158
0002b0 e1 18 00 bc 55 ec 95 bc 30 25 38 3d c5 a6 d7 ba
       -0.007818432 -0.018301168 0.04495734 -0.00164529
0002c0 18 af 1b 3c 83 d0 81 bc 00 00 00 00 f0 b2 93 bb
       0.009502195 -0.015846496 0.0 -0.004507415
0002d0 4f fe 5c bd 4a cc 11 3a e8 aa 25 3d 1b 11 e8 3c
       -0.053953465 0.00055617525 0.040446192 0.028328469
0002e0 7a 66 85 3c 64 5e f2 bc b9 eb 64 bc 44 7a 35 3d
       0.016284216 -0.029586025 -0.013972216 0.044306055
0002f0 74 87 a1 3b d0 f0 b8 bc f5 67 3e 3b 39 b4 0e be
       0.0049294773 -0.022575766 0.0029053662 -0.13935937
000300 3a ca bd 3d 82 5e 06 bd d8 f5 a5 bc 8c 86 03 bd
       0.09267087 -0.032804973 -0.020258829 -0.032110736
000310 f2 8b 3f bd 0b 8d 59 3d 2f e0 d4 3b b8 fe 53 bd
       -0.04676432 0.053113025 0.0064964513 -0.05175659
000320 4e f3 8a bc 55 86 95 bc 7a 23 e9 bc 27 47 2e bc
       -0.01696172 -0.018252531 -0.0284593 -0.010637081
000330 0e 06 b0 39 36 3c 4a bd 9e 03 28 bc 0d 84 99 bd
       0.00033573847 -0.049373828 -0.010254769 -0.0749589
000340 87 a2 ba 3c 4d 8b 00 3d 66 f9 4d 3d 8a c7 3c bc
       0.022782577 0.031382848 0.050286673 -0.011522183
000350 45 57 19 3c 09 20 34 bc c3 af 5a b9 7c 9e 19 bc
       0.009359186 -0.010993966 -0.00020855576 -0.0093761645
000360 b1 21 cb bc cf c9 c4 bb ec 60 ca bb 3a 3d 0b bc
       -0.024796339 -0.006005503 -0.006176105 -0.008498484
000370 e9 4d a9 3a c9 23 fd bb 1a 30 e3 bc 99 4f b1 bc
       0.0012916896 -0.007725213 -0.027732898 -0.0216444
000380 85 7d d8 bb 00 00 00 00 0e 3f 43 3d ce 44 89 bc
       -0.00660676 0.0 0.047667556 -0.016756441
000390 24 42 02 bc 09 f2 09 bc 14 ee eb bd 00 00 00 00
       -0.0079503395 -0.008419522 -0.11520019 0.0
0003a0 4d 32 85 bd f7 83 a0 bc d0 78 8d 3d 5a 8e b8 3b
       -0.06503735 -0.019594176 0.06907809 0.005632204
0003b0 44 c1 65 3d 71 54 89 bd 00 00 00 00 da 36 dd bd
       0.056092516 -0.06705559 0.0 -0.10801478
0003c0 e6 23 be bc 4a b0 0c bc 67 94 d8 bb fc 5d e3 bd
       -0.023210477 -0.008586952 -0.006609488 -0.111019105
0003d0 2a 07 6f bd e0 af 3c bc 69 55 09 bc 43 89 0e bd
       -0.05835644 -0.011516541 -0.00838218 -0.03479887
0003e0 aa cf 74 bc 9d b1 92 bc c4 bc ff bb 82 33 9a bd
       -0.014942089 -0.017906958 -0.007804485 -0.075293556
0003f0 00 00 00 00 84 89 d9 bc d8 6f 66 bd a5 94 8c 3c
       0.0 -0.02655483 -0.056259006 0.017160723

weight f4 [2, 256]
000000 e1 07 71 ba db 41 61 3d cd bf ce 3c df 37 2d bd
       -0.00091945945 0.054994445 0.025237942 -0.04228961
000010 c3 ea 0c be cb c8 4d be ee 9c d8 bc f2 cb c3 bc
       -0.1376143 -0.20096128 -0.026442017 -0.02390096
000020 c3 ba db ba e0 99 9a bd ac 65 da bd f4 44 82 bc
       -0.0016764033 -0.075488806 -0.106639236 -0.01590202
000030 f9 98 13 bd e6 03 83 bd 7c 12 64 be 0e 22 84 bd
       -0.036034558 -0.06397228 -0.22272676 -0.06451808
000040 e6 6c a6 3c 91 6a 7c bd 85 27 b1 3d 3d d9 b0 be
       0.020315599 -0.061625067 0.08650116 -0.3454074
000050 7a 78 cf 3d 6f ab e8 bd 8d 7a ec 3c 04 23 d2 3d
       0.10130401 -0.11360823 0.02886703 0.10260585
000060 fc 16 a5 bc 35 00 08 be 4b 2f 8e 3d a3 79 b9 bd
       -0.020152561 -0.13281329 0.06942614 -0.090564035
000070 39 97 b9 3e c5 ef 5a 3c cd fc d9 3d cf 6e 04 bd
       0.36248186 0.01336283 0.10643921 -0.032332238
000080 3a d8 e0 bd 78 85 56 3d c7 81 bb bd 45 82 93 3d
       -0.10978742 0.05237338 -0.091556124 0.07202581
000090 35 c5 7b 3d 95 51 c4 bc 18 5f 04 be 9a c8 fa bd
       0.06146737 -0.023964683 -0.129269 -0.12245293
0000a0 e3 37 ed 3a d7 e5 d6 3b 62 eb 86 3d 42 78 a3 bc
       0.001809832 0.0065581608 0.065878645 -0.019954804
0000b0 7b 87 1c 3d 2a 43 90 3b d9 5b 98 3b ef 20 60 be
       0.03821514 0.004402538 0.004649621 -0.21887563
0000c0 ab ff c0 bd 5f e6 d8 3c 93 50 0d 3e e7 32 13 bc
       -0.09423765 0.026477037 0.13800268 -0.008984304
0000d0 2a c6 c4 37 be ed ae bd ff c2 e9 bd 35 d6 18 bd
       2.3457298e-05 -0.085414395 -0.11414146 -0.03731366
0000e0 17 6a fa 3d 04 a4 2b 3e 65 87 43 3e d2 1b 9d be
       0.12227266 0.16761786 0.19094618 -0.30685288
0000f0 c4 68 04 3e 78 d1 79 bb 35 b9 ed bc 4f f0 8e bd
       0.1293059 -0.0038119238 -0.029018978 -0.06979429
000100 38 6f 4c 3d b6 87 19 3c bd 59 32 be c3 e1 98 3c
       0.049910754 0.009370735 -0.17417045 0.01866234
000110 43 a7 35 bd b3 fe fb bc c4 3c cc bc 38 a5 dc 3e
       -0.044348966 -0.030761098 -0.024931319 0.43094802
000120 77 70 c1 3d e2 92 c1 3c 14 c9 4f bc 04 57 3f 3a
       0.09445279 0.02362961 -0.012682218 0.0007299038
000130 f0 53 c7 3d fc 90 5e 3c 6f 77 93 3d 33 a5 ba 3c
       0.09732807 0.013584372 0.072005145 0.022783851
000140 0e 1f d2 bc 71 50 b9 bd 3c 7e 14 3d 90 c3 2f 3d
       -0.025649574 -0.09048546 0.0362532 0.042911112
000150 d3 02 9c be cb 1f e5 bd 66 a3 ef 3a 2e d9 bd 3c
       -0.30470905 -0.11187705 0.001828295 0.023174848
000160 37 5f 8b bc ef 41 dd 3d 9c df b1 bd 0c a1 75 bb
       -0.017013175 0.108035915 -0.08685228 -0.0037480025
000170 8a c5 e8 3b 11 80 3c be 0b e9 6d 3d 28 ac 49 bd
       0.0071036266 -0.18408228 0.058083575 -0.049236447
000180 d9 6e 99 3d 75 06 5d 3d 90 ee 7b bd 89 15 98 bd
       0.07491846 0.053961236 -0.061506808 -0.074259825
000190 65 ab e7 3c a2 89 e2 3d 90 55 89 3d 08 05 0e 3e
       0.02827997 0.110614076 0.06705773 0.13869107
0001a0 ea 37 4e bd 1d c8 3b bc 54 94 4b be 0b 0c 0c be
       -0.050346293 -0.011461285 -0.19880801 -0.13676469
0001b0 b3 49 ae be ac eb 96 bc ae b1 be 3e 55 1e e0 bd
       -0.34040603 -0.018422924 0.37244934 -0.109432854
0001c0 b4 c2 92 3b 5e 3c 88 bd e1 89 f0 3c 88 4e fd 3d
       0.004478777 -0.06652139 0.02936262 0.12368494
0001d0 5d 5d 00 be 51 3f 93 3e eb 80 a5 bc 7c 5d 96 bd
       -0.12535615 0.28759244 -0.020203074 -0.073420495
0001e0 a9 9b e6 bc e5 2f 9d be ba f4 cd 3c f6 89 48 be
       -0.028150396 -0.30700603 0.025141109 -0.19583878
0001f0 f0 18 39 bc 66 9e 0e 3c fd 5f 01 bd 8b 8a 71 bd
       -0.0112974495 0.008704757 -0.031585682 -0.058970015
000200 a5 f7 c6 bd f2 23 83 bd f2 a6 4b be bc 27 04 bd
       -0.09715203 -0.064033404 -0.19887903 -0.032264456
000210 69 37 c2 bc 45 61 da 3d 2b 2b 25 bd ba 9a 52 3c
       -0.023708062 0.10663084 -0.04032437 0.0128542725
000220 a1 ca 56 bd 6d 98 d0 3c a2 64 79 3b 65 08 86 bd
       -0.052439336 0.025463307 0.0038054367 -0.0654457
000230 2a 6b ab bd 5b f9 57 be 9f 49 fc bd 22 4d 01 3e
       -0.08370049 -0.21091215 -0.123187296 0.1262708
000240 7a 0a 50 bd 45 94 a5 bd 2f 42 a6 3d e6 4d 5c bc
       -0.05079124 -0.08084921 0.08118092 -0.013446307
000250 1d 36 11 be be 2f e4 bd 53 cd cc 3d c4 bb 40 be
       -0.14180799 -0.111419186 0.100001 -0.18821627
000260 71 b2 22 3d 33 33 ba bb 5e 69 15 bd 56 50 58 3e
       0.039720956 -0.005682373 -0.03647744 0.21124396
000270 4d aa c6 bd 9b 37 4c 3d 0b cc 19 3d f8 f9 52 3d
       -0.09700451 0.049857717 0.037548106 0.05150792
000280 5f 8d d4 3c d4 cf 1d 3d 6d 86 37 3c 46 9c 4b bd
       0.025946317 0.03852828 0.011201483 -0.04970958
000290 69 ba b2 3c 33 7c 97 bd 31 5a a3 3c a5 a7 be 3e
       0.021817403 -0.07396736 0.019940468 0.37237278
0002a0 3b bf 21 3e 73 b6 12 be 06 5f 02 be 94 b7 8d bc
       0.15795605 -0.14327411 -0.12731561 -0.017299451
0002b0 aa 5a 8e bd 9d fb fb 3e 3a 62 6d bd 9f 51 c4 3c
       -0.069508865 0.49215403 -0.057955004 0.023964701
0002c0 82 2f 89 3d 6c f2 f6 bc 58 8e a7 bb a1 bf 1a bd
       0.066985145 -0.030144893 -0.0051134042 -0.037780408
0002d0 0d 06 90 bc 9e ee 5a 3b 33 59 7a 3e 19 4d 4d be
       -0.01758101 0.0033406387 0.2444809 -0.20048942
0002e0 8e 82 97 bc 93 3c eb 3e 75 22 81 3d 97 d8 d8 bd
       -0.01849487 0.45944652 0.063054 -0.10588186
0002f0 9c 8f 16 3d a1 f3 32 3c 67 9d 01 3b b1 4c a9 be
       0.03675805 0.0109223435 0.0019777657 -0.33066323
000300 cc bf 8e 3d 21 22 09 bd 5c 76 2a ba 70 a2 67 3c
       0.06970176 -0.033479813 -0.0006502622 0.014137849
000310 b3 39 b0 bb 30 66 99 3e 68 04 56 3d 94 75 85 bd
       -0.005377972 0.29960775 0.052250296 -0.06516567
000320 d9 e5 15 3c df 25 5d bc 4c c7 c5 bc f5 91 2b 3e
       0.009149038 -0.013497799 -0.024142884 0.16754897
000330 58 c0 b8 3c e8 95 84 bd bb 42 ae 3d 5d c5 19 be
       0.022552654 -0.06473905 0.085088216 -0.15016694
000340 e2 64 38 3d 2e 5d 97 3c 5e 02 f9 bb b4 b1 21 bd
       0.045018084 0.018477049 -0.007599159 -0.03947611
000350 4c a3 f9 3d ec 2c a5 3d 3c b9 16 3d 61 e2 4e 3b
       0.121893495 0.08065209 0.036797747 0.0031568038
000360 e4 61 26 b8 75 7c 0e bd 98 81 2d bd 59 24 e4 bc
       -3.9668652e-05 -0.03478666 -0.04235992 -0.027849363
000370 0f b8 8a 3b c5 45 db bd e2 6c b8 3a 91 9e 06 bc
       0.0042333673 -0.10706667 0.0014070536 -0.008216516
000380 76 20 89 3d 37 3c 22 3b f7 ac bb bd 49 2b 25 bc
       0.066956446 0.002475513 -0.0916385 -0.010081121
000390 73 ba 42 bd e0 55 66 3d f2 ec 0a 3e 6f 2a 50 3c
       -0.047541093 0.05623424 0.1356695 0.012705429
0003a0 46 9a 41 be 5c a7 90 bc a5 fc 85 3e 31 12 fd 3c
       -0.18906507 -0.017657928 0.26169315 0.030892463
0003b0 96 06 d1 bd 15 42 70 3e 50 5a 7a bc 42 85 43 be
       -0.10206334 0.23462708 -0.015280321 -0.19093803
0003c0 35 00 f2 bb b2 1c 99 3d 93 62 0e bd e5 80 d8 3d
       -0.0073852786 0.07476176 -0.034761976 0.1057146
0003d0 f6 0c cc bd 00 16 f6 bc 91 6b 9f bd 7e 5a 14 be
       -0.099634096 -0.030039787 -0.077841885 -0.14487645
0003e0 b6 2b b0 bd 11 61 9c 3d d1 27 06 be 89 95 a2 bd
       -0.08602087 0.076357014 -0.13101126 -0.07938678
0003f0 2c 30 84 3d c3 82 2f bd 47 66 df 3c 74 a4 f8 bc
       0.064545006 -0.042849313 0.02727045 -0.030351855

bias f4 [2]
000000 25 8a d8 3c ee 36 4e 3c
       0.02643306 0.012586338
