exp_local/gcbc_multimodal/weights/10000.pt (torch, 274440 bytes, 6 tensors)

weight f4 [256, 4]
00000000: acdb 23be aa0b 11be 7a51 0d3e 9042 1c3e
00000010: 501f d6bd c1bc 0d3e fda7 21be 3c24 dd3d
00000020: de39 efbd 6002 243d 5120 4e3e 7b86 79bd
00000030: 2d63 47bd f522 5d3d 667f d1bd 7377 8ebb
00000040: ce49 973c ba35 96bd 40c8 b4bd ddf4 bdbb
00000050: 4324 d8bd 9fa0 d9bc eb4e 9fbc c2ed 5abd
00000060: e0c3 48bd 2109 8c3d 375f b23d b799 0abd
00000070: 58a7 f6bc c869 2a3d 3bc5 973d 58af 90bd
00000080: 6a8d 97bd f928 2fbe 54af 823d 9b05 323e
00000090: a8a1 103e ec70 453d 0440 25be e8e3 97bc
000000a0: d5da d0bd 6bc7 9a3d 2b3d e73d 199f e5bd
000000b0: 4d4d 423e ca00 4bbd 0553 b2bd 14f6 c8bc
000000c0: 882e 663e e49a 1ebe 4c77 2cbe 2098 be3d
000000d0: bf49 6bbd 92ca 413e d5a0 bd3d 3b45 2ebe
000000e0: abe7 98bc 6bbc 043e 11ee d93d e8fa 2ebe
000000f0: 81b3 cdbd 6d3a a73d 0d81 0c3c 38d8 88bd
00000100: 1c80 0bbd aeae 13bd b180 b33d 3607 b1bc
00000110: 5e68 963c 60d0 203e af48 0abc 61cf 06be
00000120: 578a 9bbd f3eb 323e a930 813d 307e 25be
00000130: 5298 a3bc 1a7e 41be baa5 243d c456 303e
00000140: abe9 36bd 6925 5a3d 9319 b1bd 1b02 f13a
00000150: eb35 303e ecee 93bd 7101 07be 168b dd3c
00000160: 9275 1d3e 27c7 983b 1cff 39be 1269 bb3b
00000170: 1c4c e53d ab20 ba3d 0019 f6bd 2b5e 22bd
00000180: 69ac 083d b8fe 2dbe 5494 7ebd cfb4 7b3e
00000190: 80c9 a0bd 0ad9 b93d f2a6 a43d 63b5 ccbd
000001a0: 5e77 0fbd 8a68 0cbe fa22 49bc 4cc7 363e
000001b0: 996a 5d3e b57f ed3c eb96 26be 73b3 11bc
000001c0: 90e8 113e 84fa 34be 9b6d b4bd 2756 1b3e
000001d0: 1491 b1bd 2273 be3d 17a7 a83d 9333 c2bd
000001e0: 180a 9abd 1a71 05be a6c8 823b 9e5a 0bbd
000001f0: c46b e33c 3f03 e6bb a89a 07bd 6e06 a8bc
00000200: f45a bf3d 3ece a2bc df7e c6bd 8090 b63c
00000210: 31e2 16be e0ea d13d 1ca3 f33d 1324 87bd
00000220: 7cce 843d f126 04be ad37 babd 033b 003e
00000230: fb38 c0bd 47be 59bd cdbd 1bbc 7341 a0bc
00000240: 6fb8 adbd bbd4 cdbc 36ba 0a3e 5fd3 083b
00000250: 40b2 1d3e d089 e9bd 07c8 25be df4b fe3d
00000260: 1f58 6e3d 5961 163d c2ca cf3d 7a95 02be
00000270: f674 123e 813b 98bd b3af 10be e1bf d33d
00000280: 3938 22bd 2ac6 413e 5b64 ae3c a4d8 1abe
00000290: 51dd 273d 1059 94bd 4aac 9b3d fa75 e4bd
000002a0: fa28 763d c89a 6b3e bce2 b8bd 4dc8 e0bd
000002b0: 830a bcbd 269f c5bd 28c8 623d e8bc ab3d
000002c0: 0f0d c7bd 6f6c 6e3d 09fa 273e 13ab 03be
000002d0: 86d8 e73d 2a66 9cbd d7ce 17be 1862 a63d
000002e0: 1a42 373b fca2 82bd 9ee9 9fbd 7720 51bd
000002f0: 7162 e33d dcde 053d 77e4 aabd 28d3 64bd
00000300: 012c b2bd ff00 f4bb 988f 96bd 2468 5cbd
00000310: 5753 343d 7352 0fbe 3b9e 5dbd 6ce4 0c3e
00000320: f1f9 b83d f812 08be a1ba a5bd a37c 85bd
00000330: b23c 5cbd 6240 21bd 0993 76bd 6153 9bbd
00000340: 52b8 8c3e a4b2 3abd e71f debd 8f32 943b
00000350: 5aa7 7d3d 7084 17be 6053 4fbd 8756 0d3e
00000360: bb53 cd3b a895 bd3d 43db 66bd 7787 adbd
00000370: dad5 283d 405c 053a cc48 c5bd d574 dd3c
00000380: 0921 6e3d 6aa9 c33c 13af d1bd dc6f 87bd
00000390: 6c8e 963d 66d3 b3bd f3c3 89bd 9fae a73d
000003a0: 6832 25be a555 903d ed2d 2e3e 51ea 67bd
000003b0: 8eb6 bbbd 0d7f 1c3e 8790 cb3d 0c57 1fbe
000003c0: 77c3 5dbe d061 943d 5b16 4e3d 0c5f a63b
000003d0: c9fd 223e 31a2 f5bd dd4a efbd 679d cb3d
000003e0: 0319 89bb 4043 a2bd 748a 803d b0f6 48bd
000003f0: 2855 cbbc 4a68 b1bd b504 2d3e 0d40 70bd
-0.16001767 -0.14164606 0.13800612 0.15259767 -0.10455191 0.13841535 -0.15786739 0.10797927
-0.11680959 0.040041327 0.20129515 -0.060919266 -0.048678566 0.053988416 -0.102293774 -0.0043477356
0.01846781 -0.07334466 -0.08827257 -0.0057970122 -0.105537914 -0.026565848 -0.01944681 -0.0534494
-0.049014926 0.06837679 0.08709567 -0.033838 -0.030109093 0.041604787 0.074106656 -0.07064694
-0.074000195 -0.17105474 0.063810974 0.17384951 0.14124167 0.048203394 -0.16137701 -0.018541291
-0.10197989 0.07557567 0.11290964 -0.11211986 0.189748 -0.0495613 -0.08707241 -0.024531402
0.22478688 -0.15488774 -0.16842383 0.09306359 -0.057443377 0.1892493 0.09259192 -0.17018597
-0.018665155 0.12962501 0.10641111 -0.170879 -0.10044003 0.08165441 0.00857569 -0.066818655
-0.03405772 -0.03605526 0.0876478 -0.021609884 0.018360313 0.15704489 -0.008440181 -0.13165046
-0.075947456 0.1747282 0.06308109 -0.16161418 -0.019970093 -0.1889576 0.04019711 0.17220598
-0.044656437 0.053258333 -0.08647456 0.0018387468 0.17208068 -0.07223305 -0.13184144 0.02704386
0.15376881 0.0046624127 -0.18163723 0.0057193125 0.11196157 0.09088262 -0.12016487 -0.039640587
0.03336755 -0.16991699 -0.062153175 0.24580692 -0.07850933 0.090746 0.08039655 -0.09995534
-0.035025947 -0.13711753 -0.0122764055 0.17849463 0.21622695 0.02899156 -0.16268508 -0.008892882
0.14248872 -0.17673689 -0.08809968 0.15169583 -0.086702496 0.092993036 0.08234995 -0.09482493
-0.075214565 -0.13031426 0.0039912043 -0.034021966 0.027761348 -0.00701943 -0.033106476 -0.020510878
0.0934352 -0.019873735 -0.096921675 0.0222857 -0.14734723 0.10249877 0.11896345 -0.065986775
0.06484696 -0.1290548 -0.090926506 0.12522511 -0.09385868 -0.05315998 -0.009505701 -0.019562459
-0.084824435 -0.025125852 0.13547596 0.002087794 0.15400028 -0.11403239 -0.16189586 0.12416815
0.058189508 0.03671393 0.10146095 -0.12752333 0.1430243 -0.074332245 -0.14129524 0.10339332
-0.0396044 0.1892325 0.021288088 -0.15121704 0.04098255 -0.0724355 0.07601221 -0.11155315
0.060097672 0.23008263 -0.09027621 -0.10975704 -0.091816925 -0.09649496 0.055366665 0.083856404
-0.097192876 0.05820888 0.16403975 -0.12858228 0.113205954 -0.07636674 -0.14824997 0.08124179
0.0027962984 -0.06378743 -0.07808231 -0.05105635 0.111027606 0.03268324 -0.083443575 -0.055865437
-0.08699799 -0.007446408 -0.07351607 -0.053810254 0.04402479 -0.13996296 -0.05410598 0.13759011
0.090320475 -0.13288486 -0.08092237 -0.06517913 -0.05376882 -0.03936804 -0.060198817 -0.07584263
0.27484375 -0.04558052 -0.10845929 0.0045226286 0.061927177 -0.14796615 -0.050616622 0.13802539
0.006266085 0.0925706 -0.056361448 -0.084731035 0.04121957 0.00050872937 -0.096330255 0.027033249
0.058136974 0.023884494 -0.10238471 -0.06613132 0.073513836 -0.087805554 -0.067268275 0.08187603
-0.1613251 0.070475854 0.17009707 -0.056619946 -0.09165679 0.15282841 0.09939676 -0.1556055
-0.21656595 0.07245219 0.05031429 0.0050772484 0.15917124 -0.11993826 -0.11684201 0.099421315
-0.00418389 -0.07922983 0.06276408 -0.049063385 -0.02482088 -0.0866247 0.16896327 -0.058654834

bias f4 [256]
00000000: 4a7b 863c eeee 78bc 4f43 58bc b526 29bd
00000010: 0000 0000 0000 0000 61ba 41bd b507 f8bc
00000020: bca4 eb3b 8db9 5b3c 108c cd3c 7ea3 583c
00000030: 38f8 0b3d 2e85 d1bb bb1b ad3c 31e6 a23c
00000040: 6471 0abd aba9 1bbc 3bb3 293c 2d41 ff3b
00000050: f687 11bd c399 893c ffdb 0a3d c962 94bc
00000060: 659b e73b db66 653c faf4 c03c d7c8 adbc
00000070: 02c5 113d 9565 793c 0000 0000 0000 0000
00000080: 6f84 863a f50a 473c e07b d83c 0000 0000
00000090: 7272 74bc fe02 123c a378 a7bc 5ab6 203b
000000a0: f466 b8ba b064 28bd ee5f 03bd ba85 11bb
000000b0: 7a04 053d c0b6 f63c 0000 0000 3204 cbbc
000000c0: 0000 0000 4fdb 0c3c 0000 0000 0000 0000
000000d0: 7b4f 53bd 442f a63b ba32 46bc f985 5abc
000000e0: 0000 0000 2b8d d13b 2522 9dbb 6e54 ab3b
000000f0: 6445 a53d ce0a 193c d8cf e6bc 83d7 18bc
00000100: f164 703b 364c f4bc 2ce9 1a3c b1b4 bb3a
00000110: 8afb 07bd 645f 1fbc 0c30 4bbc 76d9 0939
00000120: b4af aab9 f4ea 013c 0000 0000 4ebd adbc
00000130: c869 b6bc e868 513c 159c d2bc 3120 0a3d
00000140: 840f 9b3c 294e f53c 738b 913b 1fc7 423d
00000150: 0000 0000 cec7 423c dabf 14bd 0fa0 9b3c
00000160: 160c 483b e784 98bc 4a1f 24bc 0000 0000
00000170: e739 243c 2f7c cd3d 1023 6a3c 0000 0000
00000180: b281 62bd 79be 76bd fb94 e93c ab4f 3f3c
00000190: ba88 f63c 9004 a03b fe04 bdbb 0000 0000
000001a0: 0000 0000 fc7a 3b3c af59 bdba 2a36 cd3b
000001b0: 0000 0000 0000 0000 2dbe e4bb 04bd 3e3a
000001c0: 778c d4bc e5b9 11bd 709f 82bc 8cb6 333c
000001d0: 96a4 4c3c 0000 0000 46a5 403c a5a4 c23c
000001e0: ae1c 733c 5ce1 90bb b801 123c 5d55 913b
000001f0: d050 e0ba 5c51 91bc ca77 77bc 0000 0000
00000200: 381c 073c dbb1 de3a 0000 0000 6ff3 f0bb
00000210: 6a45 013c 0fda 2f3d af64 2abc 51d6 db3c
00000220: 0000 0000 43ce 7a3c bfdf 2e3c 9b26 1cbc
00000230: 0197 fbbc c24f 7f3c 2798 a7bc 16cc da3b
00000240: 83b7 a83c 341d 243c 0000 0000 e3a6 613c
00000250: 0000 0000 9c34 b43c 558a 463c 0000 0000
00000260: 76a3 1abc 7dd9 c93b 74b2 9f3a 83d5 91bc
00000270: e122 abbc 2ca3 863d 54da 923b df68 c8bc
00000280: 97a5 35bc 10fd 7e3a 0000 0000 2694 bd3b
00000290: b1a0 a6bc 7264 08bc 0000 0000 d8ce ea3c
000002a0: 0000 0000 d3e0 0e3d 3a95 173d 77be 033c
000002b0: 0000 0000 a617 da3c f079 febc d912 28bd
000002c0: f23c dd3b c4f7 b73b 4305 13bd 07a1 3f3a
000002d0: 8fa5 713c d543 023d c169 323d a7a3 46bc
000002e0: 3474 91bb 4675 0cbd 92b2 dd3a 0818 89bb
000002f0: 0000 0000 0000 0000 f90e aa3c 6582 c4bc
00000300: 1f6a 2f3c 8bc9 7fbc 8242 83bc 07f3 55bd
00000310: 77f7 2e3c a21d 213c f1e8 ecbb 0000 0000
00000320: 1907 4e3b 4b65 c13c 530f ca3a 60e4 c03c
00000330: 0000 0000 3d2c 4ebc 827b 703a a51e ba3c
00000340: f195 063c cf4c e63c 7d1c 14bd 0000 0000
00000350: 271a 15bb 2f33 023b 421a 29bc d2c9 c4bb
00000360: 0000 0000 04e3 c93c e642 f13c 0000 0000
00000370: 8f25 7ebb 67c9 bd3b 8a73 8a3d 2f9d 2dbd
00000380: 0000 0000 3aaf a4bb c219 1b3c 0000 0000
00000390: 86ef 983a 0000 0000 0000 0000 2f15 2f3d
000003a0: 0000 0000 f245 f73c feba 40b9 2e8e aeba
000003b0: af0d ca3b 0000 0000 d90f efbb 3f94 8a3c
000003c0: 776d a2bb feb3 17bd 3690 35bd 4f0c babc
000003d0: 4a10 9e3b 9880 153b 5735 75bd 61b8 2d3c
000003e0: 0000 0000 0000 0000 8dd2 5239 add7 b0bc
000003f0: 9aab 9a3c 867f 3abb 3dba 23bd fc32 dfbc
0.01641621 -0.015193684 -0.013199641 -0.04129668 0.0 0.0 -0.047296885 -0.030277112
0.0071912687 0.013410938 0.025091201 0.013222573 0.034172267 -0.00639405 0.021131387 0.019885154
-0.033799544 -0.009500901 0.010357673 0.007789752 -0.035530053 0.016796952 0.03390121 -0.01811351
0.007068085 0.014001573 0.023554314 -0.021213932 0.035588272 0.015221973 0.0 0.0
0.0010262857 0.012148608 0.026426256 0.0 -0.014919864 0.008911846 -0.020443266 0.0024522753
-0.0014068768 -0.041111648 -0.032073908 -0.0022204951 0.032474972 0.030116439 0.0 -0.024782274
0.0 0.008597209 0.0 0.0 -0.05158947 0.0050715525 -0.012097055 -0.013337606
0.0 0.0063950024 -0.00479533 0.0052285707 0.08069876 0.009340955 -0.02817528 -0.009328726
0.003668126 -0.029821496 0.009455007 0.0014320818 -0.03319887 -0.009727333 -0.012401592 0.00013146349
-0.00032555836 0.007929552 0.0 -0.021208432 -0.022267237 0.012781359 -0.025709191 0.033722106
0.018928297 0.029944496 0.0044416725 0.047553178 0.0 0.011888457 -0.036315776 0.01899722
0.0030524782 -0.01861806 -0.0100172255 0.0 0.010023571 0.10033452 0.014290586 0.0
-0.05529947 -0.060240243 0.028513422 0.011676709 0.030094493 0.0048833564 -0.0057684174 0.0
0.0 0.011442896 -0.0014446283 0.0062625604 0.0 0.0 -0.0069806785 0.00072760903
-0.025945885 -0.035577673 -0.015945166 0.010968816 0.012490412 0.0 0.011758154 0.02376015
0.014838381 -0.004421396 0.008911543 0.004435225 -0.0017113928 -0.01773899 -0.0151042435 0.0
0.008246474 0.0016990261 0.0 -0.0073532383 0.007890085 0.042932566 -0.010399981 0.026835592
0.0 0.015307966 0.010673462 -0.009530689 -0.030711653 0.015582981 -0.020458294 0.006677161
0.020595318 0.010016728 0.0 0.013772699 0.0 0.021997742 0.012117942 0.0
-0.009438386 0.00615996 0.001218392 -0.017802006 -0.020890655 0.06574091 0.004481593 -0.024464069
-0.011086843 0.00097270403 0.0 0.005785483 -0.020340296 -0.008324729 0.0 0.028663084
0.0 0.034882378 0.037007548 0.008041016 0.0 0.026622605 -0.031064004 -0.0410336
0.00675165 0.0056142528 -0.03589369 0.0007310067 0.014748945 0.03180297 0.043557886 -0.012123979
-0.0044389013 -0.03429153 0.001691418 -0.004183773 0.0 0.0 0.020759093 -0.023987958
0.010706454 -0.015612016 -0.016022924 -0.052233722 0.010679117 0.009833725 -0.007229917 0.0
0.0031437336 0.02360787 0.0015415944 0.023546398 0.0 -0.012583789 0.00091736775 0.02271969
0.00821446 0.028112797 -0.03615998 0.0 -0.0022751184 0.0019866934 -0.010321202 -0.006005504
0.0 0.024644382 0.029450845 0.0 -0.003877971 0.0057918313 0.067603186 -0.04238623
0.0 -0.0050257714 0.00946659 0.0 0.0011668063 0.0 0.0 0.04274481
0.0 0.03018472 -0.00018380207 -0.0013317519 0.006166182 0.0 -0.0072955904 0.016916392
-0.004956897 -0.03703689 -0.044326983 -0.022710947 0.004823719 0.0022812244 -0.059865322 0.010603041
0.0 0.0 0.00020105597 -0.021587217 0.018880654 -0.0028457358 -0.039972533 -0.027245991

weight f4 [256, 256]
00000000: 2db7 433d e0ef 843c 68b7 723c 826b cb3c
00000010: 57b6 013e b8a9 f03d d86b 0c3d 5e58 7b3d
00000020: bba6 8c3e d28a 15bd f270 eebd 8bae febd
00000030: d019 6a3e 756c 22be 8cb4 34be 15a0 af3b
00000040: 6aa3 f03c 7057 10be 22d9 62be 537b 603e
00000050: 4ba3 bd3d 4d0e 113e 36df 57bd e778 f3bc
00000060: cace e83d fcbc 443d 5ee2 5a3e 98e7 89bd
00000070: fab4 4b3e 6dd0 29bd f44b bc3c 7767 143d
00000080: b9e1 8c3d 3f1b cdbd 5957 393e b85d 19bc
00000090: c20a 063d b922 253e ec5a 00bd 91dc 0d3e
000000a0: f233 16be 586c 31be 8b0b 88be 6a83 ef3d
000000b0: 55ef 0bbe 894d 2e3e 7dc0 9cbd 4981 c23c
000000c0: befb 04bd 02fe 073e 908c 3dbb 8676 3c3d
000000d0: 3cae ba3d 5f6f 143e 3226 0cbe 3a27 b83b
000000e0: 3690 643c b0b9 053d 0497 29be ca63 b8be
000000f0: 2632 b43c c0ee e03d e6c6 79ba 6c36 bdbd
00000100: f69b ed3d 2c18 fa3d d82f b1be d936 913c
00000110: 4011 c5bd fd24 56bd b415 97bd b57c 203d
00000120: fbe7 883e f4fc ddbd 2c09 32bb 8645 ddbc
00000130: 6ece df3d e01e ecbc e974 923d b75f 1cbe
00000140: 71f1 4dbe ee56 f8bd 23ce 4e3d 2bf6 69be
00000150: a054 d2bd 30bd db3d 2336 823d 2b25 fabd
00000160: 4fff 6ebd 8169 62bd a244 81ba 80e4 80b9
00000170: dc91 c5be 2539 c53e a586 913e 69d3 583d
00000180: d205 79bd 0f0c 3e3d 3638 32be cc9b 123e
00000190: a34a c53d ff62 e63d 8453 b43c 242f 323d
000001a0: 1cb0 8bbd 69e8 293d a00c c63d a6e5 1dbe
000001b0: b0f0 90bb 070e ecbc 4461 293d 0126 0d3e
000001c0: 7250 a9bd 78ab 2cbc 185d 9fbe 0c80 67bd
000001d0: 2e61 62bc 806a 84bd 4509 723e bb86 e33d
000001e0: a64c 48bd 4df8 42be 6544 8dbc 4c97 eebd
000001f0: 6c42 dd3d 300f 01be a56f 263e 199a 7cbd
00000200: 2a86 453e 5b9c bfbd 7169 6c3d f8b7 683e
00000210: a0f4 c3bd 0413 973e 71da ce3c 10c7 8b3c
00000220: 9642 98bd a3ac de3d b3df 36be 3ff9 223d
00000230: d71f 45be b5ab 1fbd ac03 bd3d 2736 f63d
00000240: b0e0 c4bd 0640 20ba 1adf 74bd be0f 27be
00000250: c165 df3d eed4 39bd c260 88bd ebac 35bc
00000260: c221 e13b 9888 603e 8df8 133e a078 7b3c
00000270: f6c3 7c3d 2e43 8bbe fce5 5dbe fff7 cabd
00000280: a6e9 af3d 926e 5ebe ad1f fbbc 59d8 81be
00000290: 74b8 0a3e b7d6 31bd f482 cc3d 38c6 61be
000002a0: f116 2c3d 4a80 203e fc47 0d3e 1e3b 0ebe
000002b0: 361d b5bd c1dc 25be cc43 19bd f4d2 c9bc
000002c0: 6450 c5bd a64b 82bd 06b5 0c3e c7e2 bf3d
000002d0: d5ce 573e 2e23 68be fc24 4ebd a190 debd
000002e0: 78a4 963d d057 0ebe b735 223e e430 cfbd
000002f0: 56be f2bc 2cf4 3d3b 6096 2b3e 43ab 203d
00000300: 08c7 55bc 2ee6 a2bc e504 9f3b 355f 58bd
00000310: 7ee0 75bc a00f bd3d c2ba 0f3d 3a81 c03b
00000320: d1fb 163e 395a 6fbd 74a1 69be 4ee5 6b3c
00000330: 36a6 05bd 5a9f 8fbd 7cba ef3d 1fed 7bbe
00000340: 66e6 6cbc 6d0f c63d b8f9 66bd 086d 8a3c
00000350: f5b5 273e 6cc7 943d f179 853d 580c a9bc
00000360: 8419 163e 94b1 e33d 1124 65bd f6a9 68bd
00000370: ec03 87bd 951c 2a3e 4ae7 943c cc1b 0ebe
00000380: ca81 84bd 2606 8fbe 3478 6a3e 1503 d43d
00000390: ee02 f7bc 1b80 5cbd 9155 9c3c 102f e43d
000003a0: e394 90bd 862b 6d3e a1c6 783c 95d3 38bc
000003b0: dc4e 9dbe 4dfe b73c fec2 8abd f0e3 04be
000003c0: 37ad 6dbd 53b3 ac39 c295 20bd 22fc 2dbe
000003d0: a966 3bbe 0133 743e a0d1 dc3c 131b 963d
000003e0: e2c6 32bd c2dd da3c db7f 0abe 4c1f 103c
000003f0: 178c 853e c942 863d a8f4 d23d ff08 04bc
0.047782112 0.016227663 0.014814235 0.024831537 0.12667213 0.11751121 0.034282535 0.06136357
0.27470955 -0.036509342 -0.11642636 -0.12435635 0.22861409 -0.15861686 -0.17646998 0.0053596594
0.029374797 -0.14095855 -0.22153142 0.21922044 0.09259661 0.14165612 -0.052703105 -0.029720737
0.11367567 0.048031792 0.21375415 -0.06733626 0.19893256 -0.041458536 0.022985436 0.036231484
0.06878991 -0.100149624 0.18099727 -0.009360723 0.032725103 0.16126527 -0.03133671 0.1385367
-0.14668253 -0.17326486 -0.26571307 0.11694987 -0.13665517 0.17021765 -0.07653902 0.023743289
-0.032466643 0.1328049 -0.0028922893 0.04601147 0.09115264 0.1449561 -0.13686445 0.0056199105
0.013950398 0.03264779 -0.16561514 -0.36013633 0.021996569 0.10983038 -0.00095282344 -0.09238896
0.11602013 0.12211642 -0.34606814 0.017726349 -0.09622431 -0.05228137 -0.073771864 0.03918143
0.26739487 -0.108392626 -0.0027166111 -0.02701069 0.10928045 -0.028823316 0.07151205 -0.15270887
-0.20111634 -0.121259555 0.050489556 -0.22847812 -0.10270047 0.10729444 0.06357982 -0.122141205
-0.05834895 -0.055276398 -0.0009862373 -0.00024584308 -0.38587844 0.3852016 0.28423038 0.05293599
-0.060796566 0.04639822 -0.17404255 0.14317244 0.096333764 0.11249351 0.02201248 0.043501988
-0.068206996 0.04148141 0.09670377 -0.15419635 -0.0044232234 -0.028815283 0.041352525 0.13784029
-0.08267297 -0.010538928 -0.31125712 -0.0565186 -0.013817115 -0.06465626 0.23636349 0.11109682
-0.048901223 -0.19040032 -0.017244527 -0.11649951 0.108036846 -0.1260345 0.16253527 -0.061670396
0.19289461 -0.09355994 0.057717744 0.22726429 -0.09568143 0.29506695 0.025250645 0.017062694
-0.07434575 0.108727716 -0.17858772 0.03978848 -0.19250427 -0.038982112 0.09229216 0.120220475
-0.09613168 -0.0006113056 -0.05978308 -0.16314599 0.1090808 -0.04536908 -0.0665908 -0.01108859
0.0068704793 0.21927106 0.14450283 0.015348583 0.06171032 -0.27199692 -0.21669763 -0.09910583
0.08589487 -0.21721867 -0.030654753 -0.25360373 0.13546926 -0.04341766 0.09985915 -0.2204827
0.042014066 0.15673938 0.13796991 -0.13889739 -0.08843462 -0.16197492 -0.03741817 -0.024636723
-0.09634474 -0.06362085 0.1374093 0.09369426 0.21074994 -0.2266967 -0.05032824 -0.108674295
0.07355589 -0.13900685 0.15840803 -0.10116747 -0.029631775 0.002898465 0.16756582 0.039225828
-0.013047941 -0.019885149 0.0048528784 -0.05282517 -0.015007136 0.09231496 0.035090216 0.00587478
0.14744498 -0.058435652 -0.22815496 0.014397932 -0.032629214 -0.07012816 0.11705491 -0.24602173
-0.014459228 0.09670911 -0.056390494 0.016897693 0.16378005 0.07264599 0.06517399 -0.020635769
0.14658171 0.11117855 -0.0559426 -0.056802712 -0.06592545 0.16612466 0.018176693 -0.13877791
-0.06470068 -0.27934378 0.22897416 0.1035215 -0.030152764 -0.05383311 0.01908377 0.11141789
-0.07059648 0.23161134 0.015184076 -0.011280914 -0.30724227 0.022460127 -0.06775473 -0.12977576
-0.05802652 0.00032940003 -0.03920532 -0.16990712 -0.1830088 0.23847581 0.026955426 0.07329383
-0.0436467 0.02671707 -0.13525335 0.008796524 0.26083443 0.06555707 0.10300571 -0.008058785

bias f4 [256]
00000000: 9b48 0d3d 81bd 02bd f36a 36bc b6ab 0d3c
00000010: b3b6 50bc 3444 74bc f2ea c33c 901d e2bb
00000020: 07e8 ed3b 671b e1bc 20ad 35bc 5356 033d
00000030: 6934 063c cb80 373c ffb5 a53b f517 863c
00000040: 96d0 8b3c fe70 03bc 5bb3 ddbc 23dd be3c
00000050: 3a99 04bc 7c46 47bc 1d08 7ebc a3dc 67bd
00000060: 4de5 0cbd f1d7 76bb d575 b8ba 7ed3 57bc
00000070: 4a75 4c3c 70c8 2e3c 70c0 01bd c4ea 153d
00000080: 63ef 3cbb 502e 06bc 71ff a4bc 84a1 d7bc
00000090: aab4 1c3c 0616 03bd bb88 07bc 3cfb 1fbc
000000a0: f0d3 743c acb2 253c 6370 7bbc c75b 80bc
000000b0: 1ed3 a2bc 0b23 a8bb f032 bebb a4bf 30bd
000000c0: 741c 323c 284e 9b3b a2f5 5c3c 3f29 45bc
000000d0: 2ca6 64bb 98d7 ca3a 0aee 3abc f998 4b3c
000000e0: ffed 16bc 5fe5 9cbb 557b a3bb dfe5 a03c
000000f0: e24a e63b 9393 5c3c 267d c0bc d98a 5e3c
00000100: da4f aebc 34c2 943b d318 79bc 60ed 65ba
00000110: 470e 02bd d1c9 c4bb b4dd 1b3b 04af 6fbc
00000120: 9078 73bc 5654 8b3c fcd5 1bbc ad12 aebc
00000130: aeb9 a6b8 0879 913d eb15 5fbc ad29 fcbb
00000140: 8991 16bc aad9 1d3d 27f0 7f3c ab2e 29bc
00000150: e398 dfbb 0b9b 063c 2b22 b1bc fddf da3b
00000160: a7dc 6c3c f987 e33c 2909 25bc 74a0 29bd
00000170: 7173 06bc bec7 2cbc 3299 63bc 3625 37bc
00000180: 19a9 4fbc 7ef0 08bd 093f 3e3c 4a5c fbbb
00000190: d8c9 c4bb 8f66 e03b 1894 a43c d3a6 40bc
000001a0: bac0 63bc 88c9 19bc d79a bebc 1b60 f6bc
000001b0: d875 613b a63b bdbb 2347 a5bc 050e 02bd
000001c0: 7f99 74bc f101 02bd d361 09bc 7e4d 2fbc
000001d0: 25d8 3abc f0c0 ca3b c7c2 323d 0cd5 94ba
000001e0: e344 8bbc 2e2f 1dba 52c9 32bb 521d d4bc
000001f0: 5345 80bc c20b 81bb 85da e63a e379 453b
00000200: b3b6 18bd 2ca1 9cbc 29be 9f3c 3cda 24bd
00000210: bf98 903c 0000 0000 ed6a 153d b0a9 36ba
00000220: 0000 0000 e4ad 1dbd 16bc e33b 5433 0d3d
00000230: 9992 01bc 85f2 b73c a0d7 5ebc a379 ed3c
00000240: 40e2 bf3b eab0 c4bb 6643 d83c 2149 7dbb
00000250: 3c28 963b 173c 5fbc b468 f03b 705a 6abc
00000260: ddce 0a3c fcc0 0a3c 927e 21b8 39ba 8e3b
00000270: 87c3 11bb 9923 6abc 7c81 223c d32e 323d
00000280: 8d1e 38bb 2502 ee3c 7293 7d3c f0e9 71bc
00000290: fff2 01bd 917f a7bb 1f6b 323c 4a77 2abc
000002a0: 842c afbb 24f0 a3bc aa23 1ebb ed8b 36bc
000002b0: b3f8 e23b 119f 913c 42f8 0cbd f699 31bc
000002c0: 2306 333c 16c1 66bc a0df f7bb 0000 0000
000002d0: 4973 35bc 93f2 803c 77e0 c7bb e2c7 0d3b
000002e0: f610 763b 54d6 fcba ecb6 c63b c6fb 2c3c
000002f0: 7d54 44bc 6dd3 93bc 4254 793c 62c0 46bc
00000300: 5352 63bc fdfa 63bc a1ae 3cbc d84c 2bbc
00000310: 8483 173b e6cf 64bc 0000 0000 da54 11bc
00000320: 3c32 993c 9549 5abc b12c 213c 0000 0000
00000330: d898 08bd 3afe a8bc 8c7e b2bb 20cd 2dbc
00000340: ba8e 113d d8c9 c4bb 48ff 4fbc a4c4 163d
00000350: 21d4 113c 1573 8abc 2dd6 2cbc 35ad d7bb
00000360: aab6 6a3c 8850 65bc 7198 c03c 36a2 7dbc
00000370: 334b 0cbd 3385 01bd d680 563c 0000 0000
00000380: 755a f43c 63cf 853c 34d0 20bd 0000 0000
00000390: 5fa3 d4bc f922 36bc 6806 4ebd 067f 0fbc
000003a0: 57b5 9abc 323c f7bc d5f5 95bc 3006 183d
000003b0: a1c0 d3ba 5b5d 103d 9653 a0bc ed4b dd3c
000003c0: 2628 31bc 75a0 17bc 28c6 e33b cf5a 1bbd
000003d0: e756 0d3d 31b6 093c 87ca a5bc 5e24 5cbc
000003e0: d1bb b73a c6b0 893c 27ed 023c 6285 dd3b
000003f0: 9026 7dbc 5b71 063c 5f7a 933c b4e3 f9bb
0.03449307 -0.031919006 -0.011133897 0.008646896 -0.012738871 -0.014908839 0.023915742 -0.006900497
0.007260326 -0.027478887 -0.0110886395 0.032064747 0.0081912065 0.01120014 0.005057096 0.016368845
0.017067235 -0.008022545 -0.027063062 0.023298806 -0.008093173 -0.012162801 -0.015504864 -0.0566069
-0.034398366 -0.0037665332 -0.0014073203 -0.013172982 0.012479136 0.010667905 -0.031677663 0.036600843
-0.002882921 -0.008189753 -0.020141335 -0.026322134 0.009564558 -0.032003425 -0.008272345 -0.009764489
0.014943108 0.0101133995 -0.015346619 -0.015668763 -0.01987606 -0.0051311306 -0.005804412 -0.043151513
0.010871042 0.0047395416 0.013486298 -0.01203376 -0.0034889085 0.0015475629 -0.011409292 0.012426608
-0.009212016 -0.0047880854 -0.0049890676 0.019640861 0.0070279697 0.013462919 -0.023497175 0.013582909
-0.02127831 0.0045397524 -0.015203672 -0.00087710284 -0.031751897 -0.0060055037 0.0023783268 -0.014629129
-0.014860287 0.017007988 -0.009511467 -0.02124914 -7.950082e-05 0.07103163 -0.0136160655 -0.007695398
-0.009189972 0.03853766 0.015621222 -0.010326068 -0.0068236454 0.008215676 -0.021622738 0.0066795335
0.0144569045 0.027774798 -0.010072985 -0.041412786 -0.008206234 -0.010545669 -0.013891505 -0.011178305
-0.012674593 -0.033432476 0.011611708 -0.007670914 -0.006005507 0.0068481634 0.020090148 -0.011758524
-0.01390093 -0.009386428 -0.023267193 -0.030075124 0.0034402516 -0.005774933 -0.020175522 -0.03175165
-0.014929174 -0.031740133 -0.0083851395 -0.010699628 -0.011404072 0.0061875507 0.043642785 -0.0011354997
-0.017000621 -0.0005996105 -0.002728064 -0.025892887 -0.015658056 -0.003938169 0.0017612731 0.0030132465
-0.03728361 -0.019119821 0.019499855 -0.040247187 0.01765096 0.0 0.036478925 -0.00069680344
0.0 -0.038495913 0.006949912 0.03447278 -0.007908487 0.02245451 -0.013601214 0.028988665
0.0058558285 -0.006002535 0.026399326 -0.0038648325 0.004582433 -0.013625166 0.0073367003 -0.014303789
0.008472172 0.008468863 -3.850327e-05 0.0043556956 -0.0022241788 -0.014290714 0.009918567 0.043501686
-0.0028094382 0.029053757 0.015477048 -0.014765248 -0.03172588 -0.0051116426 0.0108897975 -0.010404417
-0.005345883 -0.020011969 -0.0024130144 -0.011141759 0.00692662 0.017776044 -0.034416445 -0.01083993
0.010926756 -0.014084121 -0.0075645 0.0 -0.011074849 0.015740668 -0.0060997563 0.0021634032
0.003754673 -0.0019289949 0.0060642865 0.010558074 -0.011983034 -0.018045152 0.0152178425 -0.012130829
-0.013874608 -0.013914821 -0.011516244 -0.010455333 0.002311916 -0.0139655825 0.0 -0.008870328
0.018700711 -0.013323207 0.009837315 0.0 -0.03334889 -0.020629037 -0.0054472145 -0.010607988
0.035536505 -0.006005507 -0.012695141 0.036808625 0.008900673 -0.016900579 -0.01054911 -0.006581927
0.014325777 -0.013996251 0.02351019 -0.015480569 -0.034251403 -0.03162117 0.01309224 0.0
0.02982829 0.016334241 -0.039261058 0.0 -0.025956808 -0.011116737 -0.05029908 -0.008758312
-0.018885298 -0.03018007 -0.018305698 0.037115276 -0.001615543 0.03524528 -0.019571107 0.027013743
-0.010812795 -0.0092545645 0.0069511123 -0.0379284 0.034506705 0.008405254 -0.020238174 -0.013436405
0.0014017766 0.016807925 0.007991112 0.0067602852 -0.015451089 0.008205737 0.018002687 -0.0076260213

weight f4 [2, 256]
00000000: 5b2e 47bd 65a0 07be edd6 abbd e9f5 853d
00000010: 546f 79bd 1fbd 6cbd 8f6c 2b3f 1627 0cbe
00000020: 566e 9b3b ed07 8e3c ef21 46bd 75a1 463f
00000030: a700 d5bc 890e b93e dc6c 313f b1cb 3b3c
00000040: 6c84 d43e 79fc fabc a0a5 a2bc 56f7 50bc
00000050: 3bf6 c6bd f436 113d 46df a7bd 0a6f aabc
00000060: 7f01 10bd 5766 eebc f960 fe3c 3914 25bc
00000070: fb4f b03d 0a51 af3d 710c 25be 71a9 ae3e
00000080: 7fcb d63a 6ec1 bfbd e6a1 06be 4074 963e
00000090: dc36 28bc e461 4cbd fc82 67bd 2244 8638
000000a0: e292 09be e2df a83f a72d 43bd 91a3 2bbd
000000b0: 8bc2 80bf 6013 573b 966e d03a 60c7 863b
000000c0: 8bc9 b7bb fadd ce3c 7070 183f 0b7e 0d3a
000000d0: 03f0 593b f48c 39bd f3e6 50bd 92ea 1b3f
000000e0: f80f c8bd 95c2 d73e 7e13 893d 2614 d23e
000000f0: 7993 0d3c 4d11 d23f ea57 ddbc 095c 223f
00000100: 05cc 633c 8dd0 bcbd d06c 33bd 8583 e8bd
00000110: 7f8f 42bd c7a4 b03d 5abb a43e 4026 62bb
00000120: b3af c9bd adf4 043e 8b96 9b3c ec3a 903c
00000130: 7089 233c 973f 99be 4535 6abb 135b 02bb
00000140: 3778 cabc 991c adbd da6b 123f c27e ab3c
00000150: a716 8abb 294f 303f 3244 b1bc 79ec dc3e
00000160: e985 c0bb ebaf 1e3f 1cd7 49bc b614 4bbd
00000170: 344b 553b c774 28bc b8f5 d7bb 00f4 33bd
00000180: 9121 50bd 764f b3bd 24dc 6a3f 9cd6 22bd
00000190: d2f1 a53d 0483 353d e6b1 dc39 2f70 b4bd
000001a0: 09c2 adbc 1719 373b b5b9 6bbc e3d5 ad3d
000001b0: fbe0 903e 55c6 523c 4470 293c 114c 603c
000001c0: 846b 96bd d75b 34bd 56af 9c3c e7c8 59bd
000001d0: 57d4 79bc 582f 8f3d 026a 753f 9ba4 cdbc
000001e0: 9bf0 e53c e41c 2abe a872 2d3c 8c7d 3a3d
000001f0: 4390 203d 524e 3d3c 1679 a73c e618 073f
00000200: 6add 243c 09f9 22ba 7229 af3d bd25 d4bd
00000210: dc46 a53e de1e ae3c b070 c43e 204b c53d
00000220: 20da b33d 80fa 13be 0fd4 b2bc fc58 863f
00000230: 8a0c 613b d907 773f e12a 8a3c dd12 58bd
00000240: 755d 003f 52e5 99bd 9837 9a3f e14c 803e
00000250: 8231 07ba b0a8 91bd f143 3f3f a0c2 d7bd
00000260: e0c3 6e3d 3d88 6d3f a339 bf3e e556 9fbc
00000270: ed03 813c 95cf 52bc df71 c63e f8ad 953f
00000280: b5d0 7ab9 b2be 8c3e f69d 7cbd a278 6abc
00000290: 47ef 4b3d da18 003d 1c2a 3f3f b820 54bd
000002a0: 962d f1bb bc75 d9bc 9a82 9cbd 1291 a3bd
000002b0: 1723 803b 2e85 803e c34f a83c cdb2 c63a
000002c0: 441a 9a3f dc34 0cbd b326 a7bc 9eac cebc
000002d0: 0ae8 abbd 1a1e ba3e 692d c8bd 4630 133f
000002e0: 0653 993e 6832 b9bd d4eb ed3e 710c 953f
000002f0: e248 ddbc ace0 e3bd 50ed 863e 6e2e 7bbc
00000300: 3bd4 3ebd b09d 573e 1e19 863c 1a47 163e
00000310: 90bb 13be acc1 ebbc bba1 65bd 747f 6dbd
00000320: 1cab 71bd 40a8 24bd f939 363f 6ea6 4c3c
00000330: 22ad 8abd 69d4 b3bc 92f4 143c 57d3 68bd
00000340: 8b92 a3bd ff13 96bc 4c94 41bd b01d 383f
00000350: 6050 58bd a232 71bc 9481 853d b115 903c
00000360: b30e b63e 2fda bdbc 6d63 adbd d60f 5abd
00000370: 8fe2 bc3c bb70 2dbc 9709 833d fbd6 e23c
00000380: 7010 2fbd f320 003c 0fce 42b8 c304 0f3d
00000390: 51e5 18bd c59b 60bd 89c1 b0bd 61fb 193c
000003a0: b7e7 493d 455a 58bd 2104 a43d eb13 e1bd
000003b0: 6635 1c3f 7fdb 6f3f ab9f 38bc 5e00 863f
000003c0: 5254 3dbd 2566 92bc 82b6 c8bb c295 463d
000003d0: 9f6e eb3e c5a8 713d e737 debc 8199 01bd
000003e0: 2c7b 213e 056b 44bd d485 8c3d ff7a 8b3d
000003f0: 9854 6d3c f8bf 833d 1e7f ca3e 9524 d3bc
-0.048628192 -0.1324478 -0.08390603 0.06541044 -0.060897186 -0.057797547 0.6696252 -0.13686785
0.0047433777 0.017337764 -0.048372205 0.77590114 -0.026001288 0.36143902 0.6930673 0.011462138
0.4150728 -0.030637966 -0.019854367 -0.012754282 -0.097149335 0.035452798 -0.08196883 -0.0208049
-0.035157677 -0.029101534 0.0310521 -0.010075622 0.08609005 0.08560379 -0.16118027 0.3411365
0.0016387551 -0.09363066 -0.13147697 0.29385567 -0.010266986 -0.049898043 -0.0565214 6.402309e-05
-0.13434938 1.3193324 -0.04765096 -0.041904036 -1.005937 0.0032817945 0.0015902098 0.004113123
-0.0056087426 0.025252331 0.59546566 0.0005397505 0.003325463 -0.04530044 -0.0510015 0.609048
-0.09768671 0.42140642 0.06693171 0.41030997 0.008641117 1.641153 -0.02701946 0.63421685
0.0139036225 -0.092194654 -0.043804944 -0.1135321 -0.04750013 0.08625179 0.32174188 -0.0034507662
-0.09847965 0.12983961 0.018992683 0.017606221 0.009981498 -0.29931328 -0.0035737318 -0.001989071
-0.024715526 -0.0845272 0.5719582 0.020934466 -0.004214126 0.6887079 -0.021638963 0.43149164
-0.0058753383 0.6198718 -0.0123193525 -0.0495803 0.0032546045 -0.010281748 -0.0065905713 -0.04393387
-0.05081326 -0.0875539 0.9174216 -0.03975545 0.08102764 0.0443144 0.00042094215 -0.0881046
-0.021210687 0.0027938539 -0.014387538 0.08488061 0.28296646 0.012864669 0.010341708 0.013690011
-0.07344726 -0.044032898 0.019126575 -0.05317011 -0.01524838 0.06991452 0.9586488 -0.025102904
0.028068831 -0.16612583 0.010586418 0.045529887 0.03920008 0.011554318 0.02044348 0.52772367
0.010062555 -0.00062169187 0.08552827 -0.103587605 0.32280624 0.021254953 0.38367224 0.096334696
0.087818384 -0.14451027 -0.021829633 1.0495906 0.003433975 0.9649635 0.01686615 -0.052752364
0.50142604 -0.075144425 1.2048216 0.25058654 -0.00051572185 -0.07112253 0.74713045 -0.10535169
0.05829227 0.9278601 0.3734866 -0.019450614 0.015748942 -0.012866874 0.38758752 1.1693716
-0.00023919607 0.2748924 -0.06167408 -0.014310988 0.04978874 0.0312737 0.7467363 -0.051789016
-0.0073601706 -0.026545398 -0.07642098 -0.07986654 0.003910433 0.25101608 0.020545846 0.0015159488
1.2039266 -0.034230098 -0.020404195 -0.025228795 -0.08393867 0.3635109 -0.09774286 0.57495534
0.29946154 -0.09042817 0.46468985 1.1644422 -0.027012292 -0.11126837 0.2635293 -0.015330894
-0.046589117 0.21056247 0.016369399 0.1467556 -0.14427018 -0.028778873 -0.05606244 -0.057982877
-0.059001073 -0.04019952 0.7118221 0.012490852 -0.06771304 -0.021951871 0.009091513 -0.056842174
-0.07986935 -0.018320082 -0.047260568 0.719203 -0.052811027 -0.014721544 0.06518856 0.017588468
0.3555809 -0.023175327 -0.084662296 -0.05323776 0.02305725 -0.010585959 0.063983135 0.027690401
-0.042740285 0.007820356 -4.644511e-05 0.03491665 -0.03732807 -0.054836053 -0.08630664 0.009398312
0.049293246 -0.052820463 0.080086 -0.10990127 0.6101898 0.936943 -0.011268537 1.0468862
-0.046222992 -0.017870972 -0.0061252723 0.048482664 0.45982835 0.05899884 -0.027126266 -0.031640533
0.15769643 -0.047953624 0.06861463 0.06810569 0.014485501 0.064330995 0.39550108 -0.02577428

bias f4 [2]
00000000: 345c df3c 89f4 133d
0.027265646 0.03612188
