exp_local/gcbc_multimodal/weights/12000.pt (torch, 274440 bytes, 6 tensors)

weight f4 [256, 4]
0	0xbe295f56	-0.16540274
1	0xbe15a4db	-0.14613669
2	0x3e0ed06d	0.13946696
3	0x3e202537	0.15639196
4	0xbdf1a650	-0.117993
5	0x3e0042fa	0.1252555
6	0xbe35396f	-0.1769769
7	0x3dc4f95c	0.09617874
8	0xbdf88d0e	-0.12136279
9	0x3d2fb342	0.042895563
10	0x3e50976e	0.20370266
11	0xbd6e1009	-0.05812076
12	0xbd47632d	-0.048678566
13	0x3d5d22f5	0.053988416
14	0xbdd17f66	-0.102293774
15	0xbb8e7773	-0.0043477356
16	0x3c9749ce	0.01846781
17	0xbd9635ba	-0.07334466
18	0xbdb4c840	-0.08827257
19	0xbbbdf4dd	-0.0057970122
20	0xbdd82443	-0.105537914
21	0xbcd9a09f	-0.026565848
22	0xbc9f4eeb	-0.01944681
23	0xbd5aedc2	-0.0534494
24	0xbd5ef658	-0.05443415
25	0x3d80f5b8	0.06296867
26	0x3daa5272	0.083165064
27	0xbd2fa675	-0.042883355
28	0xbcd0b57e	-0.025477167
29	0x3d2d0398	0.042239755
30	0x3d949588	0.07255083
31	0xbd9511bb	-0.072787724
32	0xbd9c1bb8	-0.076224744
33	0xbe358fc6	-0.17730626
34	0x3d889e53	0.06670823
35	0x3e35881a	0.177277
36	0x3e1637b0	0.1466968
37	0x3d3dba3b	0.04632018
38	0xbe2b2a00	-0.1671524
39	0xbcc88751	-0.024478586
40	0xbdd9d272	-0.106358424
41	0x3da1b01c	0.07894918
42	0x3dea8e5a	0.11452933
43	0xbdeb009a	-0.11474724
44	0x3e472a97	0.1944984
45	0xbd468c4e	-0.04847365
46	0xbdbe13ee	-0.09281145
47	0xbccfd385	-0.025369415
48	0x3e693329	0.22773422
49	0xbe1fa2c2	-0.15589431
50	0xbe32fbba	-0.17478839
51	0x3dc4eb64	0.0961521
52	0xbd7d9caf	-0.061917003
53	0x3e471697	0.19442211
54	0x3db939c6	0.090442225
55	0xbe3333c2	-0.17500213
56	0xbcb99c50	-0.022657543
57	0x3e09ca4a	0.13456073
58	0x3dd4defb	0.10394093
59	0xbe33a258	-0.17542398
60	0xbdd9e047	-0.10638481
61	0x3da24c22	0.079246774
62	0x3a881d62	0.0010384733
63	0xbd980aab	-0.0742391
64	0xbd070d24	-0.032971516
65	0xbd0bd9f5	-0.034143407
66	0x3db4ae84	0.08822349
67	0xbca67cb3	-0.020323133
68	0x3c834a5f	0.016026674
69	0x3e2629ec	0.1622693
70	0xbc41c7e2	-0.011827441
71	0xbe0cd1f6	-0.13751969
72	0xbd9c372a	-0.07627709
73	0x3e380969	0.1797234
74	0x3d85bac2	0.06529762
75	0xbe2a880c	-0.1665346
76	0xbcb865ad	-0.02250942
77	0xbe45c817	-0.1931461
78	0x3d22d75d	0.039756168
79	0x3e362cd0	0.17790532
80	0xbd36e9ab	-0.044656437
81	0x3d5a2569	0.053258333
82	0xbdb11993	-0.08647456
83	0x3af1021b	0.0018387468
84	0x3e359c53	0.17735414
85	0xbd925908	-0.071458876
86	0xbe0bf376	-0.13667092
87	0x3ce8fcf0	0.028440922
88	0x3e22a740	0.15884113
89	0x3b87aa4d	0.0041401745
90	0xbe403fb2	-0.18774298
91	0x3b9c1e42	0.004764349
92	0x3deaade2	0.11458947
93	0x3dc1db41	0.094656475
94	0xbdfe1e0d	-0.124080755
95	0xbd2ce723	-0.042212617
96	0x3d0aa1c9	0.033845697
97	0xbe3441a4	-0.17603165
98	0xbd7e9102	-0.06215001
99	0x3e7eb521	0.24873783
100	0xbda6b0a0	-0.08139157
101	0x3dc3134b	0.09525164
102	0x3da83252	0.08212723
103	0xbdd2c9c5	-0.10292391
104	0xbd1a7ceb	-0.037716787
105	0xbe15140b	-0.14558427
106	0xbc4d657c	-0.012536403
107	0x3e379942	0.17929557
108	0x3e62954e	0.22127268
109	0x3cc4a6d3	0.02400533
110	0xbe2d7825	-0.16940363
111	0xbc83e5ff	-0.016100882
112	0x3e12969c	0.14315265
113	0xbe39550e	-0.18098852
114	0xbdbcc69e	-0.09217571
115	0x3e1e44d0	0.15455937
116	0xbdbf5db2	-0.09344043
117	0x3db84383	0.08997252
118	0x3da2ae1f	0.07943367
119	0xbdd47aef	-0.1037501
120	0xbd9a0a18	-0.075214565
121	0xbe05711a	-0.13031426
122	0x3b82c8a6	0.0039912043
123	0xbd0b5a9e	-0.034021966
124	0x3ce36bc4	0.027761348
125	0xbbe6033f	-0.00701943
126	0xbd079aa8	-0.033106476
127	0xbca8066e	-0.020510878
128	0x3dc2ec31	0.09517706
129	0xbca9313c	-0.02065336
130	0xbdca0f0e	-0.09866153
131	0x3ca91ea8	0.0206445
132	0xbe1a2575	-0.15053351
133	0x3dd1d2c9	0.10245282
134	0x3dfb1427	0.12259703
135	0xbd929f5a	-0.071593
136	0x3d86e0a1	0.06585813
137	0xbe05ffb4	-0.13085824
138	0xbdbe9359	-0.09305448
139	0x3e051415	0.12995942
140	0xbdc038fb	-0.09385868
141	0xbd59be47	-0.05315998
142	0xbc1bbdcd	-0.009505701
143	0xbca04173	-0.019562459
144	0xbdb8fa51	-0.09032119
145	0xbcebdc21	-0.02879149
146	0x3e0a01a6	0.13477191
147	0x3a069b84	0.0005134868
148	0x3e22d9f8	0.15903461
149	0xbdee72cc	-0.116429895
150	0xbe2a1c89	-0.16612448
151	0x3e00be13	0.12572508
152	0x3d5112f5	0.05104347
153	0x3d17e039	0.03707907
154	0x3db9f404	0.090797454
155	0xbe07d26b	-0.13263862
156	0x3e1643f1	0.14674355
157	0xbda83e6e	-0.082150325
158	0xbe163702	-0.14669421
159	0x3dca51cc	0.09878883
160	0xbd216130	-0.039399326
161	0x3e45b556	0.19307455
162	0x3cb1b207	0.021691335
163	0xbe220a6f	-0.15824293
164	0x3d088853	0.033333134
165	0xbd960c14	-0.073265225
166	0x3d8e750f	0.06955921
167	0xbde61cc2	-0.11235954
168	0x3d7e6b6a	0.062114157
169	0x3e71e5c6	0.23622808
170	0xbdbdfd15	-0.09276787
171	0xbde8c1d0	-0.11365092
172	0xbdbc1a86	-0.091847464
173	0xbdc7c6ac	-0.097546905
174	0x3d5c71a0	0.0538193
175	0x3da70f98	0.08157271
176	0xbdd48792	-0.103774205
177	0x3d7c399d	0.06157838
178	0x3e27c79f	0.16384743
179	0xbe053e08	-0.13011944
180	0x3dfa6035	0.12225381
181	0xbda12473	-0.0786828
182	0xbe187cc0	-0.14891338
183	0x3daaef1f	0.0834639
184	0x3b37421a	0.0027962984
185	0xbd82a2fc	-0.06378743
186	0xbd9fe99e	-0.07808231
187	0xbd512077	-0.05105635
188	0x3de36271	0.111027606
189	0x3d05dedc	0.03268324
190	0xbdaae477	-0.083443575
191	0xbd64d328	-0.055865437
192	0xbdb22c01	-0.08699799
193	0xbbf400ff	-0.007446408
194	0xbd968f98	-0.07351607
195	0xbd5c6824	-0.053810254
196	0x3d36f957	0.044671383
197	0xbe13dc43	-0.14439492
198	0xbd63f9f7	-0.055658307
199	0x3e10c716	0.14138445
200	0x3db8f9f1	0.090320475
201	0xbe0812f8	-0.13288486
202	0xbda5baa1	-0.08092237
203	0xbd857ca3	-0.06517913
204	0xbd5c3cb2	-0.05376882
205	0xbd214062	-0.03936804
206	0xbd769309	-0.060198817
207	0xbd9b5361	-0.07584263
208	0x3e8f0c79	0.27939203
209	0xbd3539e7	-0.044244673
210	0xbdeb39e6	-0.114856526
211	0x3ba10231	0.0049135913
212	0x3d6a9fdf	0.05728137
213	0xbe1fe777	-0.1561564
214	0xbd6a2065	-0.0571598
215	0x3e09027d	0.13379855
216	0x3bcd53bb	0.006266085
217	0x3dbd95a8	0.0925706
218	0xbd66db43	-0.056361448
219	0xbdad8777	-0.084731035
220	0x3d28d5da	0.04121957
221	0x3a055c40	0.00050872937
222	0xbdc548cc	-0.096330255
223	0x3cdd74d5	0.027033249
224	0x3d6e2109	0.058136974
225	0x3cc3a96a	0.023884494
226	0xbdd1af13	-0.10238471
227	0xbd876fdc	-0.06613132
228	0x3d92d423	0.07169368
229	0xbdbe2e68	-0.09286195
230	0xbd93726a	-0.07199557
231	0x3d9eb27d	0.07748888
232	0xbe2a8b7e	-0.16654775
233	0x3d920a1a	0.07130833
234	0x3e30ee97	0.17278515
235	0xbd7215e9	-0.059102926
236	0xbdc0109b	-0.09378167
237	0x3e21b386	0.15791139
238	0x3dcdecb6	0.10054915
239	0xbe23c2f9	-0.15992345
240	0xbe659b5e	-0.22422549
241	0x3d89ca85	0.06728081
242	0x3d359a0e	0.04433637
243	0xbb17d508	-0.0023167748
244	0x3e24037c	0.16016954
245	0xbdfb19ac	-0.12260756
246	0xbdfe3371	-0.124121554
247	0x3dd03cb8	0.10167831
248	0xbb891903	-0.00418389
249	0xbda24340	-0.07922983
250	0x3d808a74	0.06276408
251	0xbd48f6b0	-0.049063385
252	0xbce87149	-0.028374331
253	0xbdb78aa1	-0.08961988
254	0x3e2ed593	0.1707366
255	0xbd765bf9	-0.060146306

bias f4 [256]
0	0x3c733401	0.014843942
1	0xbcf241da	-0.029572416
2	0xbc59b085	-0.013286714
3	0xbd2926b5	-0.04129668
4	0x00000000	0.0
5	0x00000000	0.0
6	0xbd5885e4	-0.052862063
7	0xbd15ccfc	-0.03657244
8	0x3bd337d8	0.006445866
9	0x3c5eb344	0.013592545
10	0x3cd5371d	0.026027257
11	0x3c27761f	0.010221033
12	0x3d05b7ce	0.032645993
13	0xbbb35523	-0.0054727956
14	0x3cb54fa5	0.022132704
15	0x3c60cd9f	0.013720899
16	0xbd0fbc9a	-0.035091974
17	0xbc0481f3	-0.008087623
18	0x3c10246a	0.008797744
19	0x3bc995dd	0.0061518983
20	0xbd1187f6	-0.035530053
21	0x3c5c866d	0.013459784
22	0x3d019bca	0.031642713
23	0xbcb56920	-0.022144854
24	0x3bb0e67a	0.0053985687
25	0x3c6e36e9	0.014539459
26	0x3cae50ad	0.021278704
27	0xbcb0ef19	-0.021598386
28	0x3d04b6cc	0.03240089
29	0x3c2ebed7	0.010665617
30	0x00000000	0.0
31	0x00000000	0.0
32	0x3b0dcde3	0.002163761
33	0x3c530619	0.012879872
34	0x3cd3e086	0.025863897
35	0x00000000	0.0
36	0xbc8df7f5	-0.01733015
37	0x3be8fbbb	0.0071100867
38	0xbd050e94	-0.032484606
39	0x3b2130d9	0.0024595766
40	0xbb52e4b0	-0.0032179765
41	0xbd4eb7df	-0.050468322
42	0xbd0fae9a	-0.035078622
43	0xbc13dc03	-0.009024623
44	0x3d0e8631	0.034795944
45	0x3d044da6	0.032300614
46	0x00000000	0.0
47	0xbccb0432	-0.024782274
48	0x00000000	0.0
49	0x3c091752	0.008367376
50	0x00000000	0.0
51	0x00000000	0.0
52	0xbd595a2b	-0.053064507
53	0xbb607798	-0.003425097
54	0xbc4632ba	-0.012097055
55	0xbc5a85f9	-0.013337606
56	0x00000000	0.0
57	0x3b72574c	0.0036978303
58	0xbb67ec2f	-0.003538858
59	0x3ba8801f	0.0051422263
60	0x3d9207bc	0.071303815
61	0x3c17901b	0.009250666
62	0xbce6cfd8	-0.02817528
63	0xbc56a7bf	-0.013101517
64	0x3b701bda	0.0036637695
65	0xbcf44c36	-0.029821496
66	0x3c0d4605	0.008622651
67	0xbba80b43	-0.0051282956
68	0xbd475a30	-0.048669994
69	0xbc0f87d3	-0.00876041
70	0xbc4b300c	-0.012401592
71	0x39b11dae	0.00033782184
72	0xba846f75	-0.0010104018
73	0x3c2888c0	0.01028651
74	0x00000000	0.0
75	0xbce32ce3	-0.027731365
76	0xbcd11f7e	-0.025527712
77	0x3c469aa1	0.012121827
78	0xbcef63d3	-0.029222405
79	0x3d0e84ad	0.0347945
80	0x3ca1000b	0.01965334
81	0x3cf00c1d	0.029302651
82	0x3a5024b1	0.0007940038
83	0x3d40be9a	0.04705677
84	0x00000000	0.0
85	0x3c381285	0.011234884
86	0xbd497e23	-0.04919256
87	0x3ca7846f	0.020448891
88	0xbbd3609d	-0.006450726
89	0xbc9884e7	-0.01861806
90	0xbc5edc87	-0.0136023825
91	0x00000000	0.0
92	0x3c368193	0.011139291
93	0x3dd09763	0.10185125
94	0x3c682bda	0.014170611
95	0x00000000	0.0
96	0xbd6281b2	-0.05529947
97	0xbd88f479	-0.066872545
98	0x3ce6a1b2	0.028153274
99	0x3b8b9506	0.0042597083
100	0x3cb14337	0.021638496
101	0x3bf271fe	0.007398843
102	0xbbf9f363	-0.007627891
103	0x00000000	0.0
104	0x00000000	0.0
105	0x3c144196	0.00904884
106	0x38a34135	7.7845914e-05
107	0x3b8ca852	0.0042925263
108	0x00000000	0.0
109	0x00000000	0.0
110	0xbbe4be2d	-0.0069806785
111	0x3b600a9d	0.0034186014
112	0xbcfaa8c7	-0.030598057
113	0xbd1ecf37	-0.038771834
114	0xbce250e6	-0.027626466
115	0x398c3741	0.00026744048
116	0x3c55cbb2	0.013049053
117	0x00000000	0.0
118	0x3c1bb540	0.009503663
119	0x3cb14f6f	0.021644322
120	0x3c4e99d0	0.012609914
121	0xbbbf6593	-0.005840966
122	0x3b2bebd1	0.0026233087
123	0x3bd8dc7a	0.0066180797
124	0xbb9c6b37	-0.004773523
125	0xbc91515c	-0.01773899
126	0xbc76e14d	-0.015068364
127	0x00000000	0.0
128	0x3bd3e0a4	0.0064659882
129	0x3b11ec13	0.0022265955
130	0x00000000	0.0
131	0xbbf8033d	-0.0075687454
132	0x3bd77b5c	0.006575985
133	0x3d25fcab	0.040524166
134	0xbc963cb4	-0.018339492
135	0x3ce36bfd	0.027761454
136	0x00000000	0.0
137	0x3c7420a2	0.014900358
138	0x3bfb33f6	0.0076661063
139	0xbc1c269b	-0.009530689
140	0xbd06b28a	-0.032885112
141	0x3c43b2ee	0.011944516
142	0xbcccf53a	-0.025019277
143	0x3b85304d	0.004064596
144	0x3ca613b5	0.020273069
145	0x3c457a75	0.012053122
146	0x00000000	0.0
147	0x3c636596	0.0138792
148	0x00000000	0.0
149	0x3ca576f9	0.020198332
150	0x3c396cbf	0.011317431
151	0x00000000	0.0
152	0xbc127393	-0.008938688
153	0x3bfc3a7f	0.007697403
154	0xbc31b5e0	-0.010846585
155	0xbc9cecab	-0.01915582
156	0xbcb87ec1	-0.022521378
157	0x3d9271c4	0.07150605
158	0xba87fedb	-0.0010375635
159	0xbcf3edd3	-0.02977649
160	0xbc35a597	-0.011086843
161	0xbb3f10ff	-0.0029154418
162	0x00000000	0.0
163	0x3ba1a879	0.0049334136
164	0xbcc75557	-0.024332685
165	0xbbe77ce4	-0.0070644487
166	0x00000000	0.0
167	0x3ce25705	0.027629385
168	0x00000000	0.0
169	0x3d026c06	0.0318413
170	0x3d2b4b55	0.04181989
171	0x3c0b1c22	0.008490594
172	0x00000000	0.0
173	0x3cda50a3	0.026649779
174	0xbd3b7d38	-0.045773715
175	0xbd2812d9	-0.0410336
176	0x3c2c4321	0.010514052
177	0x3be896de	0.007098063
178	0xbd23ec93	-0.040020537
179	0x3a997e8e	0.001171069
180	0x3c7e5736	0.015523722
181	0x3cff9303	0.03119803
182	0x3d2edea4	0.042692795
183	0xbcad3df3	-0.021147704
184	0xbc064fb5	-0.008197715
185	0xbd0bb74b	-0.03411035
186	0x3a06606e	0.00051260635
187	0xbbc965fb	-0.00614619
188	0x00000000	0.0
189	0x00000000	0.0
190	0x3c9afa79	0.018918263
191	0xbcf2aa37	-0.02962218
192	0x3c243fe8	0.010025002
193	0xbc7535e4	-0.014966462
194	0xbcae752a	-0.021296103
195	0xbd55f307	-0.052233722
196	0x3c395ff0	0.011314377
197	0x3c26ae7e	0.010173438
198	0xbbaaf08b	-0.0052166632
199	0x00000000	0.0
200	0x3b38a9fe	0.0028177495
201	0x3caee1e0	0.02134794
202	0xbb6b654f	-0.003591854
203	0x3cc00a7e	0.023442503
204	0x00000000	0.0
205	0xbc4e2c3d	-0.012583789
206	0x3b47f0b8	0.003050847
207	0x3cc397ee	0.023876157
208	0x39766572	0.0002349818
209	0x3ce3bc5a	0.027799774
210	0xbd2d508c	-0.042313144
211	0x00000000	0.0
212	0xbb8fe96a	-0.004391839
213	0x3a72d780	0.00092636794
214	0xbca14fab	-0.019691309
215	0xbbc4c9d2	-0.006005504
216	0x00000000	0.0
217	0x3cb2a93e	0.021809217
218	0x3d003413	0.03129966
219	0x00000000	0.0
220	0xbb8ec0e2	-0.0043564895
221	0x3b84222f	0.0040323953
222	0x3d8e5c40	0.06951189
223	0xbd2dfc92	-0.042477198
224	0x00000000	0.0
225	0xbba7e5a3	-0.0051238104
226	0x3c1242f5	0.008927097
227	0x00000000	0.0
228	0xbbeed84c	-0.007288968
229	0x00000000	0.0
230	0x00000000	0.0
231	0x3d260926	0.04053607
232	0x00000000	0.0
233	0x3ce1e0eb	0.02757307
234	0xbbc06812	-0.005871781
235	0xbaa04b58	-0.0012229485
236	0x3bb6769f	0.00556834
237	0x00000000	0.0
238	0xbc31e8df	-0.010858743
239	0x3c58f0d7	0.013241014
240	0xbc432d73	-0.011912691
241	0xbd17b3fe	-0.03703689
242	0xbd3592db	-0.044329505
243	0xbd06b64f	-0.032888707
244	0x3b90e72c	0.004422089
245	0xbb6f6d8d	-0.0036533803
246	0xbd73ac9d	-0.05949079
247	0x3c2e650f	0.010644211
248	0x00000000	0.0
249	0x00000000	0.0
250	0x3b8fa9ad	0.0043842406
251	0xbcd79504	-0.026316173
252	0x3c9a3a37	0.018826587
253	0xbb3a7f86	-0.0028457358
254	0xbd23ba3d	-0.039972533
255	0xbce9320a	-0.028466243

weight f4 [256, 256]
0	0x3d523b77	0.05132624
1	0x3cb538d8	0.022121832
2	0x3c657cc8	0.014006801
3	0x3ccb6b82	0.024831537
4	0x3e01b657	0.12667213
5	0x3df0a9b8	0.11751121
6	0x3d3633a6	0.04448285
7	0x3d7b585e	0.06136357
8	0x3e8c98e6	0.27460402
9	0xbd02e30b	-0.031954806
10	0xbdc8b6dd	-0.098005034
11	0xbdfaf475	-0.12253658
12	0x3e709a83	0.23496442
13	0xbe2d4578	-0.16921031
14	0xbe37054d	-0.17873116
15	0x3c6872a4	0.014187489
16	0x3cf0a36a	0.029374797
17	0xbe0e2ab0	-0.13883471
18	0xbe798412	-0.24366787
19	0x3e5d2cd3	0.2159913
20	0x3dbda34b	0.09259661
21	0x3e11aa87	0.14225207
22	0xbd518dd0	-0.051160634
23	0xbcbb2058	-0.022842571
24	0x3dedd6e2	0.11613251
25	0x3d99509b	0.074860774
26	0x3e5777d8	0.2104181
27	0xbd8e6380	-0.06952572
28	0x3e4da022	0.20080617
29	0xbd0bee66	-0.0341629
30	0x3cbc4bf4	0.022985436
31	0x3d146777	0.036231484
32	0x3d98a529	0.07453377
33	0xbdc2a879	-0.0950479
34	0x3e30af34	0.17254335
35	0xbc195db8	-0.009360723
36	0x3d4381a3	0.047731053
37	0x3e33a6f8	0.17544162
38	0xbca1a842	-0.019733552
39	0x3e0e17a9	0.13876213
40	0xbe20d51e	-0.15706298
41	0xbe316c58	-0.17326486
42	0xbe8be672	-0.27324253
43	0x3dee0f67	0.116240315
44	0xbe092692	-0.1339362
45	0x3e2092cf	0.15681003
46	0xbd9cc07d	-0.07653902
47	0x3cc28149	0.023743289
48	0xbd04fbbe	-0.032466643
49	0x3df344cb	0.118783556
50	0xbb3d8c90	-0.0028922893
51	0x3d3c7686	0.04601147
52	0x3db6beaf	0.08923089
53	0x3e0ac885	0.13553055
54	0xbe0c2632	-0.13686445
55	0x3bb8273a	0.0056199105
56	0x3c649036	0.013950398
57	0x3cfeca13	0.031102216
58	0xbe2b0553	-0.1670125
59	0xbec41f7e	-0.38305277
60	0x3cf46dfd	0.029837603
61	0x3de01c29	0.10942871
62	0xba79c6e6	-0.00095282344
63	0xbdd0cbfa	-0.101951554
64	0x3df2bdd4	0.11852613
65	0x3dfa182c	0.12211642
66	0xbebd7802	-0.3700562
67	0x3c81816e	0.015808787
68	0xbdc51140	-0.09622431
69	0xbd56644e	-0.05234175
70	0xbd9715b4	-0.073771864
71	0x3d0adfeb	0.03390495
72	0x3e902649	0.2815421
73	0xbddf8537	-0.109140806
74	0xbb32092c	-0.0027166111
75	0xbc6d21e8	-0.014473416
76	0x3ddea361	0.10871006
77	0xbcf93ed2	-0.030425463
78	0x3d86d498	0.06583518
79	0xbe1b0b5e	-0.15141055
80	0xbe5d35d2	-0.21602562
81	0xbdee3c26	-0.11632566
82	0x3d611470	0.05495113
83	0xbe5df1de	-0.21674296
84	0xbdd254a0	-0.10270047
85	0x3dd9c85c	0.10633919
86	0x3d84f15c	0.06491348
87	0xbdfa9fa4	-0.1223748
88	0xbd7db98a	-0.061944522
89	0xbd626981	-0.055276398
90	0xbbb88d18	-0.005632054
91	0xb980e480	-0.00024584308
92	0xbede7fd9	-0.43456915
93	0x3ec87206	0.39149493
94	0x3e9553d1	0.2916551
95	0x3d58d369	0.05293599
96	0xbd7905d2	-0.060796566
97	0x3d89788b	0.06712445
98	0xbe2b13cc	-0.1670677
99	0x3e15771b	0.14596216
100	0x3db4d00b	0.088287435
101	0x3ddb280c	0.10700998
102	0x3cacb063	0.021080201
103	0x3d322f24	0.043501988
104	0xbd8bb01c	-0.068206996
105	0x3d32754e	0.0435689
106	0x3dbe3538	0.092874944
107	0xbe101a47	-0.14072524
108	0xbb90f0b0	-0.0044232234
109	0xbcec0e07	-0.028815283
110	0x3d296144	0.041352525
111	0x3e09402a	0.13403383
112	0xbdee1993	-0.11625972
113	0xbb992647	-0.0046737525
114	0xbea3b2f5	-0.3197247
115	0xbd758778	-0.059943646
116	0xbc4202d3	-0.011841494
117	0xbd846a80	-0.06465626
118	0x3e7a0060	0.24414206
119	0x3dd9da20	0.10637307
120	0xbd222841	-0.03958917
121	0xbe474a9a	-0.19462052
122	0xbcdcf123	-0.026970452
123	0xbe1b783c	-0.15182585
124	0x3ddc14b9	0.1074614
125	0xbe010f30	-0.1260345
126	0x3e2daa1a	0.1695942
127	0xbd7c9a19	-0.061670396
128	0x3e47dfc5	0.19518955
129	0xbd8a665c	-0.06757805
130	0x3d6c6971	0.057717744
131	0x3e5e90ce	0.21734926
132	0xbdce0fa4	-0.10061577
133	0x3e9801a6	0.29688758
134	0x3cd693d1	0.026193531
135	0x3d0cfc78	0.03442046
136	0xbd984296	-0.07434575
137	0x3ddb0cb3	0.106957816
138	0xbe39d887	-0.18149005
139	0x3d22f93f	0.03978848
140	0xbe3fae47	-0.18718825
141	0xbc84a5ee	-0.016192403
142	0x3dbd03ac	0.09229216
143	0x3dfab18d	0.122408964
144	0xbdb92853	-0.09040894
145	0x3c66e71d	0.014093188
146	0xbd74df1a	-0.05978308
147	0xbe1c71ef	-0.15277837
148	0x3ddf65c1	0.1090808
149	0xbd1afe8f	-0.037840422
150	0xbd765fff	-0.060150143
151	0xbc35aceb	-0.01108859
152	0x3b2ce04c	0.0026378809
153	0x3e61c7b5	0.22048838
154	0x3e144e7b	0.14483063
155	0x3c5bdce6	0.0134193655
156	0x3d6d7dd1	0.057981316
157	0xbe877aee	-0.26460975
158	0xbe6836c8	-0.22677147
159	0xbe179b14	-0.14805251
160	0x3dafe9a6	0.08589487
161	0xbe569a15	-0.20957215
162	0xbcfb1fad	-0.030654753
163	0xbe82f694	-0.2557875
164	0x3e0a3ee5	0.13500555
165	0xbd55cdef	-0.052198347
166	0x3dcc82f4	0.09985915
167	0xbe5fd048	-0.21856797
168	0x3d2c16f1	0.042014066
169	0x3e151e7a	0.14562407
170	0x3db8c283	0.09021475
171	0xbe445eae	-0.19176742
172	0xbdb51d36	-0.08843462
173	0xbe1eeb55	-0.1551946
174	0xbd2b6947	-0.041848447
175	0xbcc9d2f4	-0.024636723
176	0xbdd7d9f8	-0.10539621
177	0xbd888aea	-0.06667121
178	0x3e149c7c	0.14512819
179	0x3dc90701	0.09815789
180	0x3e54a327	0.20765363
181	0xbea95a28	-0.33076596
182	0xbd2729ee	-0.04081147
183	0xbdde90a1	-0.108674295
184	0x3daf0d6f	0.08547484
185	0xbe440779	-0.19143476
186	0x3e1fb9e7	0.1559826
187	0xbdafbc8d	-0.08580885
188	0xbcf2be56	-0.029631775
189	0x3b3df42c	0.002898465
190	0x3e2b529c	0.16730732
191	0x3d210f08	0.039320976
192	0xbca8e3e8	-0.020616487
193	0xbcbe74c1	-0.023249032
194	0xbb0b29b7	-0.002123458
195	0xbd585f35	-0.05282517
196	0xbc981396	-0.018564027
197	0x3d93ef5b	0.07223388
198	0x3cd8bc58	0.026456997
199	0x3bc0813a	0.00587478
200	0x3e196f56	0.14983878
201	0xbd5ba84b	-0.053627294
202	0xbe72c98e	-0.237097
203	0x3c52de76	0.012870422
204	0xbd05a636	-0.032629214
205	0xbd8f9f5a	-0.07012816
206	0x3de06c61	0.10958172
207	0xbe803ea1	-0.25047782
208	0xbc8353e0	-0.016031206
209	0x3dc47e48	0.09594399
210	0xbd66f9b8	-0.056390494
211	0x3c8a6d08	0.016897693
212	0x3e249c70	0.16075301
213	0x3db64cea	0.08901389
214	0x3d848b98	0.06471938
215	0xbca90c58	-0.020635769
216	0x3e161984	0.14658171
217	0x3dd6fbb4	0.10497227
218	0xbd0ec45d	-0.034855235
219	0xbd68a9f6	-0.056802712
220	0xbd880a1e	-0.06642555
221	0x3e361e3c	0.17784971
222	0x3ccd365b	0.025050333
223	0xbe0e1bcc	-0.13877791
224	0xbd8481ca	-0.06470068
225	0xbe9b1989	-0.3029292
226	0x3e6efbc4	0.23338228
227	0x3dd40315	0.1035215
228	0xbd1b73ca	-0.037952222
229	0xbd5c801b	-0.05383311
230	0x3c9c5591	0.01908377
231	0x3de9808d	0.11401472
232	0xbd9094e3	-0.07059648
233	0x3e76980d	0.2408144
234	0x3c5ac827	0.013353384
235	0xbc084d1e	-0.008319167
236	0xbeaefe85	-0.34178558
237	0x3cb7fe4d	0.022460127
238	0xbd7d798e	-0.0618835
239	0xbe14924e	-0.14508936
240	0xbd496d46	-0.049176477
241	0x39acb353	0.00032940003
242	0xbd20960a	-0.03920559
243	0xbe33af34	-0.17547303
244	0xbe31b0a5	-0.17352541
245	0x3e62c9db	0.22147314
246	0x3d33c4e1	0.04388893
247	0x3da2da07	0.07951742
248	0xbd32c6e2	-0.0436467
249	0x3cdaddc2	0.02671707
250	0xbde84dda	-0.11342974
251	0x3b91b013	0.0044460385
252	0x3e88d499	0.267247
253	0x3d8642c9	0.06555707
254	0x3dd2f4a8	0.10300571
255	0xbc1a8e6e	-0.009433372

bias f4 [256]
0	0x3d0a8e93	0.033827376
1	0xbd02bd81	-0.031919006
2	0xbc366af3	-0.011133897
3	0x3a0ece6d	0.000544763
4	0xbc50b6b3	-0.012738871
5	0xbc744434	-0.014908839
6	0x3cd8e354	0.026475586
7	0xbbe21d90	-0.006900497
8	0x3b81aa7f	0.0039570923
9	0xbcede5c9	-0.029040234
10	0xbc35ad20	-0.0110886395
11	0x3d16d481	0.036823753
12	0x3b02fb20	0.0019986108
13	0xbba59656	-0.005053322
14	0xb901767f	-0.00012346542
15	0x3c2f8743	0.010713401
16	0x3c9773bb	0.018487802
17	0xbc0370fe	-0.008022545
18	0xbcddb35b	-0.027063062
19	0x3cbd98e8	0.0231442
20	0xbc04993a	-0.008093173
21	0xbc47467c	-0.012162801
22	0xbc7e081d	-0.015504864
23	0xbd67dca3	-0.0566069
24	0xbd0ce54d	-0.034398366
25	0xbb02d308	-0.001996221
26	0xbbca02ee	-0.0061649
27	0xbc57d37e	-0.013172982
28	0x3c4615ee	0.012090189
29	0x3c1971a1	0.00936547
30	0xbd01c070	-0.031677663
31	0x3d1f2d26	0.038861416
32	0xbca927d8	-0.020648882
33	0xbc062e50	-0.008189753
34	0xbca803a4	-0.020509548
35	0xbcc46741	-0.023975017
36	0x3c2a4f31	0.010394857
37	0xbd031606	-0.032003425
38	0xbc0788bb	-0.008272345
39	0xbc31660e	-0.010827554
40	0x3c6ce586	0.0144590195
41	0x3c0a27cc	0.00843234
42	0xbc80a329	-0.0157028
43	0xbc805bc7	-0.015668763
44	0xbc9f9979	-0.019482361
45	0xbba8230b	-0.0051311306
46	0xbbc47747	-0.0059956643
47	0xbd30bfa4	-0.043151513
48	0x3c124089	0.008926519
49	0xbb690ea2	-0.00355617
50	0x3bab2cee	0.005223862
51	0xbc4f2845	-0.012643878
52	0xbab7f5da	-0.0014035061
53	0xbc4d9b1a	-0.012549186
54	0xbc3aee0a	-0.011409292
55	0x3c649057	0.013950429
56	0xbc16edff	-0.009212016
57	0xbbf49e0e	-0.0074651306
58	0xbc3f3c51	-0.011672095
59	0x3cc20a98	0.023686692
60	0x3b9eed32	0.004850053
61	0x3c4a4527	0.012345589
62	0xbcf19a1b	-0.029492429
63	0x3c0ef1a1	0.008724601
64	0xbcaf2ec6	-0.021384608
65	0x3bb46006	0.005504611
66	0xbc7918d3	-0.015203672
67	0xbb8a7f50	-0.0042266026
68	0xbd020e47	-0.031751897
69	0xbbc4c9d1	-0.0060055037
70	0xbc5b775f	-0.0133951595
71	0xbc6faf04	-0.014629129
72	0xbc737890	-0.014860287
73	0x3c7b951d	0.015355376
74	0xbc4f81ac	-0.0126651935
75	0xbcae12ad	-0.02124914
76	0xbb7cedd4	-0.0038593905
77	0x3d8e94e0	0.069619894
78	0xbc5f15eb	-0.0136160655
79	0xbc95ce7f	-0.018286942
80	0xbc169189	-0.009189972
81	0x3d1db0ba	0.038498618
82	0x3c152be0	0.009104699
83	0xbc292eab	-0.010326068
84	0xbbdf98e3	-0.0068236454
85	0x3acba57c	0.0015536989
86	0xbcb1222b	-0.021622738
87	0x3bf05fa5	0.0073356205
88	0x3c67abd0	0.014140084
89	0x3cfe628c	0.03105285
90	0xbc250929	-0.010072985
91	0xbd29a074	-0.041412786
92	0xbc4b3f93	-0.012405294
93	0xbc591a6c	-0.013250928
94	0xbc639932	-0.013891505
95	0xbc372536	-0.011178305
96	0xbc4fa919	-0.012674593
97	0xbd08f07e	-0.033432476
98	0x3c3ce7c0	0.011529863
99	0xbc08d9f8	-0.008352749
100	0xbbc4c9d8	-0.006005507
101	0x3b4ff135	0.0031729464
102	0x3cc0fa22	0.023556773
103	0xbc40a6d3	-0.011758524
104	0xbc63c0ba	-0.01390093
105	0xbc6189e1	-0.013765783
106	0xbcbe9ad7	-0.023267193
107	0xbcf6601b	-0.030075124
108	0x3b5a025b	0.0033265564
109	0xbb3effc7	-0.0029144154
110	0xbc7e6e9b	-0.0155293
111	0xbd020e05	-0.03175165
112	0xbc74997f	-0.014929174
113	0xbd0201f1	-0.031740133
114	0xbc4525c8	-0.0120329335
115	0xbc2f4d7e	-0.010699628
116	0xbc3ad825	-0.011404072
117	0x3c013ff9	0.007888787
118	0x3d329ebb	0.04360841
119	0xbb1ddcfa	-0.002408801
120	0xbc8b44e3	-0.017000621
121	0xbba1f252	-0.004942217
122	0xbbce55f7	-0.006296869
123	0xbcd41d52	-0.025892887
124	0xbc8aa95d	-0.016926462
125	0xbbaf9b00	-0.0053590536
126	0xbb706cdc	-0.003668598
127	0x3aeacfca	0.0017914709
128	0xbd18b6b3	-0.03728361
129	0xbc9ca12c	-0.019119821
130	0x3c6138e2	0.013746472
131	0xbd24da3c	-0.040247187
132	0x3c96fcac	0.01843103
133	0x00000000	0.0
134	0x3d182d16	0.037152372
135	0x3a5966c0	0.0008293204
136	0x00000000	0.0
137	0xbd3216bd	-0.043478716
138	0xba0145b2	-0.0004931345
139	0x3d02fd9b	0.03198014
140	0xbbe1fd49	-0.006896649
141	0x3cc19163	0.023628896
142	0xbc5ed7a0	-0.013601214
143	0x3cea5ebb	0.028609624
144	0x3b3ea687	0.0029090957
145	0xbbc4b0ea	-0.006002535
146	0x3cde2ce4	0.027121015
147	0xbc53500a	-0.012897501
148	0x3b2469f3	0.0025087565
149	0xbc5f3c17	-0.013625166
150	0x3c125182	0.008930566
151	0xbc6a5a70	-0.014303789
152	0x3b8b5620	0.0042522103
153	0x3bb90300	0.0056461096
154	0x3996e46a	0.0002878041
155	0x38bd6e08	9.032717e-05
156	0xbc0babc8	-0.008524843
157	0xbc6a2399	-0.014290714
158	0x3bc8446b	0.0061116717
159	0x3d3a42c4	0.04547383
160	0xbb4f76d7	-0.0031656527
161	0x3cb64346	0.022248875
162	0x3c850d9c	0.016241841
163	0xbc71e9f0	-0.014765248
164	0xbd01f2ff	-0.03172588
165	0xbc543e5d	-0.012954322
166	0x3c347210	0.011013523
167	0xbbc6893b	-0.0060588396
168	0xbbaf2c84	-0.005345883
169	0xbca3f024	-0.020011969
170	0x3add30b8	0.0016875481
171	0xbc368bed	-0.011141759
172	0x3c1c2075	0.009529223
173	0x3c4373a9	0.011929431
174	0xbd0cf842	-0.034416445
175	0xbcf15179	-0.029457795
176	0x3c2f210a	0.0106890295
177	0xbc9a0442	-0.018800858
178	0xbbf7dfa0	-0.0075645
179	0x3b3bfde7	0.0028685273
180	0xbc357349	-0.011074849
181	0x3b6026b0	0.0034202747
182	0xbbc7e077	-0.0060997563
183	0x3b031924	0.0020003999
184	0x3c09ece9	0.0084183
185	0xbb403098	-0.002932584
186	0x3bbd479d	0.0057763592
187	0x3bcb01f8	0.006195303
188	0xbc44547d	-0.011983034
189	0xbc93d36d	-0.018045152
190	0x3c3cd287	0.011524803
191	0xbc46c062	-0.012130829
192	0xbc635253	-0.013874608
193	0xbcaf6d9c	-0.02141457
194	0xbc8cbb82	-0.017179254
195	0xbc551f08	-0.013007887
196	0x3b50eb29	0.0031878448
197	0xbc64cfe6	-0.0139655825
198	0xbd0212ef	-0.031756338
199	0xbc1154da	-0.008870328
200	0x3cb3e6fa	0.021960724
201	0xbc5a4995	-0.013323207
202	0x3b13c619	0.0022548495
203	0x00000000	0.0
204	0xbd610b26	-0.054942273
205	0xbca8fe3a	-0.020629037
206	0xbc13a6f7	-0.0090119755
207	0xbc2dcd20	-0.010607988
208	0x3d0c3a0e	0.034235053
209	0xbbc4c9d8	-0.006005507
210	0xbc4fff48	-0.012695141
211	0x3d0c56df	0.034262534
212	0x3bdcd1fa	0.0067388983
213	0xbc8a7315	-0.016900579
214	0xbc2cd62d	-0.01054911
215	0xbc164a7b	-0.009173031
216	0x3c87dace	0.016583826
217	0xbc655088	-0.013996251
218	0x3cf0e07f	0.029403923
219	0xbc7da236	-0.015480569
220	0xbd0c4b33	-0.034251403
221	0xbd018533	-0.03162117
222	0x3c2d0f62	0.01056275
223	0x00000000	0.0
224	0x3ca5c4a3	0.020235365
225	0x3cab9f55	0.020949999
226	0xbd20d034	-0.039261058
227	0x00000000	0.0
228	0xbcd4a35f	-0.025956808
229	0xbcc5a967	-0.024128629
230	0xbd4e0668	-0.05029908
231	0xbc110323	-0.0088508455
232	0xbc9ab557	-0.018885298
233	0xbcf73c32	-0.03018007
234	0xbca68cb0	-0.020330757
235	0x3d1e377f	0.038627144
236	0xbb6c7a61	-0.0036083686
237	0x3d11c2ef	0.035586294
238	0xbc0f251c	-0.008736875
239	0x3cc8f86d	0.024532521
240	0xbc312826	-0.010812795
241	0xbc17a075	-0.0092545645
242	0x3b8d87c8	0.004319165
243	0xbd2aae5d	-0.041670192
244	0x3d0d6b31	0.034526054
245	0x3bea3266	0.0071471212
246	0xbd2d7f34	-0.04235764
247	0xbc5c245e	-0.013436405
248	0xbaf3b2bb	-0.0018592695
249	0x3c978ca5	0.018499682
250	0x3b9423bf	0.004520863
251	0x3b8f2927	0.0043689194
252	0xbc7d2690	-0.015451089
253	0x3c141c18	0.009039901
254	0x3c895f9c	0.016769223
255	0xbd0122c7	-0.031527307

weight f4 [2, 256]
0	0xbd40be4d	-0.047056485
1	0xbe07a065	-0.1324478
2	0xbdabd6ed	-0.08390603
3	0x3d4ebd92	0.050473757
4	0xbd796f54	-0.060897186
5	0xbd6cbd1f	-0.057797547
6	0x3f3e7bd1	0.7440768
7	0xbe0c2716	-0.13686785
8	0x3b217c88	0.0024640877
9	0x3c499cb2	0.0123054255
10	0xbd4621ef	-0.048372205
11	0x3f512557	0.816976
12	0xbcdbd087	-0.026832832
13	0x3ed9c662	0.42534167
14	0x3f4c07a0	0.79699135
15	0x3be70de1	0.007051215
16	0x3ecb6a50	0.39729548
17	0xbcfafc79	-0.030637966
18	0xbca2a5a0	-0.019854367
19	0xbc4c1695	-0.012456556
20	0xbdc6f63b	-0.097149335
21	0x3d1136f4	0.035452798
22	0xbda7df46	-0.08196883
23	0xbcaa6f0a	-0.0208049
24	0xbd10017f	-0.035157677
25	0xbcd57cdd	-0.026060516
26	0x3d162aa3	0.036661755
27	0xbc251439	-0.010075622
28	0x3da34e8e	0.079739675
29	0x3d8f8daa	0.07009442
30	0xbe250c71	-0.16118027
31	0x3e98667d	0.29765692
32	0x3a88ac98	0.0010427414
33	0xbdbfc16e	-0.09363066
34	0xbdfdb10f	-0.12387287
35	0x3e95f940	0.29291725
36	0xbc219b16	-0.0098636355
37	0xbd4c61e4	-0.049898043
38	0xbd6782fc	-0.0565214
39	0xbbb62748	-0.005558882
40	0xbe037cba	-0.12840548
41	0x3fb5f2cd	1.4214722
42	0xbd432da7	-0.04765096
43	0xbd2ba391	-0.041904036
44	0xbf819f26	-1.0126693
45	0x3b571360	0.0032817945
46	0x3aca21fc	0.0015421505
47	0x3b86c760	0.004113123
48	0xbbd2548b	-0.0064187697
49	0x3c9474f6	0.018122178
50	0x3f225699	0.6341339
51	0xbaed76d4	-0.0018117079
52	0x3aef78d7	0.0018270266
53	0xbd277f64	-0.040892974
54	0xbd50e6f3	-0.0510015
55	0x3f3637c4	0.7117884
56	0xbdc80ff8	-0.09768671
57	0x3eef9b92	0.46798378
58	0x3d89137e	0.06693171
59	0x3ed6096b	0.4180406
60	0x3bfc5461	0.0077004884
61	0x3fdc5a81	1.721512
62	0xbc94f64d	-0.018183852
63	0x3f471b97	0.77776474
64	0x3c566e52	0.013087826
65	0xbdb403d9	-0.087897964
66	0xbd336cd0	-0.043804944
67	0xbdd7bbcb	-0.105338655
68	0xbd428f7f	-0.04750013
69	0x3db0a4c7	0.08625179
70	0x3eabbc11	0.3354192
71	0xbb622640	-0.0034507662
72	0xbdc9afb3	-0.09847965
73	0x3dfcb014	0.12338272
74	0x3bbcfdff	0.0057675834
75	0x3c903aec	0.017606221
76	0x3b95f61a	0.0045764567
77	0xbe8048ad	-0.25055447
78	0xbb6a3545	-0.0035737318
79	0xb8f1b866	-0.000115261224
80	0xbcca7837	-0.024715526
81	0xbda72c3a	-0.081627324
82	0x3f0c5d8b	0.54830235
83	0x3cab7ec2	0.020934466
84	0xbb8a16a7	-0.004214126
85	0x3f524b5a	0.8214623
86	0xbcb14432	-0.021638963
87	0x3f0a5b13	0.5404522
88	0xbbc6adf1	-0.006063216
89	0x3f2b8acd	0.6700867
90	0xbc49d71c	-0.0123193525
91	0xbd4b14b6	-0.0495803
92	0x3b95445e	0.004555269
93	0xbc274952	-0.010210352
94	0xbbd7f5b8	-0.0065905713
95	0xbd33f400	-0.04393387
96	0xbd502191	-0.05081326
97	0xbdb34f76	-0.0875539
98	0x3f7c2a38	0.9850192
99	0xbd22aadc	-0.039713725
100	0x3da5f1d2	0.08102764
101	0x3cd9cf80	0.026588202
102	0x3ad77800	0.0016438961
103	0xbdb4702f	-0.0881046
104	0xbcadc209	-0.021210687
105	0x3a0386fe	0.0005017369
106	0xbc6bb9b5	-0.014387538
107	0x3dadd5e3	0.08488061
108	0x3e85453f	0.26029393
109	0x3c439240	0.011936724
110	0x3d26a47d	0.040684212
111	0x3c604c11	0.013690011
112	0xbd966b84	-0.07344726
113	0xbd345bd7	-0.044032898
114	0x3b8ccdec	0.0042970087
115	0xbd59c8e7	-0.05317011
116	0xbc79d457	-0.01524838
117	0x3d6a7c2a	0.05724732
118	0x3f8358d0	1.0261478
119	0xbcc4e441	-0.024034621
120	0x3ce5f09b	0.028068831
121	0xbdfab036	-0.12240641
122	0xbb468f95	-0.0030297984
123	0x3d3a7d8c	0.045529887
124	0x3d1e8cd8	0.038708538
125	0x3c361e2b	0.011115591
126	0x3c0be37f	0.008538126
127	0x3f13f4ba	0.577953
128	0x3c24dd6a	0.010062555
129	0xba22f909	-0.00062169187
130	0x3da11b31	0.078665145
131	0xbdd425bd	-0.103587605
132	0x3e98140a	0.2970279
133	0x3cae1ede	0.021254953
134	0x3ebbf0cc	0.3670715
135	0x3dbb6648	0.09150368
136	0x3db3da20	0.087818384
137	0xbdce59d7	-0.10075729
138	0xbca59b6e	-0.020215716
139	0x3f8fdcb5	1.123923
140	0x3b23f33e	0.002501681
141	0x3f82b578	1.021163
142	0x3c8a2ae1	0.01686615
143	0xbd51ee83	-0.051252853
144	0x3f1ff3c8	0.62481356
145	0xbd99e552	-0.075144425
146	0x3fa0d45f	1.256481
147	0x3e804cda	0.25058633
148	0xb9e3b27a	-0.0004342979
149	0xbd91a8b0	-0.07112253
150	0x3f4bc8bc	0.7960317
151	0xbdd7c2a0	-0.10535169
152	0x3d24eb2d	0.040263344
153	0x3f81e137	1.0146855
154	0x3ee116e7	0.43962786
155	0xbc9fdf7b	-0.019515743
156	0xbbbf27a0	-0.005833581
157	0xbc52cf95	-0.012866874
158	0x3efba22d	0.49147168
159	0x3f9ecedc	1.2406878
160	0xbac47c23	-0.0014990609
161	0x3e779436	0.24177632
162	0xbd78a17a	-0.06070087
163	0xbc6a78a2	-0.014310988
164	0x3d4bef47	0.04978874
165	0x3d0018da	0.0312737
166	0x3f66c86e	0.9014958
167	0xbd47b437	-0.04875585
168	0xbbf12d96	-0.0073601706
169	0xbcd975bc	-0.026545398
170	0xbd964093	-0.07336535
171	0xbda39112	-0.07986654
172	0x3b37c2b5	0.0028039638
173	0x3e94a694	0.2903334
174	0x3ca84fc3	0.020545846
175	0xbcf14e1b	-0.029456189
176	0x3fa7d484	1.311173
177	0xbd01ff0e	-0.03173738
178	0xbca726b3	-0.020404195
179	0xbca27b1f	-0.0198341
180	0xbdabe80a	-0.08393867
181	0x3ece689c	0.40314186
182	0xbdc82d69	-0.09774286
183	0x3f28827b	0.658241
184	0x3e949148	0.2901709
185	0xbda9b180	-0.082858086
186	0x3efc8232	0.4931808
187	0x3face076	1.3506
188	0xbcdd48e2	-0.027012292
189	0xbde3e0ac	-0.11126837
190	0x3e853e69	0.26024178
191	0xbc7b2e6e	-0.015330894
192	0xbd3ed43b	-0.046589117
193	0x3e579db0	0.21056247
194	0x3b056a24	0.0020357454
195	0x3e16471a	0.1467556
196	0xbe096536	-0.13417515
197	0xbcebc1ac	-0.028778873
198	0xbdb184fa	-0.086679414
199	0xbd6d7f74	-0.057982877
200	0xbd69dd73	-0.057095956
201	0xbd24a840	-0.04019952
202	0x3f4d5fdb	0.8022439
203	0x3c4ca66e	0.012490852
204	0xbd84a8b7	-0.06477492
205	0xbcb3d469	-0.021951871
206	0x3a95026c	0.001136852
207	0xbd68d357	-0.056842174
208	0xbd9da07b	-0.07696625
209	0xbc9613ff	-0.018320082
210	0xbd41944c	-0.047260568
211	0x3f48506c	0.78247714
212	0xbd447fd4	-0.04797347
213	0xbc7132a2	-0.014721544
214	0x3d858194	0.06518856
215	0x3c87dfc2	0.016586188
216	0x3ebbcd7b	0.36680207
217	0xbcbdda2f	-0.023175327
218	0xbda02e4a	-0.07821329
219	0xbd5a0fd6	-0.05323776
220	0x3cbce28f	0.02305725
221	0xbc2d70bb	-0.010585959
222	0x3d7f1956	0.06228002
223	0x3ce2d6fb	0.027690401
224	0xbd2f97b5	-0.04286929
225	0x3bf70f48	0.0075396635
226	0xb842cda1	-4.644471e-05
227	0x3d0f04c3	0.03491665
228	0xbd18e551	-0.03732807
229	0xbd59419e	-0.053041093
230	0xbdb0c189	-0.08630664
231	0x3ac04f7f	0.0014672129
232	0x3d49e7b7	0.049293246
233	0xbd585a45	-0.052820463
234	0x3da40421	0.080086
235	0xbddc11ad	-0.10745559
236	0x3f3aa48f	0.72907346
237	0x3f82355a	1.0172532
238	0xbc2a7434	-0.010403682
239	0x3f8fe81f	1.1242713
240	0xbd3d5452	-0.046222992
241	0xbc926625	-0.017870972
242	0xbbdfd3f1	-0.0068306853
243	0x3d4695c2	0.048482664
244	0x3ee140a3	0.43994626
245	0x3d43df73	0.04782052
246	0xbc9f4595	-0.019442359
247	0xbd019981	-0.031640533
248	0x3e1633c4	0.14668185
249	0xbd41c10b	-0.04730324
250	0x3d4068b7	0.046974864
251	0x3d76e1a3	0.060273778
252	0x3c6d5498	0.014485501
253	0x3d1f6da8	0.038922936
254	0x3efd1e58	0.49437213
255	0x3b016354	0.0019743042

bias f4 [2]
0	0x3cebbb77	0.028775914
1	0x3d1d01a5	0.038331646
