exp_local/gcbc_multimodal/weights/18000.pt (torch, 274440 bytes, 6 tensors)

weight f4 [256, 4]
-0.17267126 -0.16050437 0.15641853 0.16434291 -0.1086287 0.13862608 -0.22084878 0.10892816
-0.1389328 0.044174194 0.20927821 -0.05407068 -0.048678566 0.053988416 -0.102293774 -0.0043477356
0.01846781 -0.07334466 -0.08827257 -0.0057970122 -0.105537914 -0.026565848 -0.01944681 -0.0534494
-0.06409263 0.066499 0.08557465 -0.041892376 -0.024971234 0.038379006 0.06959994 -0.077367954
-0.08273046 -0.18927431 0.07559954 0.19232264 0.15892918 0.044356734 -0.1868439 -0.035594363
-0.11539894 0.08782606 0.12325081 -0.1221611 0.20718122 -0.04542948 -0.11123699 -0.027169943
0.23673712 -0.15693587 -0.19353808 0.105859846 -0.07393434 0.20802663 0.085391074 -0.18987669
-0.034312297 0.14804831 0.09646976 -0.18951248 -0.107487164 0.077781536 -0.0008413881 -0.08127878
-0.03552644 -0.03480406 0.08235639 -0.021417785 0.012241455 0.17519557 -0.01636119 -0.15437666
-0.076721616 0.19266485 0.07179246 -0.18178503 -0.030142043 -0.2030209 0.039696258 0.19574642
-0.044656437 0.053258333 -0.08647456 0.0018387468 0.16620786 -0.08529076 -0.16544966 0.017455285
0.17626332 0.0060137208 -0.20333813 0.004153447 0.11322195 0.086713865 -0.13028151 -0.053857036
0.037864905 -0.19363444 -0.06105712 0.25681463 -0.09048617 0.101039246 0.08569161 -0.11468764
-0.040388018 -0.15785435 -0.010904889 0.19164969 0.23658615 0.02133103 -0.18888861 -0.019744711
0.1440069 -0.19600047 -0.107962936 0.15876657 -0.101112835 0.09300636 0.07277247 -0.11455696
-0.075214565 -0.13031426 0.0039912043 -0.034021966 0.027761348 -0.00701943 -0.033106476 -0.020510878
0.09694788 -0.03210843 -0.10416255 0.011449019 -0.16024666 0.10164829 0.131911 -0.08643175
0.07288638 -0.14099611 -0.10038668 0.1393074 -0.09385868 -0.05315998 -0.009505701 -0.019562459
-0.10172239 -0.040816557 0.12364466 -0.008446822 0.17422837 -0.12162074 -0.17801887 0.13092394
0.03191819 0.035469092 0.072634764 -0.14176396 0.16243668 -0.094892256 -0.15656503 0.09439909
-0.037926964 0.2077825 0.021681976 -0.17482778 0.033333134 -0.073265225 0.06955921 -0.11235954
0.07205147 0.25324136 -0.09789239 -0.12474085 -0.14102715 -0.10965061 0.00045507203 0.0705824
-0.11845228 0.070564084 0.16889545 -0.13460115 0.12912068 -0.099252656 -0.17278105 0.07203702
0.0027962984 -0.06378743 -0.07808231 -0.05105635 0.111027606 0.03268324 -0.083443575 -0.055865437
-0.08699799 -0.007446408 -0.07351607 -0.053810254 0.047888435 -0.1547642 -0.05784116 0.15269694
0.090320475 -0.13288486 -0.08092237 -0.06517913 -0.05376882 -0.03936804 -0.060198817 -0.07584263
0.29268426 -0.039738137 -0.1330446 0.0059680548 0.04631244 -0.1635924 -0.069403075 0.11614949
0.006266085 0.0925706 -0.056361448 -0.084731035 0.04121957 0.00050872937 -0.096330255 0.027033249
0.058136974 0.023884494 -0.10238471 -0.06613132 0.05791145 -0.09923011 -0.08781124 0.067919865
-0.18133439 0.07302454 0.18186742 -0.065851316 -0.09848167 0.17212857 0.105541475 -0.17221029
-0.23774849 0.053108737 0.020490257 -0.0261528 0.16502756 -0.1279871 -0.14424786 0.10953043
-0.00418389 -0.07922983 0.06276408 -0.049063385 -0.03137521 -0.09421867 0.18105695 -0.064219825
00000000: bcd0 30be 425b 24be 2e2c 203e 8249 283e
00000010: b978 debd fff3 0d3e 2f26 62be ba15 df3d
00000020: 6644 0ebe 00f0 343d 074d 563e 3879 5dbd
00000030: 2d63 47bd f522 5d3d 667f d1bd 7377 8ebb
00000040: ce49 973c ba35 96bd 40c8 b4bd ddf4 bdbb
00000050: 4324 d8bd 9fa0 d9bc eb4e 9fbc c2ed 5abd
00000060: ff42 83bd a130 883d c341 af3d 5797 2bbd
00000070: 7990 ccbc 4e33 1d3d 6a8a 8e3d 1773 9ebd
00000080: 966e a9bd 20d1 41be eed3 9a3d 3af0 443e
00000090: 55be 223e 68af 353d 0254 3fbe 65cb 11bd
000000a0: 4856 ecbd 26de b33d ec6a fc3d 992f fabd
000000b0: 5027 543e 4314 3abd 38d0 e3bd 8093 debc
000000c0: 376b 723e ccb3 20be d92e 46be 0ccd d83d
000000d0: e36a 97bd ef04 553e 84e1 ae3d 096f 42be
000000e0: 0d8b 0cbd fa99 173e f091 c53d 8f0f 42be
000000f0: 3b22 dcbd ed4b 9f3d 9990 5cba 7d75 a6bd
00000100: 2c84 11bd b48e 0ebd 78aa a83d 5a74 afbc
00000110: 6290 483c 7866 333e e707 86bc ea14 1ebe
00000120: 3920 9dbd ef49 453e ed07 933d db25 3abe
00000130: 72ec f6bc b6e4 4fbe 8b98 223d c071 483e
00000140: abe9 36bd 6925 5a3d 9319 b1bd 1b02 f13a
00000150: 6532 2a3e ecac aebd a36b 29be 63fe 8e3c
00000160: 5f7e 343e bf0e c53b df37 50be a419 883b
00000170: e9e0 e73d 0a97 b13d 8468 05be 3299 5cbd
00000180: 3b18 1b3d 1b48 46be 0817 7abd 357d 833e
00000190: d050 b9bd aaed ce3d 157f af3d 5ae1 eabd
000001a0: e86d 25bd 92a4 21be 6baa 32bc d13f 443e
000001b0: a443 723e 6abe ae3c 046c 41be a9bf a1bc
000001c0: 8b76 133e 59b4 48be ac1b ddbd b493 223e
000001d0: 3f14 cfbd 1e7a be3d bc09 953d d79c eabd
000001e0: 180a 9abd 1a71 05be a6c8 823b 9e5a 0bbd
000001f0: c46b e33c 3f03 e6bb a89a 07bd 6e06 a8bc
00000200: 9c8c c63d 2184 03bd 2d53 d5bd ab94 3b3c
00000210: b317 24be fb2c d03d ad13 073e 2103 b1bd
00000220: 7445 953d 4961 10be 8897 cdbd 99a6 0e3e
00000230: fb38 c0bd 47be 59bd cdbd 1bbc 7341 a0bc
00000240: d453 d0bd 432f 27bd 6939 fd3d 8a64 0abc
00000250: ec68 323e 4b14 f9bd 944a 36be ed10 063e
00000260: a6bc 023d 0a48 113d 89c1 943d 922a 11be
00000270: cd55 263e df56 c2bd 9552 20be 4f54 c13d
00000280: 4e59 1bbd f0c4 543e 669e b13c 0e06 33be
00000290: 5388 083d 140c 96bd 0f75 8e3d c21c e6bd
000002a0: b98f 933d daa8 813e ce7b c8bd 2178 ffbd
000002b0: 6c69 10be 8090 e0bd bc96 ee39 818d 903d
000002c0: 1c97 f2bd e783 903d eef2 2c3e e2d4 09be
000002d0: 3638 043e fa44 cbbd 84ed 30be 2588 933d
000002e0: 1a42 373b fca2 82bd 9ee9 9fbd 7720 51bd
000002f0: 7162 e33d dcde 053d 77e4 aabd 28d3 64bd
00000300: 012c b2bd ff00 f4bb 988f 96bd 2468 5cbd
00000310: aa26 443d 827a 1ebe daea 6cbd 965c 1c3e
00000320: f1f9 b83d f812 08be a1ba a5bd a37c 85bd
00000330: b23c 5cbd 6240 21bd 0993 76bd 6153 9bbd
00000340: b6da 953e 75c4 22bd d83c 08be ac8f c33b
00000350: 1db2 3d3d c484 27be 3323 8ebd c9df ed3d
00000360: bb53 cd3b a895 bd3d 43db 66bd 7787 adbd
00000370: dad5 283d 405c 053a cc48 c5bd d574 dd3c
00000380: 0921 6e3d 6aa9 c33c 13af d1bd dc6f 87bd
00000390: 8e34 6d3d 2839 cbbd 61d6 b3bd 9219 8b3d
000003a0: b9af 39be e48d 953d 743b 3a3e 0edd 86bd
000003b0: c2b0 c9bd 7942 303e 2126 d83d e557 30be
000003c0: 5774 73be 8c88 593d 2fdb a73c 663e d6bc
000003d0: fcfc 283e 0d0f 03be b6b5 13be 7d51 e03d
000003e0: 0319 89bb 4043 a2bd 748a 803d b0f6 48bd
000003f0: 4b83 00bd b8f5 c0bd fe66 393e af85 83bd

bias f4 [256]
0.014487378 -0.04369461 -0.017252814 -0.04129668 0.0 0.0 -0.056269474 -0.04048173
0.006869662 0.016890248 0.025224272 0.0050919456 0.030094901 -0.004385249 0.022095 0.0029794876
-0.044865075 -0.004101028 0.005316198 0.0027317908 -0.035530053 -0.004216095 0.028917784 -0.03131563
0.0011194448 0.011280869 0.014100716 -0.017003529 0.022001797 0.008130146 0.0 0.0
0.0015545674 0.012058615 0.023875559 0.0 -0.030671382 0.0059612226 -0.07183461 0.007003453
-0.0037289206 -0.050468322 -0.039659124 -0.0065551377 0.033876214 0.031978082 0.0 -0.024782274
0.0 0.012511866 0.0 0.0 -0.051266354 -0.0278616 -0.012097055 -0.013337606
0.0 -0.0015170241 -0.0012224221 0.0041553117 0.041185092 0.008701724 -0.02817528 -0.016107956
0.0019711915 -0.029821496 0.005486316 -0.022431761 -0.048669994 -0.014813114 -0.012401592 -0.001631137
-0.0018132154 0.008115651 0.0 -0.04293441 -0.025527712 -0.0020390572 -0.03249155 0.034454625
0.021108337 0.020347113 0.0007940038 0.042434532 0.0 0.0113434205 -0.05842431 0.020565512
-0.01621556 -0.01861806 -0.016673828 0.0 0.011941393 0.10128578 0.018328857 0.0
-0.05529947 -0.080404565 0.024765817 -0.016598444 -0.005324618 0.008509696 -0.0054470487 0.0
0.0 0.0065653273 0.0007524176 0.0010099532 0.0 0.0 -0.0069806785 0.0045055496
-0.02657275 -0.058749616 -0.04454746 -0.009058734 0.01432109 0.0 0.0068015745 0.023474967
-0.0010030109 -0.009748493 0.003925835 0.0059689493 -0.0072404165 -0.01773899 -0.013737981 0.0
0.0084554795 -0.013082864 0.0 -0.006456979 0.002532295 0.03595247 -0.031550065 0.020448819
0.0 0.00774308 0.0058503393 -0.009530689 -0.036250908 -0.01933325 -0.039317224 0.0017958477
0.0178545 -0.0029811102 0.0 0.01714923 0.0 0.016857542 0.011913689 0.0
-5.420427e-05 0.008220409 -0.03260456 -0.041480564 -0.019524796 0.07294458 -0.0048472486 -0.021497078
-0.011086843 -0.026830222 0.0 0.0018314269 -0.025488101 -0.018358832 0.0 0.022711508
0.0 0.03426355 0.083182335 0.0073172348 0.0 0.025044682 -0.053830743 -0.0410336
0.014695348 0.009882625 -0.05053855 0.0036845116 0.017013036 0.04507632 0.04069344 -0.033007815
-0.027392829 -0.03999682 -0.0009305571 -0.028573692 0.0 0.0 0.017512616 -0.04886401
0.0061242287 -0.013695857 -0.021694027 -0.052233722 0.010239816 -0.004259799 -0.0015383041 0.0
0.002315056 0.0039042598 -0.0071101678 0.019064656 0.0 -0.012583789 0.006402117 0.02516865
-0.009567078 0.023754623 -0.045382213 0.0 -0.005939059 6.7092595e-05 -0.02212514 -0.006005504
0.0 0.02029831 0.026972275 0.0 -0.0016451367 0.0031396751 0.0710069 -0.042477198
0.0 -0.0028692703 0.008761218 0.0 -0.028627587 0.0 0.0 0.039329283
0.0 0.02492321 -0.038274385 0.0019041258 0.0027672017 0.0 -0.035734538 0.011686651
-0.045474704 -0.03703689 -0.044329505 -0.048456505 0.006997026 -0.009638165 -0.06307823 0.012779157
0.0 0.0 0.0027648315 -0.036480688 0.014785875 -0.0028457358 -0.039972533 -0.037201405
00000000: 785c 6d3c 1ff9 32bd c655 8dbc b526 29bd
00000010: 0000 0000 0000 0000 d27a 66bd 2cd0 25bd
00000020: e71a e13b 6b5d 8a3c 22a3 ce3c 56da a63b
00000030: 9589 f63c 23b2 8fbb 9300 b53c 8243 433b
00000040: 71c4 37bd eb61 86bb 8033 ae3b d807 333b
00000050: f687 11bd 2b27 8abb fde4 ec3c d144 00bd
00000060: 56ba 923a 65d3 383c b106 673c fc4a 8bbc
00000070: 1d3d b43c 4e34 053c 0000 0000 0000 0000
00000080: a0c2 cb3a 7f91 453c ad96 c33c 0000 0000
00000090: 8d42 fbbc 5c56 c33b 061e 93bd 397d e53b
000000a0: e860 74bb dfb7 4ebd 9b71 22bd 7bcc d6bb
000000b0: c9c1 0a3d 73fb 023d 0000 0000 3204 cbbc
000000c0: 0000 0000 92fe 4c3c 0000 0000 0000 0000
000000d0: abfc 51bd 033e e4bc ba32 46bc f985 5abc
000000e0: 0000 0000 e2d6 c6ba ae39 a0ba 4829 883b
000000f0: b3b1 283d ad91 0e3c d8cf e6bc d5f4 83bc
00000100: 1b2f 013b 364c f4bc 8ec6 b33b d0c2 b7bc
00000110: 305a 47bd b4b2 72bc 0c30 4bbc e0cb d5ba
00000120: 6aa9 edba 82f7 043c 0000 0000 fedb 2fbd
00000130: 7e1f d1bc b4a1 05bb dc15 05bd 4b20 0d3d
00000140: 64eb ac3c fdae a63c b124 503a d5cf 2d3d
00000150: 0000 0000 c1d9 393c 544e 6fbd 0179 a83c
00000160: 7ed6 84bc e784 98bc 8d97 88bc 0000 0000
00000170: d5a5 433c eb6e cf3d 6626 963c 0000 0000
00000180: b281 62bd 26ab a4bd afe1 ca3c 76f9 87bc
00000190: 227a aebb 416c 0b3c 287d b2bb 0000 0000
000001a0: 0000 0000 f521 d73b e43d 453a 6860 843a
000001b0: 0000 0000 0000 0000 2dbe e4bb 4aa3 933b
000001c0: 19af d9bc 70a3 70bd 6677 36bd 166b 14bc
000001d0: 01a3 6a3c 0000 0000 bedf de3b 934e c03c
000001e0: 7677 83ba 25b8 1fbc 4aa4 803b 2d97 c33b
000001f0: 0441 edbb 5c51 91bc 4515 61bc 0000 0000
00000200: da88 0a3c 8259 56bc 0000 0000 1195 d3bb
00000210: dcf4 253b e642 133d a43a 01bd 4884 a73c
00000220: 0000 0000 aab9 fd3b 34b4 bf3b 9b26 1cbc
00000230: d57b 14bd c460 9ebc 190b 21bd a662 eb3a
00000240: 9a43 923c bb5e 43bb 0000 0000 8b7c 8c3c
00000250: 0000 0000 d418 8a3c a231 433c 0000 0000
00000260: 6459 63b8 e5ae 063c 5c8c 05bd 86e7 29bd
00000270: 77f2 9fbc f863 953d abd5 9ebb a41a b0bc
00000280: 97a5 35bc 0ecb dbbc 0000 0000 7d0c f03a
00000290: 6ccc d0bc 4365 96bc 0000 0000 7c0d ba3c
000002a0: 0000 0000 f057 0c3d 805b aa3d 6ac5 ef3b
000002b0: 0000 0000 812a cd3c a07d 5cbd d912 28bd
000002c0: c2c4 703c bcea 213c 8301 4fbd d977 713b
000002d0: ec5e 8b3c f3a1 383d 2aae 263d 3433 07bd
000002e0: ed66 e0bc b5d3 23bd a1f0 73ba 6013 eabc
000002f0: 0000 0000 0000 0000 9e76 8f3c a125 48bd
00000300: c1ad c83b 9664 60bc acb7 b1bc 07f3 55bd
00000310: e7c4 273c c995 8bbb eca0 c9ba 0000 0000
00000320: 32b8 173b 9cde 7f3b 69fc e8bb 7b2d 9c3c
00000330: 0000 0000 3d2c 4ebc dac8 d13b 7c2e ce3c
00000340: 3cbf 1cbc 0e99 c23c b3e2 39bd 0000 0000
00000350: 709c c2bb 10b4 8c38 c83f b5bc d2c9 c4bb
00000360: 0000 0000 a448 a63c f6f4 dc3c 0000 0000
00000370: a1a1 d7ba 02c3 4d3b 116c 913d 92fc 2dbd
00000380: 0000 0000 5e0a 3cbb 368b 0f3c 0000 0000
00000390: 6784 eabc 0000 0000 0000 0000 be17 213d
000003a0: 0000 0000 c22b cc3c 9ac5 1cbd dc93 f93a
000003b0: f159 353b 0000 0000 615e 12bd 5e79 3f3c
000003c0: af43 3abd feb3 17bd db92 35bd 547a 46bd
000003d0: 4f47 e53b 65e9 1dbc 292f 81bd ab5f 513c
000003e0: 0000 0000 0000 0000 2d32 353b c66c 15bd
000003f0: 7440 723c 867f 3abb 3dba 23bd 8060 18bd

weight f4 [256, 256]
0.026683163 0.07862576 0.0038816447 0.024831537 0.12667213 0.11751121 0.059270557 0.06136357
0.25194266 -0.0118954275 -0.1325583 -0.1399482 0.21839613 -0.20680319 -0.20209514 0.031730384
0.029374797 -0.15257974 -0.3284208 0.18439117 0.09259661 0.12131693 -0.06471241 -0.022264661
0.10900347 0.043628298 0.18677567 -0.053190734 0.18223 -0.034505863 0.022985436 0.036231484
0.056044716 -0.09275414 0.13346764 -0.009360723 0.060715053 0.18576077 -0.022134332 0.12771668
-0.20224196 -0.17326486 -0.26414987 0.11252519 -0.171191 0.115531005 -0.07653902 0.023743289
-0.032466643 0.09580061 -0.0028922893 0.04601147 0.0974134 0.13392057 -0.13686445 0.0056199105
0.013950398 0.017448464 -0.19098756 -0.51423043 0.06595063 0.08998904 -0.00095282344 -0.0889117
0.09626709 0.12211642 -0.49976277 0.035325274 -0.09622431 -0.03211078 -0.073771864 0.008559734
0.29018873 -0.14064474 -0.0027166111 0.00947439 0.10871006 -0.03432385 0.06927402 -0.19535725
-0.2446943 -0.11110322 0.05495113 -0.18262453 -0.10270047 0.077996194 0.06477282 -0.12418016
-0.07278663 -0.055276398 -0.0038697051 -0.00024584308 -0.4722635 0.3145436 0.28126305 0.05293599
-0.060796566 0.160742 -0.2225204 0.14852378 0.070256956 0.07227673 0.03575226 0.043501988
-0.068206996 0.03412269 0.06498094 -0.10742419 -0.0044232234 -0.028815283 0.041352525 0.11239732
-0.14802414 -0.019472325 -0.3197247 -0.07189267 -0.031122213 -0.06465626 0.23359877 0.06418768
-0.048836056 -0.20293349 -0.027670877 -0.19732982 0.10676824 -0.1260345 0.16967325 -0.061670396
0.18635023 -0.06707932 0.057717744 0.19533484 -0.13191476 0.24153982 0.026890416 0.05734026
-0.07434575 0.07641739 -0.20526266 0.03978848 -0.17828205 0.02430591 0.09229216 0.11410455
-0.08879435 0.07416163 -0.05978308 -0.13634022 0.1090808 -0.06768878 -0.0599493 -0.01108859
-0.0030170223 0.19306941 0.15671149 0.010025563 0.06912741 -0.19249417 -0.2715176 -0.14805251
0.08589487 -0.16626917 -0.030654753 -0.22879618 0.14453842 -0.050924577 0.09985915 -0.25552392
0.042014066 0.10043048 0.017340366 -0.61149675 -0.08843462 -0.18760687 -0.043940473 -0.024636723
-0.07630716 -0.09073382 0.14821996 0.087353565 0.17156792 -0.4924585 -0.07236128 -0.108674295
0.08695062 -0.19391084 0.14258234 -0.08580885 -0.029631775 0.002898465 0.14520226 0.04067282
-0.065853044 -0.014413709 -0.014133459 -0.05282517 -0.07361666 0.055820953 0.0033709442 0.00587478
0.14568248 -0.034266956 -0.2612667 -0.02243372 -0.032629214 -0.07012816 0.09463463 -0.2969845
-0.010439922 0.062274903 -0.056390494 0.016897693 0.17253157 0.10010274 0.07924983 -0.020635769
0.14658171 0.09076716 -0.087003745 -0.056802712 -0.065997094 0.18267725 0.014815707 -0.13877791
-0.06470068 -0.37756 0.22270262 0.1035215 -0.037952222 -0.05383311 0.01908377 0.10978408
-0.07059648 0.22734913 0.024236787 -0.03177658 -0.44777152 0.022460127 -0.05325235 -0.21179287
-0.05166118 0.00032940003 -0.03920559 -0.17547303 -0.19458409 0.21227565 0.051725242 0.08314673
-0.0436467 0.02671707 -0.14098524 -0.004117369 0.27734196 0.06555707 0.10300571 -0.0109151155
00000000: a696 da3c 8b06 a13d 3163 7e3b 826b cb3c
00000010: 57b6 013e b8a9 f03d afc5 723d 5e58 7b3d
00000020: a1fe 803e 0ae5 42bc 5dbd 07be 954e 0fbe
00000030: 3ca3 5f3e 37c4 53be 07f2 4ebe b8f7 013d
00000040: 6aa3 f03c dd3d 1cbe c526 a8be 0ad1 3c3e
00000050: 4ba3 bd3d 0375 f83d f187 84bd 6164 b6bc
00000060: 363d df3d 96b3 323d 1f42 3f3e 87de 59bd
00000070: 809a 3a3e 0556 0dbd f44b bc3c 7767 143d
00000080: 258f 653d e2f5 bdbd beab 083e b85d 19bc
00000090: 59b0 783d 1238 3e3e 0f53 b5bc 29c8 023e
000000a0: 8418 4fbe 586c 31be a73e 87be 9b73 e63d
000000b0: b24c 2fbe 859b ec3d 7dc0 9cbd 4981 c23c
000000c0: befb 04bd 1c33 c43d 908c 3dbb 8676 3c3d
000000d0: ad80 c73d 7922 093e 3226 0cbe 3a27 b83b
000000e0: 3690 643c 15f0 8e3c 3e92 43be 9ba4 03bf
000000f0: 2011 873d 2c4c b83d e6c6 79ba 5617 b6bd
00000100: ae27 c53d 2c18 fa3d e8e0 ffbe 3cb1 103d
00000110: 4011 c5bd 9886 03bd b415 97bd 203e 0c3c
00000120: 9e93 943e 2d05 10be 2c09 32bb 793a 1b3c
00000130: 61a3 de3d 2a97 0cbd 8adf 8d3d bb0b 48be
00000140: 2591 7abe 168a e3bd 7014 613d ed01 3bbe
00000150: a054 d2bd 78bc 9f3d 9da7 843d 2b52 febd
00000160: 2811 95bd 8169 62bd e19a 7dbb 80e4 80b9
00000170: 85cc f1be dc0b a13e b601 903e 69d3 583d
00000180: d205 79bd 8d99 243e 63dc 63be 9e16 183e
00000190: e1e2 8f3d d205 943d f670 123d 242f 323d
000001a0: 1cb0 8bbd 3cc4 0b3d ba14 853d 3701 dcbd
000001b0: b0f0 90bb 070e ecbc 4461 293d 9130 e63d
000001c0: a493 17be 6d84 9fbc f5b2 a3be 773c 93bd
000001d0: 03f4 febc 806a 84bd 8434 6f3e d574 833d
000001e0: 5108 48bd cccd 4fbe 09ae e2bc d410 4abe
000001f0: 4fa9 da3d 300f 01be d3be 2d3e 199a 7cbd
00000200: 98d2 3e3e e260 89bd 7169 6c3d db05 483e
00000210: aa14 07be 3756 773e 4a49 dc3c 9fdd 6a3d
00000220: 9642 98bd b880 9c3d 6030 52be 3ff9 223d
00000230: 928f 36be 301d c73c ac03 bd3d a5af e93d
00000240: d0d9 b5bd 0de2 973d 1adf 74bd c59c 0bbe
00000250: c165 df3d 6aa0 8abd 668d 75bd ebac 35bc
00000260: 3cb9 45bb fdb3 453e fa78 203e 4242 243c
00000270: ac92 8d3d 311d 45be 5b04 8bbe 149b 17be
00000280: a6e9 af3d 7742 2abe ad1f fbbc 8c49 6abe
00000290: e101 143e 4a96 50bd f482 cc3d 08d4 82be
000002a0: f116 2c3d 7fae cd3d 620d 8e3c 0d8b 1cbf
000002b0: 361d b5bd 041c 40be edfa 33bd f4d2 c9bc
000002c0: ee46 9cbd a7d2 b9bd f9c6 173e 6de6 b23d
000002d0: 80af 2f3e 8523 fcbe 2732 94bd a190 debd
000002e0: 2b13 b23d 9090 46be 1b01 123e 8dbc afbd
000002f0: 56be f2bc 2cf4 3d3b e7af 143e 8b98 263d
00000300: f6dd 86bd 7a27 6cbc 0690 67bc 355f 58bd
00000310: 55c4 96bd 83a4 643d 0feb 5c3b 3a81 c03b
00000320: ca2d 153e 825b 0cbd c0c4 85be ecc6 b7bc
00000330: 36a6 05bd 5a9f 8fbd cdcf c13d 5a0e 98be
00000340: 350c 2bbc f813 7f3d b8f9 66bd 086d 8a3c
00000350: 1eac 303e aa02 cd3d bc4d a23d 580c a9bc
00000360: 8419 163e 22e4 b93d 052f b2bd f6a9 68bd
00000370: 7c29 87bd bf0f 3b3e 94bd 723c cc1b 0ebe
00000380: ca81 84bd 8b4f c1be 280c 643e 1503 d43d
00000390: ca73 1bbd 1b80 5cbd 9155 9c3c 7ad6 e03d
000003a0: e394 90bd 36ce 683e 3a8c c63c 2928 02bd
000003b0: 4f42 e5be 4dfe b73c 231f 5abd 3be0 58be
000003c0: ac9a 53bd 53b3 ac39 0a96 20bd 34af 33be
000003d0: 0d41 47be ca5e 593e d9dd 533d d548 aa3d
000003e0: e2c6 32bd c2dd da3c 6f5e 10be ffea 86bb
000003f0: c4ff 8d3e c942 863d a8f4 d23d 50d5 32bc

bias f4 [256]
0.006723564 -0.031919006 -0.011133897 -0.007390812 -0.012738871 -0.036746815 0.016663436 -0.006900497
0.0077835605 -0.032138057 -0.02971222 0.03207489 0.0032607832 -0.052991383 -0.012176693 0.020498613
0.019235924 -0.008022545 -0.027063062 0.017746678 -0.008093173 -0.012162801 -0.015504864 -0.0566069
-0.034398366 -0.011104316 -0.028258884 -0.013172982 0.009195121 0.008942566 -0.031677663 0.017536035
-0.03656645 -0.008189753 -0.020231541 -0.01944532 0.0038349587 -0.032003425 -0.008272345 -0.04976654
0.01268175 0.008786067 -0.0157028 -0.015668763 -0.026469577 -0.026559148 -0.008309315 -0.043151513
0.009306055 -0.0055931397 -0.0072225244 -0.017376997 0.0032231503 -0.044567604 -0.011409292 0.014220323
-0.009212016 -0.03404502 -0.014324253 0.027266111 -0.0024376076 0.0096139135 -0.04971598 0.010645555
-0.023794442 -0.01483658 -0.025164714 -0.005067192 -0.031751897 -0.037458695 -0.027940946 -0.014629129
-0.014860287 0.004712108 -0.020374924 -0.02124914 -0.019544518 0.06715484 -0.04277894 -0.022713719
-0.009189972 0.0336411 0.006358291 -0.010326068 -0.0068236454 0.0007326287 -0.021622738 -0.002878172
0.008671074 0.029051453 -0.010072985 -0.041412786 -0.026103605 -0.027001746 -0.013891505 -0.011178305
-0.012674593 -0.033432476 0.007245298 -0.008352749 -0.006005507 0.0070380964 0.05193481 -0.011758524
-0.01390093 -0.022648353 -0.023267193 -0.030075124 -0.020743871 -0.0015865109 -0.030320656 -0.03175165
-0.014929174 -0.031740133 -0.01968265 -0.010699628 -0.011404072 0.02592892 0.03173205 -0.014856381
-0.0358288 -0.014623256 -0.016063986 -0.025892887 -0.016926462 -0.009108537 -0.005861168 -0.0056566363
-0.03728361 -0.019119821 -0.0051139537 -0.040247187 0.017900012 -0.027316567 0.034916762 0.005616176
0.0 -0.05363122 -0.02095507 0.031889718 -0.009415133 0.021012055 -0.019008331 0.019486178
-0.017883014 -0.006002535 0.02998587 -0.017613543 -0.01647564 -0.013625166 0.0027210058 -0.014303789
0.0025372389 0.0029474038 -0.020350602 0.00037346617 -0.03802519 -0.014290714 -0.025942206 0.041368227
-0.0075077997 0.019703042 0.013895734 -0.014765248 -0.03172588 -0.018790865 0.0025742392 -0.007729271
-0.03709738 -0.020011969 0.002924057 -0.011141759 0.00799068 -0.018958217 -0.034416445 -0.029457795
-0.006372582 -0.024015445 -0.0075645 -0.013081505 -0.011074849 -0.024907226 -0.037117153 -0.0052079745
0.04686689 -0.021212703 -0.00023871253 -0.0029761577 -0.011983034 -0.018045152 -0.0019122652 -0.012130829
-0.013874608 -0.026167631 -0.033277288 -0.018852344 -0.0012711637 -0.0139655825 -0.031756338 -0.008870328
0.00561019 -0.013323207 -0.00092456926 -0.048805967 -0.054942273 -0.020629037 -0.017923336 -0.052039605
0.025010552 -0.006005507 -0.012695141 0.021773554 -0.003137257 -0.016900579 -0.05008924 -0.013967145
0.0019747212 -0.022535406 0.041048415 -0.015480569 -0.034251403 -0.03162117 0.004960584 0.0
0.014931219 0.042301565 -0.039261058 -0.035497043 -0.025956808 -0.024128629 -0.05029908 -0.02970732
-0.018885298 -0.03018007 -0.024631232 0.04283608 -0.012835111 0.034687985 0.006920397 0.0232822
-0.010812795 -0.0092545645 -0.003522839 -0.053494345 0.027333952 0.00864392 -0.06901782 -0.014224199
-0.010268169 0.012390859 0.004519837 -0.012087119 -0.015451089 0.020282682 -0.0094226105 -0.031527307
00000000: 5851 dc3b 81bd 02bd f36a 36bc a02e f2bb
00000010: b3b6 50bc d483 16bd c281 883c 901d e2bb
00000020: 3d0d ff3b 32a3 03bd 0b67 f3bc f660 033d
00000030: ddb2 553b 7e0d 59bd c180 47bc b5ec a73c
00000040: a894 9d3c fe70 03bc 5bb3 ddbc 7b61 913c
00000050: 3a99 04bc 7c46 47bc 1d08 7ebc a3dc 67bd
00000060: 4de5 0cbd e1ee 35bc 2d7f e7bc 7ed3 57bc
00000070: 22a7 163c d783 123c 70c0 01bd bba7 8f3c
00000080: b4c6 15bd 502e 06bc 9ebc a5bc cb4b 9fbc
00000090: ee53 7b3b 0616 03bd bb88 07bc 00d8 4bbd
000000a0: 1dc7 4f3c 70f3 0f3c 29a3 80bc c75b 80bc
000000b0: bad6 d8bc 9292 d9bc cb23 08bc a4bf 30bd
000000c0: 6c78 183c a846 b7bb edaa ecbb 345a 8ebc
000000d0: 7d3b 533b 858c 36bd 0aee 3abc 5cfc 683c
000000e0: ffed 16bc ca72 0bbd 46b0 6abc 2e5d df3c
000000f0: 45c0 1fbb ad83 1d3c fca2 4bbd b26a 2e3c
00000100: 90ec c2bc 2015 73bc 3b26 cebc b00a a6bb
00000110: 470e 02bd 4a6e 19bd 69e4 e4bc 04af 6fbc
00000120: 9078 73bc 0768 9a3b 50e9 a6bc ad12 aebc
00000130: d31b a0bc 7a88 893d f838 2fbd 1f12 babc
00000140: 8991 16bc 40cb 093d 3659 d03b ab2e 29bc
00000150: e398 dfbb e10d 403a 2b22 b1bc b79f 3cbb
00000160: 1f11 0e3c 50fd ed3c 2909 25bc 74a0 29bd
00000170: 3ad7 d5bc c432 ddbc 3299 63bc 3625 37bc
00000180: 19a9 4fbc 7ef0 08bd f769 ed3b f8d9 08bc
00000190: d8c9 c4bb d59f e63b 98b9 543d d3a6 40bc
000001a0: bac0 63bc 0a89 b9bc d79a bebc 1b60 f6bc
000001b0: 0def a9bc 79f2 cfba 0663 f8bc 050e 02bd
000001c0: 7f99 74bc f101 02bd 823d a1bc 7e4d 2fbc
000001d0: 25d8 3abc e368 d43c 77f9 013d 2e68 73bc
000001e0: 38c1 12bd 6296 6fbc 9f98 83bc 521d d4bc
000001f0: 5da9 8abc f93b 15bc 0a0f c0bb 4e5b b9bb
00000200: b3b6 18bd 2ca1 9cbc f492 a7bb 3cda 24bd
00000210: 0ca3 923c fec6 dfbc e104 0f3d e607 b83b
00000220: 0000 0000 69ac 5bbd f8a9 abbc cb9e 023d
00000230: ee41 1abc 7921 ac3c 5cb7 9bbc 7aa1 9f3c
00000240: 667f 92bc eab0 c4bb eda4 f53c 474a 90bc
00000250: ecf7 86bc 173c 5fbc e752 323b 705a 6abc
00000260: ce47 263b 3b29 413b 4eb6 a6bc c8cd c339
00000270: 4dc0 1bbd 9923 6abc c084 d4bc bb71 293d
00000280: fd03 f6bb 4668 a13c efaa 633c f0e9 71bc
00000290: fff2 01bd 4def 99bc 91b4 283b d345 fdbb
000002a0: 6cf3 17bd 24f0 a3bc 89a1 3f3b ed8b 36bc
000002b0: 57eb 023c 434e 9bbc 42f8 0cbd 7951 f1bc
000002c0: 18d1 d0bb 0abc c4bc a0df f7bb cf53 56bc
000002d0: 4973 35bc 3d0a ccbc 2808 18bd a8a7 aabb
000002e0: 7ff7 3f3d 43c6 adbc e84e 7ab9 a40b 43bb
000002f0: 7d54 44bc 6dd3 93bc f9a4 faba 62c0 46bc
00000300: 5352 63bc 805d d6bc c44d 08bd 3b70 9abc
00000310: 2d9d a6ba e6cf 64bc ef12 02bd da54 11bc
00000320: afd5 b73b 9549 5abc cb5e 72ba c4e8 47bd
00000330: 260b 61bd 3afe a8bc f6d3 92bc 7b27 55bd
00000340: eee2 cc3c d8c9 c4bb 48ff 4fbc 745e b23c
00000350: 709a 4dbb 1573 8abc 602a 4dbd 74d6 64bc
00000360: 536a 013b 2c9c b8bc 6222 283d 36a2 7dbc
00000370: 334b 0cbd 3385 01bd 658c a23b 0000 0000
00000380: 12a2 743c 6844 2d3d 34d0 20bd 5965 11bd
00000390: 5fa3 d4bc 67a9 c5bc 6806 4ebd c45c f3bc
000003a0: 57b5 9abc 323c f7bc 70c7 c9bc e374 2f3d
000003b0: 5b4a 52bc fd14 0e3d 7fc4 e23b 50ba be3c
000003c0: 2628 31bc 75a0 17bc 6edf 66bb e31c 5bbd
000003d0: 74eb df3c 3a9f 0d3c 3759 8dbd 9d0c 69bc
000003e0: d33b 28bc 0803 4b3c 241b 943b 0d09 46bc
000003f0: 9026 7dbc de27 a63c 4b61 1abc c722 01bd

weight f4 [2, 256]
-0.041717175 -0.1324478 -0.08390603 0.013651443 -0.060897186 -0.05773612 0.94091815 -0.13686785
0.00072487077 0.04708643 -0.048535395 0.9074881 -0.029165145 0.42534167 1.0175806 0.0040110657
0.34645423 -0.030637966 -0.019854367 -0.015171286 -0.097149335 0.035452798 -0.08196883 -0.0208049
-0.035157677 -0.015539987 -0.0025948507 -0.010075622 0.060696203 0.021003306 -0.16118027 0.31232366
-0.0002853293 -0.09363066 -0.10454465 0.2917938 -0.0115424 -0.049898043 -0.0565214 -0.011470025
-0.11601131 1.4944167 -0.04765096 -0.041904036 -0.952472 -0.009714354 0.0020553255 0.004113123
-0.010580245 0.018122178 0.75006926 0.00019207812 0.0003872005 -0.021706207 -0.0510015 0.9911076
-0.09768671 0.6392426 0.06693171 0.52805716 0.0040697725 1.8844764 -0.01304592 1.0721734
0.009562157 -0.07680328 -0.043134134 -0.09669162 -0.04750013 0.056079224 0.3354192 -0.0034507662
-0.09847965 0.100916095 -0.00092770974 0.017606221 -0.0045973742 -0.1524995 -0.0031412048 0.0011063707
-0.024715526 -0.07710385 0.49090648 0.020934466 -0.004214126 1.1354213 -0.021638963 0.755402
-0.009404045 0.81604296 -0.0123193525 -0.0495803 0.0027411417 -0.011708558 -0.0065905713 -0.04393387
-0.05081326 -0.0875539 1.1070843 -0.039713725 0.08102764 0.021092732 0.05616956 -0.0881046
-0.021210687 0.00011270188 -0.014387538 0.08488061 0.1936943 0.006838995 0.021591228 0.013690011
-0.07344726 -0.044032898 -0.0042644357 -0.05317011 -0.01524838 0.24992888 1.1341624 -0.022655057
0.008184602 -0.00793357 -0.008443562 0.045529887 0.038708538 0.0077290456 -0.0058128475 0.6912408
0.010062555 -0.00062169187 0.05074116 -0.103587605 0.2261813 -0.025361395 0.33469748 0.07672214
0.087818384 -0.042358518 -0.01426388 1.2462531 0.0007683014 1.1442373 0.01566323 -0.045590542
0.7949112 -0.075144425 1.3925729 0.25058633 -0.00085038075 -0.07112253 0.90359324 -0.10535169
0.030438397 1.2651579 0.5215075 -0.021227153 0.005845834 -0.012866874 0.7524258 1.3963245
-0.005145811 0.1635728 -0.0623472 -0.014310988 0.04978874 0.0312737 1.2474443 -0.042038526
0.024203716 -0.026545398 -0.06347272 -0.07986654 0.002879009 0.29567122 0.020545846 -0.029456189
1.6622534 -0.027062627 -0.020404195 -0.020830955 -0.08393867 0.40314186 -0.054041475 0.89605135
0.31489563 -0.06513284 0.5181619 1.7362949 -0.027012292 -0.11126837 0.24835134 -0.015330894
-0.046589117 0.21056247 -0.00069656677 0.1467556 -0.10357012 -0.028778873 -0.086679414 -0.057982877
-0.052223027 -0.04019952 1.154796 -0.03747169 -0.06477492 -0.021951871 -0.00490457 -0.01427118
-0.07082258 -0.018320082 -0.047260568 0.9461293 -0.03324909 -0.014721544 0.116384394 0.010963964
0.39622223 -0.023175327 -0.05976534 -0.05323776 0.02305725 -0.010585959 0.054124236 0.027690401
-0.03976617 0.014061841 -4.644471e-05 0.0029318482 -0.03732807 -0.053041093 -0.08630664 0.0071358103
0.049293246 -0.052820463 0.080086 -0.10144566 1.038971 1.1920063 0.0035460414 1.3010975
-0.046222992 -0.017870972 -0.0097717075 0.007428847 0.387496 0.02448743 -0.0029342282 -0.03162385
0.12958765 -0.04814571 0.027988793 0.038075034 0.014485501 0.044818953 0.83568436 0.0019743042
00000000: a1df 2abd 65a0 07be edd6 abbd 4daa 5f3c
00000010: 546f 79bd b67c 6cbd 03e0 703f 1627 0cbe
00000020: 4105 3e3a b3dd 403d 0dcd 46bd 2451 683f
00000030: beeb eebc 62c6 d93e 1540 823f 426f 833b
00000040: 7362 b13e 79fc fabc a0a5 a2bc fc90 78bc
00000050: 3bf6 c6bd f436 113d 46df a7bd 0a6f aabc
00000060: 7f01 10bd 6e9b 7ebc 5f0e 2abb 3914 25bc
00000070: 959c 783d 200f ac3c 710c 25be e3e8 9f3e
00000080: 4098 95b9 6ec1 bfbd 811b d6bd ff65 953e
00000090: 561c 3dbc e461 4cbd fc82 67bd c6ec 3bbc
000000a0: 5697 edbd 0c49 bf3f a72d 43bd 91a3 2bbd
000000b0: 34d5 73bf f428 1fbc a4b2 063b 60c7 863b
000000c0: c458 2dbc f674 943c 8a04 403f 9468 4939
000000d0: 2c01 cb39 37d1 b1bc f3e6 50bd 3ab9 7d3f
000000e0: f80f c8bd 67a5 233f 7e13 893d c12e 073f
000000f0: ba5b 853b 8636 f13f 8ebe 55bc fa3c 893f
00000100: 98aa 1c3c 0a4b 9dbd 6bad 30bd 4206 c6bd
00000110: 7f8f 42bd 54b3 653d 11bc ab3e 4026 62bb
00000120: b3af c9bd 19ad ce3d 8c31 73ba ec3a 903c
00000130: 92a5 96bb d428 1cbe acdc 4dbb a403 913a
00000140: 3778 cabc a0e8 9dbd 1858 fb3e c27e ab3c
00000150: a716 8abb 7c55 913f 3244 b1bc 0762 413f
00000160: 6c13 1abc 31e8 503f 1cd7 49bc b614 4bbd
00000170: baa4 333b 40d5 3fbc b8f5 d7bb 00f4 33bd
00000180: 9121 50bd 764f b3bd f0b4 8d3f dcaa 22bd
00000190: d2f1 a53d aaca ac3c 0d12 663d 2f70 b4bd
000001a0: 09c2 adbc 5c5a ec38 b5b9 6bbc e3d5 ad3d
000001b0: cc57 463e a619 e03b 16e0 b03c 114c 603c
000001c0: 846b 96bd d75b 34bd aebc 8bbb e7c8 59bd
000001d0: 57d4 79bc 5bed 7f3e 3c2c 913f 1997 b9bc
000001e0: b518 063c cefb 01bc de56 0abc 8c7d 3a3d
000001f0: d88c 1e3d ef43 fd3b b379 bebb 28f5 303f
00000200: 6add 243c 09f9 22ba f6d5 4f3d bd25 d4bd
00000210: 129c 673e b3c2 cfbc 785d ab3e 7f20 9d3d
00000220: 20da b33d 2080 2dbd 0db3 69bc 3985 9f3f
00000230: d667 493a 5e76 923f 2d50 803c 26bd 3abd
00000240: 4d7f 4b3f 52e5 99bd d43f b23f da4c 803e
00000250: 16ec 5eba b0a8 91bd e351 673f a0c2 d7bd
00000260: f259 f93c b2f0 a13f 8481 053f 91e4 adbc
00000270: 698e bf3b 95cf 52bc fa9e 403f c3ba b23f
00000280: 319e a8bb a17f 273e c75f 7fbd a278 6abc
00000290: 47ef 4b3d da18 003d 41ac 9f3f 9730 2cbd
000002a0: df46 c63c bc75 d9bc fcfd 81bd 1291 a3bd
000002b0: c1ad 3c3b 3862 973e c34f a83c 1b4e f1bc
000002c0: b8c4 d43f 71b2 ddbc b326 a7bc aea5 aabc
000002d0: 0ae8 abbd 9c68 ce3e 985a 5dbd 9f63 653f
000002e0: 003a a13e 5e64 85bd 42a6 043f e93e de3f
000002f0: e248 ddbc ace0 e3bd d04f 7e3e 6e2e 7bbc
00000300: 3bd4 3ebd b09d 573e ce99 36ba 1a47 163e
00000310: 921c d4bd acc1 ebbc fa84 b1bd 747f 6dbd
00000320: d0e7 55bd 40a8 24bd 5bd0 933f ea7b 19bd
00000330: b7a8 84bd 69d4 b3bc 84b6 a0bb abd1 69bc
00000340: 6e0b 91bd ff13 96bc 4c94 41bd 8835 723f
00000350: 3330 08bd a232 71bc f15a ee3d 33a2 333c
00000360: a4dd ca3e 2fda bdbc 80cc 74bd d60f 5abd
00000370: 8fe2 bc3c bb70 2dbc 60b1 5d3d fbd6 e23c
00000380: dae1 22bd a363 663c a1cd 42b8 4024 403b
00000390: 51e5 18bd 9e41 59bd 89c1 b0bd 84d3 e93b
000003a0: b7e7 493d 455a 58bd 2104 a43d bec2 cfbd
000003b0: 00fd 843f aa93 983f b464 683b 5d8a a63f
000003c0: 5254 3dbd 2566 92bc 8319 20bc af6d f33b
000003d0: e065 c63e dd99 c83c 2e4c 40bb 0388 01bd
000003e0: a0b2 043e 7034 45bd c148 e53c 91f4 1b3d
000003f0: 9854 6d3c 1494 373d 69ef 553f 5463 013b

bias f4 [2]
0.027651664 0.038682267
00000000: be85 e23c 4c71 1e3d
