exp_local/gcbc_multimodal/weights/4000.pt (torch, 274440 bytes, 6 tensors)

weight f4 [256, 4]
000000 9f e2 1b be 4e 83 f4 bd 47 31 f0 3d 21 bf 15 3e
       -0.15223168 -0.11939107 0.11728149 0.14623691
000010 2c 76 cf bd dc 5f 18 3e d1 06 1c be e1 6d da 3d
       -0.10129961 0.14880317 -0.15236975 0.10665489
000020 0a 98 be bd e0 b5 34 3d 28 2d 4e 3e f1 eb 45 bd
       -0.09306343 0.044118762 0.20134413 -0.048320714
000030 d9 c2 30 bd 0b d6 96 3d 73 34 c6 bd 58 dc b1 3c
       -0.04315457 0.07365044 -0.09677973 0.021711513
000040 ce 49 97 3c ba 35 96 bd 40 c8 b4 bd dd f4 bd bb
       0.01846781 -0.07334466 -0.08827257 -0.0057970122
000050 43 24 d8 bd 9f a0 d9 bc eb 4e 9f bc c2 ed 5a bd
       -0.105537914 -0.026565848 -0.01944681 -0.0534494
000060 b3 94 82 bc 5c 46 b2 3d 41 23 de 3d 97 9e 03 3b
       -0.015940046 0.08704826 0.10846568 0.002008354
000070 cb 3a 65 bc ed 8b 45 3d 07 88 b3 3d 8e a5 4e bd
       -0.013991068 0.048229147 0.087661795 -0.050450854
000080 b9 c4 88 bd ad fa 1d be 3c 2b 5e 3d 5a 55 1f 3e
       -0.06678147 -0.15427656 0.05424045 0.15559903
000090 83 9a fe 3d 9c 0d 4d 3d 5d 46 10 be f1 c3 9e bb
       0.124318145 0.050061807 -0.14089341 -0.0048451354
0000a0 c0 f2 b4 bd 6b c4 86 3d 97 24 db 3d c1 68 d1 bd
       -0.088353634 0.065804325 0.10700338 -0.10225058
0000b0 c6 bf 32 3e c0 35 5d bd d7 0a 8b bd d1 63 c5 bc
       0.17455968 -0.054006338 -0.06789177 -0.024095448
0000c0 a8 4f 63 3e 7a e1 0b be 35 69 11 be fd e5 c1 3d
       0.22198355 -0.13660231 -0.1420029 0.09467695
0000d0 e4 71 2b bd a1 5e 32 3e 2b 91 ca 3d 6b 81 1a be
       -0.04185666 0.1741891 0.0989097 -0.15088432
0000e0 af 5f 5c bb d6 c6 ea 3d 78 14 eb 3d e6 80 1c be
       -0.0033626368 0.11463706 0.114785135 -0.15283546
0000f0 e9 37 b5 bd db c1 cd 3d 4d b1 8d 3c 7c 0f df bc
       -0.08848555 0.100467406 0.017296458 -0.027229063
000100 ff 54 a8 bc 3b 16 0b bd 79 1e c1 3d 0c ee a0 bc
       -0.020548342 -0.033956748 0.0942964 -0.01964476
000110 1b 04 d2 3c c7 ac 13 3e 9e 81 ad 3b a8 7b d9 bd
       0.025636723 0.14421378 0.0052949926 -0.10619289
000120 ea d1 86 bd 1e a9 27 3e 19 32 7f 3d 98 4e 0e be
       -0.06583007 0.16373107 0.062303636 -0.13897169
000130 9f 41 69 bc 30 d0 33 be 54 5e 25 3d 36 24 1a 3e
       -0.014236837 -0.17559886 0.04037316 0.15052876
000140 5c ca 27 bd 2b dd 8a 3d 76 bd a8 bd ca 25 c1 3c
       -0.04096447 0.06780466 -0.08239262 0.02357759
000150 22 e2 2a 3e e4 39 8a bd 20 c1 d4 bd 10 ef c2 3c
       0.16687825 -0.06749323 -0.10388398 0.023795635
000160 34 8f 0b 3e 35 73 7e 3b 61 e4 25 be b6 14 af 3b
       0.13628846 0.0038825993 -0.16200401 0.005343045
000170 17 9f da 3d d2 a6 d4 3d d4 e5 bd bd 17 85 9e 3a
       0.10674875 0.10383381 -0.09272352 0.0012094107
000180 33 6a 00 3d c5 f4 19 be 9e 57 7b bd 33 7c 71 3e
       0.03135128 -0.15034778 -0.061362855 0.23582534
000190 0b 7f 89 bd 9b c3 9d 3d fa b5 9a 3d b7 c0 b9 bd
       -0.06713685 0.077033244 0.075542405 -0.090699606
0001a0 80 ff 1b bd c8 f5 e4 bd 07 b0 a0 bc d0 dc 2e 3e
       -0.03808546 -0.111796916 -0.019615186 0.17076421
0001b0 f7 ee 56 3e 86 89 30 3d 89 55 05 be d7 96 6a 3c
       0.20989595 0.043099903 -0.1302091 0.01431819
0001c0 55 9f 10 3e 36 4f 27 be 1c b0 9c bd 46 8f 0f 3e
       0.1412328 -0.1633881 -0.07650778 0.14019498
0001d0 61 93 a8 bd af 47 a3 3d 6d b1 93 3d fc b7 ad bd
       -0.08231235 0.07972657 0.07211576 -0.08482358
0001e0 18 0a 9a bd 1a 71 05 be a6 c8 82 3b 9e 5a 0b bd
       -0.075214565 -0.13031426 0.0039912043 -0.034021966
0001f0 c4 6b e3 3c 3f 03 e6 bb a8 9a 07 bd 6e 06 a8 bc
       0.027761348 -0.00701943 -0.033106476 -0.020510878
000200 2d 2b a3 3d 22 9e 46 bb 64 0e a6 bd 73 21 27 3d
       0.079672195 -0.0030306657 -0.081082135 0.040803384
000210 b2 92 0a be de 75 d3 3d 7f 16 dd 3d 5f 26 40 bd
       -0.13532522 0.10325216 0.107953064 -0.046911594
000220 a1 c1 7d 3d 42 75 e5 bd 62 da a3 bd c6 47 ee 3d
       0.061952237 -0.11204006 -0.080006376 0.116347834
000230 fb 38 c0 bd 47 be 59 bd cd bd 1b bc 73 41 a0 bc
       -0.09385868 -0.05315998 -0.009505701 -0.019562459
000240 98 76 6c bd 02 ff de bc b9 92 0b 3e fc af 81 bb
       -0.057730287 -0.027221207 0.13630189 -0.0039577466
000250 b5 00 0d 3e cc 80 dc bd af 57 17 be c4 c7 e9 3d
       0.13769801 -0.107667536 -0.14779542 0.114150554
000260 3f 72 90 3d 4d 4b 94 3c 5a 11 f3 3d 57 5f f1 bd
       0.07053041 0.018102312 0.11868544 -0.11785763
000270 7a 67 10 3e fc c9 53 bd b8 9f ed bd c9 df e4 3d
       0.14101973 -0.0517063 -0.116027296 0.11175496
000280 fb cc cf bc 25 e1 3a 3e 06 06 00 3d 94 f0 f8 bd
       -0.025366297 0.18249948 0.031255744 -0.12155262
000290 b9 07 66 3d f2 12 95 bd 12 9d b2 3d 39 9e b4 bd
       0.05615971 -0.07279004 0.08721365 -0.08819241
0002a0 59 79 57 3d ca fd 53 3e 6c 5b a6 bd 1c af c3 bd
       0.05260596 0.20702282 -0.08122906 -0.09554884
0002b0 7a c0 ab bd 41 48 5d bd de ac 65 3d 9c 17 e1 3d
       -0.08386321 -0.054023985 0.056073062 0.10990831
0002c0 c7 96 9d bd b0 b9 44 3d ed 74 27 3e 83 a4 f2 bd
       -0.07694774 0.048028648 0.16353197 -0.11847784
0002d0 3d e5 cd 3d a4 d9 83 bd 5a e4 09 be 3d e6 9e 3d
       0.10053489 -0.06437996 -0.13466015 0.07758758
0002e0 1a 42 37 3b fc a2 82 bd 9e e9 9f bd 77 20 51 bd
       0.0027962984 -0.06378743 -0.07808231 -0.05105635
0002f0 c6 65 df 3d 68 4a 42 3d fa f1 79 bd 80 fc ce bc
       0.109080836 0.04743424 -0.061021782 -0.025266886
000300 01 2c b2 bd ff 00 f4 bb 98 8f 96 bd 24 68 5c bd
       -0.08699799 -0.007446408 -0.07351607 -0.053810254
000310 33 4d 22 3d 90 97 00 be e9 9d 51 bd 3d f0 f6 3d
       0.039624404 -0.12557817 -0.051175985 0.120575406
000320 f1 f9 b8 3d f8 12 08 be a1 ba a5 bd a3 7c 85 bd
       0.090320475 -0.13288486 -0.08092237 -0.06517913
000330 b2 3c 5c bd 62 40 21 bd 09 93 76 bd 61 53 9b bd
       -0.05376882 -0.03936804 -0.060198817 -0.07584263
000340 26 eb 8d 3e 22 cd dc bc 85 fc 8f bd 5b 06 d5 3c
       0.27718467 -0.026953284 -0.07030586 0.026004007
000350 5e 96 6f 3d 44 54 09 be 1c c0 33 bd 72 e5 f9 3d
       0.05849301 -0.13411051 -0.04388438 0.12201966
000360 bb 53 cd 3b a8 95 bd 3d 43 db 66 bd 77 87 ad bd
       0.006266085 0.0925706 -0.056361448 -0.084731035
000370 56 ff 3e 3d 2c 13 a6 3c 49 dd 99 bd f8 85 56 3d
       0.046630226 0.020272814 -0.0751291 0.052373856
000380 09 21 6e 3d 6a a9 c3 3c 13 af d1 bd dc 6f 87 bd
       0.058136974 0.023884494 -0.10238471 -0.06613132
000390 9c 01 9f 3d 8f 88 9f bd 9c 5c 3a bd 5e 75 92 3d
       0.07763979 -0.07789718 -0.045498475 0.07151292
0003a0 04 1b 15 be c4 e2 88 3d a4 7d 23 3e 2c 9b 43 bd
       -0.14561087 0.06683877 0.15965897 -0.047755405
0003b0 49 38 ab bd 57 3a 0a 3e 30 2f c3 3d 0f 56 0f be
       -0.08360345 0.13498817 0.09530485 -0.13997672
0003c0 74 de 4e be a9 8b 90 3d 73 1e 11 3d 75 00 00 3c
       -0.20202047 0.07057888 0.03542943 0.007812609
0003d0 1c 3b 21 3e 64 53 e0 bd 8b 58 bb bd 47 be ba 3d
       0.15745205 -0.109534055 -0.091477476 0.09118324
0003e0 82 83 48 3c df c3 83 bd c6 00 9b 3d fe 08 31 bd
       0.012238385 -0.06433844 0.07568507 -0.043221466
0003f0 f7 c3 5b bc 2a 1c 94 bd 6e 3b 28 3e f4 4a 44 bd
       -0.013413421 -0.07231934 0.1642892 -0.047923043

bias f4 [256]
000000 15 f0 a6 3c a1 60 e7 bb 8e 8f 8c b9 4c 34 cf bb
       0.020378152 -0.0070610796 -0.00026809837 -0.006323373
000010 00 00 00 00 00 00 00 00 32 61 92 bc 01 f0 d4 ba
       0.0 0.0 -0.017868612 -0.0016245843
000020 7d b4 3d 3c 38 ad 45 3c 9c 76 e6 3c fb 01 5f 3c
       0.011578676 0.012065224 0.02813273 0.013611312
000030 98 3e 3d 3d cd b6 b0 bb 0e 6a 9b 3c fa b4 07 3d
       0.046202272 -0.0053928853 0.01897147 0.033131577
000040 76 a3 80 bc 48 00 6a bb 0a 0a 9f 3c e1 c8 4b 3c
       -0.015702944 -0.0035705734 0.019413967 0.01243803
000050 ef 35 91 bb cf aa a7 3c 4a 7a 10 3d 37 1a ca bb
       -0.004431478 0.02046719 0.035272874 -0.006167676
000060 de 45 2b 3c 76 6a 24 3c 0c 64 df 3c 2c 4e f5 bb
       0.010453669 0.010035148 0.027269386 -0.0074861255
000070 6e 6f 1f 3d 78 42 5c 3c 00 00 00 00 00 00 00 00
       0.038924627 0.013443582 0.0 0.0
000080 a9 33 3b 3b 16 73 51 3c 06 1a fd 3c 00 00 00 00
       0.0028564727 0.012783786 0.030896198 0.0
000090 f2 46 2d bc 3d 89 6d 3c 1f bc f6 ba c6 72 82 3c
       -0.010575997 0.014498052 -0.0018824375 0.015923869
0000a0 a6 82 65 3c c6 3a 46 bc 38 6a e9 bc 45 16 41 3c
       0.0140082 -0.012098974 -0.028493032 0.011785095
0000b0 3e d3 0a 3d c3 3e 01 3d 00 00 00 00 6c 3a 89 bc
       0.033892862 0.031553995 0.0 -0.01675149
0000c0 00 00 00 00 95 a3 11 3c 00 00 00 00 00 00 00 00
       0.0 0.008889099 0.0 0.0
0000d0 36 19 eb bc 49 9e f6 3b ba 32 46 bc 6b 20 75 3c
       -0.028698545 0.0075261933 -0.012097055 0.014961342
0000e0 00 00 00 00 e3 41 25 3b 05 71 04 bc 93 69 dd 3b
       0.0 0.0025216273 -0.008083587 0.00675697
0000f0 5a d7 a7 3d b6 cd 04 3c 66 ac 88 bc 09 c0 85 bc
       0.08195372 0.008105686 -0.016683768 -0.016326921
000100 22 44 62 3c c3 62 e3 bc f9 8a 72 3c 05 08 15 3a
       0.013810189 -0.027757054 0.0148036415 0.0005685094
000110 e7 d3 13 bc 7e 7b 65 bc 0c 30 4b bc 98 78 24 bb
       -0.009022689 -0.014006494 -0.012401592 -0.0025096294
000120 21 d7 bd 3a a0 52 49 3b 00 00 00 00 d6 58 2d 3b
       0.0014483669 0.0030719414 0.0 0.0026450655
000130 10 9f e2 3b df 8a 14 3c 38 c1 b5 bc e0 de 13 3d
       0.0069159344 0.009066313 -0.02218686 0.036101222
000140 05 b8 a9 3c dd 72 ef 3c 5e f1 b3 3b 06 b2 4e 3d
       0.02071763 0.029229576 0.0054914197 0.050462745
000150 00 00 00 00 36 3d 3c 3c b5 e2 5e bc 9a d1 98 3c
       0.0 0.011489203 -0.013603856 0.018654633
000160 d3 50 da 3c e7 84 98 bc 88 10 de bb 00 00 00 00
       0.026649868 -0.01861806 -0.006776873 0.0
000170 db ef 70 3c 8c c1 c8 3d d3 ce 45 3c 00 00 00 00
       0.0147056235 0.09802541 0.0120732365 0.0
000180 7d 77 36 bc da c9 ee bc 8a 32 15 3d 89 39 a1 3c
       -0.011136887 -0.029148985 0.03642515 0.019680755
000190 16 5d de 3c f0 5d 21 3c f9 d0 09 3b 00 00 00 00
       0.027143996 0.009849057 0.0021029098 0.0
0001a0 00 00 00 00 d4 a7 81 3c 3a ff ce bb 73 9c 5f 3c
       0.0 0.015827097 -0.0063170465 0.01364814
0001b0 00 00 00 00 00 00 00 00 2d be e4 bb f0 2b ca 3a
       0.0 0.0 -0.0069806785 0.0015424471
0001c0 37 51 75 bc 04 ed 0c bc 9c b4 0a bb e9 49 cd 3c
       -0.014972976 -0.008601431 -0.002116478 0.025059657
0001d0 b6 b1 0b 3c 00 00 00 00 18 c2 88 3c 4a d4 00 3d
       0.008526256 0.0 0.016694114 0.031452455
0001e0 e5 c8 f6 3c da 9c 8e 3b cf c5 46 3c 8d 08 47 3b
       0.03012509 0.0043521943 0.012132122 0.0030370087
0001f0 63 8d d8 3c d7 c3 87 bc dc e0 c9 bb 00 00 00 00
       0.026434606 -0.016572876 -0.0061608385 0.0
000200 c5 88 0c 3c 8b 29 29 3c 00 00 00 00 fc 57 14 bc
       0.00857753 0.010324846 0.0 -0.00905418
000210 c7 1a 2d 3c b3 cf 1e 3d 95 90 32 bc e7 44 f7 3c
       0.010565466 0.038772296 -0.010898729 0.030184222
000220 00 00 00 00 f3 2b 96 3c 6b 26 9c 3c 9b 26 1c bc
       0.0 0.018331503 0.019061288 -0.009530689
000230 60 dd c4 bc 9e 37 fc 3c 17 8c 00 bc d7 c1 25 3c
       -0.024031341 0.03078824 -0.0078459 0.010117016
000240 dc 9e b3 3c 43 8b 53 3c 00 00 00 00 4e a1 7d 3c
       0.021926336 0.012911621 0.0 0.015480353
000250 00 00 00 00 c2 b4 db 3c 95 9f 6d 3c 00 00 00 00
       0.0 0.02681959 0.014503379 0.0
000260 83 1a 3b 3b 18 3c 00 3c af b0 6e 3c 98 b2 15 bc
       0.0028549738 0.0078268275 0.014568492 -0.009136818
000270 b9 d3 d1 bc 13 06 79 3d 92 42 95 3c 43 fe 9f bc
       -0.025613653 0.06079681 0.01822022 -0.019530421
000280 97 a5 35 bc 09 34 4c 3c 00 00 00 00 6e 3d 55 3c
       -0.011086843 0.012463578 0.0 0.013015134
000290 5c 19 7e bc fe b1 64 bc 00 00 00 00 2c c1 fb 3c
       -0.015508976 -0.013958452 0.0 0.03073176
0002a0 00 00 00 00 ab 7d 19 3d be 95 f5 3c 63 60 22 3c
       0.0 0.037473362 0.02997863 0.009910676
0002b0 00 00 00 00 cd 43 cf 3c 21 91 13 bc 1f 6f cb bc
       0.0 0.025300885 -0.009006769 -0.02483326
0002c0 fd 37 77 3c 29 80 fd 3b 16 7d b0 bc 19 5f af ba
       0.015089032 0.007736225 -0.02154402 -0.0013379782
0002d0 f4 ea 6b 3c e0 86 ed 3c df 85 3a 3d cb 73 8d 3b
       0.014399279 0.028994977 0.045537826 0.004316782
0002e0 db 3e 8e 3b 07 82 e6 bc c7 d7 81 3b d7 2b cd bb
       0.004340989 -0.028138174 0.0039624902 -0.0062613296
0002f0 00 00 00 00 00 00 00 00 09 ea b9 3c ee 23 f4 bb
       0.0 0.0 0.022694604 -0.007450572
000300 96 c0 10 3c 2e 18 b5 bc a6 76 82 3b 64 4f 06 bd
       0.008834979 -0.022106256 0.003981429 -0.032790557
000310 b1 22 5e 3c 69 98 f7 3b 56 94 7d 3a 00 00 00 00
       0.013558076 0.0075560105 0.0009673288 0.0
000320 7e c4 41 3c 89 a5 ca 3c 15 e8 71 3c 6c 61 b7 3c
       0.011826633 0.024737136 0.014764805 0.022385322
000330 00 00 00 00 3d 2c 4e bc 63 28 e6 3a 5b 94 d3 3c
       0.0 -0.012583789 0.0017559644 0.025827577
000340 01 b1 40 3c c0 6c 02 3d 30 60 52 bc 00 00 00 00
       0.011760951 0.031841993 -0.012840316 0.0
000350 24 9c 83 3b 19 eb 84 3b c0 5b 6f bc d2 c9 c4 bb
       0.004016416 0.004056346 -0.014609277 -0.006005504
000360 00 00 00 00 70 5f e6 3c fc 74 0b 3d 00 00 00 00
       0.0 0.02812168 0.034047112 0.0
000370 86 a6 fc 3b c8 eb 0d 3c bf b1 8a 3d 95 7b 05 bd
       0.007710281 0.008662172 0.067721836 -0.03258856
000380 00 00 00 00 04 85 cb ba 45 c6 28 3c 00 00 00 00
       0.0 -0.0015527313 0.010301177 0.0
000390 d1 8f fe 3b 00 00 00 00 00 00 00 00 9e 50 42 3d
       0.007768609 0.0 0.0 0.047440164
0003a0 00 00 00 00 5f d0 07 3d 39 44 d6 3b 98 3a 84 bb
       0.0 0.033157703 0.0065388945 -0.004035305
0003b0 a1 2e 51 3c 00 00 00 00 c9 58 38 bc be e0 f0 3c
       0.012767465 0.0 -0.011251637 0.02940404
0003c0 1f b8 b2 bb 5b 16 e8 bb 00 38 d6 bb 9a 26 1d bc
       -0.005454078 -0.007082743 -0.0065374374 -0.009591723
0003d0 28 69 d4 3b 81 df 07 3c 40 14 12 bd d8 3b 39 3c
       0.006482262 0.008293034 -0.035663843 0.011305772
0003e0 00 00 00 00 00 00 00 00 aa 31 12 3b 68 3b 1a bc
       0.0 0.0 0.0022307434 -0.009413578
0003f0 3e 00 e5 3c c6 34 3a 3b 43 2e e2 bc e2 61 d2 bb
       0.027954217 0.0028412803 -0.02760995 -0.00642036

weight f4 [256, 256]
000000 e6 cd da 3c ec c2 05 3d 6a 98 8b 3c 02 0c 00 3d
       0.026709508 0.032656595 0.01704045 0.03126145
000010 57 b6 01 3e b8 a9 f0 3d ec 7e c5 3c 68 65 3e 3d
       0.12667213 0.11751121 0.024108373 0.046483427
000020 b2 9e 82 3e 1a 60 bc bc 75 17 21 be fa e9 fe bd
       0.255117 -0.022995044 -0.15731604 -0.12446971
000030 9d eb 57 3e 6a dd fb bd fe 2f 28 be 66 57 90 bb
       0.21085973 -0.12298091 -0.16424558 -0.00440495
000040 ff 8d ad bc 4e b7 08 be df 55 2c be 78 a3 4e 3e
       -0.021185873 -0.13351175 -0.16829632 0.20179546
000050 af 7e d0 3d 4b 0b 14 3e 97 fa 33 bd 62 0a 01 bd
       0.10180413 0.14457433 -0.043940153 -0.031504042
000060 4f cd c8 3d 27 bd 1a bd a6 15 59 3e e4 0a 68 bd
       0.098047845 -0.037778046 0.21199664 -0.05665101
000070 aa ae 3b 3e 3b 8c 02 be f4 4b bc 3c 77 67 14 3d
       0.18328348 -0.12748806 0.022985436 0.036231484
000080 4d e7 7d 3d d4 37 d6 bd 32 c2 33 3e b8 5d 19 bc
       0.061988164 -0.10459867 0.17554548 -0.009360723
000090 ca f3 88 3c a0 ba eb 3d 64 ee 72 bd ab 75 0f 3e
       0.01671781 0.11510205 -0.05930938 0.1400973
0000a0 85 9b 03 be a8 0e 17 be 49 2f 69 be f5 db 05 3e
       -0.12852295 -0.14751685 -0.22771944 0.13072188
0000b0 47 5c 13 be 07 7e 2d 3e 7d c0 9c bd 44 1f 2a 3c
       -0.1439067 0.16942607 -0.07653902 0.010383431
0000c0 be fb 04 bd 67 cc 11 3e 90 8c 3d bb 86 76 3c 3d
       -0.032466643 0.1423813 -0.0028922893 0.04601147
0000d0 62 9f d3 3d 9b 11 15 3e 32 26 0c be 64 28 f1 3a
       0.10333134 0.14557497 -0.13686445 0.0018398878
0000e0 36 90 64 3c 81 07 80 3d 4f 22 24 be 99 c2 81 be
       0.013950398 0.06251431 -0.16028713 -0.2534378
0000f0 69 b3 9e 3b a2 ff d4 3d 53 67 e9 3b 60 49 b3 bd
       0.0048431647 0.104003206 0.007122913 -0.087542295
000100 3e ea e4 3d 96 18 fa 3d 98 31 82 be 7c f0 e1 3c
       0.11177491 0.12211721 -0.25428462 0.027580492
000110 fe 87 9a bd 6e bb 5c bd b4 15 97 bd a1 c2 4f 3d
       -0.0754547 -0.053889684 -0.073771864 0.050722722
000120 4e 4e 59 3e 6b 89 da bc 2c 09 32 bb 5d 6b 0a bd
       0.21221277 -0.026676854 -0.0027166111 -0.033793796
000130 c8 12 ef 3d 45 82 b2 bc 98 a7 be 3d 84 c7 1f be
       0.11673504 -0.021790633 0.0930931 -0.15603453
000140 c2 06 29 be 2e 59 fc bd c1 75 b3 3c ab 23 79 be
       -0.16506484 -0.12321697 0.021906735 -0.24330013
000150 a0 54 d2 bd 1b fb c4 3d 68 da dc 3d 84 04 e7 bd
       -0.10270047 0.09618207 0.10783845 -0.11280158
000160 bc cc 49 bd 81 69 62 bd 5c 1a af 3c 80 e4 80 b9
       -0.049267516 -0.055276398 0.021374874 -0.00024584308
000170 82 7c 91 be 2e ce a9 3e 48 7a 70 3e 69 d3 58 3d
       -0.28415304 0.33165115 0.23484147 0.05293599
000180 e0 e8 4a bd 96 97 57 3d c9 6c 39 be e4 ed 04 3e
       -0.049538493 0.052634798 -0.18107904 0.12981373
000190 4c 21 d0 3d 3b 94 e3 3d 0c 74 fa 3c 24 2f 32 3d
       0.10162601 0.11112257 0.030572914 0.043501988
0001a0 1c b0 8b bd c6 28 3d 3d e5 bc c5 3d 58 52 21 be
       -0.068206996 0.046181463 0.096551694 -0.15754068
0001b0 b0 f0 90 bb 07 0e ec bc 44 61 29 3d 03 93 0e 3e
       -0.0044232234 -0.028815283 0.041352525 0.13923268
0001c0 da 59 02 bd 74 75 1f ba fd 4d 72 be d4 3a be bc
       -0.03182397 -0.00060828705 -0.23662563 -0.02322141
0001d0 6e 95 21 bc 80 6a 84 bd 9a 19 4a 3e 95 ab ce 3d
       -0.009862287 -0.06465626 0.19736329 0.100913204
0001e0 7a 03 85 bd 77 6c 2c be b5 eb 1a 3b 75 da d6 bd
       -0.06494804 -0.16838251 0.0023639027 -0.10490886
0001f0 6a c6 f0 3d 30 0f 01 be ee df 0f 3e 19 9a 7c bd
       0.117565945 -0.1260345 0.14050266 -0.061670396
000200 07 45 36 3e e2 d8 d9 bd 71 69 6c 3d 5d 28 6c 3e
       0.1779977 -0.1063707 0.057717744 0.23062272
000210 c9 9a a5 bd 65 9c 82 3e 59 10 39 3d b4 7b b3 bd
       -0.080861636 0.25509945 0.045181606 -0.08763829
000220 96 42 98 bd 31 e1 e4 3d 0e 90 28 be 3f f9 22 3d
       -0.07434575 0.11175764 -0.16461203 0.03978848
000230 78 cd 43 be 3d 9a 0f bd 4c 0a 93 3d d7 b2 e1 3d
       -0.19121349 -0.035059202 0.07179698 0.11020439
000240 d0 4c d2 bd 39 f8 96 bc 1a df 74 bd 95 f5 37 be
       -0.10268557 -0.018428909 -0.05978308 -0.17964776
000250 c1 65 df 3d 65 6f 4d bd d5 cf 8d bd eb ac 35 bc
       0.1090808 -0.050155062 -0.069244064 -0.01108859
000260 b3 e8 2a 3c e6 8c 42 3e 47 02 39 3e 93 c9 af 3c
       0.010431456 0.18999061 0.18067275 0.021458423
000270 92 4a b1 3d 6b b4 72 be ea 37 41 be 71 67 ba bb
       0.08656801 -0.23701636 -0.18868986 -0.0056886007
000280 a6 e9 af 3d 7f a8 6b be ad 1f fb bc 72 ce 5f be
       0.08589487 -0.23013495 -0.030654753 -0.21856096
000290 53 8f 0e 3e af b7 93 bc f4 82 cc 3d cb 93 66 be
       0.13921861 -0.018031923 0.09985915 -0.22517316
0002a0 f1 16 2c 3d c2 34 21 3e 5e d0 16 3e a8 15 8d bc
       0.042014066 0.15742782 0.14727923 -0.01722224
0002b0 36 1d b5 bd ec 7a 33 be 77 26 47 3c c5 09 2a bc
       -0.08843462 -0.1752736 0.012155167 -0.010378306
0002c0 70 29 ae bd a7 85 40 bd 67 fa 10 3e 13 cb 97 3d
       -0.08503997 -0.04700246 0.14158021 0.0741178
0002d0 24 b0 4d 3e 74 7d 8d bd 94 39 a1 bd 86 de dd bd
       0.20086724 -0.06908694 -0.0787231 -0.108334586
0002e0 a3 9d 99 3d a4 63 4e bd 74 92 1d 3e d6 96 0e be
       0.0750077 -0.050387993 0.15387899 -0.13924727
0002f0 56 be f2 bc 2c f4 3d 3b cf d3 30 3e 87 a2 5a 3d
       -0.029631775 0.002898465 0.17268299 0.053377654
000300 e0 75 da bb 0e 71 0d bc d3 c6 49 3c 05 ac 5e bd
       -0.006666884 -0.008632911 0.01231547 -0.05436327
000310 dd a7 0d bd 00 d4 05 3e 07 be 3d 3d 3a 81 c0 3b
       -0.034583915 0.13069153 0.046323802 0.00587478
000320 c6 c4 16 3e 5d 93 79 bd 82 0e 4d be a3 5c 17 3c
       0.147235 -0.060931552 -0.20025066 0.009238395
000330 36 a6 05 bd 5a 9f 8f bd f5 6c fb 3d 25 8e 69 be
       -0.032629214 -0.07012816 0.12276641 -0.2280813
000340 b2 84 ad ba bd 6a ba 3d f4 87 8d bd 08 6d 8a 3c
       -0.0013238399 0.0910239 -0.069106966 0.016897693
000350 da e8 2b 3e b8 1b 76 3c cb 86 98 3d 58 0c a9 bc
       0.16788045 0.015021257 0.07447585 -0.020635769
000360 84 19 16 3e 76 59 f5 3d 6d 48 9e bd f6 a9 68 bd
       0.14658171 0.11979954 -0.07728658 -0.056802712
000370 63 22 7c bd 47 c1 ff 3d 6c 83 e9 3b 0f c7 1f be
       -0.06155623 0.124880366 0.0071262624 -0.15603279
000380 ca 81 84 bd a9 cc 5e be b1 b7 48 3e 15 03 d4 3d
       -0.06470068 -0.21757759 0.19601323 0.1035215
000390 87 17 ae bc 1b 80 5c bd 91 55 9c 3c 32 6e dc 3d
       -0.021251453 -0.05383311 0.01908377 0.107632056
0003a0 e3 94 90 bd 11 70 4f 3e bf 68 f9 3c ef 22 bd bc
       -0.07059648 0.20257594 0.030445455 -0.023087947
0003b0 2b 0f 77 be 4d fe b7 3c 5e 4d 72 bd 8f 6c c3 bd
       -0.2412688 0.022460127 -0.059155814 -0.0954219
0003c0 f5 7b 59 bd 95 17 99 bc f8 df c4 b9 ab 2c cb bd
       -0.05309673 -0.018688003 -0.00037550903 -0.09920629
0003d0 eb 67 53 be 03 0f 76 3e d9 94 c3 3c 58 a7 58 3d
       -0.2064511 0.24029164 0.023874687 0.052893966
0003e0 e2 c6 32 bd c2 dd da 3c 75 18 15 be 55 ef b3 3c
       -0.0436467 0.02671707 -0.14560111 0.021964708
0003f0 c2 bc 6c 3e 39 ab 87 3d ef 0c d1 3d 6e f8 24 bc
       0.2311888 0.06624455 0.10207545 -0.010068996

bias f4 [256]
000000 86 79 10 3d ca d0 23 bc f3 6a 36 bc b5 02 3b 3c
       0.035272144 -0.00999851 -0.011133897 0.01141422
000010 30 0d 2a bc 34 44 74 bc d8 63 2d 3d 90 1d e2 bb
       -0.010379121 -0.014908839 0.042331547 -0.006900497
000020 44 3c 4f 3c 15 c7 1d bc b4 a0 33 bc 57 73 02 3d
       0.012648646 -0.009629984 -0.010963608 0.031848278
000030 a6 57 4e 3c 95 f7 b8 3c 93 0c 99 3c 39 38 82 3c
       0.012594139 0.022578994 0.018682754 0.01589595
000040 92 37 d0 3c fe 70 03 bc 00 00 00 00 6d 47 08 3d
       0.025417123 -0.008022545 0.0 0.033271242
000050 3a 99 04 bc 7c 46 47 bc cb 90 51 bc 5c 4d ca bb
       -0.008093173 -0.012162801 -0.012790869 -0.0061737727
000060 b9 e9 0a bc 7e a7 65 3c 37 8e 11 3b 7e d3 57 bc
       -0.008478575 0.014016984 0.002221001 -0.013172982
000070 a4 fc 80 3c 04 7b 37 3c 00 00 00 00 b5 18 2e 3d
       0.015745468 0.011198763 0.0 0.04250403
000080 fe 37 e0 3b 50 2e 06 bc 62 e2 cf bb 9d a7 ea bc
       0.0068426123 -0.008189753 -0.0063441256 -0.028644377
000090 0b aa 80 3c 06 16 03 bd bb 88 07 bc 83 5d c9 3b
       0.015706083 -0.032003425 -0.008272345 0.0061451807
0000a0 d1 6d bc 3c e8 0b b5 3c 63 70 7b bc c7 5b 80 bc
       0.023001583 0.022100404 -0.015346619 -0.015668763
0000b0 c8 48 e3 bc 0b 23 a8 bb 45 a5 89 3b 92 bf 30 bd
       -0.027744666 -0.0051311306 0.00420061 -0.043151446
0000c0 49 2d 80 3c 79 58 15 3c b4 12 a2 3c 90 1e 07 bc
       0.015646594 0.009115332 0.019784309 -0.008247033
0000d0 64 9c 4a 3c 5a 9f 63 3c 0a ee 3a bc 7f bf 8c 3c
       0.012366388 0.013892973 -0.011409292 0.017181156
0000e0 ff ed 16 bc 7c df fc 3b 42 b9 da 3b 5b 09 86 3c
       -0.009212016 0.007717071 0.0066749165 0.016361883
0000f0 25 18 4b 3c 36 ae fe 3c c5 ec 9e bc c7 e3 da 3c
       0.012395893 0.03108893 -0.01940001 0.02671994
000100 00 b3 bd bb 03 ba 3a 3c d3 18 79 bc 76 da 84 3c
       -0.0057891607 0.011396888 -0.015203672 0.016217452
000110 00 00 00 00 d1 c9 c4 bb 5e b9 19 3c 51 49 45 bc
       0.0 -0.0060055037 0.009382574 -0.012041406
000120 90 78 73 bc 98 34 32 3c b4 97 f4 3b ad 12 ae bc
       -0.014860287 0.010876797 0.0074643735 -0.02124914
000130 52 26 4d 3c 32 de b8 3d eb 15 5f bc bf 85 53 3b
       0.012521343 0.090267554 -0.0136160655 0.0032275764
000140 3d b6 cf bb 74 59 23 3d a5 e9 c3 3c 26 33 c2 bb
       -0.006338863 0.03988023 0.023915121 -0.0059265075
000150 0e c3 da bb 73 cb 7e 3c 2b 22 b1 bc a4 d9 47 3c
       -0.0066760844 0.015551436 -0.021622738 0.012197886
000160 b4 90 ae 3c 40 e4 cc 3c 2a 52 de bb 88 e6 23 bc
       0.021309234 0.025011182 -0.006784697 -0.010003693
000170 3d 93 06 3c 46 06 5a 3c 32 99 63 bc 36 25 37 bc
       0.008213815 0.01330716 -0.013891505 -0.011178305
000180 19 a9 4f bc 79 ad 3c bc c4 f2 7b 3c 4a 5c fb bb
       -0.012674593 -0.0115159685 0.015377704 -0.007670914
000190 d8 c9 c4 bb f5 8b 4b 3c 52 06 7b 3c d3 a6 40 bc
       -0.006005507 0.012423505 0.015321331 -0.011758524
0001a0 ba c0 63 bc 44 fa 04 3b d7 9a be bc 00 00 00 00
       -0.01390093 0.0020290771 -0.023267193 0.0
0001b0 7b d1 ae 3b 9b 40 39 3c 6b f0 eb bb 00 00 00 00
       0.0053350306 0.011306907 -0.007200291 0.0
0001c0 7f 99 74 bc 00 00 00 00 76 8a e6 3b fd 9c d5 bb
       -0.014929174 0.0 0.007035549 -0.0065189586
0001d0 25 d8 3a bc 0a f4 14 3c 95 0a 3a 3d a1 9b 7c 3c
       -0.011404072 0.009091387 0.045420248 0.015417964
0001e0 e3 44 8b bc 6d 56 92 3c fe 03 13 3c ae 75 f0 bb
       -0.017000621 0.017863477 0.00897312 -0.0073382473
0001f0 a2 51 d3 bb 00 00 00 00 f3 64 3e 3c 01 cf 16 3c
       -0.0064489404 0.0 0.011620748 0.009204627
000200 00 00 00 00 b1 5a 43 bc ac bd 71 3c a9 45 21 bc
       0.0 -0.011923478 0.014754694 -0.009843268
000210 9c 0a d0 3c 00 00 00 00 16 bf 1b 3d 0e 3e ba 3b
       0.025395684 0.0 0.03802403 0.005683667
000220 00 00 00 00 d7 07 5a bc 2c 27 93 3c 40 a8 20 3d
       0.0 -0.013307533 0.017963015 0.039222956
000230 23 28 e5 3b 3d 4d d5 3c bc b6 1d bc 19 93 01 3d
       0.00699331 0.026037807 -0.009626087 0.031634424
000240 8a e6 b2 3c ea b0 c4 bb 7c 50 08 3d 7a a1 85 3b
       0.021838445 -0.006002535 0.03327988 0.0040780874
000250 ce 47 3e 3c 17 3c 5f bc f8 72 3b 3c 70 5a 6a bc
       0.011613799 -0.013625166 0.011440985 -0.014303789
000260 ab 0b 47 3c a6 10 84 3c 74 a4 3d 3c 10 fc 2d 3c
       0.012148778 0.01612122 0.011574853 0.010619178
000270 af 57 16 3c 99 23 6a bc dc f5 b0 3c 83 c9 38 3d
       0.009176179 -0.014290714 0.02160161 0.04511405
000280 07 c6 58 3c 62 9d 08 3d fe ad 58 3c f0 e9 71 bc
       0.013230807 0.033353217 0.013225077 -0.014765248
000290 00 00 00 00 80 ee da 3b c7 f4 b5 3c 80 3c 0c 3c
       0.0 0.0066812634 0.022211445 0.008559346
0002a0 84 2c af bb db 1f 19 bc 65 1b 54 3c ed 8b 36 bc
       -0.005345883 -0.009345974 0.0129459845 -0.011141759
0002b0 6b ce 58 3c 67 7a b4 3c 68 54 ab bb f6 99 31 bc
       0.013232808 0.022031022 -0.005228568 -0.01083993
0002c0 a8 ea 04 3d d7 47 70 bb a0 df f7 bb 00 00 00 00
       0.03245035 -0.0036663914 -0.0075645 0.0
0002d0 49 73 35 bc f2 59 94 3c 77 e0 c7 bb 90 99 d3 3b
       -0.011074849 0.018109296 -0.0060997563 0.006457515
0002e0 18 04 be 3c b4 a5 3c 3c dd 04 dd 3c 17 49 f9 3c
       0.023195311 0.011514116 0.026979858 0.03043036
0002f0 7d 54 44 bc a7 64 04 bc 0e e4 e8 3c 93 d8 06 bc
       -0.011983034 -0.008080638 0.028429057 -0.008230346
000300 53 52 63 bc d7 1c 56 39 bd 8e e1 3b 9d 7c b4 3b
       -0.013874608 0.00020419374 0.006883471 0.005508019
000310 50 8c 92 3c e6 cf 64 bc 00 00 00 00 da 54 11 bc
       0.017889172 -0.0139655825 0.0 -0.008870328
000320 d8 13 e8 3c 95 49 5a bc 81 f6 9e 3c 00 00 00 00
       0.028329775 -0.013323207 0.019404652 0.0
000330 5a ac c7 bc 3a fe a8 bc 5a 68 2c 3c 78 0a 25 bc
       -0.024374176 -0.020629037 0.010522926 -0.010073297
000340 6f 87 16 3d d8 c9 c4 bb 48 ff 4f bc ab 80 21 3d
       0.036750253 -0.006005507 -0.012695141 0.039429348
000350 50 57 84 3c 15 73 8a bc 2d d6 2c bc c3 82 32 ba
       0.016154915 -0.016900579 -0.01054911 -0.0006809646
000360 e7 27 52 3c 88 50 65 bc f0 2a a5 3c e2 b9 d6 bb
       0.012826896 -0.013996251 0.020162076 -0.0065529207
000370 33 4b 0c bd 00 00 00 00 2b 4c c0 3c 00 00 00 00
       -0.034251403 0.0 0.02347382 0.0
000380 f0 13 1b 3d 03 45 82 3c 08 f4 f3 bb 00 00 00 00
       0.03786081 0.015902048 -0.0074448623 0.0
000390 5f a3 d4 bc f9 22 36 bc 2e 6e 3f bc 38 64 c2 3b
       -0.025956808 -0.011116737 -0.011683984 0.005932357
0003a0 57 b5 9a bc 32 3c f7 bc a2 cd f0 3b 2d fd 11 3d
       -0.018885298 -0.03018007 0.007348732 0.035641838
0003b0 9d 81 19 3c 4d e2 22 3d 58 7d 7f 3b a7 fa 0e 3d
       0.009369281 0.0397666 0.0038984623 0.03490701
0003c0 e9 fa 1e bc 75 a0 17 bc 4e 0a 92 3c 84 d9 b5 bb
       -0.009703376 -0.0092545645 0.01782718 -0.0055496115
0003d0 71 1b 16 3d f8 55 04 3c 72 68 cf ba 18 b2 2e bc
       0.036647264 0.008077137 -0.0015823974 -0.010662578
0003e0 b8 75 5f 3c 2a 3d 85 3c 17 51 39 3c c5 4b 91 3c
       0.013638906 0.016264517 0.011310837 0.017736325
0003f0 90 26 7d bc 6e 8f 0a 3c 24 cb f3 3c f3 38 e5 bb
       -0.015451089 0.008457048 0.029759951 -0.0069953143

weight f4 [2, 256]
000000 69 f7 75 bd e4 af 0e be ed d6 ab bd a2 40 d2 3d
       -0.0600504 -0.13934284 -0.08390603 0.10266234
000010 fa 67 79 bd 1f bd 6c bd 27 d2 d9 3e 16 27 0c be
       -0.060890175 -0.057797547 0.42543146 -0.13686785
000020 2c 28 09 3d 88 7b 4e 3d 17 26 46 bd 4e 0c 03 3f
       0.033485577 0.050410777 -0.04837617 0.5119065
000030 f6 79 f2 bc 4a 14 78 3e ee 0f bb 3e e7 5f 94 3c
       -0.029599171 0.2422649 0.3653559 0.018112136
000040 91 a9 c5 3e 79 fc fa bc 15 a3 4c bd 23 60 8f bc
       0.3860593 -0.030637966 -0.049960215 -0.017501896
000050 3b f6 c6 bd f4 36 11 3d 34 75 a8 bd e4 d7 1b 3b
       -0.097149335 0.035452798 -0.0822548 0.0023779804
000060 3a 87 8e bd 28 ca 21 bd 90 06 16 3d 39 14 25 bc
       -0.06959386 -0.03949943 0.036627352 -0.010075622
000070 39 5f d1 3d e2 e7 f7 3d 71 0c 25 be 1d d4 b5 3e
       0.102232404 0.12104775 -0.16118027 0.35513392
000080 da 15 dc b9 6e c1 bf bd 33 79 2a be b7 57 97 3e
       -0.0004197795 -0.09363066 -0.16647796 0.2955911
000090 60 48 7a bc e4 61 4c bd fc 82 67 bd 66 48 04 3d
       -0.015276045 -0.049898043 -0.0565214 0.032295607
0000a0 d9 97 22 be e1 8d 64 3f a7 2d 43 bd 91 a3 2b bd
       -0.15878238 0.8927899 -0.04765096 -0.041904036
0000b0 b8 94 5f bf 60 13 57 3b ee 13 d1 ba d8 c7 86 3b
       -0.873363 0.0032817945 -0.0015951374 0.0041131787
0000c0 53 1f ef bb cd 16 20 3d 72 39 dd 3e 80 00 48 bc
       -0.0072974353 0.039084245 0.4320789 -0.01220715
0000d0 94 e0 e9 3a 5c 3f 83 bd f3 e6 50 bd 7d 90 c7 3e
       0.0017843419 -0.06408569 -0.0510015 0.38977423
0000e0 f8 0f c8 bd 0a cb 97 3e 7f 13 e6 3d c9 ff c0 3e
       -0.09768671 0.29647094 0.11234187 0.3769515
0000f0 13 8b 37 3c d1 f4 9b 3f 00 23 82 bd f6 94 ca 3e
       0.0112025915 1.2184087 -0.06354332 0.39566773
000100 97 62 55 3c 29 2d e8 bd d0 6c 33 bd 7c 5b 19 be
       0.013023994 -0.113367386 -0.043804944 -0.14976305
000110 95 62 6c bd c7 a4 b0 3d e2 9b 65 3e bd b9 5d bb
       -0.057711203 0.08625179 0.22422746 -0.0033832632
000120 b3 af c9 bd 79 bb 16 3e 06 b3 69 3d ec 3a 90 3c
       -0.09847965 0.14719953 0.057055496 0.017606221
000130 d1 39 df 3c 95 d5 e0 be 45 35 6a bb 10 ea 96 bc
       0.027249249 -0.4391295 -0.0035737318 -0.018422157
000140 7b 54 cd bc 35 a4 d1 bd 75 dd 10 3f c2 7e ab 3c
       -0.025064697 -0.10236398 0.56587917 0.020934466
000150 ca 28 8a bb 48 56 e5 3e 32 44 b1 bc 51 5d 67 3e
       -0.004216288 0.4479239 -0.021638963 0.22594191
000160 b9 90 05 bc 8e 2e d5 3e b0 24 fb bc 81 da 67 bd
       -0.00815218 0.4163708 -0.030657142 -0.056604866
000170 0a 00 81 3c 7a b4 61 bc b8 f5 d7 bb 00 f4 33 bd
       0.015747089 -0.013775939 -0.0065905713 -0.04393387
000180 91 21 50 bd dc 1c 05 bc e5 ae 1f 3f 9c d6 22 bd
       -0.05081326 -0.008124556 0.6237624 -0.03975545
000190 d2 f1 a5 3d 94 0b b3 3d fc ce 00 3c 2f 70 b4 bd
       0.08102764 0.08742443 0.007861849 -0.0881046
0001a0 09 c2 ad bc 0a 3a ba 3c b5 b9 6b bc 72 db 5f 3d
       -0.021210687 0.022732753 -0.014387538 0.05465264
0001b0 d7 f2 8f 3e 3a c7 5a 3c 91 ea 8d bd 11 4c 60 3c
       0.2811496 0.013353163 -0.069295056 0.013690011
0001c0 84 6b 96 bd b7 00 92 bd 10 55 84 3d 99 ed 59 bd
       -0.07344726 -0.071290426 0.06461537 -0.053205106
0001d0 57 d4 79 bc e2 ba ff 3d 01 ea 24 3f a3 6f 06 bd
       -0.01524838 0.12486817 0.6441956 -0.03282131
0001e0 9b f0 e5 3c 34 63 aa be 26 1e 91 3d f2 90 3b bb
       0.028068831 -0.3327881 0.070858285 -0.002862033
0001f0 5a f3 a6 3d c4 b6 d1 3d 19 0f 94 3d d1 62 b6 3e
       0.081518844 0.10239938 0.07229442 0.35622266
000200 8e 2f 34 3d f2 8a 32 ba 90 99 cf 3d 92 13 0a be
       0.043990664 -0.00068108656 0.101367116 -0.13484028
000210 73 90 ab 3e de 1e ae 3c 5c 6a c5 3e 0a 9f e1 3d
       0.33508644 0.021254953 0.38557708 0.110166624
000220 20 da b3 3d b7 27 70 be ce 13 00 bd 11 b1 2c 3f
       0.087818384 -0.2345265 -0.031268887 0.6745768
000230 72 0b 1d 3c 6b 04 25 3f e3 d5 ec 3a 08 cc 86 bd
       0.009585248 0.64459866 0.0018069114 -0.065818846
000240 80 25 ba 3e 52 e5 99 bd 80 eb 52 3f a5 42 25 3e
       0.36356735 -0.075144425 0.82390594 0.16138704
000250 eb 4c 7b bb b0 a8 91 bd c7 e5 ff 3e a0 c2 d7 bd
       -0.0038345407 -0.07112253 0.49979994 -0.10535169
000260 36 d1 ca 3d 0c 67 1c 3f db a1 77 3e 32 e0 bf bc
       0.09903185 0.6109474 0.24182837 -0.023422334
000270 df 05 ab 3d 95 cf 52 bc 9c d2 92 3e 8a 88 54 3f
       0.08350729 -0.012866874 0.28676307 0.8302084
000280 f1 db 1d ba c6 d4 91 3e d9 0c 94 bd a2 78 6a bc
       -0.00060218485 0.28482646 -0.07229013 -0.014310988
000290 15 e4 c3 3d 7d 21 83 3d 7a 44 db 3e b4 c3 8a bd
       0.095649876 0.06402872 0.4282568 -0.06775609
0002a0 96 2d f1 bb 76 da df bc de 31 bd bd 12 91 a3 bd
       -0.0073601706 -0.02732585 -0.09238027 -0.07986654
0002b0 d8 0d ae 3b b3 c5 4d 3e a9 b2 84 3c cd b2 c6 3a
       0.005311709 0.20094948 0.016198473 0.0015159488
0002c0 23 23 3b 3f db f8 41 bd b3 26 a7 bc 9e ac ce bc
       0.7310049 -0.047356468 -0.020404195 -0.025228795
0002d0 0a e8 ab bd 40 44 88 3e 69 2d c8 bd 15 b7 ae 3e
       -0.08393867 0.2661457 -0.09774286 0.34124056
0002e0 c2 74 7d 3e 9e 9e f4 bd 37 05 cc 3e 53 9a 38 3f
       0.24751571 -0.11944316 0.3984773 0.7211048
0002f0 e2 48 dd bc 23 02 ef bd e9 87 8a 3e e4 3c 7b bc
       -0.027012292 -0.116703294 0.27056816 -0.015334342
000300 3b d4 3e bd a2 8e 2d 3e 7f b4 53 3d 8d b4 fb 3d
       -0.046589117 0.16948941 0.051685806 0.12290297
000310 2d 40 33 be ac c1 eb bc bb a1 65 bd 74 7f 6d bd
       -0.1750495 -0.028778873 -0.05606244 -0.057982877
000320 87 d7 8d bd 40 a8 24 bd 0d 40 e4 3e 6e a6 4c 3c
       -0.06925874 -0.04019952 0.44580117 0.012490852
000330 2b 9c 8f bd 69 d4 b3 bc 0b a9 4d 3d e8 ce 6d bd
       -0.070122086 -0.021951871 0.05021004 -0.05805865
000340 53 48 c6 bd ff 13 96 bc 4c 94 41 bd 80 f0 fe 3e
       -0.096817635 -0.018320082 -0.047260568 0.49792862
000350 9b a7 94 bd a2 32 71 bc 94 81 85 3d bd df 96 3c
       -0.07258531 -0.014721544 0.06518856 0.018417234
000360 83 c3 84 3e 2f da bd bc 63 5f d4 bd 72 68 a5 bd
       0.25930414 -0.023175327 -0.10369756 -0.08076562
000370 8f e2 bc 3c bb 70 2d bc 96 f1 87 3d fb d6 e2 3c
       0.02305725 -0.010585959 0.06637876 0.027690401
000380 75 b5 47 bd 9c 25 8c 3c 6a 7e 0c bd c3 04 0f 3d
       -0.048757035 0.017107777 -0.034300245 0.03491665
000390 51 e5 18 bd c5 9b 60 bd 54 77 4a bd 97 83 4c 3d
       -0.03732807 -0.054836053 -0.049430206 0.04993018
0003a0 b7 e7 49 3d 45 5a 58 bd 11 5b 95 3d c8 80 01 be
       0.049293246 -0.052820463 0.0729276 -0.12646782
0003b0 35 35 a6 3e 9c 96 10 3f 16 45 6f bc ec 02 2e 3f
       0.3246247 0.5647981 -0.014603874 0.6797321
0003c0 38 77 3f bd 25 66 92 bc d7 12 f4 bb e7 c3 7c 3d
       -0.046744555 -0.017870972 -0.007448535 0.061710265
0003d0 f4 64 d5 3e 60 e9 ae 3d 5a 72 70 bd c7 ee f8 bc
       0.41678584 0.085406065 -0.058702804 -0.030387295
0003e0 90 c5 39 3e 2f 69 66 bd 0d a6 f6 3d 79 fd c0 3d
       0.1814177 -0.056252655 0.120433904 0.09423346
0003f0 98 54 6d 3c bf 70 01 3e 73 b6 73 3e 93 09 d7 bc
       0.014485501 0.12640665 0.23800068 -0.026249683

bias f4 [2]
000000 ea ea 49 3c 1b 1f a5 3c
       0.012324074 0.020156434
