exp_local/gcbc_fixed/weights/0.pt (torch, 274440 bytes, 6 tensors)

weight f4 [256, 4]
00000000: d6eb b7bd f290 0fbd 45c1 ca3c d063 983d
00000010: 3551 98bd 246c b63d 4d6c 06be 457a 563c
00000020: 1629 f73b 86ad 903c fde8 183e 3101 0d3c
00000030: 48eb 113c 4cbe 8f3d 9605 51bd d1e7 013c
00000040: ce49 973c ba35 96bd 40c8 b4bd ddf4 bdbb
00000050: 4324 d8bd 9fa0 d9bc eb4e 9fbc c2ed 5abd
00000060: d856 323d 1d00 b43d 214b e53d 2f25 233d
00000070: 9962 9a3d b69e 133b d6ec a23d 7678 ce3c
00000080: e7d4 81bd 6e63 3fbd 87cb a53c 78ee 7b3d
00000090: 5938 7d3d 6635 b03d 1be4 84bd 28d2 e4bb
000000a0: 9661 38bc 7fef 8cbb 978e 363d b97c 84bd
000000b0: 3c1f b13d 9070 d5bc 0da4 e8bb 9625 00bc
000000c0: 57f9 ef3d c2e3 ddbd 4cb3 f7bd a6a3 e13c
000000d0: c08e 213d 563f b03d 743d ac3d 4577 abbd
000000e0: f047 823d 5d77 e03c be35 8e3d f450 a6bd
000000f0: 18d0 01bd 4ded cf3d 8d4e a1bc af71 b33c
00000100: 12b0 d33c c53c 5fbc 1ddb 7d3d 93ac 84bb
00000110: 4809 933d 0ebf c13d 9398 813c cf5b bebc
00000120: 38b3 2dbb ed3a 853d ce5d 1f3c 83b1 55bd
00000130: ce02 64bc 3942 95bd 7cf3 473d a927 223d
00000140: a185 66bc 2e94 7a3d 7e27 37bd 0503 d2bc
00000150: 1d98 f03d bc68 37bb b3b5 45bd 2b15 6e3a
00000160: db58 243d aa7e 6d3d 625b 87bd 6c62 cabc
00000170: 3b4f ca3d 18f5 e53d f243 51bd dbf9 613d
00000180: a821 26b9 2872 92bd 6c9d 1cbd 943b 343e
00000190: e34f c63c 2966 4e3c eb5a 543d 72b4 cfbc
000001a0: 3f6d c2bd 6b02 09bd e544 40bd 5e4c 593d
000001b0: f905 283e 0802 bf3d a714 cebc 8ed7 033d
000001c0: 2a09 723d 4dca dcbd b3c0 9bbd f53b 543d
000001d0: 9f41 5a3c 9c5b 783c 535a b03c 2cf5 86bc
000001e0: 180a 9abd 1a71 05be a6c8 823b 9e5a 0bbd
000001f0: eb9c eb3c a83e c5bb 1582 03bd 48d5 9fbc
00000200: d6c5 b1bc 33a2 f73c 0b96 f1bc b8d3 063d
00000210: 0f10 99bd a7ff 5a3d 0d23 603d dc05 cbbb
00000220: 2b31 3dbc a624 84bc 73a5 38bd 20d7 983c
00000230: fb38 c0bd 47be 59bd cdbd 1bbc 7341 a0bc
00000240: 8715 113d ff86 52bd a203 c63d 6cfa 0e3d
00000250: b4ab ee3c 7ce5 bbbb 68de bcbd c7ca 083d
00000260: 0a30 1d3e 6bd1 f8ba 0651 e03d 9418 ecbc
00000270: 2ec8 b43d 2b04 c93c 0699 77bd 7650 9c3d
00000280: 60aa 173d 7a5d e53d 216c 773b 94d4 30bd
00000290: 2433 b53d 4e09 19bd 2fc5 783d 87f7 6abd
000002a0: cf49 403d 15d4 023e d8a0 01bd c937 d7bc
000002b0: a9f8 0ebd bff5 583d 1f53 5e3d 5e50 f93d
000002c0: 28d3 f2b9 cbbb febc c871 d83d 7968 babd
000002d0: 93d1 22ba 38a9 073c bf41 a4bd b0df a73c
000002e0: 1a42 373b fca2 82bd 9ee9 9fbd 7720 51bd
000002f0: 0723 f13d 306e 733d 10bf 123d b862 4b3d
00000300: 012c b2bd ff00 f4bb 988f 96bd 2468 5cbd
00000310: 244e d2bc 856f a8bc 72a7 9ebc 5265 b93c
00000320: 3b06 bb3d d30c 07be 57ae a3bd 5970 83bd
00000330: b23c 5cbd 6240 21bd 0993 76bd 6153 9bbd
00000340: 958c 4b3e a64f bf3c b4ec 1d3d 081c 2a3d
00000350: 0d2b 2c3d aa0d e5bc fa08 943c 00f2 923d
00000360: 0586 933c b76d d73d 7cea 36bd bee9 93bd
00000370: 8ea6 9e3c 05ed 9c3d c557 bcbc 8598 853d
00000380: 7608 6a3d 4378 bb3c 5dbb d3bd 267c 89bd
00000390: f60a 983d 6159 9e3c 5edd ea3c 8a76 263d
000003a0: 86cd 3cbd a6c1 0a3d 2f4f 013e 2bc2 6b3c
000003b0: eeeb 02bb c840 2c3d 6c75 123d 660f 82bd
000003c0: 62fd 83bd 54fa 6e3d 4e4e ddbc 8f2b 9fbc
000003d0: 29b4 9a3d a5b8 32bd 1143 03bd cf3b 223d
000003e0: 5a91 4a3d 8388 81bd f8e4 0cbc 0e85 bebc
000003f0: b6cc 113b b735 88bd a8a4 8b3d 515c 1bbd
-0.08980529 -0.03505034 0.024750361 0.07440913 -0.07437364 0.08907345 -0.13127251 0.013090675
0.0075427396 0.017660867 0.14932628 0.008606241 0.008906193 0.07018718 -0.051030718 0.0079288045
0.01846781 -0.07334466 -0.08827257 -0.0057970122 -0.105537914 -0.026565848 -0.01944681 -0.0534494
0.043539852 0.08789084 0.1119597 0.039830383 0.07538337 0.002252502 0.07955329 0.025203925
-0.06339436 -0.046725683 0.020238651 0.06150672 0.061821315 0.08603935 -0.0648882 -0.0069830604
-0.011253735 -0.004301011 0.044569578 -0.064691015 0.086485356 -0.02605465 -0.0070996345 -0.007821461
0.1171748 -0.10834457 -0.12094745 0.027543854 0.039442778 0.0860583 0.08410159 -0.08372358
0.06361377 0.027400667 0.06943844 -0.08120909 -0.031692594 0.101526834 -0.019690776 0.021904794
0.025840793 -0.013625328 0.06197654 -0.0040488928 0.07179505 0.09460269 0.015819823 -0.023237137
-0.0026504528 0.0650538 0.009726955 -0.05217124 -0.013916684 -0.072880216 0.04881619 0.039588604
-0.014069946 0.06117647 -0.044715397 -0.025636205 0.11747763 -0.002798601 -0.048268985 0.0009082134
0.0401238 0.057982124 -0.06609227 -0.024705134 0.09878393 0.112283885 -0.05109019 0.05516992
-0.00015843532 -0.0715068 -0.038236067 0.17600852 0.024208015 0.012597599 0.05184452 -0.025354598
-0.09493493 -0.03344957 -0.046940703 0.053051345 0.16408528 0.09326559 -0.025156332 0.03218799
0.05909077 -0.10780773 -0.07605114 0.051814992 0.013321309 0.01515856 0.021527445 -0.016474329
-0.075214565 -0.13031426 0.0039912043 -0.034021966 0.028761348 -0.006019432 -0.032106478 -0.01951088
-0.02170078 0.03022871 -0.029490491 0.032916754 -0.07473766 0.053466465 0.054720927 -0.006195767
-0.011547367 -0.016130757 -0.04507966 0.018657267 -0.09385868 -0.05315998 -0.009505701 -0.019562459
0.03542092 -0.051398274 0.09668662 0.03490679 0.029134609 -0.005734144 -0.09222108 0.03339651
0.15350357 -0.001898331 0.10952954 -0.028820314 0.08827244 0.02453812 -0.06044867 0.07632534
0.037027717 0.1119947 0.0037753659 -0.04317148 0.08847645 -0.03736239 0.060734924 -0.057364967
0.04694539 0.12776215 -0.031647533 -0.026271718 -0.03490511 0.052968737 0.05427849 0.12173532
-0.0004631516 -0.031095406 0.10568577 -0.09101958 -0.00062110386 0.008280091 -0.080203526 0.020492405
0.0027962984 -0.06378743 -0.07808231 -0.05105635 0.11774259 0.059431255 0.035826743 0.049654692
-0.08699799 -0.007446408 -0.07351607 -0.053810254 -0.025672026 -0.02056099 -0.019366954 0.022631321
0.09132048 -0.13188486 -0.07992237 -0.06417913 -0.05376882 -0.03936804 -0.060198817 -0.07584263
0.19877847 0.023353409 0.038555816 0.04153064 0.042033244 -0.027960617 0.018070687 0.07175064
0.018008241 0.10518973 -0.044657215 -0.07222317 0.019366529 0.076623954 -0.02299107 0.065232314
0.057136975 0.022884494 -0.10338471 -0.067131326 0.07423966 0.019329729 0.02867001 0.04064039
-0.04609444 0.033876084 0.12627862 0.014389555 -0.001997705 0.042053968 0.035756513 -0.06350593
-0.06444813 0.0583442 -0.027014878 -0.01942995 0.07553894 -0.043633122 -0.03204638 0.03960782
0.049455024 -0.06324866 -0.008599512 -0.023256805 0.0022247261 -0.0665087 0.06818515 -0.037929837

bias f4 [256]
00000000: 6d12 833a 6512 833a 6d12 833a 6e12 833a
00000010: 0000 0000 0000 0000 6d12 83ba 6c12 833a
00000020: 6d12 833a 6e12 83ba 0000 0000 6d12 83ba
00000030: 6d12 833a 6d12 83ba 6e12 833a 6e12 83ba
00000040: 6c12 83ba 6d12 833a 6e12 833a 6712 83ba
00000050: 6f12 83ba 6f12 833a 6912 83ba 6f12 83ba
00000060: 6e12 83ba 6512 83ba 0000 0000 6d12 833a
00000070: 6712 833a 6d12 83ba 0000 0000 6b12 833a
00000080: 6e12 833a 6b12 833a 0000 0000 0000 0000
00000090: 6d12 833a 6c12 83ba 6d12 833a 6e12 83ba
000000a0: 6d12 83ba 6d12 833a 6d12 833a 6e12 83ba
000000b0: 6e12 833a 0000 0000 0000 0000 6d12 83ba
000000c0: 0000 0000 0000 0000 6d12 833a 0000 0000
000000d0: 6f12 83ba 6e12 833a 6e12 833a 6e12 83ba
000000e0: 6a12 83ba 6e12 833a 6a12 833a 6e12 83ba
000000f0: 6e12 83ba 6e12 833a 6d12 833a 6d12 83ba
00000100: 6e12 83ba 6c12 833a 6c12 83ba 6e12 833a
00000110: 6e12 833a 6e12 833a 6c12 833a 6e12 833a
00000120: 6f12 83ba 6e12 833a 0000 0000 6e12 833a
00000130: 6e12 83ba 6d12 83ba 6f12 833a 0000 0000
00000140: 6312 833a 6f12 833a 6d12 83ba 6d12 83ba
00000150: 0000 0000 6a12 83ba 6f12 83ba 6c12 833a
00000160: 6f12 83ba 6a12 833a 6d12 83ba 0000 0000
00000170: 6e12 833a 6b12 83ba 6c12 833a 0000 0000
00000180: 6e12 83ba 6d12 83ba 0000 0000 6d12 83ba
00000190: 6e12 83ba 6d12 83ba 6e12 83ba 0000 0000
000001a0: 0000 0000 6d12 83ba 6e12 833a 6d12 833a
000001b0: 6d12 83ba 0000 0000 6e12 833a 6e12 833a
000001c0: 6e12 83ba 6d12 833a 6d12 83ba 6e12 833a
000001d0: 6e12 833a 0000 0000 6912 833a 6d12 83ba
000001e0: 6e12 833a 6e12 833a 6e12 83ba 6e12 83ba
000001f0: 6e12 833a 6e12 833a 6e12 833a 0000 0000
00000200: 0000 0000 6d12 83ba 6e12 83ba 6d12 83ba
00000210: 6e12 833a 6d12 83ba 6e12 833a 6d12 83ba
00000220: 0000 0000 6e12 833a 0000 0000 0000 0000
00000230: 6f12 833a 6e12 83ba 6e12 83ba 6d12 83ba
00000240: 6e12 833a 6e12 83ba 0000 0000 6e12 833a
00000250: 0000 0000 6e12 833a 6e12 833a 0000 0000
00000260: 6e12 83ba 6f12 833a 6e12 83ba 6e12 83ba
00000270: 0000 0000 6e12 833a 6d12 83ba 6d12 83ba
00000280: 6b12 833a 6f12 83ba 0000 0000 6f12 83ba
00000290: 6e12 83ba 6e12 833a 0000 0000 4712 833a
000002a0: 0000 0000 0000 0000 0000 0000 6e12 833a
000002b0: 0000 0000 6d12 83ba 6e12 833a 6e12 833a
000002c0: 6e12 83ba 6e12 833a 6d12 833a 6d12 833a
000002d0: 6a12 83ba 6e12 83ba 6f12 83ba 6f12 83ba
000002e0: 6d12 83ba 6d12 833a 6f12 83ba 6e12 833a
000002f0: 0000 0000 0000 0000 6e12 833a 6e12 83ba
00000300: 6e12 833a 6e12 83ba 6e12 83ba 6d12 833a
00000310: 6e12 833a 6d12 833a 6e12 83ba 0000 0000
00000320: 6f12 83ba 6e12 83ba 6e12 833a 6e12 83ba
00000330: 0000 0000 0000 0000 6e12 833a 6e12 833a
00000340: 6e12 83ba 6d12 833a 6e12 833a 0000 0000
00000350: 6e12 83ba 6c12 83ba 6f12 83ba 0000 0000
00000360: 0000 0000 6e12 83ba 0000 0000 0000 0000
00000370: 6e12 83ba 6b12 833a 6d12 833a 6d12 833a
00000380: 6e12 833a 6e12 833a 0000 0000 0000 0000
00000390: 6e12 83ba 0000 0000 0000 0000 0000 0000
000003a0: 0000 0000 0000 0000 6e12 83ba 6e12 83ba
000003b0: 6e12 833a 0000 0000 6c12 833a 6e12 833a
000003c0: 6e12 833a 6e12 83ba 6c12 83ba 6d12 83ba
000003d0: 6a12 83ba 0000 0000 6e12 833a 6e12 833a
000003e0: 0000 0000 0000 0000 6f12 83ba 6d12 83ba
000003f0: 0000 0000 6d12 833a 6e12 833a 6e12 833a
0.0009999998 0.0009999989 0.0009999998 0.0009999999 0.0 0.0 -0.0009999998 0.0009999997
0.0009999998 -0.0009999999 0.0 -0.0009999998 0.0009999998 -0.0009999998 0.0009999999 -0.0009999999
-0.0009999997 0.0009999998 0.0009999999 -0.0009999991 -0.001 0.001 -0.0009999993 -0.001
-0.0009999999 -0.0009999989 0.0 0.0009999998 0.0009999991 -0.0009999998 0.0 0.0009999996
0.0009999999 0.0009999996 0.0 0.0 0.0009999998 -0.0009999997 0.0009999998 -0.0009999999
-0.0009999998 0.0009999998 0.0009999998 -0.0009999999 0.0009999999 0.0 0.0 -0.0009999998
0.0 0.0 0.0009999998 0.0 -0.001 0.0009999999 0.0009999999 -0.0009999999
-0.0009999995 0.0009999999 0.0009999995 -0.0009999999 -0.0009999999 0.0009999999 0.0009999998 -0.0009999998
-0.0009999999 0.0009999997 -0.0009999997 0.0009999999 0.0009999999 0.0009999999 0.0009999997 0.0009999999
-0.001 0.0009999999 0.0 0.0009999999 -0.0009999999 -0.0009999998 0.001 0.0
0.0009999987 0.001 -0.0009999998 -0.0009999998 0.0 -0.0009999995 -0.001 0.0009999997
-0.001 0.0009999995 -0.0009999998 0.0 0.0009999999 -0.0009999996 0.0009999997 0.0
-0.0009999999 -0.0009999998 0.0 -0.0009999998 -0.0009999999 -0.0009999998 -0.0009999999 0.0
0.0 -0.0009999998 0.0009999999 0.0009999998 -0.0009999998 0.0 0.0009999999 0.0009999999
-0.0009999999 0.0009999998 -0.0009999998 0.0009999999 0.0009999999 0.0 0.0009999993 -0.0009999998
0.0009999999 0.0009999999 -0.0009999999 -0.0009999999 0.0009999999 0.0009999999 0.0009999999 0.0
0.0 -0.0009999998 -0.0009999999 -0.0009999998 0.0009999999 -0.0009999998 0.0009999999 -0.0009999998
0.0 0.0009999999 0.0 0.0 0.001 -0.0009999999 -0.0009999999 -0.0009999998
0.0009999999 -0.0009999999 0.0 0.0009999999 0.0 0.0009999999 0.0009999999 0.0
-0.0009999999 0.001 -0.0009999999 -0.0009999999 0.0 0.0009999999 -0.0009999998 -0.0009999998
0.0009999996 -0.001 0.0 -0.001 -0.0009999999 0.0009999999 0.0 0.0009999954
0.0 0.0 0.0 0.0009999999 0.0 -0.0009999998 0.0009999999 0.0009999999
-0.0009999999 0.0009999999 0.0009999998 0.0009999998 -0.0009999995 -0.0009999999 -0.001 -0.001
-0.0009999998 0.0009999998 -0.001 0.0009999999 0.0 0.0 0.0009999999 -0.0009999999
0.0009999999 -0.0009999999 -0.0009999999 0.0009999998 0.0009999999 0.0009999998 -0.0009999999 0.0
-0.001 -0.0009999999 0.0009999999 -0.0009999999 0.0 0.0 0.0009999999 0.0009999999
-0.0009999999 0.0009999998 0.0009999999 0.0 -0.0009999999 -0.0009999997 -0.001 0.0
0.0 -0.0009999999 0.0 0.0 -0.0009999999 0.0009999996 0.0009999998 0.0009999998
0.0009999999 0.0009999999 0.0 0.0 -0.0009999999 0.0 0.0 0.0
0.0 0.0 -0.0009999999 -0.0009999999 0.0009999999 0.0 0.0009999997 0.0009999999
0.0009999999 -0.0009999999 -0.0009999997 -0.0009999998 -0.0009999995 0.0 0.0009999999 0.0009999999
0.0 0.0 -0.001 -0.0009999998 0.0 0.0009999998 0.0009999999 0.0009999999

weight f4 [256, 256]
00000000: 199f f4bd 1a0e 5ebd 7ab2 913d 5f0b 843c
00000010: 57b6 013e b8a9 f03d 5f1c 3c3d 6227 733d
00000020: 1348 c03c c411 27bc 004e 37bb f64a 18be
00000030: b145 a53d adfd b43c deda 59bd 1a4f 0f3d
00000040: f881 d8bc 28a3 e0bc f656 743c c4ee 3bbd
00000050: 227a be3d 6762 ad3d 57ef dabd 1915 e8bc
00000060: 320e 71bb 0fe2 0e3e 6ff0 783d 10c7 83bd
00000070: cf99 e33c abde 933c f44b bc3c 0680 183d
00000080: bfb9 323d c6fd 003d 583a b6bc b85d 19bc
00000090: 860c 9f3c e8cd 27bd 5ad9 8fbc 22a5 ae3d
000000a0: 8d1b 95bc 7cd6 a9bd b925 0cbd 167f d83d
000000b0: 0e8f 18bd b139 623d 7dc0 9cbd 1cad 1a3c
000000c0: befb 04bd 90b5 52bd e606 f8ba 8676 3c3d
000000d0: 8f74 ac3d 9349 ad3c 529e 18be 910d b1bb
000000e0: 8032 543c e8cb 703c f35c 61bd fa6b 4bbd
000000f0: b41b 953c 4253 4abc 7921 0d3b 1b5e 88bd
00000100: d743 1c3d a5e2 073e e23c 44bd 37e3 b6bc
00000110: 90be 1dbc 471c 3abd f301 79bd e211 7b3c
00000120: 07c2 943d b2b0 893d 2c09 32bb 7123 7bbd
00000130: a8b1 c63d dc1b 80bd a0b4 703d 6486 0bbd
00000140: 1397 1fbc b345 853b aa73 733d 3493 9cbd
00000150: a054 d2bd 3fe9 ffbc edb4 6b3d e5e7 e43c
00000160: 57b7 bfbd 0c27 99bd 798b 17bd 80e4 80b9
00000170: bbda 13be 201d 0c3d 6874 8e3c 69d3 583d
00000180: 3f69 8ebd 051b cc3c f58b 13bd 0fea 1d3e
00000190: a548 bdba b1f8 2b3d d97b 6d3c 242f 323d
000001a0: 1cb0 8bbd 8a7d bfbc 344c 543c 170b 213b
000001b0: 3a58 60bb 070e ecbc 35c6 053d 99d2 043d
000001c0: cd91 f73c 466c acbc d353 d8bd 13a6 c7bd
000001d0: baa8 3dbd 806a 84bd 50fd b23b 983b d9bd
000001e0: 6a97 9abb af95 aebc f7f1 6cbd c032 1bbd
000001f0: 2b01 a83d 0ed7 08be a93d 3a3d 199a 7cbd
00000200: 0b9f be3c 19a1 11bd 0851 683d b4a8 c0bb
00000210: e819 963c 03d2 4d3d abc7 63bd 6583 e83c
00000220: 9642 98bd 109a 693c e683 dc3c 3ff9 223d
00000230: e8ec 30bd 6772 aa3c 5612 ad3d 5428 c5bc
00000240: 485a 8abb d9f4 9d3d 1adf 74bd 850c 54bd
00000250: c165 df3d b4d7 993d 8879 f039 ebac 35bc
00000260: 4ec2 53bd a533 85bd bc5f de3d 762e 06bc
00000270: b6b0 533c f98b 80bd bbf1 7abd c4c4 313e
00000280: 7d61 cb3d cd6e 9fbd ad1f fbbc a9e2 16bd
00000290: abcb 813d 5a1c 8cbd f482 cc3d ff82 e7bd
000002a0: f116 2c3d 985c d83c f997 ae3d 65c2 083d
000002b0: 361d b5bd c13a 83bd f499 8cbd e4dd 03bd
000002c0: 0406 323c 02f3 893d c6e1 da3d 070e 14bd
000002d0: 06e3 5a3d 791b afbb 0660 b9ba 5b0b b9bc
000002e0: adeb c1bd 7227 5f3d d8ed 5e3d 3294 69bd
000002f0: 56be f2bc 2cf4 3d3b 658f f93d 72c7 973b
00000300: ce0f 56bd 83d9 9d3a 3165 92bc 4631 8fbd
00000310: 51ba 41be 5798 9b3c bb4d 84bc 3a81 c03b
00000320: 0e5e ab3d f738 24bd 26e9 99bd 1be5 d3bd
00000330: 36a6 05bd 5a9f 8fbd 9767 d4bb 1d12 c6bd
00000340: 0a13 47bd 0d7e 4cbd 7fd8 8cbd 086d 8a3c
00000350: 24e1 123d f615 30be ab24 0dbb 303d dabc
00000360: 8419 163e a3db 213d 326f 8b3c f6a9 68bd
00000370: 5d68 dbbd 0833 c5bc 8a6b f73c 38a9 f1bd
00000380: 8175 82bd 8204 45bd c041 4a3c 1503 d43d
00000390: b4ab 523c 1b80 5cbd 9155 9c3c 1804 353c
000003a0: e394 90bd e437 f73c 25de 4ebd 6d22 c83c
000003b0: b950 82bd 4dfe b73c 8acd a43c 170c 753d
000003c0: 8307 a2bd 5bcd 73bb 02ba 4bbd c259 ea3c
000003d0: 51c4 67bd 716b 523d 7fb7 3e3d 9585 38bd
000003e0: e2c6 32bd c2dd da3c 0b64 a6bd 0cfd 52bc
000003f0: 8965 5f3d 3a02 9a3d eefc 9d3d 2a07 29bd
-0.11944408 -0.054212667 0.0711412 0.016118703 0.12667213 0.11751121 0.045925494 0.05936373
0.023471868 -0.010197107 -0.0027970076 -0.14872345 0.08069933 0.022093618 -0.053187244 0.034987547
-0.026429161 -0.027421549 0.014913311 -0.045882 0.09300639 0.084660344 -0.10690182 -0.028330373
-0.0036782143 0.13953422 0.06077617 -0.064344525 0.027783303 0.018050512 0.022985436 0.037231468
0.043634173 0.031492017 -0.022244617 -0.009360723 0.019415151 -0.040967852 -0.017559696 0.0852759
-0.018201614 -0.08292863 -0.034215663 0.10571115 -0.037245803 0.0552308 -0.07653902 0.009440687
-0.032466643 -0.051442683 -0.0018922954 0.04601147 0.08420669 0.021153247 -0.14904144 -0.0054032286
0.012951493 0.014697053 -0.055020284 -0.04966352 0.018201686 -0.012348952 0.0021534844 -0.06658574
0.038150635 0.13270052 -0.047909625 -0.022325141 -0.009627953 -0.045437124 -0.060792875 0.015324088
0.0726357 0.06723155 -0.0027166111 -0.061313096 0.09701854 -0.06255314 0.058766007 -0.03406371
-0.009740609 0.0040671467 0.059436478 -0.07645264 -0.10270047 -0.03123915 0.05754559 0.027942607
-0.09361141 -0.07478151 -0.036998246 -0.00024584308 -0.14438908 0.034207463 0.017389491 0.05293599
-0.06953668 0.024915228 -0.036022145 0.15421318 -0.0014441205 0.041985217 0.01449486 0.043501988
-0.068206996 -0.023375291 0.012957621 0.002457326 -0.0034232275 -0.028815283 0.032659728 0.032427404
0.03022089 -0.021047723 -0.10562863 -0.09748473 -0.04630349 -0.06465626 0.005462326 -0.1060707
-0.004717757 -0.02131161 -0.057847943 -0.037890196 0.08203348 -0.13363287 0.04546896 -0.061670396
0.023269197 -0.035554025 0.056717902 -0.005879486 0.0183229 0.05024911 -0.05561034 0.028382966
-0.07434575 0.014257923 0.026918363 0.03978848 -0.04319468 0.020806504 0.08450763 -0.024067082
-0.004222188 0.077127166 -0.05978308 -0.051769752 0.1090808 0.07511845 0.00045866915 -0.01108859
-0.051698975 -0.06503991 0.10858104 -0.008189788 0.012920549 -0.06276698 -0.06126569 0.17360216
0.09930704 -0.077848054 -0.030654753 -0.036837254 0.06337675 -0.06841345 0.09985915 -0.113042824
0.042014066 0.02641134 0.0852508 0.033388514 -0.08843462 -0.06407691 -0.06865302 -0.032194033
0.010865692 0.06735803 0.10687594 -0.03614619 0.053439163 -0.005343851 -0.0014142997 -0.022588423
-0.0946878 0.054480977 0.054426044 -0.057026096 -0.029631775 0.002898465 0.121855535 0.00463193
-0.052261166 0.0012042973 -0.017870517 -0.0699182 -0.1891873 0.01899354 -0.016150346 0.00587478
0.08367549 -0.04009339 -0.07515173 -0.10346433 -0.032629214 -0.07012816 -0.0064820754 -0.096714236
-0.04860214 -0.0499249 -0.06877231 0.016897693 0.035859242 -0.17195877 -0.0021536748 -0.026640505
0.14658171 0.039516103 0.017020795 -0.056802712 -0.10713265 -0.024072185 0.030202646 -0.11799854
-0.06370068 -0.048100002 0.012344778 0.1035215 0.01285832 -0.05383311 0.01908377 0.011048339
-0.07059648 0.030178018 -0.050504822 0.024430478 -0.06363053 0.022460127 0.02011754 0.059825983
-0.07911589 -0.0037201259 -0.049737938 0.028607253 -0.056583706 0.051371995 0.046561714 -0.04504927
-0.0436467 0.02671707 -0.081245504 -0.012877714 0.05454019 0.07519956 0.07714258 -0.041266598

bias f4 [256]
00000000: 6e12 83ba 0000 0000 6e12 833a 6e12 83ba
00000010: 0000 0000 6e12 833a 6e12 833a 6e12 833a
00000020: 6d12 83ba 6e12 833a 6e12 833a 6d12 83ba
00000030: 6d12 833a 6d12 833a 6c12 83ba 6e12 833a
00000040: 6e12 833a 0000 0000 0000 0000 6e12 83ba
00000050: 6e12 833a 6e12 833a 6e12 833a 0000 0000
00000060: 0000 0000 6e12 83ba 6e12 83ba 0000 0000
00000070: 0000 0000 6f12 833a 0000 0000 6e12 833a
00000080: 6d12 833a 0000 0000 6e12 83ba 6d12 833a
00000090: 6e12 833a 0000 0000 0000 0000 6e12 83ba
000000a0: 6d12 83ba 0000 0000 6d12 833a 6d12 833a
000000b0: 0000 0000 0000 0000 6e12 83ba 0000 0000
000000c0: 6e12 833a 6d12 83ba 6d12 833a 6e12 833a
000000d0: 6d12 83ba 6e12 83ba 6e12 833a 6e12 833a
000000e0: 6e12 833a 6e12 833a 6e12 83ba 0000 0000
000000f0: 6e12 83ba 0000 0000 6d12 83ba 6e12 83ba
00000100: 0000 0000 6e12 83ba 6e12 833a 0000 0000
00000110: 0000 0000 6d12 833a 6e12 83ba 6e12 833a
00000120: 6e12 833a 6d12 833a 6e12 83ba 0000 0000
00000130: 6f12 83ba 0000 0000 5312 83ba 6e12 83ba
00000140: 0000 0000 6e12 83ba 6d12 833a 6e12 833a
00000150: 6e12 833a 6e12 83ba 0000 0000 6d12 83ba
00000160: 6e12 83ba 6e12 833a 0000 0000 6e12 833a
00000170: 6e12 83ba 6e12 833a 6d12 833a 6e12 833a
00000180: 6e12 83ba 6d12 833a 6e12 83ba 6d12 833a
00000190: 0000 0000 0000 0000 6d12 83ba 6d12 83ba
000001a0: 6e12 833a 6e12 83ba 0000 0000 0000 0000
000001b0: 6e12 833a 6c12 833a 6f12 833a 0000 0000
000001c0: 6e12 833a 0000 0000 6d12 83ba 6f12 83ba
000001d0: 6f12 833a 6e12 833a 0000 0000 0000 0000
000001e0: 6d12 833a 0000 0000 6d12 83ba 6d12 833a
000001f0: 6e12 83ba 0000 0000 6e12 83ba 6c12 833a
00000200: 0000 0000 6e12 833a 6e12 833a 0000 0000
00000210: 6e12 833a 6d12 83ba 6e12 833a 0000 0000
00000220: 0000 0000 0000 0000 6d12 83ba 0000 0000
00000230: 6d12 83ba 0000 0000 6c12 83ba 6e12 83ba
00000240: 6e12 83ba 6d12 83ba 6b12 833a 6f12 83ba
00000250: 6e12 83ba 6d12 83ba 6c12 833a 6e12 833a
00000260: 6e12 83ba 6e12 83ba 6d12 83ba 0000 0000
00000270: 6e12 83ba 6e12 833a 6e12 833a 0000 0000
00000280: 6d12 83ba 6e12 833a 0000 0000 6d12 83ba
00000290: 0000 0000 6f12 83ba 6f12 833a 6e12 83ba
000002a0: 0000 0000 0000 0000 6f12 83ba 6e12 833a
000002b0: 6d12 83ba 6d12 833a 6b12 833a 6e12 833a
000002c0: 6612 833a 6d12 83ba 6d12 83ba 0000 0000
000002d0: 6f12 833a 6e12 83ba 0000 0000 6d12 833a
000002e0: 6e12 833a 6f12 833a 6d12 83ba 0000 0000
000002f0: 6e12 833a 0000 0000 6c12 833a 0000 0000
00000300: 6e12 833a 6e12 83ba 6e12 83ba 6e12 83ba
00000310: 0000 0000 0000 0000 0000 0000 5e12 83ba
00000320: 6e12 83ba 6e12 833a 6e12 833a 0000 0000
00000330: 6e12 83ba 0000 0000 6e12 83ba 0000 0000
00000340: 6e12 83ba 0000 0000 6e12 833a 6f12 833a
00000350: 6812 833a 0000 0000 0000 0000 6d12 83ba
00000360: 6e12 83ba 6d12 833a 0000 0000 6e12 833a
00000370: 0000 0000 0000 0000 0000 0000 6a12 833a
00000380: 0000 0000 6e12 833a 6e12 83ba 0000 0000
00000390: 0000 0000 6e12 833a 6f12 83ba 6e12 83ba
000003a0: 6d12 833a 0000 0000 6e12 83ba 6e12 83ba
000003b0: 6d12 83ba 6d12 833a 6e12 833a 6c12 833a
000003c0: 6f12 833a 0000 0000 6e12 83ba 6d12 833a
000003d0: 6d12 833a 6d12 83ba 6d12 83ba 6d12 833a
000003e0: 0000 0000 6b12 833a 6e12 83ba 6e12 833a
000003f0: 6d12 833a 6e12 83ba 6e12 833a 0000 0000
-0.0009999999 0.0 0.0009999999 -0.0009999999 0.0 0.0009999999 0.0009999999 0.0009999999
-0.0009999998 0.0009999999 0.0009999999 -0.0009999998 0.0009999998 0.0009999998 -0.0009999997 0.0009999999
0.0009999999 0.0 0.0 -0.0009999999 0.0009999999 0.0009999999 0.0009999999 0.0
0.0 -0.0009999999 -0.0009999999 0.0 0.0 0.001 0.0 0.0009999999
0.0009999998 0.0 -0.0009999999 0.0009999998 0.0009999999 0.0 0.0 -0.0009999999
-0.0009999998 0.0 0.0009999998 0.0009999998 0.0 0.0 -0.0009999999 0.0
0.0009999999 -0.0009999998 0.0009999998 0.0009999999 -0.0009999998 -0.0009999999 0.0009999999 0.0009999999
0.0009999999 0.0009999999 -0.0009999999 0.0 -0.0009999999 0.0 -0.0009999998 -0.0009999999
0.0 -0.0009999999 0.0009999999 0.0 0.0 0.0009999998 -0.0009999999 0.0009999999
0.0009999999 0.0009999998 -0.0009999999 0.0 -0.001 0.0 -0.0009999968 -0.0009999999
0.0 -0.0009999999 0.0009999998 0.0009999999 0.0009999999 -0.0009999999 0.0 -0.0009999998
-0.0009999999 0.0009999999 0.0 0.0009999999 -0.0009999999 0.0009999999 0.0009999998 0.0009999999
-0.0009999999 0.0009999998 -0.0009999999 0.0009999998 0.0 0.0 -0.0009999998 -0.0009999998
0.0009999999 -0.0009999999 0.0 0.0 0.0009999999 0.0009999997 0.001 0.0
0.0009999999 0.0 -0.0009999998 -0.001 0.001 0.0009999999 0.0 0.0
0.0009999998 0.0 -0.0009999998 0.0009999998 -0.0009999999 0.0 -0.0009999999 0.0009999997
0.0 0.0009999999 0.0009999999 0.0 0.0009999999 -0.0009999998 0.0009999999 0.0
0.0 0.0 -0.0009999998 0.0 -0.0009999998 0.0 -0.0009999997 -0.0009999999
-0.0009999999 -0.0009999998 0.0009999996 -0.001 -0.0009999999 -0.0009999998 0.0009999997 0.0009999999
-0.0009999999 -0.0009999999 -0.0009999998 0.0 -0.0009999999 0.0009999999 0.0009999999 0.0
-0.0009999998 0.0009999999 0.0 -0.0009999998 0.0 -0.001 0.001 -0.0009999999
0.0 0.0 -0.001 0.0009999999 -0.0009999998 0.0009999998 0.0009999996 0.0009999999
0.000999999 -0.0009999998 -0.0009999998 0.0 0.001 -0.0009999999 0.0 0.0009999998
0.0009999999 0.001 -0.0009999998 0.0 0.0009999999 0.0 0.0009999997 0.0
0.0009999999 -0.0009999999 -0.0009999999 -0.0009999999 0.0 0.0 0.0 -0.0009999981
-0.0009999999 0.0009999999 0.0009999999 0.0 -0.0009999999 0.0 -0.0009999999 0.0
-0.0009999999 0.0 0.0009999999 0.001 0.0009999992 0.0 0.0 -0.0009999998
-0.0009999999 0.0009999998 0.0 0.0009999999 0.0 0.0 0.0 0.0009999995
0.0 0.0009999999 -0.0009999999 0.0 0.0 0.0009999999 -0.001 -0.0009999999
0.0009999998 0.0 -0.0009999999 -0.0009999999 -0.0009999998 0.0009999998 0.0009999999 0.0009999997
0.001 0.0 -0.0009999999 0.0009999998 0.0009999998 -0.0009999998 -0.0009999998 0.0009999998
0.0 0.0009999996 -0.0009999999 0.0009999999 0.0009999998 -0.0009999999 0.0009999999 0.0

weight f4 [2, 256]
00000000: b35a 61bd 487d 08be ca07 bbbd d1e3 bb3d
00000010: f895 8fbd 5388 91bd a08d 683c bb3f 13be
00000020: 412d 143d 440d 673c e9a3 6abd a154 143d
00000030: 568a 96bc 98b2 5b3d 425e e53c 84c5 9d3c
00000040: 4df5 a43c d303 1ebd 15a3 4cbd e933 ddbc
00000050: 03aa d7bd f6a3 ca3c 9aec c1bd a524 78bb
00000060: ccc8 87bd b8d2 3cbd 094b a73c db1f febc
00000070: 9e61 553d 313a c63d 710c 25be 3450 743d
00000080: 9eac a73b 6126 cebd b313 29be 7bf9 a0ba
00000090: 4a80 12bd 46a1 c5bd 64e3 81bd 946d d73c
000000a0: 09a0 debd 9921 2f3d bbe5 7ebd 76f8 65bd
000000b0: 81e6 68bd 3f80 093c 2af1 ac3b 3c63 333d
000000c0: b32e 8ebc f162 4e3d 163e 043e 8403 d1bb
000000d0: 3d37 96bc 2690 a8bd 3217 7dbd b33e c13d
000000e0: 23a6 dabd e7e0 c43c cd75 df3d 78ba 423e
000000f0: d894 b33b e137 4b3d 2f76 a1bd ba23 3d3d
00000100: a215 963c 8214 bdbd 3a2a 6bbd e606 a2bd
00000110: 9562 6cbd c464 a63d 461d ab3d 92e7 89bc
00000120: 304b e6bd 05c9 923c bd58 573d 2665 1b3d
00000130: ebff 103d c8f0 67bd 549e 81bc 7b5f c1bc
00000140: a06a 00bd 9c9b bbbd a72d f33d 2b2f 833c
00000150: df88 37bc af88 623d 02f5 0bbd 8bda ec3c
00000160: 8ef1 a2bc 915a e63c 4560 b6bc 844c 8abd
00000170: 7c4d be3b 13f1 b4bc 8005 9ebc 8826 53bd
00000180: ed08 68bd d9b0 913b aa33 f43d cf3a 47bd
00000190: eea8 993d ab80 9f3d 70cc a83c 1834 c5bd
000001a0: 2d6d 0dbd 93cb 373b 6cb8 18bd 72db 5f3d
000001b0: 1d1a 163d d754 7cbc bd97 92bd 114c 603c
000001c0: 041c b3bd b700 92bd b36b 7f3d 086c 7fbd
000001d0: bed8 d7bc 5987 af3d fc85 be3c ecbf a4bc
000001e0: 55fd 863c e14d 14bd 1c54 923d b190 b8bb
000001f0: a1d6 b53d c4b6 d13d c432 923d 3e94 6e3d
00000200: 8e2f 343d 5c83 40bc 31d9 a53d fd0c febd
00000210: 2b4b a63d b7ed a53c 4bd1 673d 5ab7 c0bc
00000220: 20da b33d 2630 c4bd 35e0 1dbd fa87 b23c
00000230: eacd b53c f59c 243d ed8e 983b 735c 95bd
00000240: 8793 8f3d 8e21 a4bd 9a92 913c 45e3 053d
00000250: 8a06 c1bc 6f1a a6bd 622c a03d 2e9b f2bd
00000260: 504e c13d 9b34 a43d 0337 6a3d 9132 d2bc
00000270: 7eac 9a3d 0133 d5bc 0a52 823d b3b0 d33d
00000280: 60a8 71bc 31b0 a93d 2213 18bd b8bf 86bc
00000290: 15e4 c33d 7e1e 2e3d 93d8 0f3d a29b 84bd
000002a0: 1b4e 0abb c292 0fbd 9da4 8ebd 0592 b8bd
000002b0: 5fe6 afba 4c66 8a3d b188 b73c ce29 debb
000002c0: 78b0 893c 0f53 59bd 8683 e5bc 9eac cebc
000002d0: 8749 c0bd 5430 0a3e 2f12 d5bd e3bb 8e3d
000002e0: 1bfd 503d b365 83bd 058b a13d 570a c63d
000002f0: c996 14bd 3885 ffbd 0e39 863d dc7e b1bc
00000300: 2f2b 76bd 3a94 833d 5ff5 0c3d fb49 853d
00000310: a68e b9bd 5440 ecbc bba1 65bd 055b 78bd
00000320: 3851 3fbd e549 57bd 0b8e 963d 6ea6 4c3c
00000330: 4f2e 88bd c2ae 24bd b53f 5a3d 0765 54bd
00000340: ad8c babd 0843 c7bc a63f 72bd acca f33c
00000350: b56a 19bc b726 463c 81ed 9a3d 0407 193a
00000360: a07d a43d 71c4 11bd c1bf 2fbd 7036 b6bd
00000370: 732b 9abc bb70 2dbc ac5a e2b9 d6a5 da3c
00000380: 6a0a ecbc ee22 f33c 6c33 26bd c304 0f3d
00000390: 60d1 61bc c1e7 83bd b63d 75bd 015e 243d
000003a0: 40b4 583d 455a 58bd 5b38 363c 8153 d3bd
000003b0: 5a13 4c3d 8b64 e73b 7cd5 cf3a b0eb f13c
000003c0: 263c 5bbd 4898 d7bc a25e 8cbc 9486 07b9
000003d0: c514 fe3c e2f8 2d3d 6443 94bd c01e 2cbd
000003e0: 91aa 2a3d 43c1 4abd f786 ed3d 5ed4 c13b
000003f0: 944a 873c dea2 d73d d679 b83c df28 07bd
-0.05501814 -0.13329041 -0.09132345 0.09174312 -0.07011026 -0.0710608 0.014193922 -0.1437978
0.03617597 0.014102284 -0.057285223 0.03621352 -0.01837651 0.053637117 0.027999047 0.019259222
0.0201365 -0.038577866 -0.049960215 -0.027002292 -0.10530474 0.024736386 -0.09468956 -0.0037863639
-0.06630096 -0.046099395 0.020421522 -0.03102105 0.052095048 0.09679068 -0.16118027 0.0596468
0.005117013 -0.10065914 -0.16511421 -0.0012281382 -0.035766877 -0.09649901 -0.063421994 0.026297368
-0.10870368 0.04275665 -0.062230807 -0.056145154 -0.05686045 0.008392393 0.0052777724 0.04379581
-0.017356252 0.050387327 0.12914309 -0.006378593 -0.018336887 -0.08230619 -0.0617897 0.09435787
-0.10676219 0.024033023 0.109111406 0.19016445 0.00548039 0.049613837 -0.0788387 0.04617665
0.018320862 -0.09232427 -0.057413317 -0.07911472 -0.057711203 0.08124688 0.08355193 -0.016834054
-0.1124481 0.01791812 0.05257486 0.03793826 0.035400312 -0.05662611 -0.015822567 -0.023605099
-0.031351686 -0.091605395 0.11873942 0.016013702 -0.011202066 0.055306133 -0.034169205 0.028912803
-0.019890573 0.028119357 -0.022262702 -0.067528754 0.0058075767 -0.02208761 -0.019289732 -0.05155042
-0.056649137 0.0044461307 0.11923917 -0.04864007 0.07502924 0.07788213 0.020605296 -0.09629077
-0.034527946 0.0028044924 -0.037285253 0.05465264 0.036645997 -0.015401087 -0.07157848 0.013690011
-0.08745578 -0.071290426 0.06235857 -0.062358886 -0.026348468 0.085707374 0.023257248 -0.020111047
0.01647822 -0.036207084 0.07144949 -0.005632483 0.08878828 0.10239938 0.07138589 0.058246844
0.043990664 -0.0117500685 0.080980666 -0.12404821 0.08119806 0.020254953 0.05659608 -0.023524929
0.087818384 -0.09579496 -0.0385439 0.021793354 0.022192914 0.04018875 0.00465571 -0.07293024
0.070105605 -0.080142125 0.0177701 0.032687444 -0.023562688 -0.081105106 0.07820965 -0.118460044
0.09438765 0.08017846 0.05718137 -0.025658878 0.075524315 -0.026025297 0.06363304 0.10336437
-0.014749616 0.08285559 -0.03712762 -0.01644884 0.095649876 0.04250955 0.03511865 -0.06474997
-0.0021103683 -0.03505207 -0.06964991 -0.09012226 -0.0013420096 0.06757793 0.022404047 -0.006779886
0.01680778 -0.053057726 -0.028016817 -0.025228795 -0.09389024 0.13494998 -0.10403859 0.0696943
0.05102263 -0.06415882 0.07887844 0.09669941 -0.036276612 -0.12476581 0.06553851 -0.021666937
-0.060099777 0.06424756 0.03441369 0.06508251 -0.09060411 -0.028839268 -0.05606244 -0.060633678
-0.046708316 -0.052560706 0.07351311 0.012490852 -0.06649458 -0.040205725 0.053283412 -0.05185416
-0.09108863 -0.024323955 -0.05914273 0.029759727 -0.00936382 0.012094191 0.075648315 0.0005837532
0.080317736 -0.03558773 -0.04290748 -0.08897102 -0.018819546 -0.010585959 -0.00043173635 0.026690405
-0.02881356 0.029679742 -0.040576383 0.03491665 -0.013782829 -0.06440688 -0.059873305 0.04012871
0.052906275 -0.052820463 0.011121835 -0.103186615 0.049823143 0.007061546 0.001585647 0.02953133
-0.05352416 -0.02631773 -0.017134968 -0.00012924738 0.031015763 0.04247368 -0.07239416 -0.042021513
0.04166657 -0.049500715 0.11598008 0.0059152087 0.016515054 0.10529111 0.022519033 -0.032997962

bias f4 [2]
00000000: 6e12 83ba 6e12 83ba
-0.0009999999 -0.0009999999
