exp_local/gcbc_fixed/weights/10000.pt (torch, 274440 bytes, 6 tensors)

weight f4 [256, 4]
-0.21482983 -0.059907503 0.07571663 0.12537548 -0.10539404 0.21606232 -0.10714612 0.03721709
-0.32682368 -0.010139338 0.2134977 0.07277742 0.014651217 0.18162219 -0.06795175 -0.008992497
0.01846781 -0.07334466 -0.08827257 -0.0057970122 -0.105537914 -0.026565848 -0.01944681 -0.0534494
-0.30361417 0.0539872 0.15704545 0.08491641 0.23205897 0.16751072 -0.027197022 -0.081546195
-0.14325885 -0.17560299 0.08240727 0.12367537 0.17717965 0.12696491 -0.10364515 -0.04574043
-0.011253735 -0.004301011 0.044569578 -0.064691015 0.26873168 -0.059403345 -0.05144595 -0.05216777
0.22873512 -0.1560275 -0.10842268 0.040068503 0.15410218 0.17714706 0.024080439 -0.14374523
0.19895558 0.14910862 -0.011994078 -0.16264193 -0.110380106 0.21987242 -0.021678979 0.019916564
0.2349032 -0.03896968 0.0051100655 -0.06091512 0.082406335 0.1789521 -0.025821798 -0.064878695
-0.022508347 0.2002052 -0.003903404 -0.06580154 -0.0066756182 -0.18976106 0.11132705 0.10209944
-0.41544574 0.112991326 0.0061584306 0.025237745 0.20064905 0.0025038964 -0.0731218 -0.023944337
0.14389384 0.1525708 -0.09687439 -0.0554871 0.05388181 0.21387483 -0.09109753 0.015162648
-0.041943155 -0.26070255 0.009107679 0.22335204 0.19963889 0.055376906 -0.026606316 -0.10380554
-0.09493493 -0.03344957 -0.046940703 0.053051345 0.24552923 0.066445485 -0.085696615 -0.028352292
0.12832005 -0.22615422 -0.03922291 0.088642634 0.21989678 0.12640388 -0.061008837 -0.09901072
-0.075214565 -0.13031426 0.0039912043 -0.034021966 0.26680228 -0.046633136 -0.07902318 -0.06642747
-0.15570655 0.09957865 -0.0051479503 0.05725919 -0.19656359 0.12015135 0.075253084 0.014336395
-0.011547367 -0.016130757 -0.04507966 0.018657267 -0.09385868 -0.05315998 -0.009505701 -0.019562459
0.06415523 -0.23494612 0.10830253 0.046522457 0.024129108 -0.01073962 -0.09722656 0.028391019
0.19748949 -0.06049406 0.069508456 -0.06884149 0.21157981 -0.023687448 -0.103413254 0.033361487
0.065945655 0.23061101 -0.033337966 -0.08028439 0.22458321 -0.09332504 0.032525647 -0.08557441
0.112034865 0.24513912 -0.07632454 -0.070948705 -0.16867602 0.093226805 0.07882693 0.14628443
-0.09079482 -0.22059485 0.17532371 -0.021381112 -0.00062110386 0.008280091 -0.080203526 0.020492405
0.0027962984 -0.06378743 -0.07808231 -0.05105635 0.17052062 0.1413032 -0.04646071 -0.032632798
-0.08699799 -0.007446408 -0.07351607 -0.053810254 -0.025672026 -0.02056099 -0.019366954 0.022631321
0.1766585 -0.20887305 -0.034060016 -0.01831658 -0.05376882 -0.03936804 -0.060198817 -0.07584263
0.30044678 -0.03460378 -0.02762004 -0.024645105 0.097574316 -0.1701123 0.025128657 0.07880866
0.022105608 0.23013717 -0.05590783 -0.0834735 -0.06549069 0.16191933 -0.014581018 0.07364258
0.05016798 0.015837282 -0.11043367 -0.07418028 0.0786797 0.0052340426 0.015849115 0.027819399
-0.18856049 0.11210951 0.12511839 0.013229218 -0.016157115 0.026768316 0.02120918 -0.078053266
-0.12838937 0.16442356 0.0091769295 0.016761892 0.2162991 -0.07581783 -0.06350034 0.008153921
0.11836819 -0.22695304 0.027832424 0.013175133 -0.0068433583 -0.07549403 0.058135 -0.04797998
00000000: 5afc 5bbe 9261 75bd 5211 9b3d 6e62 003e
00000010: d5d8 d7bd 713f 5d3e 6d6f dbbd f370 183d
00000020: 6f55 a7be 771f 26bc 249f 5a3e 540c 953d
00000030: a80b 703c 2bfb 393e 492a 8bbd 4455 13bc
00000040: ce49 973c ba35 96bd 40c8 b4bd ddf4 bdbb
00000050: 4324 d8bd 9fa0 d9bc eb4e 9fbc c2ed 5abd
00000060: 5173 9bbe af21 5d3d 86d0 203e a8e8 ad3d
00000070: dea0 6d3e ee87 2b3e 4acc debc b101 a7bd
00000080: 73b2 12be 45d1 33be 25c5 a83d 8349 fd3d
00000090: 956e 353e 1703 023e e943 d4bd 515a 3bbd
000000a0: 9661 38bc 7fef 8cbb 978e 363d b97c 84bd
000000b0: 3397 893e ec50 73bd fdb8 52bd dfad 55bd
000000c0: 8a39 6a3e acc5 1fbe b60c debd df1e 243d
000000d0: f6cc 1d3e 0a66 353e 5744 c53c f331 13be
000000e0: 03bb 4b3e eeaf 183e cf82 44bc 9b8b 26be
000000f0: f70e e2bd 3c26 613e 1d98 b1bc 1028 a33c
00000100: 778a 703e ac9e 1fbd 5672 a73b 2282 79bd
00000110: a7c4 a83d 383f 373e 3c88 d3bc 1fdf 84bd
00000120: 6d63 b8bc 9802 4d3e 41d0 7fbb f5c2 86bd
00000130: 25bf dabb b950 42be 70ff e33d 8319 d13d
00000140: 4eb5 d4be ff67 e73d a9cc c93b 63bf ce3c
00000150: f276 4d3e 6918 243b e2c0 95bd ea26 c4bc
00000160: e858 133e 853b 1c3e 1566 c6bd 7146 63bd
00000170: 2cb3 5c3d 0102 5b3e 5891 babd c16c 783c
00000180: 96cc 2bbd ce7a 85be 6038 153c 66b6 643e
00000190: 236e 4c3e e5d2 623d 7df5 d9bc 0098 d4bd
000001a0: 3f6d c2bd 6b02 09bd e544 40bd 5e4c 593d
000001b0: 046c 7b3e 9214 883d b581 afbd 1143 e8bc
000001c0: 5566 033e f994 67be 34a8 20bd 458a b53d
000001d0: 9f2c 613e 0570 013e 67e4 79bd 22c6 cabd
000001e0: 180a 9abd 1a71 05be a6c8 823b 9e5a 0bbd
000001f0: 4f9a 883e 6302 3fbd e8d6 a1bd 200b 88bd
00000200: 8a71 1fbe e4ef cb3d 23b0 a8bb 9d88 6a3d
00000210: f747 49be e911 f63d 4a1e 9a3d 33e3 6a3c
00000220: 2b31 3dbc a624 84bc 73a5 38bd 20d7 983c
00000230: fb38 c0bd 47be 59bd cdbd 1bbc 7341 a0bc
00000240: d163 833d b795 70be b8cd dd3d 558e 3e3d
00000250: 68aa c53c 3bf5 2fbc b81e c7bd 4894 e83c
00000260: af3a 4a3e 9fc8 77bd 735a 8e3d c4fc 8cbd
00000270: 61a8 583e 2e0c c2bc 54ca d3bd 0ea6 083d
00000280: 840e 873d 4b25 6c3e 648d 08bd 246c a4bd
00000290: 24f9 653e 3321 bfbd 9d39 053d a341 afbd
000002a0: 8972 e53d c005 7b3e 0a50 9cbd 8e4d 91bd
000002b0: 68b9 2cbe b2ed be3d 0370 a13d 96cb 153e
000002c0: a2f2 b9bd 9ee3 61be 0f88 333e 7127 afbc
000002d0: 93d1 22ba 38a9 073c bf41 a4bd b0df a73c
000002e0: 1a42 373b fca2 82bd 9ee9 9fbd 7720 51bd
000002f0: f59c 2e3e c9b1 103e 964d 3ebd f8a9 05bd
00000300: 012c b2bd ff00 f4bb 988f 96bd 2468 5cbd
00000310: 244e d2bc 856f a8bc 72a7 9ebc 5265 b93c
00000320: f7e5 343e d1e2 55be 8482 0bbd a70c 96bc
00000330: b23c 5cbd 6240 21bd 0993 76bd 6153 9bbd
00000340: 29d4 993e b1bc 0dbd 6c43 e2bc 88e4 c9bc
00000350: 0bd5 c73d eb31 2ebe 9dda cd3c 6f66 a13d
00000360: d216 b53c 14a9 6b3e 9cff 64bd 28f4 aabd
00000370: fc1f 86bd 2ece 253e 39e5 6ebc ecd1 963d
00000380: f17c 4d3d 30bd 813c 0c2b e2bd d5eb 97bd
00000390: d322 a13d 5582 ab3b 01d6 813c 82e5 e33c
000003a0: 0016 41be ac99 e53d 091f 003e 5dbf 583c
000003b0: ed5b 84bc 3a49 db3c e0be ad3c 64da 9fbd
000003c0: 8178 03be a65e 283e d55a 163c 3c50 893c
000003d0: 837d 5d3e 6146 9bbd 770c 82bd 0698 053c
000003e0: 066b f23d 6166 68be d300 e43c 83dc 573c
000003f0: 403e e0bb 9d9c 9abd f71e 6e3d a886 44bd

bias f4 [256]
0.051966585 0.025126217 0.0651711 -0.015921315 0.0 0.0 0.04408601 -0.10575003
0.06316875 -0.039757412 0.0 -0.045346282 0.0135247 -0.06102104 -0.08043236 -0.0029882449
-0.057866238 -0.040641777 -0.012630381 0.06151111 0.049873944 -0.02385265 -0.031782135 -0.041007325
0.04634376 -0.07945068 0.0 -0.05954008 0.037828244 -0.08353635 0.0 -0.045916546
0.02534245 0.021532128 0.0 0.0 0.012615703 -0.006005504 -0.039021034 -0.043963987
-0.03811335 -0.027209435 -0.04367704 0.023548974 0.07063853 0.0 0.0 -0.08328764
0.0 0.0 0.046862356 0.0 -0.06717557 0.0080579985 -0.010250603 0.007410129
-0.008048986 -0.011821039 -0.00016033747 -0.01554733 0.035191793 -0.030453889 0.037431896 -0.011050169
-0.020114465 0.0023845348 -0.012145894 0.03208103 -0.0126391165 0.037225444 0.006282494 -0.03551222
-0.04113837 0.065690376 0.0 0.026852671 -0.010834466 -0.055141598 -0.05025956 0.0
0.06823161 0.019429088 -0.052455403 0.1396619 0.0 -0.0050178757 -0.020019425 -0.0048339167
-0.032326367 0.0049594687 -0.00811065 0.0 -0.04540594 0.041451424 0.057743788 0.0
0.014935037 -0.0028640437 0.0 0.040399686 0.024410795 -0.04281015 -0.046404075 0.0
0.0 -0.03888254 0.021713233 -0.022133648 -0.008513861 0.0 -0.043744944 0.1012627
0.018866694 -0.009773106 -0.0077664647 0.02774105 -0.016214175 0.0 0.042765804 -0.009915158
-0.017816933 -0.044374418 0.059266437 0.035841797 -0.037955724 -0.025457004 0.06382746 0.0
0.0 -0.0039256825 -0.00960935 -0.007811713 0.050935 0.03683438 0.051013436 -0.006005507
0.0 -0.018747076 0.0 0.050630856 -0.031216884 -0.0021639126 0.06360227 -0.009569698
0.026707776 -0.003589434 0.0 0.05712867 0.0 -0.020326339 0.025594376 0.0
0.023682253 0.06308263 0.078083664 -0.061916765 -0.0063530724 -0.025704602 -0.02410576 -0.014388531
-0.006079945 0.025417069 0.0 -0.0005969975 -0.016975757 0.057823285 0.0 0.068441935
0.0 0.0 0.0 0.068690106 0.0 0.06246588 0.01981842 0.028999079
-0.01697403 -0.05416354 0.06895644 0.06406962 0.06076517 -0.01902251 0.03249627 0.06419927
-0.0062673483 -0.018802574 -0.028236955 0.07934194 0.0 0.0 -0.014127508 0.019658886
0.042017862 0.06454984 -0.07554308 -0.029720686 0.06176044 0.051510178 0.11539169 0.0
-0.07179135 0.029027473 -0.02703887 0.026387926 0.0 0.07088391 0.064781144 -0.0436114
-0.02931461 0.033126213 -0.008055141 0.0 0.04829057 0.042509142 -0.012836668 0.0
0.0 -0.010102449 0.0 0.0 -0.07960607 -0.017318552 0.04732991 -0.070244655
-0.032980382 -0.028250664 0.0 0.0 0.047867395 0.0 0.0 -0.005558855
0.0 0.0 0.045995466 0.085496455 -0.0129849035 0.0 0.034430895 -0.024005549
0.03170111 -0.023387682 0.005559528 -0.009080998 -0.00995074 0.058545146 -0.038113214 -0.03312169
0.0 0.0 -0.038848717 -0.06805507 0.0 -0.01983739 -9.1710375e-05 -0.026902787
00000000: eada 543d 7fd5 cd3c 6d78 853d 6b6d 82bc
00000010: 0000 0000 0000 0000 8893 343d 7993 d8bd
00000020: 9e5e 813d abd8 22bd 0000 0000 06bd 39bd
00000030: b496 5d3c 33f1 79bd b9b9 a4bd 6ed6 43bb
00000040: 2605 6dbd fe77 26bd a8ef 4ebc 13f3 7b3d
00000050: 9f48 4c3d a266 c3bc fc2d 02bd 4cf7 27bd
00000060: f4d2 3d3d 0ab7 a2bd 0000 0000 4de0 73bd
00000070: caf1 1a3d 1b15 abbd 0000 0000 fd12 3cbd
00000080: f89a cf3c 2564 b03c 0000 0000 0000 0000
00000090: 18b2 4e3c d2c9 c4bb 85d4 1fbd 9513 34bd
000000a0: be1c 1cbd 52e6 debc b2e6 32bd c7e9 c03c
000000b0: efaa 903d 0000 0000 0000 0000 b692 aabd
000000c0: 0000 0000 0000 0000 bef2 3f3d 0000 0000
000000d0: 5893 89bd b205 043c 25f2 27bc abd0 f23b
000000e0: e5df 03bc 08ad 41bc 4320 28b9 3aba 7ebc
000000f0: 4525 103d 6f7a f9bc 3052 193d c50b 35bc
00000100: 17c7 a4bc db45 1c3b 92ff 46bc 6667 033d
00000110: 4c14 4fbc b579 183d 61dd cd3b 4375 11bd
00000120: b580 28bd ad88 863d 0000 0000 22fa db3c
00000130: 0b83 31bc 28dc 61bd f8dc 4dbd 0000 0000
00000140: 04bd 8b3d c029 9f3c 7adb 56bd 8703 0f3e
00000150: 0000 0000 fe6c a4bb c7ff a3bc d565 9ebb
00000160: a768 04bd 0a83 a23b 88e2 04bc 0000 0000
00000170: 94fb 39bd f8c8 293d c084 6c3d 0000 0000
00000180: 16b2 743c aeb2 3bbb 0000 0000 247a 253d
00000190: 26f9 c73c b259 2fbd 3312 3ebd 0000 0000
000001a0: 0000 0000 4c43 1fbd f3df b13c a051 b5bc
000001b0: b97d 0bbc 0000 0000 e62d 33bd d262 cf3d
000001c0: 538e 9a3c 611f 20bc d47d febb 3341 e33c
000001d0: 97d3 84bc 0000 0000 322b 2f3d 3073 22bc
000001e0: d1f4 91bc f3c1 35bd 5dc1 723d d9ce 123d
000001f0: 7677 1bbd 358b d0bc f9b7 823d 0000 0000
00000200: 0000 0000 03a3 80bb 8970 1dbc 66f9 ffbb
00000210: 38a1 503d a6df 163d 77f3 503d d8c9 c4bb
00000220: 0000 0000 7893 99bc 0000 0000 4d62 4f3d
00000230: 8dba ffbc 6ed0 0dbb e841 823d 39ca 1cbc
00000240: 44ca da3c b63c 6bbb 0000 0000 c1ff 693d
00000250: 0000 0000 6c83 a6bc 4cab d13c 0000 0000
00000260: 4901 c23c 7731 813d 54ea 9f3d 6f9c 7dbd
00000270: 6f2d d0bb 7592 d2bc 7179 c5bc e0bd 6bbc
00000280: 463a c7bb 7537 d03c 0000 0000 d37f 1cba
00000290: be10 8bbc 1cd8 6c3d 0000 0000 492b 8c3d
000002a0: 0000 0000 0000 0000 0000 0000 66ad 8c3d
000002b0: 0000 0000 39dc 7f3d 3d5a a23c 7a8f ed3c
000002c0: 1f0d 8bbc 97da 5dbd 0939 8d3d ef36 833d
000002d0: e6e4 783d 18d5 9bbc cf1a 053d e87a 833d
000002e0: 545e cdbb db07 9abc 3051 e7bc 077e a23d
000002f0: 0000 0000 0000 0000 1077 67bc ac0b a13c
00000300: ec1a 2c3d b532 843d 55b6 9abd cc78 f3bc
00000310: 84f8 7c3d 56fc 523d 7a52 ec3d 0000 0000
00000320: 5807 93bd 06cb ed3c 9f80 ddbc 7e2b d83c
00000330: 0000 0000 952b 913d faab 843d dea1 32bd
00000340: 3125 f0bc 5aaf 073d b6f9 03bc 0000 0000
00000350: 55cc 453d 111e 2e3d e350 52bc 0000 0000
00000360: 0000 0000 be84 25bc 0000 0000 0000 0000
00000370: 8208 a3bd a3df 8dbc 02dd 413d 6edc 8fbd
00000380: 7016 07bd f06d e7bc 0000 0000 0000 0000
00000390: 9a10 443d 0000 0000 0000 0000 0e27 b6bb
000003a0: 0000 0000 0000 0000 be65 3c3d c418 af3d
000003b0: a2be 54bc 0000 0000 6907 0d3d 49a7 c4bc
000003c0: 06d9 013d 8697 bfbc b32c b63b 77c8 14bc
000003d0: 6e08 23bc 09cd 6f3d 9a1c 1cbd 9caa 07bd
000003e0: 0000 0000 0000 0000 d51f 1fbd 7560 8bbd
000003f0: 0000 0000 0682 a2bc a254 c0b8 3c63 dcbc

weight f4 [256, 256]
-0.14714162 -0.18318756 0.1191701 -0.033691667 0.12667213 0.11751121 0.060720444 -0.031203968
0.017317727 -0.08691579 -0.0027970076 -0.20202392 0.119701676 -0.0378472 0.16652422 -0.06482566
-0.088413574 -0.030182289 -0.08100392 0.05694383 0.08792281 0.08912851 -0.17601505 -0.026549736
0.061137933 -0.20736639 0.06077617 -0.05857201 0.08669379 0.14980571 0.022985436 0.18540129
0.016324464 -0.018764341 -0.022244617 -0.009360723 0.047663797 -0.035963047 0.012543147 0.054130618
-0.07787449 -0.08567171 -0.09236021 0.14429952 -0.012511236 0.0552308 -0.07653902 -0.013654094
-0.032466643 -0.051442683 0.058056075 0.04601147 0.09868494 0.06309137 -0.24118611 0.015591354
0.007962421 0.051617447 -0.07465596 -0.057538696 -0.07643881 -0.03911338 0.034046497 -0.056588713
0.035001904 0.17401737 -0.05325149 0.027704926 0.00501422 0.036011174 -0.07585994 0.04694411
0.023875825 0.086964376 -0.0027166111 -0.10877092 0.12677884 -0.11357157 0.022082986 -0.03406371
-0.0474087 -0.07867254 0.024102706 -3.877212 -0.10270047 0.0010847857 -0.068573624 -0.054758776
-0.09181872 -0.15495816 -0.036998246 -0.00024584308 -0.17391884 0.09602761 0.108565226 0.05293599
-0.14390397 -0.08678892 -0.036022145 0.15631865 0.019631134 -0.0071698683 -0.013332995 0.043501988
-0.068206996 -0.06554386 0.07964264 -0.105364874 -0.029013572 -0.028815283 -0.020939017 0.11448053
0.07985561 0.023836358 -0.0959282 -0.043064907 -0.016982168 -0.06465626 0.00791661 -0.097826734
0.015586353 -0.06811642 -0.022111999 -0.043039635 0.08200422 -0.10711908 0.1392528 -0.061670396
0.023269197 -0.07141031 0.051714778 0.0006414342 0.08678418 0.0951565 -0.0360766 0.033387717
-0.07434575 -0.0041731293 0.026918363 -2.409164 -0.028046181 -0.07382904 0.1555541 -0.012643731
-0.06516299 0.016018258 -0.05978308 -0.03470511 0.1090808 0.006865827 0.01805518 -0.01108859
0.009242018 -0.04708367 0.15757605 0.0012946128 0.012920549 -0.14007132 -0.17096533 0.16996494
0.05570349 -0.121925645 -0.030654753 -0.13061987 0.07574015 -0.004760257 0.09985915 -0.1291092
0.042014066 0.02641134 0.0852508 0.04183315 -0.08843462 -0.023476485 -0.12189093 -0.01798475
-0.043441117 0.041311484 0.17685758 0.059698377 0.16165298 -0.03560316 0.024064183 0.037684005
-0.09969241 0.039809883 -0.0015546599 -0.0049707643 -0.029631775 0.002898465 0.12850218 -0.0037531075
-0.046765395 0.053939153 0.35369447 -0.056117445 -0.19709843 0.07195825 0.055285983 0.00587478
-0.00989267 -0.07774088 -0.15468882 -0.051049672 -0.032629214 -0.045067184 0.0076600495 -0.13067758
-0.057234388 0.0012638862 0.31849593 0.016897693 -0.008332302 -0.16682579 -0.008026163 -0.026640505
0.14658171 0.034506295 0.017020795 -0.056802712 0.031289402 -0.07127576 0.04512753 -0.091377206
-0.08974462 -0.15971623 0.012344778 0.1035215 0.10147274 -0.05383311 0.01908377 0.011048339
-0.07059648 0.030178018 -0.012377919 -0.22934312 -0.17993543 0.022460127 0.04400404 -0.06913962
-0.073505364 -0.0151306875 -0.17823415 0.03957785 -0.060584452 -0.0042416663 0.03207087 -0.04083634
-0.0436467 0.02671707 -0.15367176 0.0058411798 0.05454019 0.09810845 0.08781607 -0.021844188
00000000: 4bac 16be 8595 3bbe 740f f43d 4600 0abd
00000010: 57b6 013e b8a9 f03d 00b6 783d 779f ffbc
00000020: e8dd 8d3c e800 b2bd 004e 37bb 5cdf 4ebe
00000030: 2726 f53d aa05 1bbd 5385 2a3e 51c3 84bd
00000040: 2d12 b5bd d940 f7bc 62e5 a5bd ef3d 693d
00000050: e010 b43d 0289 b63d 4a3d 34be d57e d9bc
00000060: c56b 7a3d db57 54be 6ff0 783d 34e9 6fbd
00000070: 848c b13d ab66 193e f44b bc3c d6d9 3d3e
00000080: e2ba 853c adb7 99bc 583a b6bc b85d 19bc
00000090: 1d3b 433d fd4d 13bd c681 4d3c 11b8 5d3d
000000a0: a97c 9fbd a674 afbd 5a27 bdbd 41c3 133e
000000b0: edfb 4cbc b139 623d 7dc0 9cbd 6cb5 5fbc
000000c0: befb 04bd 90b5 52bd 35cc 6d3d 8676 3c3d
000000d0: 541b ca3d 0c36 813d 7ef9 76be e172 7f3c
000000e0: d074 023c d16c 533d 39e5 98bd b2ad 6bbd
000000f0: f38b 9cbd 5a35 20bd 5774 0b3d 91c9 67bd
00000100: 285e 0f3d 9c31 323e 3c1e 5abd 71f5 e23c
00000110: 534e a43b 7480 133d 755c 9bbd 7848 403d
00000120: 3c97 c33c 611a b23d 2c09 32bb 4ac3 debd
00000130: 50d2 013e 3698 e8bd 61e7 b43c 6486 0bbd
00000140: a02f 42bd 121f a1bd 0a73 c53c 3e24 78c0
00000150: a054 d2bd 5e2f 8e3a 5470 8cbd bd4a 60bd
00000160: 740b bcbd 5aad 1ebe 798b 17bd 80e4 80b9
00000170: c817 32be 20aa c43d 7257 de3d 69d3 583d
00000180: 905b 13be 64be b1bd f58b 13bd ff11 203e
00000190: 79d1 a03c 37f1 eabb a272 5abc 242f 323d
000001a0: 1cb0 8bbd dc3b 86bd ae1b a33d 8ac9 d7bd
000001b0: dfad edbc 070e ecbc 4d88 abbc c574 ea3d
000001c0: 578b a33d 7744 c33c 0176 c4bd d464 30bd
000001d0: 301e 8bbc 806a 84bd abb4 013c 6259 c8bd
000001e0: e75d 7f3c 9f80 8bbd 3924 b5bc 544a 30bd
000001f0: d4f1 a73d 4061 dbbd 4998 0e3e 199a 7cbd
00000200: 0b9f be3c 923f 92bd e0d2 533d ec25 283a
00000210: e7bb b13d 69e1 c23d 0fc5 13bd 8fc1 083d
00000220: 9642 98bd bfbe 88bb e683 dc3c be2f 1ac0
00000230: 1bc1 e5bc ae33 97bd 9349 1f3e a727 4fbc
00000240: 2c74 85bd b938 833c 1adf 74bd f226 0ebd
00000250: c165 df3d bbfa e03b 75e8 933c ebac 35bc
00000260: d56b 173c ceda 40bd 9e5b 213e ffaf a93a
00000270: b6b0 533c db6e 0fbe 8911 2fbe 4a0b 2e3e
00000280: 5829 643d 27b4 f9bd ad1f fbbc 37c1 05be
00000290: a71d 9b3d eefb 9bbb f482 cc3d 3435 04be
000002a0: f116 2c3d 985c d83c f997 ae3d 3d59 2b3d
000002b0: 361d b5bd c251 c0bc f4a1 f9bd c154 93bc
000002c0: 50ef 31bd 3b36 293d 271a 353e 4986 743d
000002d0: 5c88 253e 9ed4 11bd 4022 c53c 8b5a 1a3d
000002e0: 892b ccbd b00f 233d bbc5 cbba cbe1 a2bb
000002f0: 56be f2bc 2cf4 3d3b 1396 033e b2f6 75bb
00000300: 128d 3fbd 4def 5c3d 7117 b53e 68db 65bd
00000310: 2cd4 49be d95e 933d 8e73 623d 3a81 c03b
00000320: de14 22bc 9c36 9fbd bf66 1ebe 7619 51bd
00000330: 36a6 05bd 5e98 38bd 2701 fb3b 58d0 05be
00000340: 9b6e 6abd fca8 a53a e611 a33e 086d 8a3c
00000350: 3584 08bc 61d4 2abe 2b80 03bc 303d dabc
00000360: 8419 163e 7956 0d3d 326f 8b3c f6a9 68bd
00000370: 5129 003d 07f9 91bd a5d7 383d f923 bbbd
00000380: 07cc b7bd a78c 23be c041 4a3c 1503 d43d
00000390: f1d0 cf3d 1b80 5cbd 9155 9c3c 1804 353c
000003a0: e394 90bd e437 f73c c1cc 4abc ecd8 6abe
000003b0: fe40 38be 4dfe b73c 953d 343d 1399 8dbd
000003c0: fb89 96bd b4e6 77bc 0383 36be 621c 223d
000003d0: 6727 78bd adfd 8abb bf5c 033d 0244 27bd
000003e0: e2c6 32bd c2dd da3c 215c 1dbe 5e67 bf3b
000003f0: 8965 5f3d 15ed c83d e9d8 b33d 95f2 b2bc

bias f4 [256]
0.06328576 -0.008101684 0.027763935 0.034874488 0.049491625 0.037552387 0.057524752 0.03742363
-0.009452257 0.038765386 0.027936446 -0.011371595 0.055518147 0.05126724 0.05849003 0.032264683
0.05426266 0.0 -0.031595472 -0.006135041 0.042994715 0.03623497 0.04192604 -0.031695344
-0.0061759823 0.012212443 -0.012962503 -0.0055942 0.06435553 0.07059324 0.0 0.063653044
0.038241617 -0.0055588884 0.015145986 0.018254189 0.033365976 -0.008952825 -0.0064577134 -0.009299108
-0.006005506 0.060806498 0.03291427 0.0289733 -0.030602906 -0.027921733 0.0054440624 0.078656346
0.03548301 0.047118805 0.029636784 0.023740528 -0.014994439 -0.013560469 0.037958037 0.06663227
0.03782794 0.045934614 -0.016658282 -0.031661738 0.03335841 -0.031899918 0.03001821 -0.008869866
-0.028272321 0.065385655 0.046008065 -0.0060114968 0.0 0.055862583 0.029626587 0.036140084
0.029286325 0.065494746 -0.04598289 -0.0057522873 0.0412879 -0.005161389 -0.015927576 -0.012970313
0.05666065 0.0645254 0.041748974 0.047750544 0.03158604 -0.009368386 -0.015172004 0.044866912
-0.0060055074 0.05359742 0.0 0.029724931 -0.0174679 0.056092672 0.029033827 0.04335064
-0.012235075 0.010975873 -0.007919312 0.038609453 0.02583996 0.08378657 -0.011518167 -0.011138004
0.025063962 0.037166122 0.0 0.06243413 0.05062886 0.03980195 0.028021175 0.05707883
0.03034202 0.0 0.03662841 0.064151414 0.03360422 0.06090813 -0.071122155 0.0
0.121023804 -0.0071242996 0.011311125 0.048954487 -0.009208525 -0.02378091 -0.00906282 0.05672455
0.0 0.029263685 0.05904503 0.096542545 0.05675636 -0.008129552 0.05375696 0.0
-0.026805364 -0.026741978 0.04536102 0.08081122 -0.0143093625 -0.013240418 -0.01215653 0.04128739
-0.006005507 -0.015083675 0.09014808 0.016407542 0.032159615 0.05406881 0.06042459 0.031855572
0.012336015 -0.024002474 0.022532992 0.04129174 -0.011427452 0.037021834 0.048483536 -0.022173041
0.057873048 0.05458484 0.0606012 -0.11134827 0.0 -0.014079709 0.05359082 0.031240325
-0.005346976 0.04080893 0.03404322 0.0432906 0.021803495 0.048074484 0.06547702 0.042553928
0.079260066 0.043780427 -0.006005507 0.0 0.037058484 0.048299257 0.024148552 0.06873555
0.05879149 0.05771209 -0.011865199 -0.022187348 0.026896752 -0.038868543 0.023090076 0.061177615
0.02454827 0.046551257 -0.010831457 0.003344116 -0.031653635 -0.02619484 -0.01989615 0.040070854
0.057009615 0.036719937 0.03469628 0.0 -0.015029353 -0.0065106223 0.046845317 -0.05344326
-0.0111364 0.039795708 0.030476697 0.060437776 0.074768014 0.059725598 -0.031571154 -0.0061582453
0.015778488 0.052253462 -0.0310683 0.047737777 0.0 0.0 -0.029607033 0.054329883
0.0 0.05000627 -0.0067879925 0.07113122 -0.036578357 0.047980975 -0.010260098 0.04746535
0.030190928 0.0 -0.012098343 0.047718942 0.020567773 0.06470529 0.035414543 0.058828957
0.03437607 -0.020184664 -0.011317242 0.10632198 0.03849425 0.036077145 0.0295472 0.02310124
-0.037329007 0.0352989 0.028129812 0.04741521 0.04516074 0.058343668 0.04579416 0.053910997
00000000: f79b 813d edbc 04bc 3171 e33c 8dd8 0e3d
00000010: bbb7 4a3d 88d0 193d 139f 6b3d 8549 193d
00000020: a4dd 1abc 74c8 1e3d f9da e43c ed4f 3abc
00000030: ff66 633d 99fd 513d 3e93 6f3d f927 043d
00000040: 8642 5e3d 0000 0000 416a 01bd 7408 c9bb
00000050: 3a1b 303d 1f6b 143d a4ba 2b3d fad2 01bd
00000060: e55f cabb b316 483c ae60 54bc 8d4f b7bb
00000070: d5cc 833d 3093 903d 0000 0000 875c 823d
00000080: 3ea3 1c3d 5627 b6bb df26 783c cf89 953c
00000090: c3aa 083d dfae 12bc 3a9b d3bb 495b 18bc
000000a0: d6c9 c4bb 3c10 793d 1dd1 063d 6a59 ed3c
000000b0: f2b2 fabc 1ebc e4bc 1b64 b23b 9416 a13d
000000c0: a256 113d a6ff 403d d7c8 f23c 7f7b c23c
000000d0: 3cab 75bc bb2c 5ebc e379 1b3d 8076 883d
000000e0: 78f1 1a3d ef25 3c3d f376 88bc bdaf 01bd
000000f0: d4a2 083d 7da9 02bd c0e8 f53c ea52 11bc
00000100: 5b9b e7bc eae8 853d f472 3c3d 17fc c4bb
00000110: 0000 0000 2ad0 643d 75b3 f23c a007 143d
00000120: e0e9 ef3c 1c22 863d 8e58 3cbd af7d bcbb
00000130: 801d 293d de20 a9bb 8c7a 82bc 7081 54bc
00000140: ff14 683d e525 843d f900 2b3d 1396 433d
00000150: 5d60 013d dc7d 19bc ff93 78bc 5ec6 373d
00000160: d9c9 c4bb f888 5b3d 0000 0000 b381 f33c
00000170: d718 8fbc 6ec1 653d 59d8 ed3c 7190 313d
00000180: a075 48bc 26d4 333c 01c0 01bc f224 1e3d
00000190: 53ae d33c 4b98 ab3d b2b6 3cbc 2d7c 36bc
000001a0: f052 cd3c 813b 183d 0000 0000 eeba 7f3d
000001b0: 3560 4f3d 5f07 233d aa8c e53c 7ecb 693d
000001c0: d48f f83c 0000 0000 ac07 163d d161 833d
000001d0: 94a4 093d ce7a 793d 7ea8 91bd 0000 0000
000001e0: 54db f73d f572 e9bb 4c52 393c 8084 483d
000001f0: 5adf 16bc 2fd0 c2bc 397c 14bc 0058 683d
00000200: 0000 0000 65ba ef3c 34d9 713d 19b8 c53d
00000210: 5b79 683d d031 05bc 4230 5c3d 0000 0000
00000220: ec96 dbbc fe11 dbbc 7acc 393d 5a80 a53d
00000230: d171 6abc 57ee 58bc 2f2c 47bc f71c 293d
00000240: d8c9 c4bb 8521 77bc 8e9f b83d 1c69 863c
00000250: cdb9 033d 4277 5d3d c67f 773d fd7a 023d
00000260: ff1c 4a3c d6a0 c4bc 1c97 b83c 8721 293d
00000270: 353a 3bbc 35a4 173d ac96 463d 3da4 b5bc
00000280: 4a0c 6d3d 5a94 5f3d f738 783d 900a e4bd
00000290: 0000 0000 94ae 66bc 0c82 5b3d b6eb ff3c
000002a0: b035 afbb 4427 273d e770 0b3d 7c51 313d
000002b0: 3e9d b23c c0e9 443d d118 863d 074d 2e3d
000002c0: 1a53 a23d 1b53 333d d8c9 c4bb 0000 0000
000002d0: a3ca 173d 71d5 453d 2fd3 c53c 39c5 8c3d
000002e0: 58cf 703d 8363 6c3d 4066 42bc 3ec2 b5bc
000002f0: 9456 dc3c 9f34 1fbd 6627 bd3c 6195 7a3d
00000300: 7419 c93c 88ac 3e3d 6c76 31bc f528 5b3b
00000310: 3ea7 01bd 9096 d6bc 40fd a2bc 5621 243d
00000320: ea82 693d a567 163d b01d 0e3d 0000 0000
00000330: ad3d 76bc 0f57 d5bb e0e0 3f3d 52e7 5abd
00000340: 7275 36bc d300 233d 44aa f93c 9a8d 773d
00000350: f91f 993d d4a2 743d c150 01bd 1bcb c9bb
00000360: e341 813c ba07 563d f382 febc b088 433d
00000370: 0000 0000 0000 0000 738a f2bc 0389 5e3d
00000380: 0000 0000 60d3 4c3d cf6d debb 3fad 913d
00000390: 30d3 15bd b387 443d f819 28bc 076b 423d
000003a0: f752 f73c 0000 0000 2138 46bc f074 433d
000003b0: bf7d a83c 3584 843d d70e 113d a2f6 703d
000003c0: eccd 0c3d 4f5a a5bc f46b 39bc 57bf d93d
000003d0: 26ac 1d3d a1c5 133d f80c f23c d03e bd3c
000003e0: 4de6 18bd 9495 103d 7e70 e63c 7436 423d
000003f0: 78fa 383d c5f9 6e3d a892 3b3d c7d1 5c3d

weight f4 [2, 256]
-0.34423897 -0.12518294 -0.14446941 0.16120757 -0.23679152 -0.092417434 0.09652038 -0.20485428
0.04527402 0.04389819 -0.12437025 0.027106287 -0.20376934 0.1023453 0.1887452 0.02800335
0.115088254 -0.038577866 -0.01905441 -0.021978494 -0.16973226 -0.0068087582 -0.23434424 0.013834599
-0.060127035 -0.28264514 0.01035012 -0.036595605 0.2053697 0.25582048 -0.16118027 0.14206965
-0.052128494 -0.09510401 -0.93292576 -0.04270851 -0.14393431 -0.05723242 -0.058870263 0.034570627
-0.10369848 0.12183755 -0.15708682 -0.077094465 -0.034039058 -0.025779951 0.059373252 0.19639699
-0.24268803 0.16891629 0.20428067 -0.024510961 -0.027864492 -0.07066845 -0.088188134 0.24520917
-0.16031095 0.107273616 0.09654863 0.1823268 -0.18054186 0.0109210005 -0.29333746 0.039868224
0.04465175 -0.30542135 -0.17928375 -0.07330261 -0.057711203 0.24933429 0.19720474 -0.089904636
-0.15223885 0.23454663 0.022322748 0.045967408 0.28887957 -0.051464878 -0.010546346 -0.03308772
-0.29131743 -0.3824758 0.15749323 0.101275116 -0.062027816 0.048091345 -0.2417435 0.112781934
-0.014885067 0.11158361 -0.022262702 -0.10798082 0.0030372785 -0.19064568 -0.01360843 -0.18195198
-0.043829545 -0.10222652 0.11284504 -0.14833613 0.12360898 0.32765457 0.012572828 -0.08727068
-0.05816506 0.1653629 -0.037285253 0.32303134 0.058112003 -0.096274 -0.090610676 0.1545295
-0.12956335 -0.071290426 0.16277564 -0.31456932 -0.0763147 0.22253467 1.1633675 -0.020111047
-0.8533392 -0.02814291 0.11284978 0.044111047 0.08257599 0.060186557 0.065235324 0.14957362
0.043990664 -0.115511626 0.30433667 -0.21603619 0.14364602 0.013790151 0.12446598 -0.023524929
0.058964193 -0.066404365 -0.25042498 0.16347796 0.011217795 0.035839707 -0.001590465 -0.30896002
0.065100126 -0.05515288 0.24758716 0.078902714 -0.38101888 -0.3423604 0.24246454 -0.19828248
0.12233382 0.044249464 0.10777465 0.10855238 0.06723493 -0.17465398 0.124387965 0.122048326
-0.25819027 0.16505265 0.18651748 -1.2774918 0.095649876 0.047511626 0.11921094 -0.26204258
0.0032361224 0.092478946 -0.27769667 -0.14119558 -0.08548559 0.123253755 0.10886795 -0.030651866
0.1019722 -0.27224347 -0.033022296 -0.025228795 -0.15737104 0.27110708 -0.13931186 0.18275362
0.10338559 -0.2494181 0.06962945 0.13002402 -0.0660928 -0.08774032 0.14363132 -0.28272265
-0.085007995 0.20239215 0.025890185 0.12896381 -0.09064141 -0.0208524 -0.039082456 -0.107084356
-0.29770586 -0.14021392 0.1467282 0.012490852 -0.06982769 -0.03370006 0.36209577 -0.020112172
-0.09649087 -0.22676606 -0.09872192 0.11939152 -0.254828 0.057898194 0.04792623 0.018371545
0.1704837 -0.20961583 -0.018909428 -0.21243721 -0.018819546 -0.010585959 0.0054299934 -0.024755066
-0.02881356 0.028144432 -0.045824096 -0.08747607 0.0061624604 -0.13093671 -0.06760875 0.3086929
0.124235764 -0.052820463 0.0019266958 -0.3191 0.13456081 0.08506573 -0.022688668 0.109876275
-0.13426648 0.023724735 -0.024011727 -0.8475507 0.012655968 0.2313917 -0.18765612 -0.07255417
0.08122367 -0.18017116 0.1951005 0.028644573 0.07645685 0.26001078 0.08198749 -0.1781449
00000000: 1740 b0be f52f 00be caef 13be 9913 253e
00000010: 7a79 72be 5a45 bdbd 7aac c53d 52c5 51be
00000020: 4071 393d 97ce 333d d4b5 febd 010e de3c
00000030: e9a8 50be 6a9a d13d 6c46 413e 4867 e53c
00000040: 64b3 eb3d d303 1ebd fe17 9cbc 3e0c b4bc
00000050: 4bce 2dbe 011c dfbb f0f7 6fbe 84aa 623c
00000060: c447 76bd ddb6 90be 8d93 293c 46e5 15bd
00000070: 6f4c 523e e7fa 823e 710c 25be b57a 113e
00000080: b084 55bd e4c5 c2bd 39d4 6ebf 1eef 2ebd
00000090: 8463 13be 8b6c 6abd f221 71bd ee99 0d3d
000000a0: de5f d4bd f785 f93d 5edb 20be b4e3 9dbd
000000b0: 8a6c 0bbd 7a30 d3bc 5e31 733d 4b1c 493e
000000c0: 3683 78be 64f8 2c3e f42e 513e 36cb c8bc
000000d0: 1344 e4bc 9fba 90bd fb9b b4bd 1d18 7b3e
000000e0: 8e28 24be 45b2 db3d 4abb c53d e0b3 3a3e
000000f0: f7df 38be ffed 323c 5430 96be dd4c 233d
00000100: c1e4 363d 3060 9cbe 2996 37be ae1f 96bd
00000110: 9562 6cbd 7d51 7f3e 0af0 493e ec1f b8bd
00000120: 80e4 1bbe fe2c 703e 32de b63c 5248 3c3d
00000130: 06e8 933e d6cc 52bd 95ca 2cbc fd86 07bd
00000140: 8f27 95be ded3 c3be e845 213e 5469 cf3d
00000150: e110 7ebd 6efb 443d 9c8b 77be 37fa e63d
00000160: 7fe0 73bc f385 e43d 4560 b6bc 0c25 ddbd
00000170: 140d 473b 9f38 43be e4f5 5ebc 9f51 3abe
00000180: 9c86 33bd 235c d1bd 4d1b e73d 6de5 17be
00000190: b426 fd3d 57c2 a73e 43fe 4d3c f8ba b2bd
000001a0: 7c3e 6ebd e454 293e 6cb8 18bd 5d64 a53e
000001b0: da06 6e3d 4e2b c5bd 1792 b9bd fb3c 1e3e
000001c0: 41ac 04be b700 92bd a8ae 263e 3b0f a1be
000001d0: e24a 9cbd 21e0 633e 3ae9 943f ecbf a4bc
000001e0: 7074 5abf f68b e6bc c91d e73d c9ad 343d
000001f0: 9a1d a93d 2e86 763d 199a 853d d429 193e
00000200: 8e2f 343d 5c91 ecbd 04d2 9b3e 9738 5dbe
00000210: f117 133e 16f0 613c 05e8 fe3d 5ab7 c0bc
00000220: 7084 713d 03ff 87bd b437 80be c466 273e
00000230: d8ca 373c a8cc 123d 2677 d0ba 0230 9ebe
00000240: 3753 853d fce7 61bd 7d87 7d3e bf97 a13d
00000250: e814 c3be dd49 afbe a048 783e 900a 4bbe
00000260: 278a fa3d ed3e 353d f5b8 dc3d b650 de3d
00000270: 78b2 893d 7ed8 32be 1ebf fe3d 79f4 f93d
00000280: 8431 84be 9003 293e 70fe 3e3e da84 a3bf
00000290: 15e4 c33d 8d9b 423d de24 f43d 722a 86be
000002a0: 2015 543b 9a65 bd3d 422e 8ebe 9395 10be
000002b0: 1213 afbd 776c fc3d 29f6 de3d 9f19 fbbc
000002c0: cdd6 d03d 7f63 8bbe 6342 07bd 9eac cebc
000002d0: e025 21be 8cce 8a3e c5a7 0ebe c423 3b3e
000002e0: d3bb d33d 7567 7fbe e399 8e3d 0425 053e
000002f0: a95b 87bd 32b1 b3bd 1714 133e 06c1 90be
00000300: ac18 aebd e33f 4f3e a717 d43c 170f 043e
00000310: 34a2 b9bd a7d2 aabc ed14 20bd 0b4f dbbd
00000320: e76c 98be 3d94 0fbe eb3f 163e 6ea6 4c3c
00000330: d201 8fbd 1309 0abd 9e64 b93e 48c2 a4bc
00000340: 019d c5bd 5d35 68be b82e cabd 8b83 f43d
00000350: d178 82be a826 6d3d 4b4e 443d ec7f 963c
00000360: 4793 2e3e 88a5 56be f2e7 9abc 2489 59be
00000370: 732b 9abc bb70 2dbc 16ee b13b 23cb cabc
00000380: 6a0a ecbc 278f e63c 0cb2 3bbd a726 b3bd
00000390: 77ee c93b 4614 06be 7576 8abd ff0c 9e3e
000003a0: 526f fe3d 455a 58bd 2f89 fc3a 1361 a3be
000003b0: 4fca 093e f136 ae3d 96dd b9bc d006 e13d
000003c0: 277d 09be 605a c23c 3eb4 c4bc 15f9 58bf
000003d0: fa5a 4f3c f2f1 6c3e ed28 40be 4897 94bd
000003e0: 9858 a63d ca7e 38be 6dc8 473e 06a8 ea3c
000003f0: 6995 9c3d 2220 853e 0fe9 a73d 9e6b 36be

bias f4 [2]
-0.03285829 -0.020744622
00000000: 6a96 06bd a0f0 a9bc
