exp_local/gcbc_fixed/weights/18000.pt (torch, 274440 bytes, 6 tensors)

weight f4 [256, 4]
00000000: b970 74be 9186 91bd c06f ab3d 8491 083e
00000010: b775 dbbd cb77 883e 08c5 f6bd c88a c33c
00000020: 09dd c7be 61e5 823c 5086 5e3e 24db 9c3d
00000030: 8327 9d3c ed3f 6d3e 4af2 a5bd 7bca b4bc
00000040: ce49 973c ba35 96bd 40c8 b4bd ddf4 bdbb
00000050: 4324 d8bd 9fa0 d9bc eb4e 9fbc c2ed 5abd
00000060: d279 bebe d5b4 813d 925b 2a3e 99fe c03d
00000070: 7e6e 853e 9c07 5c3e 4c3d 3cbd 3a6d cdbd
00000080: d697 1ebe 43aa 58be c2ee bd3d 7039 093e
00000090: 9545 5c3e 2df5 183e 7b37 f9bd d6a0 82bd
000000a0: 9661 38bc 7fef 8cbb 978e 363d b97c 84bd
000000b0: cee1 bf3e 1482 90bd 69c4 a6bd cd3e a8bd
000000c0: ae8c 7d3e 98dd 4ebe 00da d4bd 1284 363d
000000d0: 79d9 313e 51a2 603e 6826 103c 42d8 22be
000000e0: 3371 673e f1f3 4c3e d0d5 dbbc 18be 35be
000000f0: 241f e7bd e8c2 8a3e bd8d 0dbd 4292 e63b
00000100: afcb a53e 3abb 2abb 0ab5 ebbc 3f25 c2bd
00000110: 81c4 c23d 37fd 553e c83e 1fbd 649c 9fbd
00000120: 6860 b6bc cde0 7d3e 23d6 90bc f8f9 a2bd
00000130: 62bc e1bc 05b9 7abe a4bc d63d bad6 c33d
00000140: 5a7a 1cbf 90ed 703e 3fdd 033d 4b03 523d
00000150: 2368 7c3e 3884 88bb aa25 aabd f4dc 0abd
00000160: f98b 293e 4ecf 3a3e f658 e2bd 3296 8dbd
00000170: 18a4 3f3d 2e4b 883e 9c11 d4bd 4bab 313b
00000180: 3a1d 7abc b570 abbe 3dbc 983c 627a 6e3e
00000190: b5d8 983e 3fab b93d 9ae5 69bd a086 09be
000001a0: 3f6d c2bd 6b02 09bd e544 40bd 5e4c 593d
000001b0: bf9a 933e 9159 6d3d 9c4f bdbd 9fbd 0fbd
000001c0: a296 063e 53b6 96be 887b d9bc 6f7f cf3d
000001d0: 43e0 8c3e 345b 053e c615 9fbd a9e9 ecbd
000001e0: 180a 9abd 1a71 05be a6c8 823b 9e5a 0bbd
000001f0: 943b ba3e cf97 6dbd 9cb0 d7bd d4e4 bdbd
00000200: bf45 52be 7218 153e d678 97bb 7aaf 6c3d
00000210: 84fd 6cbe c9bb 0b3e d190 9c3d 8c76 7e3c
00000220: 2b31 3dbc a624 84bc 73a5 38bd 20d7 983c
00000230: fb38 c0bd 47be 59bd cdbd 1bbc 7341 a0bc
00000240: 04a3 e83c 402c aebe 6a56 0f3e 4926 a03d
00000250: 68aa c53c 3bf5 2fbc b81e c7bd 4894 e83c
00000260: f203 663e 5869 14bd a4c2 6b3d ce75 a5bd
00000270: 9c6e a13e 3423 d7bd f37f f6bd 1f76 863c
00000280: 3240 943d 3f67 873e 0f41 3ebd e045 bfbd
00000290: be6c 903e 0c2d b0bd aa5c 7d3c e032 d2bd
000002a0: 2cdb 033e f48f 8b3e 2d30 bbbd af2d b0bd
000002b0: 8592 41be a145 f83d f92f 773d b4df 023e
000002c0: 8b70 c0bd 8197 8dbe 0b3d 403e 6301 13bc
000002d0: 93d1 22ba 38a9 073c bf41 a4bd b0df a73c
000002e0: 1a42 373b fca2 82bd 9ee9 9fbd 7720 51bd
000002f0: ea6e 413e acd8 643e c340 91bd 06de 69bd
00000300: 012c b2bd ff00 f4bb 988f 96bd 2468 5cbd
00000310: 244e d2bc 856f a8bc 72a7 9ebc 5265 b93c
00000320: 95ad 383e c6ac 85be 0704 c8bc 9a17 0ebc
00000330: b23c 5cbd 6240 21bd 0993 76bd 6153 9bbd
00000340: 9b6f a53e 58c5 38bd 3fe9 00bd 9373 e9bc
00000350: 41dc 6e3d 7b4a 71be e2db 3c3d 8d5d cc3d
00000360: d2ac a23c 6d2c 8d3e 26db 8dbd 824f c6bd
00000370: c601 54bd b5fb 3b3e 9c82 23bd 48da 453d
00000380: f17c 4d3d 30bd 813c 0c2b e2bd d5eb 97bd
00000390: 7e3a b43d 53bb 563b a8bc d3ba 32a7 293c
000003a0: dd5e 87be 81fe 0b3e 6e27 0c3e 08a2 cc3c
000003b0: ed5b 84bc 3a49 db3c e0be ad3c 64da 9fbd
000003c0: afa6 06be af02 523e 773e 283c 2142 923c
000003d0: 79e0 913e 62d2 a6bd 18eb 9dbd 96b8 b2bb
000003e0: 6ffa f43d 35d3 9cbe fcd3 363d 9395 f53c
000003f0: 403e e0bb 9d9c 9abd f71e 6e3d a886 44bd
-0.23871125 -0.07105745 0.08370924 0.1333676 -0.10715812 0.26653895 -0.120492995 0.023869887
-0.39035824 0.015978517 0.21730924 0.07658985 0.01918388 0.23168917 -0.081028536 -0.022069206
0.01846781 -0.07334466 -0.08827257 -0.0057970122 -0.105537914 -0.026565848 -0.01944681 -0.0534494
-0.37202317 0.06333319 0.16636494 0.09423561 0.2606086 0.21487278 -0.045956895 -0.10030599
-0.15487608 -0.211587 0.09274055 0.13400817 0.21510918 0.14937277 -0.12168785 -0.06378333
-0.011253735 -0.004301011 0.044569578 -0.064691015 0.37476963 -0.070560604 -0.08142931 -0.08215103
0.24760696 -0.20201719 -0.10393143 0.044559546 0.17368115 0.21936919 0.008798219 -0.15902808
0.22601776 0.20014931 -0.026835352 -0.17748296 -0.112852365 0.27101827 -0.034559 0.0070364783
0.3238196 -0.0026051537 -0.02877285 -0.094797604 0.095101364 0.20897375 -0.038878232 -0.07793501
-0.022262767 0.24792786 -0.017680233 -0.07957834 -0.027555648 -0.24484642 0.10485199 0.0956244
-0.61124194 0.23528123 0.03219342 0.05127267 0.246491 -0.0041661523 -0.08307965 -0.033902124
0.16557302 0.18243143 -0.11052124 -0.06913413 0.04678735 0.26619858 -0.10354921 0.0027110155
-0.015265757 -0.33484426 0.018644447 0.23288873 0.29852834 0.09065866 -0.05710373 -0.13430262
-0.09493493 -0.03344957 -0.046940703 0.053051345 0.28829 0.057946745 -0.092437 -0.035092946
0.131434 -0.29435977 -0.026548162 0.10131728 0.27514848 0.13023072 -0.07767825 -0.11568005
-0.075214565 -0.13031426 0.0039912043 -0.034021966 0.3637358 -0.058006104 -0.105317324 -0.09272161
-0.20534419 0.14560106 -0.004622559 0.057784535 -0.23143584 0.13645853 0.07644809 0.015531193
-0.011547367 -0.016130757 -0.04507966 0.018657267 -0.09385868 -0.05315998 -0.009505701 -0.019562459
0.028398044 -0.34018135 0.13997808 0.07819802 0.024129108 -0.01073962 -0.09722656 0.028391019
0.22462443 -0.036233276 0.05755867 -0.0807911 0.315297 -0.10504761 -0.12036123 0.016413746
0.07238807 0.26445958 -0.046448763 -0.093394995 0.28207964 -0.08602342 0.015463987 -0.1026361
0.12876576 0.27258265 -0.09140048 -0.086024635 -0.18903549 0.12122656 0.060348485 0.12780648
-0.09396466 -0.2765465 0.18773286 -0.008972499 -0.00062110386 0.008280091 -0.080203526 0.020492405
0.0027962984 -0.06378743 -0.07808231 -0.05105635 0.18889967 0.22348279 -0.070924304 -0.057096504
-0.08699799 -0.007446408 -0.07351607 -0.053810254 -0.025672026 -0.02056099 -0.019366954 0.022631321
0.18034966 -0.26108378 -0.024415983 -0.008672619 -0.05376882 -0.03936804 -0.060198817 -0.07584263
0.3231171 -0.045110077 -0.03147244 -0.028497493 0.05831552 -0.23563568 0.046108134 0.09978781
0.019857798 0.27572957 -0.06926565 -0.09683134 -0.051759504 0.18357737 -0.03991948 0.048303872
0.05016798 0.015837282 -0.11043367 -0.07418028 0.08800219 0.0032765463 -0.0016154246 0.010354804
-0.26439562 0.13671304 0.13686916 0.024979606 -0.016157115 0.026768316 0.02120918 -0.078053266
-0.13149522 0.20508836 0.010268799 0.017853798 0.28491572 -0.08145596 -0.07710856 -0.0054541333
0.11961829 -0.30629888 0.044635758 0.02997855 -0.0068433583 -0.07549403 0.058135 -0.04797998

bias f4 [256]
00000000: 8b97 753d 9efc 403c 3a47 8d3d 698d edbc
00000010: 0000 0000 0000 0000 97bf 5a3d 07ff febd
00000020: 3388 963d 01c0 6cbd 0000 0000 6746 9abd
00000030: e495 933c ce44 9cbd f61e c3bd 5afe 81bc
00000040: bbe6 bbbd 98f2 5bbd c453 d8bc 336d 613d
00000050: 1b76 9b3d d07c 0abd c613 3abd acf7 5abd
00000060: 07e3 643d 862c e1bd 0000 0000 f6bd 87bd
00000070: 3ddc 4e3d 9e38 cdbd 0000 0000 3ae3 93bd
00000080: c2e8 d33c d72d ba3c 0000 0000 0000 0000
00000090: 616a 353d d2c9 c4bb d3c6 50bd 687e 79bd
000000a0: 62d0 51bd 9155 35bd 2ca7 70bd 4125 a63b
000000b0: 9314 aa3d 0000 0000 0000 0000 a7ac dcbd
000000c0: 0000 0000 0000 0000 4073 673d 0000 0000
000000d0: 2077 91bd e6df ed3c 0f67 c1bc a5de 92bc
000000e0: e5df 03bc 8be8 efbc fae3 3d3c 3aba 7ebc
000000f0: 4c9e 143d 617a 34bd bd25 5e3d c50b 35bc
00000100: d5d5 a2bc 4df0 a5bc 92ff 46bc 325b 1c3d
00000110: ae38 3cbc 6622 0a3d c0ff f4bb b080 30bd
00000120: 0306 52bd 1d18 a33d 0000 0000 2330 0d3d
00000130: 933f 4ebc 5448 9abd e3c4 a6bd 0000 0000
00000140: e33e a23d a520 883c cd61 8bbd d8c9 203e
00000150: 0000 0000 a9a5 343c 4e28 fabc ecea 8bbc
00000160: b70c a0bc 5020 dcbb 88e2 04bc 0000 0000
00000170: a9a5 94bd 5ff6 573d 9b82 4c3d 0000 0000
00000180: 2018 123c 7199 81bc 0000 0000 9421 403d
00000190: baa0 393d 3164 84bd f367 73bd 0000 0000
000001a0: 0000 0000 3780 5ebd a2cd 0c3b a955 0abd
000001b0: 0087 a7bc 0000 0000 05fb 94bd df07 e23d
000001c0: b2c5 063d f96b 7fbc d47d febb 21fa 363c
000001d0: 81b5 c6bc 0000 0000 97e1 823d 3073 22bc
000001e0: f320 93bc 63ec 5ebd 11f8 953d a149 483d
000001f0: e9b5 9dbc a66a 5cbd 70ae 833d 0000 0000
00000200: 0000 0000 8dae 74bc 8970 1dbc 66f9 ffbb
00000210: af11 413d 264d 493d ad99 743d d8c9 c4bb
00000220: 0000 0000 2fd0 0cbd 0000 0000 6347 373d
00000230: f9d0 12bd 630a 88bc 570f 8a3d 39ca 1cbc
00000240: 8e5c f03c 93eb 76bc 0000 0000 a1e7 5c3d
00000250: 0000 0000 10af 08bd 96a3 e33c 0000 0000
00000260: bed5 163c bfcd 973d d728 cd3d 1543 c5bd
00000270: 6f2d d0bb 3108 1ebd 610a 18bd 7e90 e7bc
00000280: cde5 06bd 9ece 2c3d 0000 0000 958b 76bc
00000290: a76f 04bd c958 8c3d 0000 0000 95f2 a23d
000002a0: 0000 0000 0000 0000 0000 0000 5e14 a13d
000002b0: 0000 0000 0ae2 9a3d 5328 0f3c 38d9 b03c
000002c0: e1fb fcbc fe9d 8bbd e80a 993d 6caf 883d
000002d0: d907 863d 029d 47bd fbbf 513d 9306 a33d
000002e0: 545e cdbb 0e1f 5ebc ce7f 74bd bf87 d13d
000002f0: 0000 0000 0000 0000 1efa 97bc d2f9 053d
00000300: a60c 413d a2b3 a93d a30c b5bd 4c79 40bd
00000310: 50c0 923d 02b2 2a3d aa5f ea3d 0000 0000
00000320: a626 b8bd ff56 253d 23de 1dbd 55d1 1c3d
00000330: 0000 0000 9f74 a83d 15cd 9b3d d187 6cbd
00000340: 064c 32bd e9df 363d ceb3 183a 0000 0000
00000350: 45e4 653d 58a0 8f3d e350 52bc 0000 0000
00000360: 0000 0000 be84 25bc 0000 0000 0000 0000
00000370: b7fe bfbd f915 3cbd 0ac2 473d 3831 c8bd
00000380: be06 84bd 2057 2fbd 0000 0000 0000 0000
00000390: bff4 8b3d 0000 0000 0000 0000 0e27 b6bb
000003a0: 0000 0000 0000 0000 34be 4d3d 2994 fb3d
000003b0: 8139 cdbc 0000 0000 4533 633d f156 19bd
000003c0: 3795 803d fa68 2abd 712d b0bb 77c8 14bc
000003d0: 6e08 23bc 4420 843d d6ea 5ebd 04f9 24bd
000003e0: 0000 0000 0000 0000 4ffc 5cbd 7560 8bbd
000003f0: 0000 0000 438e 07bd eace 8b3c 95d8 cebc
0.059958976 0.011778979 0.06898351 -0.028998094 0.0 0.0 0.05340537 -0.12450986
0.07350197 -0.057800297 0.0 -0.075329594 0.01801581 -0.07630311 -0.0952739 -0.015868355
-0.09174868 -0.053698152 -0.02640713 0.05503578 0.07590886 -0.033810437 -0.045429014 -0.053458855
0.055880573 -0.1099482 0.0 -0.06628029 0.050503004 -0.100205645 0.0 -0.072210744
0.025867824 0.022726936 0.0 0.0 0.044290904 -0.006005504 -0.050970864 -0.060911566
-0.05122412 -0.044271056 -0.058753178 0.005070359 0.083047055 0.0 0.0 -0.10775118
0.0 0.0 0.056506395 0.0 -0.071027994 0.029037427 -0.023608712 -0.01792843
-0.008048986 -0.02928569 0.011589998 -0.01554733 0.036283776 -0.044062022 0.05423521 -0.011050169
-0.019877354 -0.020256186 -0.012145894 0.038172908 -0.011488123 0.03372421 -0.007476777 -0.043091476
-0.051275264 0.079635836 0.0 0.034469735 -0.012588399 -0.07533327 -0.08143022 0.0
0.07922151 0.016617129 -0.068057634 0.15701997 0.0 0.011025825 -0.030536797 -0.017079793
-0.019537313 -0.006717719 -0.00811065 0.0 -0.0725816 0.052725192 0.049929243 0.0
0.008916885 -0.015820237 0.0 0.046907023 0.045319296 -0.064644225 -0.059425306 0.0
0.0 -0.054321494 0.0021484871 -0.0337731 -0.020450115 0.0 -0.07274441 0.110366575
0.03290338 -0.0155897075 -0.0077664647 0.011168034 -0.02425647 0.0 0.06390684 -0.009915158
-0.017960047 -0.054424655 0.073227055 0.048898343 -0.01925178 -0.053812645 0.06429756 0.0
0.0 -0.014934194 -0.00960935 -0.007811713 0.047136005 0.04914584 0.05971687 -0.006005507
0.0 -0.034378227 0.0 0.044745814 -0.035843823 -0.016606515 0.06741207 -0.009569698
0.029341009 -0.015070814 0.0 0.053931836 0.0 -0.033370078 0.027787965 0.0
0.009206234 0.0741229 0.10017555 -0.096319355 -0.0063530724 -0.03858203 -0.037119273 -0.028267141
-0.032934 0.042189233 0.0 -0.015047927 -0.032333042 0.06852872 0.0 0.07956425
0.0 0.0 0.0 0.07865213 0.0 0.07562645 0.008737641 0.021587953
-0.030881824 -0.06817244 0.07472783 0.06674084 0.065444656 -0.04873372 0.051208477 0.07960238
-0.0062673483 -0.013557209 -0.059692197 0.1023097 0.0 0.0 -0.018551882 0.03270895
0.047131203 0.08286215 -0.08840301 -0.046990678 0.07165587 0.041673668 0.11444028 0.0
-0.089917466 0.04036617 -0.038541924 0.038285572 0.0 0.08225369 0.07607476 -0.057746712
-0.043529533 0.04464713 0.0005825133 0.0 0.056125898 0.07013005 -0.012836668 0.0
0.0 -0.010102449 0.0 0.0 -0.09374755 -0.045919392 0.048769034 -0.09775013
-0.064465985 -0.0428077 0.0 0.0 0.06833791 0.0 0.0 -0.005558855
0.0 0.0 0.05023022 0.12284119 -0.025051834 0.0 0.055468816 -0.03743643
0.062784605 -0.04160402 -0.005376511 -0.009080998 -0.00995074 0.06451467 -0.054423176 -0.040276542
0.0 0.0 -0.053951558 -0.06805507 0.0 -0.033094656 0.017066438 -0.025249759

weight f4 [256, 256]
00000000: d270 19be fd38 3abe 1b78 d03d 864e 0ebd
00000010: 57b6 013e b8a9 f03d dd2c 3a3d 4e38 f0bd
00000020: ab12 c13c 6954 f1bd 004e 37bb 2ac5 75be
00000030: bdc3 a83d 2b47 63bd 60b0 3f3e c1e3 8bbd
00000040: 6517 d3bd 3641 48bd 2e6a 9bbd 6f23 163d
00000050: e010 b43d fdbb 993d efd0 43be dede 57bd
00000060: 3562 1f3d 0795 98be 6ff0 783d 5e21 a1bd
00000070: 3ef4 6a3d 30a2 6d3e f44b bc3c 7d29 8f3e
00000080: 7cff a23d 1407 e63c 583a b6bc b85d 19bc
00000090: 87ac 523c fd4d 13bd fe05 02bc 44f8 653d
000000a0: b85b cfbd e2fe e0bd a00c f7bd d821 1f3e
000000b0: be71 013c b139 623d 7dc0 9cbd ec15 65bd
000000c0: befb 04bd 90b5 52bd f8da be3c 8676 3c3d
000000d0: 626e 823d ba85 0d3d c416 82be af1f 903c
000000e0: d074 023c 1d4e 983c a995 88bc b2ad 6bbd
000000f0: 4b8b 69bd 11d2 35bd 228e 4f3b 91c9 67bd
00000100: 7d49 b03c ef62 2e3e 3c1e 5abd 6883 9b3c
00000110: b57a 91bc 4cb6 9d3c 23c6 dcbd 1022 203d
00000120: d77a 133d 7977 ca3d 2c09 32bb b14f 83bd
00000130: 0dd6 f13d ea94 16be a909 7c3d 6486 0bbd
00000140: 9e39 81bd f9f3 bebd 4f17 16bc dead 9ec0
00000150: a054 d2bd c2f1 63bc 1bdf a8bd c045 7cbd
00000160: 8ff5 dcbd d378 16be 798b 17bd 80e4 80b9
00000170: aef8 ecbd 6245 8b3d e805 c23d 69d3 583d
00000180: 8cd7 09be ba89 c2bd f58b 13bd 7743 283e
00000190: dbf3 60bc ba46 1fbd bcbf f3bc 242f 323d
000001a0: 1cb0 8bbd 5ccd aebd b013 963d 93a3 e8bd
000001b0: 478c 32bd 070e ecbc 683b c2bd a80a de3d
000001c0: 58a8 633d 7e84 863b 0176 c4bd b69e 79bd
000001d0: 9675 30bd 806a 84bd 4887 ddbc 6259 c8bd
000001e0: 9582 103b e219 98bd 0ebf a3bc 78fc 65bd
000001f0: b19e 8e3d 1599 09be e377 063e 199a 7cbd
00000200: 0b9f be3c 6875 67bd e0d2 533d ec25 283a
00000210: 8aee 9c3d 1eca 693d 0be6 e8bc 8fc1 083d
00000220: 9642 98bd f0e2 57bd e683 dc3c 05e4 3dc0
00000230: 4dae f4bc da88 acbd 8663 1f3e a727 4fbc
00000240: 4846 9fbc f7e6 7b3c 1adf 74bd afef a8bc
00000250: c165 df3d c5fc 5bbc 1bd2 f33c ebac 35bc
00000260: efb1 9bbb 35a5 dcbc 8614 243e 09ae a1bd
00000270: b6b0 533c 3977 1ebe 5ddc 3ebe 4bb3 183e
00000280: e9af 4e3d 378e a4bd ad1f fbbc 02fd 0cbe
00000290: 3da6 823d 863e 03bd f482 cc3d 690c 08be
000002a0: f116 2c3d 985c d83c f997 ae3d 86e2 6c3d
000002b0: 361d b5bd 0b6a 0bbd 286e c8bd cc8e 42bc
000002c0: 507a 28bd 02a9 b23c 2f39 2b3e 7d75 563d
000002d0: a4fb 163e 52c8 57bd 8efa ebbb aefc 1a3d
000002e0: 892b ccbd cd71 cd3c f952 bcbc e2ee 89bb
000002f0: 56be f2bc 2cf4 3d3b 7cab c13d ccd4 e13b
00000300: 5351 2dbd 5663 473d 3be0 df3e 0b54 34bd
00000310: 376b 4abe c414 943d 64fa 473d 3a81 c03b
00000320: 2e11 e0bd 1a88 04bd 0a9c 2ebe 77c3 9dbd
00000330: 36a6 05bd 14c2 b8bc f2a6 c63c 12dd 18be
00000340: 759f 8dbd 345f c2bc 6878 0b3f 086d 8a3c
00000350: 5878 d4bc c458 55be 2b80 03bc 303d dabc
00000360: 8419 163e 7956 0d3d 326f 8b3c f6a9 68bd
00000370: c016 023e 81af 8abd 5dce 703d 0d23 42bd
00000380: a36e 26be b70e 2dbe c041 4a3c 1503 d43d
00000390: 7b89 b83d 1b80 5cbd 9155 9c3c 1804 353c
000003a0: e394 90bd e437 f73c 6582 edbb 23eb 07bf
000003b0: d489 3dbe 4dfe b73c 19c1 b93b 7a18 babd
000003c0: 925d efbd 7aaf 72bc 3f4d 32be 621c 223d
000003d0: 6727 78bd 3a42 fe3b da7c d83c 78ae 6fbd
000003e0: e2c6 32bd c2dd da3c d483 23be 5e67 bf3b
000003f0: 8965 5f3d 6fdf ca3d b87b 9e3c 25bd 19bd
-0.14984444 -0.18185802 0.10179158 -0.034742855 0.12667213 0.11751121 0.04545294 -0.11729489
0.023568472 -0.11783678 -0.0027970076 -0.24000993 0.08240459 -0.055487793 0.18719625 -0.0683055
-0.103071965 -0.048890315 -0.075886115 0.036654886 0.08792281 0.07506559 -0.1912267 -0.052702777
0.038912017 -0.298012 0.06077617 -0.078676924 0.057361834 0.23206401 0.022985436 0.2796134
0.07958886 0.028079547 -0.022244617 -0.009360723 0.012858517 -0.035963047 -0.007935999 0.056144968
-0.10124916 -0.10986115 -0.12062955 0.15540254 0.007900653 0.0552308 -0.07653902 -0.05592911
-0.032466643 -0.051442683 0.023297772 0.04601147 0.0636871 0.03455136 -0.25407994 0.017593233
0.007962421 0.018591935 -0.016672926 -0.057538696 -0.057017606 -0.044389788 0.003167041 -0.056588713
0.021519417 0.17029928 -0.05325149 0.018983558 -0.017758707 0.019251965 -0.10779979 0.039094985
0.03600582 0.09886069 -0.0027166111 -0.06411684 0.11808405 -0.14705244 0.06153265 -0.03406371
-0.06309818 -0.09323878 -0.009160831 -4.958724 -0.10270047 -0.01391262 -0.08245679 -0.061589956
-0.10789024 -0.14694528 -0.036998246 -0.00024584308 -0.115708694 0.06800343 0.09473783 0.05293599
-0.13461131 -0.094989255 -0.036022145 0.16431986 -0.013730015 -0.03888581 -0.029754512 0.043501988
-0.068206996 -0.08535263 0.07327974 -0.11359324 -0.04359081 -0.028815283 -0.09483987 0.10841876
0.055580467 0.00410515 -0.0959282 -0.060942374 -0.04308089 -0.06465626 -0.027042046 -0.097826734
0.002205049 -0.07426812 -0.019988563 -0.056148976 0.06963862 -0.13437302 0.1313167 -0.061670396
0.023269197 -0.05650845 0.051714778 0.0006414342 0.07662685 0.05707752 -0.028430006 0.033387717
-0.07434575 -0.05270666 0.026918363 -2.9670422 -0.02986827 -0.0842454 0.15565309 -0.012643731
-0.019442692 0.0153748905 -0.05978308 -0.020622103 0.1090808 -0.013426964 0.029763272 -0.01108859
-0.004751436 -0.026934246 0.16023454 -0.07894523 0.012920549 -0.15475167 -0.1863875 0.14912145
0.05046073 -0.08034938 -0.030654753 -0.1376839 0.06379364 -0.03204205 0.09985915 -0.13285984
0.042014066 0.02641134 0.0852508 0.057833217 -0.08843462 -0.034036677 -0.09786636 -0.011874866
-0.04113227 0.021809105 0.16721033 0.05235814 0.14744431 -0.052681275 -0.0072014993 0.03783863
-0.09969241 0.025078679 -0.022988783 -0.0042093853 -0.029631775 0.002898465 0.09456536 0.0068918224
-0.042313885 0.04867872 0.43725762 -0.044025462 -0.19767462 0.07230523 0.048822775 0.00587478
-0.10940777 -0.03235636 -0.17051712 -0.077032976 -0.032629214 -0.022553481 0.024249528 -0.14928082
-0.0691518 -0.023727037 0.544806 0.016897693 -0.02593629 -0.20834643 -0.008026163 -0.026640505
0.14658171 0.034506295 0.017020795 -0.056802712 0.12703991 -0.06771756 0.058790553 -0.04739671
-0.16253142 -0.16900145 0.012344778 0.1035215 0.09010597 -0.05383311 0.01908377 0.011048339
-0.07059648 0.030178018 -0.0072482103 -0.53093165 -0.18509609 0.022460127 0.005668771 -0.090867
-0.11687769 -0.014812345 -0.1741228 0.03957785 -0.060584452 0.0077593597 0.026426721 -0.058515996
-0.0436467 0.02671707 -0.15968257 0.0058411798 0.05454019 0.09905898 0.019346103 -0.037533898

bias f4 [256]
00000000: fed8 883d af1e 22bd e7e6 6b3d 76dd 343d
00000010: 6613 943d f713 913d c792 953d 79e8 813d
00000020: a4dd 1abc ef0d 7e3d 5276 343d ed4f 3abc
00000030: e0e2 993d a771 513d 2211 863d 5c92 003d
00000040: 901a 553d 9711 02bd 416a 01bd 7408 c9bb
00000050: 0c96 933d a174 753d 2a1e 803d fad2 01bd
00000060: e55f cabb aa23 e23c ae60 54bc 8d4f b7bb
00000070: 0ac7 8c3d 41b8 923d a6f4 01bd 0f76 923d
00000080: 439d 243d 5627 b6bb a81f 8c3c 2d07 533d
00000090: 1d76 203d dfae 12bc d8f2 1bbd 0f2f e23c
000000a0: d6c9 c4bb f588 6c3d 29ca 513d 0f8c 7a3d
000000b0: f2b2 fabc 1ebc e4bc 7fa4 c23b d792 a83d
000000c0: 02f8 4f3d 6949 453d e145 1d3d 93db 423d
000000d0: 3cab 75bc bb2c 5ebc 4d03 933d ab80 883d
000000e0: 68f0 f23c 99d7 483d f376 88bc bdaf 01bd
000000f0: d71a 273d 7da9 02bd bc8b 003d ea52 11bc
00000100: 5b9b e7bc b40e 8e3d 1315 6d3d 17fc c4bb
00000110: 0000 0000 3bf8 753d d951 383d 5e16 813d
00000120: cb24 783d b31c 8c3d 8e58 3cbd af7d bcbb
00000130: 8a5b 4c3d de20 a9bb 8c7a 82bc beea f9bc
00000140: 2d74 603d 2091 a73d 8b2e 4a3d b4a4 7e3d
00000150: d041 673d dc7d 19bc 9075 b6bc 0c71 3c3d
00000160: d9c9 c4bb 6f73 5a3d 0000 0000 08cd 343d
00000170: 5fc5 57bd 38e5 6a3d f7e6 483d 1a70 853d
00000180: a075 48bc 5f08 603c 01c0 01bc d8cb 8d3d
00000190: 56fd e23c d8a2 b63d b2b6 3cbc 2d7c 36bc
000001a0: 6156 4e3d 5b35 463d 0000 0000 c38d 893d
000001b0: 691d 803d 33c8 983d 07aa 253d ab3b 823d
000001c0: 801b 553d 0000 0000 e04b 323d d357 823d
000001d0: 363e 803d cf27 893d f95a f1bd 0000 0000
000001e0: 1601 173e 85e5 09bd 9923 d03c 40b7 863d
000001f0: 5adf 16bc 2fd0 c2bc 397c 14bc ed78 843d
00000200: fe80 86bc ef6a 3e3d 8355 843d d355 da3d
00000210: f2f8 8b3d d031 05bc 716f 633d 0000 0000
00000220: ec96 dbbc fe11 dbbc 337a 563d 5a79 a43d
00000230: d171 6abc 57ee 58bc 67e8 cbbc 7d82 5a3d
00000240: b7f8 a9bc 8521 77bc 3778 c73d 2272 7c3c
00000250: cad5 6f3d 0ce9 593d 9a05 8d3d c9ed 3c3d
00000260: 1430 993c d6a0 c4bc d670 bb3c 4357 1e3d
00000270: 353a 3bbc d2ee 5c3d 16d0 4f3d 3da4 b5bc
00000280: 4005 4b3d 2a40 683d d6c4 8e3d 9dc4 2dbe
00000290: 0000 0000 94ae 66bc 9cd3 6b3d df95 2e3d
000002a0: b035 afbb c86e 333d 28ac 2a3d 50bb 863d
000002b0: 6e14 0b3d fed5 513d ce20 ae3d 0ea6 843d
000002c0: 3285 a63d b197 353d d8c9 c4bb 0000 0000
000002d0: a9d5 7a3d 604f 6d3d 0cff 423d 2200 9f3d
000002e0: 18a5 6d3d 7b73 7b3d 4066 42bc 3ec2 b5bc
000002f0: cd96 473d 9f34 1fbd 6cab d03c 6bd5 803d
00000300: fa19 4e3d 6656 6b3d 6c76 31bc b28a 1a3d
00000310: 3ea7 01bd 9096 d6bc 40fd a2bc b5a3 9c3d
00000320: 6489 603d e4fc 713d 77cc 2f3d 0000 0000
00000330: 397a 8bbc da23 1cbd 188d 753d 52e7 5abd
00000340: 7275 36bc 778b 7f3d 40e1 403d 07a9 8f3d
00000350: 74b1 9a3d 71f1 8a3d c150 01bd 1bcb c9bb
00000360: 332a 7e3c 929f 703d f382 febc d64d 8e3d
00000370: 0000 0000 0000 0000 738a f2bc 390f a93d
00000380: 0000 0000 ee52 413d cf6d debb 8361 9e3d
00000390: 30d3 15bd 79f0 873d f819 28bc 796a 613d
000003a0: 2e72 143d 0000 0000 2138 46bc 3d99 423d
000003b0: cc49 723c b535 843d 1d46 763d caaa 633d
000003c0: 2cad 8e3d 4f5a a5bc f46b 39bc 8754 203e
000003d0: 58de 993d 7fa3 223d fd33 243d ad1c 313d
000003e0: 4de6 18bd d5a2 203d 78b4 0e3d 9317 5e3d
000003f0: 3b56 363d 0e25 8d3d f4af 383d f054 7a3d
0.06682013 -0.039580043 0.057593253 0.044156514 0.072302625 0.07083886 0.07303386 0.06343169
-0.009452257 0.062025007 0.04405815 -0.011371595 0.07513976 0.051133778 0.065462366 0.03138958
0.052027285 -0.031755056 -0.031595472 -0.006135041 0.072063535 0.05992568 0.06255753 -0.031695344
-0.0061759823 0.027604897 -0.012962503 -0.0055942 0.06873901 0.0716405 -0.031727456 0.07151424
0.04018904 -0.0055588884 0.017104939 0.051520515 0.03917514 -0.008952825 -0.03807339 0.02761033
-0.006005506 0.0577478 0.051218186 0.061168727 -0.030602906 -0.027921733 0.0059400196 0.082311325
0.050773628 0.048165713 0.03839672 0.047572684 -0.014994439 -0.013560469 0.07178364 0.066651665
0.02965565 0.049033735 -0.016658282 -0.031661738 0.04079708 -0.031899918 0.03138326 -0.008869866
-0.028272321 0.06936398 0.057881426 -0.0060114968 0.0 0.060051184 0.04499993 0.06303094
0.060581964 0.068414114 -0.04598289 -0.0057522873 0.049891986 -0.005161389 -0.015927576 -0.030507442
0.054798294 0.08181977 0.049360793 0.062168792 0.056459248 -0.009368386 -0.022272855 0.046006247
-0.0060055074 0.053332742 0.0 0.044140846 -0.052678462 0.057347506 0.04904839 0.06515522
-0.012235075 0.013673871 -0.007919312 0.06923646 0.02770869 0.08917779 -0.011518167 -0.011138004
0.050375346 0.048390727 0.0 0.06716492 0.062556095 0.0746006 0.040445354 0.06359037
0.05202818 0.0 0.04352939 0.063644074 0.06261866 0.06697046 -0.1178493 0.0
0.14746508 -0.033666153 0.0254076 0.06577921 -0.009208525 -0.02378091 -0.00906282 0.06468377
-0.01641893 0.0464887 0.064616226 0.10660901 0.06834592 -0.008129552 0.0555262 0.0
-0.026805364 -0.026741978 0.052362632 0.080309585 -0.0143093625 -0.013240418 -0.024891092 0.0533471
-0.02074848 -0.015083675 0.09739726 0.015408071 0.058553495 0.053200766 0.06885834 0.046125207
0.018699683 -0.024002474 0.022880953 0.038657438 -0.011427452 0.053938694 0.050735556 -0.022173041
0.049565554 0.056701817 0.06971137 -0.16969533 0.0 -0.014079709 0.057574853 0.042623397
-0.005346976 0.04380682 0.041668087 0.06578696 0.03395503 0.05122947 0.08502351 0.06476985
0.08130874 0.044334117 -0.006005507 0.0 0.06123892 0.057937026 0.047606513 0.07763697
0.058018774 0.061389428 -0.011865199 -0.022187348 0.0487278 -0.038868543 0.025472365 0.06290706
0.050317742 0.057455443 -0.010831457 0.037729926 -0.031653635 -0.02619484 -0.01989615 0.07648412
0.054818526 0.059079066 0.042919602 0.0 -0.017026054 -0.03812013 0.05994901 -0.05344326
-0.0111364 0.062388863 0.047089815 0.07014661 0.07553378 0.067843325 -0.031571154 -0.0061582453
0.015512991 0.058745928 -0.0310683 0.0694844 0.0 0.0 -0.029607033 0.082548566
0.0 0.04719823 -0.0067879925 0.07733443 -0.036578357 0.066376634 -0.010260098 0.05503318
0.036241703 0.0 -0.012098343 0.04750942 0.014788102 0.06455556 0.06012546 0.0555828
0.06966624 -0.020184664 -0.011317242 0.15657245 0.07513112 0.039706703 0.040088642 0.043240238
-0.037329007 0.03921779 0.034840077 0.0542217 0.04451583 0.06891833 0.045089677 0.06111616

weight f4 [2, 256]
00000000: cf78 c5be ec74 ddbd d93b 20be bb76 573e
00000010: 2e49 a0be 830d bcbd ded0 183e 5b5b 7abe
00000020: 4071 393d 49e7 b93d 13fc 72be 010e de3c
00000030: 6ea0 a0be 17c8 3f3e b2d8 723e f136 173d
00000040: 0db1 273e e132 ffbc fe17 9cbc 3e0c b4bc
00000050: 8542 3fbe ff00 0abd bb80 a3be 84aa 623c
00000060: c447 76bd 5b71 19bf 8d93 293c 46e5 15bd
00000070: d2df 853e 0077 933e 3f38 14be ac7e 363e
00000080: 2dc9 8bbd e4c5 c2bd 1c69 4bbf eea9 b8bd
00000090: b826 18be 8b6c 6abd 55ae 6fbd 46aa ab3d
000000a0: de5f d4bd e8f8 3a3e 980f afbe 7b96 c4bd
000000b0: 8a6c 0bbd 7a30 d3bc 197e 343d 0df1 823e
000000c0: 64c8 cbbe 6a24 593e 174e 473e ea67 0ebd
000000d0: 1344 e4bc 9fba 90bd 571f bdbd 5c38 983e
000000e0: 3b11 f1bd 93b0 623e 4abb c53d e0b3 3a3e
000000f0: e0d3 8cbe ffed 323c 969d a9be dd4c 233d
00000100: c1e4 363d b631 afbe 786d 3ebe ae1f 96bd
00000110: 9562 6cbd ee90 953e d3ed da3e 2677 e6bd
00000120: aadb 25be 825a 893e 32de b63c 5248 3c3d
00000130: efb0 bb3e d6cc 52bd 95ca 2cbc a4c3 17bc
00000140: 0250 acbe 8fcd e9be b563 193e 0f96 de3d
00000150: 17b9 5abd 6efb 443d 115a 5cbe 706a 243e
00000160: 7fe0 73bc b594 283e 4560 b6bc 5d18 34be
00000170: 7f05 ff3a d368 63be cd27 e2bc 32ee b1be
00000180: 9c86 33bd 96d8 6ebd 4d1b e73d 3ccf 4ebe
00000190: c417 293e a9f9 bf3e 43fe 4d3c f8ba b2bd
000001a0: 289d 37bd c90d 8b3e 6cb8 18bd cf69 bd3e
000001b0: fefe f33d 475f 06be 56fc 14be b663 503e
000001c0: f2e9 23be b700 92bd 10be 5b3e 687d cdbe
000001d0: 8ab8 bfbd 275a 853e 7282 9f3f ecbf a4bc
000001e0: 9d27 73bf 0442 76bc 9a34 153e ecb9 933d
000001f0: 9a1d a93d 2e86 763d 199a 853d f434 523e
00000200: e2d5 803d 3db5 8abe 65f6 b33e f56f 47be
00000210: 95ba 3d3e 16f0 613c eca9 573e 5ab7 c0bc
00000220: 7084 713d 03ff 87bd 80c8 9ebe 11d8 4d3e
00000230: d8ca 373c a8cc 123d a6b9 e63b accf aebe
00000240: 71e0 8e3c fce7 61bd 5163 9a3e d002 723d
00000250: 344a 3cbf 7a2b c5be 8661 9b3e 6279 c3be
00000260: a29d 363e ed3e 353d fbbb bc3d 60f1 f33d
00000270: 78b2 893d 7921 c2be b44c 353e 79f4 f93d
00000280: a030 9cbe 37bd 4d3e 0a11 713e e6df b6bf
00000290: 15e4 c33d 8d9b 423d 7f12 283e b6bf b1be
000002a0: 2015 543b 5e60 223e a67a a0be 6a58 38be
000002b0: f57e dcbd 079a 2d3e 02cd 1f3e b38b 84bc
000002c0: b2c3 1b3e a1ee 9fbe 6342 07bd 9eac cebc
000002d0: 88f4 5cbe a24d a13e 150f 0ebe bf15 733e
000002e0: 8881 1d3e 78d8 94be e399 8e3d 0425 053e
000002f0: cd1d 81bd 32b1 b3bd ff25 083e 45d9 a8be
00000300: f47a a2bd 0091 8c3e a717 d43c 3dd9 d63d
00000310: 34a2 b9bd a7d2 aabc ed14 20bd a11e 06be
00000320: 533d bebe b3f3 58be 301a 0a3e 6ea6 4c3c
00000330: 31ac 8dbd 476c 8cbc eef0 e03e 48c2 a4bc
00000340: 019d c5bd a64f babe 8130 6bbe 84ab 263e
00000350: 2df1 9abe 799c 453d 4b4e 443d ec7f 963c
00000360: 9fbf 193e 33be 77be f2e7 9abc 6324 9fbe
00000370: 732b 9abc bb70 2dbc 16ee b13b cd20 41bd
00000380: 6a0a ecbc 392d 283d 0cb2 3bbd 7579 a1bd
00000390: 77ee c93b 709a 6abe 7576 8abd 67f4 be3e
000003a0: e101 e73d 455a 58bd 2f89 fc3a d2d7 b5be
000003b0: 983c ed3d 7107 253e 9038 26bd dbb2 163e
000003c0: 836d 1ebe 605a c23c 3eb4 c4bc 7d50 83bf
000003d0: 1173 dc3c 9e15 913e 4f65 3dbe e44a a8bd
000003e0: 9858 a63d 176b 87be ce62 823e 505a e33d
000003f0: b4ad 2a3e f458 9c3e 9090 313e fa8f 45be
-0.38568732 -0.10813317 -0.1564783 0.21041386 -0.31305832 -0.09182265 0.14923427 -0.24448912
0.04527402 0.09077317 -0.23728971 0.027106287 -0.31372398 0.18728672 0.23715475 0.03691763
0.16376133 -0.03115219 -0.01905441 -0.021978494 -0.18677719 -0.033692356 -0.3193415 0.013834599
-0.060127035 -0.5993859 0.01035012 -0.036595605 0.26147324 0.28801727 -0.14474581 0.17821759
-0.068254806 -0.09510401 -0.7945726 -0.090167865 -0.1485852 -0.05723242 -0.058515865 0.083820865
-0.10369848 0.18259013 -0.34191585 -0.09599014 -0.034039058 -0.025779951 0.04406557 0.25574532
-0.39801323 0.21205297 0.19463383 -0.03476707 -0.027864492 -0.07066845 -0.09234493 0.297305
-0.117708646 0.2213767 0.09654863 0.1823268 -0.27505398 0.0109210005 -0.3312804 0.039868224
0.04465175 -0.34217614 -0.18596447 -0.07330261 -0.057711203 0.29212135 0.4275957 -0.112531945
-0.16197076 0.26826864 0.022322748 0.045967408 0.36658427 -0.051464878 -0.010546346 -0.009262953
-0.3365479 -0.4566464 0.14979441 0.10868465 -0.05339917 0.048091345 -0.21518733 0.16056228
-0.014885067 0.16462977 -0.022262702 -0.17587419 0.0019456594 -0.22207956 -0.02760687 -0.3475204
-0.043829545 -0.05831202 0.11284504 -0.20196241 0.16512972 0.37495163 0.012572828 -0.08727068
-0.04482761 0.27158955 -0.037285253 0.36994788 0.1191387 -0.13122283 -0.14549384 0.20350537
-0.16007212 -0.071290426 0.21459222 -0.4013474 -0.0936137 0.26045343 1.2461684 -0.020111047
-0.9498232 -0.015030388 0.14570847 0.07213196 0.08257599 0.060186557 0.065235324 0.20528013
0.06290795 -0.270914 0.35148922 -0.19476302 0.18528207 0.013790151 0.21060914 -0.023524929
0.058964193 -0.066404365 -0.31012344 0.20101954 0.011217795 0.035839707 0.007041174 -0.34142816
0.017441006 -0.05515288 0.30153897 0.059084713 -0.73550725 -0.38509732 0.30347842 -0.38178545
0.1783357 0.044249464 0.09215542 0.11911273 0.06723493 -0.37916163 0.17705041 0.122048326
-0.30505848 0.20091711 0.23541656 -1.4287078 0.095649876 0.047511626 0.16413306 -0.34716576
0.0032361224 0.15857074 -0.31343573 -0.18002477 -0.10766403 0.16953288 0.15605548 -0.016179895
0.1521137 -0.31236747 -0.033022296 -0.025228795 -0.21577656 0.31504542 -0.13872941 0.23738764
0.15381444 -0.29071403 0.06962945 0.13002402 -0.06304512 -0.08774032 0.13295744 -0.32978263
-0.07933608 0.27454376 0.025890185 0.10490654 -0.09064141 -0.0208524 -0.039082456 -0.13097622
-0.37156162 -0.21186714 0.13486552 0.012490852 -0.069176085 -0.017141474 0.43933815 -0.020112172
-0.09649087 -0.36388892 -0.22967722 0.16276366 -0.30262128 0.048244927 0.04792623 0.018371545
0.15014504 -0.24193649 -0.018909428 -0.31082448 -0.018819546 -0.010585959 0.0054299934 -0.047150422
-0.02881356 0.041058753 -0.045824096 -0.07884494 0.0061624604 -0.22910476 -0.06760875 0.3729584
0.11279655 -0.052820463 0.0019266958 -0.3551622 0.11583823 0.1611612 -0.040581286 0.14716665
-0.15471463 0.023724735 -0.024011727 -1.0258938 0.026910337 0.28336805 -0.18495677 -0.08217409
0.08122367 -0.2644889 0.25466007 0.1110121 0.16667825 0.30536616 0.17340302 -0.19293204

bias f4 [2]
00000000: b56c 42bd 67c1 e2bc
-0.047466952 -0.027680112
