exp_local/gcbc_fixed/weights/20000.pt (torch, 274440 bytes, 6 tensors)

weight f4 [256, 4]
00000000: dcf3 78be c168 98bd cbb3 af3d 7ab3 0a3e
00000010: 142f dcbd 6060 8d3e 6e0e f9bd df64 ba3c
00000020: 0088 cbbe 0630 b73c 31e5 5d3e ec98 9b3d
00000030: b4b6 993c 4c1d 753e 8e50 adbd 8743 d2bc
00000040: ce49 973c ba35 96bd 40c8 b4bd ddf4 bdbb
00000050: 4324 d8bd 9fa0 d9bc eb4e 9fbc c2ed 5abd
00000060: b1b9 c1be ae24 823d bd80 2c3e bc48 c53d
00000070: e830 893e 6f90 5b3e 69d6 46bd adb9 d2bd
00000080: 47a5 23be 8ef9 5cbe f92c c23d 9a58 0b3e
00000090: 5229 633e b497 1a3e dd05 fbbd 326f 84bd
000000a0: 9661 38bc 7fef 8cbb 978e 363d b97c 84bd
000000b0: 5dfd c83e b01f 8ebd 9a54 afbd fece b0bd
000000c0: ecec 803e 6f0b 55be b3de d6bd b07a 323d
000000d0: 7cb0 2f3e 961f 6a3e 522d f13b 3451 24be
000000e0: b127 6e3e b95f 4e3e 02ac e8bc e758 37be
000000f0: 9a40 e7bd 7995 8f3e 8654 12bd a35b c03b
00000100: 6e79 ac3e f9d9 c43b dec8 0abd 699c ccbd
00000110: 06b8 c03d a769 603e a124 23bd 528f a1bd
00000120: fb6f 94bc 77a3 843e 4f5a a9bc 021b a9bd
00000130: 1fd8 ecbc b08a 82be 90f5 d33d a90f c13d
00000140: 5499 23bf 644f 813e d19e 153d e3c4 633d
00000150: b7e2 823e 8abe 1e3b 2cbb b0bd 1b08 18bd
00000160: bcf5 293e dfb9 403e 9fa6 e5bd d7e3 90bd
00000170: 4f3c 3d3d 4a20 8f3e b5be d6bd 570e b83a
00000180: c0e5 f8bb 68e5 b1be 1871 a63c 1031 703e
00000190: 43ab a13e 55e8 c13d c62c 77bd 62d8 0cbe
000001a0: 3f6d c2bd 6b02 09bd e544 40bd 5e4c 593d
000001b0: ba27 993e 9fec 563d cab4 c0bd 0a88 16bd
000001c0: 6956 0a3e c218 9bbe b6ab ccbc 75b3 d23d
000001d0: 7887 913e e17e 023e 4780 a1bd 2354 efbd
000001e0: 180a 9abd 1a71 05be a6c8 823b 9e5a 0bbd
000001f0: da6d c13e f834 80bd d929 dabd 145e c0bd
00000200: 86ef 5ebe 179e 1b3e d2b1 37bb 7f23 743d
00000210: 442a 76be 0fbf 0c3e d4b5 a13d 36cf 933c
00000220: 2b31 3dbc a624 84bc 73a5 38bd 20d7 983c
00000230: fb38 c0bd 47be 59bd cdbd 1bbc 7341 a0bc
00000240: 4579 df3c 3294 b4be b89e 133e f5b6 a83d
00000250: 68aa c53c 3bf5 2fbc b81e c7bd 4894 e83c
00000260: 44fc 6c3e 16f4 fabc 6fbc 613d f978 aabd
00000270: 2687 aa3e a4df eabd 93d7 fabd 9d2f 6a3c
00000280: b8a2 943d 7fd2 8a3e 9fa9 44bd 247a c2bd
00000290: 232f 943e 7f27 adbd 3629 5d3c 5939 d6bd
000002a0: 4e7f 063e 1d42 8e3e d173 bfbd 5071 b4bd
000002b0: 3af0 3ebe 90ee 003e 8ba0 5e3d cb77 f93d
000002c0: 809b c2bd 13da 91be 7341 433e 2077 c5bb
000002d0: 93d1 22ba 38a9 073c bf41 a4bd b0df a73c
000002e0: 1a42 373b fca2 82bd 9ee9 9fbd 7720 51bd
000002f0: 674c 4a3e 2233 683e 3a2a 91bd f6b0 69bd
00000300: 012c b2bd ff00 f4bb 988f 96bd 2468 5cbd
00000310: 244e d2bc 856f a8bc 72a7 9ebc 5265 b93c
00000320: b184 393e f16e 89be c1fd babc 6e16 e8bb
00000330: b23c 5cbd 6240 21bd 0993 76bd 6153 9bbd
00000340: 1c97 a83e 43ca 34bd 4d18 05bd bfd1 f1bc
00000350: 2e6b 693d 67b1 7bbe 1719 4d3d 0f7c d43d
00000360: c812 963c bc36 923e 8f64 91bd ded8 c9bd
00000370: 67be 46bd 53ad 403e 3062 2cbd b7fa 3c3d
00000380: f17c 4d3d 30bd 813c 0c2b e2bd d5eb 97bd
00000390: b50f 9e3d f847 2fbb 8dab 23bc 19cd 013b
000003a0: 5368 91be 1868 0a3e 8927 113e 57a3 f43c
000003b0: ed5b 84bc 3a49 db3c e0be ad3c 64da 9fbd
000003c0: 944a 0bbe 5e1e 553e bbb5 043c c57d 803c
000003d0: 3ca7 953e d00f a9bd 4304 a0bd 384b d4bb
000003e0: 8ded fd3d 6543 a1be dba1 3e3d ae98 023d
000003f0: 403e e0bb 9d9c 9abd f71e 6e3d a886 44bd
-0.24311775 -0.07441855 0.08579215 0.13545027 -0.10751167 0.2761259 -0.12160955 0.022753177
-0.39752197 0.022361767 0.21669461 0.07597527 0.018763877 0.23936957 -0.0846263 -0.025666965
0.01846781 -0.07334466 -0.08827257 -0.0057970122 -0.105537914 -0.026565848 -0.01944681 -0.0534494
-0.37836984 0.06354652 0.16845985 0.096330136 0.26795125 0.21441816 -0.04854432 -0.10289321
-0.15981017 -0.21579573 0.09481234 0.13608018 0.22183731 0.15096933 -0.12256978 -0.06466521
-0.011253735 -0.004301011 0.044569578 -0.064691015 0.392558 -0.06939638 -0.08561058 -0.086332306
0.25180757 -0.20805143 -0.10491695 0.043574035 0.17157167 0.22863612 0.007360139 -0.16046602
0.23257329 0.20153703 -0.028402332 -0.17905007 -0.11291619 0.28043726 -0.03572514 0.005870299
0.33686393 0.0060074297 -0.033882968 -0.0999077 0.094101 0.21915303 -0.039829854 -0.07888664
-0.018119803 0.25905964 -0.020672945 -0.082571045 -0.028911648 -0.25496435 0.10349572 0.09426815
-0.63905835 0.25255883 0.036528412 0.055607688 0.25563595 0.0024222457 -0.0862945 -0.037117105
0.16597646 0.18820904 -0.11213421 -0.07074707 0.046200093 0.27954322 -0.10485593 0.001404236
-0.0075957477 -0.34745336 0.0203176 0.23456216 0.31575975 0.09468142 -0.060345434 -0.13754418
-0.09493493 -0.03344957 -0.046940703 0.053051345 0.2991312 0.052471753 -0.09409483 -0.03675083
0.13509525 -0.30292326 -0.024984222 0.10288135 0.28423667 0.12743713 -0.07885795 -0.1168597
-0.075214565 -0.13031426 0.0039912043 -0.034021966 0.37779123 -0.06260103 -0.10652513 -0.09392944
-0.21771058 0.15197025 -0.0028029573 0.059604164 -0.2403956 0.13744758 0.07896009 0.018043142
-0.011547367 -0.016130757 -0.04507966 0.018657267 -0.09385868 -0.05315998 -0.009505701 -0.019562459
0.027279506 -0.35269314 0.14416015 0.08238021 0.024129108 -0.01073962 -0.09722656 0.028391019
0.23143107 -0.030633967 0.055111345 -0.08323855 0.33306235 -0.11468437 -0.12248149 0.014293578
0.07257599 0.2711372 -0.048013326 -0.09495953 0.28942212 -0.08454799 0.013498595 -0.10460157
0.131345 0.27784815 -0.09348262 -0.08810675 -0.18646327 0.12591004 0.054352324 0.12181052
-0.095023155 -0.2848669 0.19067936 -0.0060261637 -0.00062110386 0.008280091 -0.080203526 0.020492405
0.0027962984 -0.06378743 -0.07808231 -0.05105635 0.19755708 0.22675756 -0.07088132 -0.05705353
-0.08699799 -0.007446408 -0.07351607 -0.053810254 -0.025672026 -0.02056099 -0.019366954 0.022631321
0.18117024 -0.26842454 -0.022826077 -0.007082752 -0.05376882 -0.03936804 -0.060198817 -0.07584263
0.32927787 -0.044138204 -0.03249388 -0.02951896 0.05698698 -0.24579392 0.050072756 0.10375225
0.018319502 0.28557384 -0.07099258 -0.09855817 -0.048521426 0.18816118 -0.042085826 0.046137538
0.05016798 0.015837282 -0.11043367 -0.07418028 0.0771784 -0.0026745778 -0.009989631 0.0019806086
-0.28399906 0.13516271 0.14175238 0.029863043 -0.016157115 0.026768316 0.02120918 -0.078053266
-0.13602668 0.20812365 0.008099969 0.015684972 0.29229152 -0.08254969 -0.07813313 -0.0064786933
0.12398825 -0.3149673 0.046541076 0.031883888 -0.0068433583 -0.07549403 0.058135 -0.04797998

bias f4 [256]
00000000: 931f 7e3d c4b0 2e3c fe04 8c3d 3083 05bd
00000010: 0000 0000 0000 0000 fe53 633d d125 02be
00000020: 70c6 9a3d c15c 70bd 0000 0000 95d6 a2bd
00000030: 0583 8b3c d736 9fbd 8a54 c6bd f18b 8bbc
00000040: e85d c6bd 6dd8 5fbd ead7 f0bc 01df 5b3d
00000050: f656 a43d fda7 17bd ddae 40bd f251 60bd
00000060: 81bd 6b3d 15d0 e7bd 0000 0000 2023 8bbd
00000070: 5844 553d 1ba3 cfbd 0000 0000 775c 96bd
00000080: b8d0 e23c c6c1 ce3c 0000 0000 0000 0000
00000090: bd8b 463d d2c9 c4bb 09cd 5abd dd16 81bd
000000a0: f638 58bd 6962 3dbd 9d2e 79bd b0b1 72ba
000000b0: 481d b03d 0000 0000 0000 0000 1c96 dcbd
000000c0: 0000 0000 0000 0000 61f6 6d3d 0000 0000
000000d0: bd8e 93bd 322d 073d 838c cfbc f59d a4bc
000000e0: e5df 03bc 3b41 1abd 57f3 863c 3aba 7ebc
000000f0: 0fbc 0b3d c3ac 38bd 9cf3 653d c50b 35bc
00000100: 5dbd aabc 9cfa cabc 92ff 46bc 7114 273d
00000110: 83a7 58bc 2380 223d 9487 10bc 01cb 2dbd
00000120: 160d 57bd cc08 a93d 0000 0000 1e8c 143d
00000130: 8799 73bc f8db a0bd 8188 afbd 0000 0000
00000140: e7e5 a63d dcb4 8a3c f2d9 8bbd 2f24 223e
00000150: 0000 0000 6555 523c 38eb 01bd 4bb0 97bc
00000160: 4f1d 9fbc d17c 31bc 88e2 04bc 0000 0000
00000170: 02e9 9cbd 66ff 5f3d fcd0 323d 0000 0000
00000180: 3ef8 103c 10ab 8fbc 0000 0000 08c9 393d
00000190: 3289 463d 2477 89bd 1362 79bd 0000 0000
000001a0: 0000 0000 7baa 67bd 9a23 3539 c7f4 19bd
000001b0: de58 b5bc 0000 0000 8f87 9dbd 49ae e03d
000001c0: d78f 0a3d 9e3d 91bc d47d febb fddd 093c
000001d0: 99f8 00bd 0000 0000 99e6 893d 3073 22bc
000001e0: 9625 b4bc 56f4 66bd 9bc0 9b3d 4784 543d
000001f0: 020c 9ebc e399 66bd 96a8 823d 0000 0000
00000200: 0000 0000 afff 99bc 8970 1dbc 66f9 ffbb
00000210: 7737 303d 7cab 4f3d 1f2e 813d d8c9 c4bb
00000220: 0000 0000 4806 13bd 0000 0000 9441 3a3d
00000230: c38e 17bd 844c 91bc e9b3 873d 39ca 1cbc
00000240: dcb1 083d e45d 81bc 0000 0000 5381 633d
00000250: 0000 0000 7b49 0bbd 3f8b d13c 0000 0000
00000260: eb2c d13b 569b 9c3d 3352 ce3d eb62 cebd
00000270: 6f2d d0bb 54bb 25bd a78b 23bd 330a fbbc
00000280: 515f 1ebd 581b 3d3d 0000 0000 9d83 82bc
00000290: 2637 06bd eb69 913d 0000 0000 09f6 a53d
000002a0: 0000 0000 0000 0000 0000 0000 3a3f a53d
000002b0: 0000 0000 300b 9f3d a522 b13b 0131 9b3c
000002c0: 1fa6 08bd a14d 8fbd 8d59 963d 938c 883d
000002d0: a6bc 853d c674 57bd 6e8a 5b3d d783 a13d
000002e0: 545e cdbb d9e1 64bc 81c5 87bd 6941 d53d
000002f0: 0000 0000 0000 0000 bd9b b9bc 0150 0d3d
00000300: 5794 493d 0449 ad3d ef76 b5bd dd94 49bd
00000310: 42d2 963d c92d 0e3d cb3a e53d 0000 0000
00000320: d913 bfbd fc01 323d 1dd7 30bd 7369 243d
00000330: 0000 0000 0904 ae3d 0aa8 a03d f5dd 72bd
00000340: 7033 38bd 4329 403d 695c d1ba 0000 0000
00000350: 31a8 6d3d faeb 983d e350 52bc 0000 0000
00000360: 0000 0000 be84 25bc 0000 0000 0000 0000
00000370: 7db7 c1bd 8177 4bbd b9bd 4b3d 942c cabd
00000380: e253 8cbd 4942 3bbd 0000 0000 0000 0000
00000390: f68e 903d 0000 0000 0000 0000 0e27 b6bb
000003a0: 0000 0000 0000 0000 3199 4e3d de25 fe3d
000003b0: 7689 e1bc 0000 0000 1fc1 743d 0022 25bd
000003c0: b8f0 893d a7ce 31bd 5fa2 08bc 77c8 14bc
000003d0: 6e08 23bc 2544 883d d66e 6ebd 22cb 2ebd
000003e0: 0000 0000 0000 0000 986d 6bbd 7560 8bbd
000003f0: 0000 0000 4d7f 0ebd b5e4 9a3c a9c7 d0bc
0.06204183 0.010662261 0.0683689 -0.032595813 0.0 0.0 0.055500023 -0.12709738
0.0755738 -0.058682207 0.0 -0.079510845 0.017030248 -0.07774132 -0.09684093 -0.017034503
-0.0968588 -0.05464976 -0.02939983 0.05367947 0.08024399 -0.03702544 -0.047041763 -0.05476565
0.057553772 -0.113189854 0.0 -0.06793809 0.05206713 -0.10138532 0.0 -0.07341855
0.027687415 0.025238883 0.0 0.0 0.04847311 -0.006005504 -0.053418193 -0.06303189
-0.052788697 -0.04623643 -0.06083547 -0.0009258045 0.08599335 0.0 0.0 -0.107708186
0.0 0.0 0.058096293 0.0 -0.072049595 0.033002086 -0.025335556 -0.020094851
-0.008048986 -0.037659865 0.016473455 -0.01554733 0.034114894 -0.045086633 0.056140527 -0.011050169
-0.020842249 -0.024777703 -0.012145894 0.04079098 -0.013223532 0.039672982 -0.008821387 -0.042429928
-0.052502714 0.08253631 0.0 0.03626644 -0.014868147 -0.07854456 -0.08570958 0.0
0.08149319 0.016931944 -0.06828679 0.15834115 0.0 0.012837742 -0.031718463 -0.01851668
-0.019423155 -0.010832981 -0.00811065 0.0 -0.0766163 0.054686926 0.043656334 0.0
0.008848248 -0.017537624 0.0 0.045357734 0.048470683 -0.067121774 -0.060884546 0.0
0.0 -0.056559067 0.00017274768 -0.037586953 -0.022137102 0.0 -0.076918714 0.10970742
0.033828583 -0.017729577 -0.0077664647 0.008414743 -0.03148708 0.0 0.06733436 -0.009915158
-0.021990579 -0.05638536 0.07605096 0.051883962 -0.019292835 -0.0562991 0.063798115 0.0
0.0 -0.018798677 -0.00960935 -0.007811713 0.043021645 0.05070065 0.06307625 -0.006005507
0.0 -0.035894662 0.0 0.045472696 -0.037001383 -0.01773668 0.06626112 -0.009569698
0.033372745 -0.01579184 0.0 0.055543255 0.0 -0.034005623 0.025579093 0.0
0.0063835285 0.076468155 0.10074272 -0.10077461 -0.0063530724 -0.040461853 -0.039928105 -0.030644512
-0.03866512 0.046168655 0.0 -0.015931899 -0.032767437 0.071002804 0.0 0.08103568
0.0 0.0 0.0 0.080687 0.0 0.07765806 0.0054057413 0.018944265
-0.03336155 -0.069972284 0.07341299 0.066674374 0.065301225 -0.0526016 0.053598814 0.078864746
-0.0062673483 -0.013969862 -0.06629468 0.104128666 0.0 0.0 -0.02265727 0.034500126
0.049213734 0.08461192 -0.088605754 -0.049214233 0.07364322 0.034711633 0.111928545 0.0
-0.093299575 0.043458924 -0.043173898 0.040139627 0.0 0.084968634 0.07844551 -0.059293706
-0.04497093 0.04691435 -0.0015972975 0.0 0.058021728 0.07466884 -0.012836668 0.0
0.0 -0.010102449 0.0 0.0 -0.09458826 -0.049674515 0.04974148 -0.09871784
-0.06851937 -0.04571751 0.0 0.0 0.07058518 0.0 0.0 -0.005558855
0.0 0.0 0.050439063 0.12409566 -0.027531367 0.0 0.059754487 -0.040315628
0.067353666 -0.04340997 -0.008339494 -0.009080998 -0.00995074 0.066536225 -0.05821117 -0.04267419
0.0 0.0 -0.057477564 -0.06805507 0.0 -0.034789372 0.018907884 -0.02548583

weight f4 [256, 256]
00000000: 4e10 20be 43b2 37be d275 bf3d c12f efbc
00000010: 57b6 013e b8a9 f03d 023b 203d af36 07be
00000020: 6f6b 9e3c 2182 fabd 004e 37bb 65e9 7fbe
00000030: 96b1 9e3d 6c7a 62bd febd 2c3e c516 89bd
00000040: 9b38 dfbd 0da2 47bd d57f 86bd e768 023d
00000050: 9322 473d 6cc3 953d 1add 43be 0797 56bd
00000060: 8131 083d e4cc a4be 6ff0 783d 8743 a0bd
00000070: 04f4 533d 9d42 583e f44b bc3c 8048 8c3e
00000080: bf3b ae3d 3f63 343d 583a b6bc b85d 19bc
00000090: 463a d03b fd4d 13bd 69d7 31bc e1e0 433d
000000a0: cfba cebd 6bac dfbd 5e98 f8bd 395c 203e
000000b0: a733 223c b139 623d 7dc0 9cbd 83f7 a8bd
000000c0: befb 04bd 90b5 52bd 6a78 833c 8676 3c3d
000000d0: 7ecf 713d 9e89 063d 5ab7 7fbe dfa1 a73c
000000e0: d074 023c 9e75 cf3b fab0 4fbc b2ad 6bbd
000000f0: 02ca 4ebd 484c 2abd 0e79 06bb 91c9 67bd
00000100: aeff b33c 9779 2e3e 3c1e 5abd 4dbb 583c
00000110: 5017 93bc 35b3 853c 0d7c dcbd ff17 123d
00000120: 8a44 233d 5f29 cc3d 2c09 32bb ace9 6dbd
00000130: 9fc1 ec3d b009 19be 9c91 093d 6486 0bbd
00000140: a3c7 92bd c44a c6bd 1ee7 4bbc 1823 a6c0
00000150: a054 d2bd 94a7 8dbc 5a6d 9ebd 43b7 7dbd
00000160: cf8b c2bd f37e 0abe 798b 17bd 80e4 80b9
00000170: 0d7c febd 2c97 7b3d c268 bc3d 69d3 583d
00000180: b522 0bbe 3f8c b5bd f58b 13bd 05e4 2b3e
00000190: 8aa5 9dbc 7680 45bd fd0e f4bc 242f 323d
000001a0: 1cb0 8bbd 1469 b3bd 1120 973d 01a3 dcbd
000001b0: b74f 2fbd 070e ecbc ec94 d3bd eb4d df3d
000001c0: d923 4f3d 62ea a23a 0176 c4bd d6b7 7fbd
000001d0: b538 37bd 806a 84bd 92b7 06bd 6259 c8bd
000001e0: 28f6 f9ba 5075 8fbd 1dac a7bc d329 82bd
000001f0: b015 a53d d51d 09be d7c9 053e 199a 7cbd
00000200: 0b9f be3c f1da 45bd e0d2 533d ec25 283a
00000210: a132 9b3d 7765 4b3d ddfb 03bd 8fc1 083d
00000220: 9642 98bd 12bd 76bd e683 dc3c 3839 3ec0
00000230: d4eb f3bc a465 aebd 62b1 203e a727 4fbc
00000240: 2eb9 46bc 9d51 5e3c 1adf 74bd 115c adbc
00000250: c165 df3d d902 30bc a8ac 0a3d ebac 35bc
00000260: 20d7 aebb 1ea9 d0bc 7b01 263e 8229 c5bd
00000270: b6b0 533c 3eda 1bbe 6ed4 3abe f26d 183e
00000280: 1136 3d3d 750b a1bd ad1f fbbc e672 0dbe
00000290: c322 7d3d 1f67 1ebd f482 cc3d 7cfc 0ebe
000002a0: f116 2c3d 985c d83c f997 ae3d 63cd 683d
000002b0: 361d b5bd 079e 17bd fb79 babd e3ad 35bc
000002c0: 3871 04bd f971 b83c 7acb 2a3e a57a 543d
000002d0: 4be2 143e 2ad1 72bd 09b6 50bc a8ba 203d
000002e0: 892b ccbd 4f4b d23c a209 febc 92b6 8fbb
000002f0: 56be f2bc 2cf4 3d3b 1d34 b33d 57f8 8d3b
00000300: 276d 43bd dfbb 2e3d 1a52 d63e 0d35 11bd
00000310: 88f4 4fbe 25b2 913d 4212 493d 3a81 c03b
00000320: 5711 ecbd c8cf efbc 3999 2bbe 60ee a8bd
00000330: 36a6 05bd 3bd6 a3bc ab42 c83c 31d1 18be
00000340: 84c7 89bd e572 edbc 9b3d 053f 086d 8a3c
00000350: a260 0dbd 87c8 5cbe 2b80 03bc 303d dabc
00000360: 8419 163e 7956 0d3d 326f 8b3c f6a9 68bd
00000370: 974e f03d 8f74 8ebd 6934 613d 7713 90bd
00000380: 1157 26be 598e 26be c041 4a3c 1503 d43d
00000390: 87e6 b83d 1b80 5cbd 9155 9c3c 1804 353c
000003a0: e394 90bd e437 f73c 7058 04bc cb0d 1abf
000003b0: bdb3 35be 4dfe b73c a241 90ba 5926 b6bd
000003c0: cdf6 fcbd 808c 12bc 5c4a 29be 621c 223d
000003d0: 6727 78bd 00fc 8f3b 79f0 083d 42db 7dbd
000003e0: e2c6 32bd c2dd da3c f8f9 1cbe 5e67 bf3b
000003f0: 8965 5f3d b550 cb3d 905c 2a3c 089c 25bd
-0.1563122 -0.17939095 0.09348644 -0.029197576 0.12667213 0.11751121 0.039118774 -0.13204454
0.019338338 -0.12231851 -0.0027970076 -0.24991377 0.077487156 -0.05529253 0.16869351 -0.06693796
-0.108994685 -0.048738528 -0.06567351 0.031838324 0.048616957 0.073126644 -0.19127312 -0.052390125
0.033250336 -0.3218757 0.06077617 -0.0782538 0.051746383 0.21119161 0.022985436 0.27399063
0.085074894 0.04403996 -0.022244617 -0.009360723 0.006354603 -0.035963047 -0.01085458 0.047821883
-0.10094225 -0.10921558 -0.12138437 0.1566018 0.00990001 0.0552308 -0.07653902 -0.08250334
-0.032466643 -0.051442683 0.016048629 0.04601147 0.05903577 0.032846086 -0.24972287 0.020462928
0.007962421 0.0063311597 -0.012676472 -0.057538696 -0.05048562 -0.041576654 -0.0020518932 -0.056588713
0.021972504 0.1703857 -0.05325149 0.01322825 -0.017955452 0.016320804 -0.10765848 0.035667416
0.039860286 0.099688284 -0.0027166111 -0.058084175 0.11560368 -0.14945102 0.03358613 -0.03406371
-0.07166984 -0.09682229 -0.012445239 -5.191784 -0.10270047 -0.017291822 -0.07735701 -0.06194235
-0.094993226 -0.1352499 -0.036998246 -0.00024584308 -0.124260046 0.061423466 0.091996685 0.05293599
-0.13587458 -0.088646404 -0.036022145 0.16786201 -0.019243974 -0.048218213 -0.029792303 0.043501988
-0.068206996 -0.087602764 0.07379163 -0.10773278 -0.04280063 -0.028815283 -0.10331139 0.109035335
0.050571296 0.0012429471 -0.0959282 -0.06243118 -0.044731814 -0.06465626 -0.03288991 -0.097826734
-0.0019070553 -0.070047975 -0.020467812 -0.063556336 0.08060777 -0.13390286 0.13065277 -0.061670396
0.023269197 -0.048304502 0.051714778 0.0006414342 0.07578016 0.04965731 -0.032222617 0.033387717
-0.07434575 -0.060238905 0.026918363 -2.9722424 -0.029775538 -0.0851548 0.15692666 -0.012643731
-0.012129111 0.013569263 -0.05978308 -0.021162065 0.1090808 -0.010742866 0.033856064 -0.01108859
-0.0053357035 -0.025471266 0.16211502 -0.096270576 0.012920549 -0.15219972 -0.18245098 0.14885691
0.04619414 -0.078635134 -0.030654753 -0.13813362 0.06180073 -0.038672563 0.09985915 -0.13963503
0.042014066 0.02641134 0.0852508 0.056836497 -0.08843462 -0.03701594 -0.09105297 -0.011088821
-0.032334536 0.022515284 0.16679183 0.051874775 0.14539449 -0.059281506 -0.012738713 0.03924051
-0.09969241 0.025670676 -0.031010453 -0.0043857777 -0.029631775 0.002898465 0.08750174 0.004332583
-0.047711518 0.042659637 0.41859514 -0.035450984 -0.20308125 0.071140565 0.049089678 0.00587478
-0.11526745 -0.029273883 -0.16757669 -0.082485914 -0.032629214 -0.019999614 0.024445852 -0.1492355
-0.06727508 -0.02898545 0.5204713 0.016897693 -0.034515984 -0.2156087 -0.008026163 -0.026640505
0.14658171 0.034506295 0.017020795 -0.056802712 0.1173374 -0.069558255 0.054981623 -0.070349626
-0.1624415 -0.16265239 0.012344778 0.1035215 0.090283446 -0.05383311 0.01908377 0.011048339
-0.07059648 0.030178018 -0.008077726 -0.60177296 -0.17744346 0.022460127 -0.0011005888 -0.08894033
-0.12351761 -0.008944631 -0.16532272 0.03957785 -0.060584452 0.0043940544 0.033432458 -0.06197668
-0.0436467 0.02671707 -0.1532973 0.0058411798 0.05454019 0.09927503 0.010398045 -0.040432006

bias f4 [256]
00000000: 246f 8e3d af1e 22bd 5f51 813d 27aa 443d
00000010: 3313 9b3d 4c00 9c3d fdf1 9f3d 6846 8e3d
00000020: a4dd 1abc cebd 893d 733f 3c3d ed4f 3abc
00000030: 1afd 9f3d 8293 563d 8c49 8a3d d852 093d
00000040: cfa5 5a3d 9711 02bd 416a 01bd 7408 c9bb
00000050: eaf7 9f3d b064 873d 54bd 863d fad2 01bd
00000060: e55f cabb 43d6 cb3c ae60 54bc 8d4f b7bb
00000070: 487b 943d 96d9 943d a6f4 01bd 3694 9c3d
00000080: 1fd5 2a3d 5627 b6bb 94ad 203c 0720 593d
00000090: f750 213d dfae 12bc d8f2 1bbd 38de f03c
000000a0: d6c9 c4bb f685 633d b9d6 5d3d e7c0 883d
000000b0: f2b2 fabc 1ebc e4bc 4bf6 df3b 6f92 ad3d
000000c0: 7b7c 613d ef06 4f3d 9f02 2f3d 8ae5 533d
000000d0: 3cab 75bc bb2c 5ebc 57b0 9f3d c45a 8b3d
000000e0: 6e9c f43c da28 4f3d f376 88bc bdaf 01bd
000000f0: d263 2c3d 7da9 02bd c650 053d ea52 11bc
00000100: 5b9b e7bc 0ba2 923d d340 743d 17fc c4bb
00000110: 0000 0000 21d9 7c3d fe93 3f3d 0a73 8c3d
00000120: 33fd 873d d73b 913d 8e58 3cbd af7d bcbb
00000130: a855 623d de20 a9bb 8c7a 82bc beea f9bc
00000140: 6bdc 563d a32b ad3d 7003 583d 75d2 853d
00000150: 6ac1 7c3d dc7d 19bc 7c93 dabc f194 3d3d
00000160: d9c9 c4bb a4f2 5e3d 0000 0000 ef01 3d3d
00000170: 5fc5 57bd 25ad 6e3d 5858 573d 98a8 893d
00000180: a075 48bc 387b 6a3c 01c0 01bc 02b8 9a3d
00000190: a9c9 ea3c 63b3 b63d b2b6 3cbc 2d7c 36bc
000001a0: 1b4d 613d c770 583d 0000 0000 7073 8a3d
000001b0: 2ea6 873d 5787 a53d c3ce 2c3d adb9 883d
000001c0: 15c5 6e3d 0000 0000 d874 413d 4544 903d
000001d0: d983 8b3d e832 8f3d b751 07be 0000 0000
000001e0: 5c85 193e 85e5 09bd afcd dd3c d57d 8f3d
000001f0: 5adf 16bc 2fd0 c2bc 397c 14bc 4628 8c3d
00000200: fe80 86bc 96f3 463d 98fc 843d f297 de3d
00000210: 7c02 973d d031 05bc ec68 6b3d 0000 0000
00000220: ec96 dbbc fe11 dbbc 9302 563d 4c4b aa3d
00000230: d171 6abc 57ee 58bc 67e8 cbbc 3ecb 603d
00000240: b7f8 a9bc 8521 77bc edd1 c93d 34ac 8c3c
00000250: d3c6 813d f8b0 4d3d d9d2 923d 7dde 443d
00000260: 39c1 b83c d6a0 c4bc 2983 c33c 6c0b 273d
00000270: 353a 3bbc 2afe 653d 8743 533d 3da4 b5bc
00000280: 43ea 513d ad84 6c3d 94c7 953d 1649 36be
00000290: 0000 0000 94ae 66bc c27f 6f3d 65c3 3c3d
000002a0: b035 afbb dce9 3d3d 3f4c 303d 5df2 923d
000002b0: fdf5 183d a55a 563d dc85 b93d 3b5d 8b3d
000002c0: 95df ac3d 90d2 363d d8c9 c4bb 0000 0000
000002d0: 277a 823d e131 753d f389 5c3d 0b0c a53d
000002e0: 8384 6e3d 9dc6 803d 4066 42bc 3ec2 b5bc
000002f0: 7a8e 5a3d 9f34 1fbd 2c87 e03c 014a 833d
00000300: bf4d 693d 3542 763d 6c76 31bc 5c4a 2f3d
00000310: 3ea7 01bd 9096 d6bc 40fd a2bc 01e3 a93d
00000320: f066 713d 9fc3 783d d966 3f3d 0000 0000
00000330: 397a 8bbc da23 1cbd 8526 7f3d 52e7 5abd
00000340: 7275 36bc 721c 873d cc7b 443d 1540 993d
00000350: 746c 9c3d c0f1 903d c150 01bd 1bcb c9bb
00000360: 4fc0 6d3c 3b27 763d f382 febc 9de1 933d
00000370: 0000 0000 0000 0000 738a f2bc 0ef5 b63d
00000380: 0000 0000 92b6 4c3d cf6d debb 1744 a13d
00000390: 30d3 15bd 5afb 8b3d f819 28bc 02ea 4b3d
000003a0: 116d 1c3d 0000 0000 2138 46bc 8d1f 3d3d
000003b0: 4256 133c cf79 843d df27 883d 2fe5 653d
000003c0: b4b6 9a3d 4f5a a5bc f46b 39bc 5480 293e
000003d0: 79eb a23d 7f37 2f3d 5cda 2c3d 5ab3 3f3d
000003e0: 4de6 18bd 76a3 1e3d a950 1c3d cc6a 6c3d
000003f0: 3c98 383d 1f22 913d b9b4 3a3d 9ebe 803d
0.06954792 -0.039580043 0.063143484 0.048013832 0.07572021 0.07617244 0.078098275 0.06947023
-0.009452257 0.067256555 0.045958947 -0.011371595 0.07811947 0.05238677 0.06752309 0.03352627
0.053380784 -0.031755056 -0.031595472 -0.006135041 0.07810958 0.066110015 0.0657908 -0.031695344
-0.0061759823 0.024882441 -0.012962503 -0.0055942 0.072500765 0.07268064 -0.031727456 0.076454565
0.041707154 -0.0055588884 0.009807009 0.05300906 0.039383855 -0.008952825 -0.03807339 0.029402837
-0.006005506 0.055547677 0.054159854 0.06677418 -0.030602906 -0.027921733 0.0068347803 0.084751956
0.055050354 0.05054372 0.04272711 0.051732577 -0.014994439 -0.013560469 0.07797306 0.068044215
0.029859748 0.05057607 -0.016658282 -0.031661738 0.042087384 -0.031899918 0.032547735 -0.008869866
-0.028272321 0.071598135 0.059632134 -0.0060114968 0.0 0.061730508 0.046771996 0.068578795
0.06640091 0.07091492 -0.04598289 -0.0057522873 0.05525747 -0.005161389 -0.015927576 -0.030507442
0.0524563 0.08455589 0.052737653 0.06534282 0.06170789 -0.009368386 -0.026681654 0.04628462
-0.0060055074 0.05443062 0.0 0.046144422 -0.052678462 0.058270592 0.052574486 0.0672161
-0.012235075 0.014311604 -0.007919312 0.07554628 0.028660612 0.08920934 -0.011518167 -0.011138004
0.055005174 0.052841928 0.0 0.06760299 0.06623493 0.08082455 0.04218937 0.0667604
0.05829342 0.0 0.04723057 0.070442714 0.06812257 0.069921315 -0.13214765 0.0
0.14992279 -0.033666153 0.027075617 0.070064224 -0.009208525 -0.02378091 -0.00906282 0.06843619
-0.01641893 0.048572145 0.06493491 0.10868825 0.07373521 -0.008129552 0.05747311 0.0
-0.026805364 -0.026741978 0.05224855 0.08315143 -0.0143093625 -0.013240418 -0.024891092 0.054881327
-0.02074848 -0.015083675 0.09854493 0.017171957 0.06336751 0.0502176 0.07169122 0.048063744
0.022553073 -0.024002474 0.023866253 0.040782377 -0.011427452 0.056150593 0.05157807 -0.022173041
0.0512488 0.057743717 0.07313457 -0.17801318 0.0 -0.014079709 0.05847145 0.04608478
-0.005346976 0.046365604 0.043041464 0.071751334 0.037343968 0.05233254 0.09058735 0.06804892
0.084410824 0.0446344 -0.006005507 0.0 0.06370955 0.05986202 0.053842496 0.08058938
0.05823184 0.062878825 -0.011865199 -0.022187348 0.053358532 -0.038868543 0.027408205 0.064105995
0.05695891 0.060121734 -0.010831457 0.042795524 -0.031653635 -0.02619484 -0.01989615 0.08295251
0.05893606 0.060733434 0.046728943 0.0 -0.017026054 -0.03812013 0.062292594 -0.05344326
-0.0111364 0.065972224 0.047969624 0.07482926 0.07637873 0.0707736 -0.031571154 -0.0061582453
0.014511182 0.060096007 -0.0310683 0.07220767 0.0 0.0 -0.029607033 0.08933459
0.0 0.0499788 -0.0067879925 0.07874315 -0.036578357 0.06835051 -0.010260098 0.049783714
0.03818995 0.0 -0.012098343 0.046172667 0.008992733 0.06468546 0.0664823 0.05612677
0.07554379 -0.020184664 -0.011317242 0.1655286 0.07955069 0.042777535 0.04220043 0.046801902
-0.037329007 0.038730107 0.03816286 0.057719037 0.045067057 0.07086586 0.045582507 0.06286357

weight f4 [2, 256]
00000000: 476e c4be ec74 ddbd 39b9 1fbe 26a4 553e
00000010: 982c a4be 4479 babd 92ff 1c3e af8c 80be
00000020: 4071 393d a94a bf3d 0d24 80be 010e de3c
00000030: 3fa0 a4be 87bf 4c3e c1cf 7c3e d960 233d
00000040: 348e 293e e132 ffbc fe17 9cbc 3e0c b4bc
00000050: e746 41be 996f 2fbd e333 a7be 84aa 623c
00000060: c447 76bd fc21 20bf 8d93 293c 46e5 15bd
00000070: 2577 8a3e e6d6 953e 3f38 14be e93f 393e
00000080: 1c58 8cbd e4c5 c2bd 71df 56bf 8124 04be
00000090: 3564 10be 8b6c 6abd 55ae 6fbd 8e27 d73d
000000a0: de5f d4bd e550 433e 2297 b9be 7194 c9bd
000000b0: 8a6c 0bbd 7a30 d3bc ca04 253d 2770 883e
000000c0: 28c7 d0be 3ef8 5b3e efee 423e 741d 2abd
000000d0: 1344 e4bc 9fba 90bd 5dbd bcbd 3b90 9c3e
000000e0: 0bd0 dcbd b9ce 713e 4abb c53d e0b3 3a3e
000000f0: 417e 8fbe ffed 323c 507c a8be dd4c 233d
00000100: c1e4 363d 949f adbe 32b6 3bbe ae1f 96bd
00000110: 9562 6cbd dba2 973e 04b1 f23e a1c2 eebd
00000120: 9a75 27be ec9f 8b3e 32de b63c 5248 3c3d
00000130: 0839 ca3e d6cc 52bd 95ca 2cbc a4c3 17bc
00000140: fab4 aebe ff89 e9be 2ee0 143e e58c ee3d
00000150: 3999 5bbd 6efb 443d 0059 59be f1ce 273e
00000160: 7fe0 73bc 43c2 2c3e 4560 b6bc 8913 39be
00000170: 7f05 ff3a 4a21 5bbe 38b5 0fbd 49f8 b9be
00000180: 9c86 33bd ce96 43bd 4d1b e73d d3d1 55be
00000190: 76da 2b3e 7ada c23e 43fe 4d3c f8ba b2bd
000001a0: 3680 33bd a93b 973e 6cb8 18bd 62ee bf3e
000001b0: 3ccd f53d 3488 0abe 1b65 1dbe e65c 5c3e
000001c0: f7a1 2cbe b700 92bd 4ed1 653e aee8 d3be
000001d0: 92c9 c4bd 5ead 883e 48f1 a23f ecbf a4bc
000001e0: 6bd1 73bf 0442 76bc 1007 133e f847 9a3d
000001f0: 9a1d a93d 2e86 763d 199a 853d ca39 5c3e
00000200: e2d5 803d 9085 95be 18c9 b63e baef 41be
00000210: f089 403e 16f0 613c 0dc6 633e 5ab7 c0bc
00000220: 7084 713d 03ff 87bd 768a 9fbe 8b6c 553e
00000230: d8ca 373c a8cc 123d a6b9 e63b aab9 acbe
00000240: 71e0 8e3c fce7 61bd 303b 9e3e 38b8 4e3d
00000250: d709 44bf bdb4 c9be ae4a a03e 8f57 cdbe
00000260: 64e4 3e3e ed3e 353d 9ddf ad3d a86a f33d
00000270: 78b2 893d 307b cdbe 259a 3b3e 79f4 f93d
00000280: 7348 a2be 42fd 4d3e d079 793e b4e4 b8bf
00000290: 15e4 c33d 8d9b 423d ff62 283e 59ce b6be
000002a0: 2015 543b faf5 343e ae82 a0be f680 40be
000002b0: 12cb d4bd 2e9e 303e 0da2 223e 9450 8abc
000002c0: 5fb1 253e e222 9fbe 6342 07bd 9eac cebc
000002d0: 9795 60be 1c08 a33e 7c42 0fbe 9f6f 7d3e
000002e0: b57a 203e 37f3 93be e399 8e3d 0425 053e
000002f0: dcce 82bd 32b1 b3bd ef9f 023e 424d a6be
00000300: e74c a6bd 8e91 923e a717 d43c 9210 d93d
00000310: 34a2 b9bd a7d2 aabc ed14 20bd 5451 0abe
00000320: b342 c6be 7e7b 5fbe d711 053e 6ea6 4c3c
00000330: 31ac 8dbd 476c 8cbc bc1f eb3e 48c2 a4bc
00000340: 019d c5bd f97b c0be 5f0b 78be 265d 263e
00000350: 179f 99be aca7 4a3d 4b4e 443d ec7f 963c
00000360: 74f7 203e e7c1 75be f2e7 9abc e2d5 a3be
00000370: 732b 9abc bb70 2dbc 16ee b13b 24b1 6cbd
00000380: 6a0a ecbc 4f02 343d 0cb2 3bbd ac57 a0bd
00000390: 77ee c93b f294 75be 7576 8abd dd62 c53e
000003a0: 83ff da3d 455a 58bd 2f89 fc3a 2e83 b3be
000003b0: 5b21 fb3d a11f 323e 0327 47bd d1b1 173e
000003c0: 7a27 21be 605a c23c 3eb4 c4bc 4756 85bf
000003d0: 1acf 373d 2ffb 943e 6445 39be f7ec b1bd
000003e0: 9858 a63d 15c2 8cbe 6c38 873e fc21 f03d
000003f0: 8c2f 333e a8ae 9f3e 821d 3f3e b91f 44be
-0.38365385 -0.10813317 -0.15598 0.20863399 -0.32065272 -0.09105161 0.15331867 -0.25107333
0.04527402 0.09340412 -0.25027505 0.027106287 -0.32153508 0.19994937 0.24688627 0.039887283
0.16558152 -0.03115219 -0.01905441 -0.021978494 -0.18874703 -0.042831037 -0.32656774 0.013834599
-0.060127035 -0.62551856 0.01035012 -0.036595605 0.27044025 0.29265517 -0.14474581 0.18090786
-0.06852743 -0.09510401 -0.83934695 -0.1290455 -0.14100726 -0.05723242 -0.058515865 0.10505591
-0.10369848 0.19073828 -0.36248118 -0.09842766 -0.034039058 -0.025779951 0.04028777 0.26648065
-0.40776944 0.21481416 0.19036458 -0.041531995 -0.027864492 -0.07066845 -0.09215806 0.3057879
-0.107818685 0.23614015 0.09654863 0.1823268 -0.28026012 0.0109210005 -0.32907343 0.039868224
0.04465175 -0.3391081 -0.18331221 -0.07330261 -0.057711203 0.29616436 0.47400677 -0.11658216
-0.16353455 0.27270448 0.022322748 0.045967408 0.39496636 -0.051464878 -0.010546346 -0.009262953
-0.3412245 -0.45613095 0.14538643 0.11647967 -0.05361292 0.048091345 -0.21225357 0.16387536
-0.014885067 0.1687098 -0.022262702 -0.18073858 0.0019456594 -0.21399418 -0.035084933 -0.3632224
-0.043829545 -0.04775124 0.11284504 -0.20880823 0.16782555 0.3805731 0.012572828 -0.08727068
-0.043823443 0.29537705 -0.037285253 0.3748656 0.12002036 -0.1352852 -0.153706 0.21519813
-0.1685866 -0.071290426 0.22443125 -0.41388458 -0.09608759 0.2669477 1.2729883 -0.020111047
-0.9524142 -0.015030388 0.14358163 0.07533258 0.08257599 0.060186557 0.065235324 0.2150642
0.06290795 -0.29203463 0.35700297 -0.18939105 0.18802619 0.013790151 0.22243519 -0.023524929
0.058964193 -0.066404365 -0.31160325 0.20842187 0.011217795 0.035839707 0.007041174 -0.337354
0.017441006 -0.05515288 0.3090453 0.050468653 -0.76577514 -0.39395705 0.31306976 -0.40105864
0.18641812 0.044249464 0.084899165 0.118855774 0.06723493 -0.40133047 0.1832052 0.122048326
-0.316959 0.20116141 0.24362874 -1.4444795 0.095649876 0.047511626 0.16444014 -0.35704306
0.0032361224 0.17671958 -0.313497 -0.18799195 -0.10390295 0.17247841 0.1588213 -0.016884126
0.16180943 -0.310813 -0.033022296 -0.025228795 -0.21932064 0.31842124 -0.13990206 0.24749611
0.15671809 -0.28896496 0.06962945 0.13002402 -0.063871115 -0.08774032 0.12756322 -0.32480818
-0.08120137 0.28626674 0.025890185 0.10598864 -0.09064141 -0.0208524 -0.039082456 -0.13507587
-0.38722762 -0.21824452 0.12995087 0.012490852 -0.069176085 -0.017141474 0.4592265 -0.020112172
-0.09649087 -0.37594584 -0.24223088 0.16246471 -0.30004188 0.04947631 0.04792623 0.018371545
0.15719396 -0.23999749 -0.018909428 -0.31999117 -0.018819546 -0.010585959 0.0054299934 -0.057786122
-0.02881356 0.043947514 -0.045824096 -0.07829222 0.0061624604 -0.239826 -0.06760875 0.3855199
0.10693266 -0.052820463 0.0019266958 -0.3506102 0.122622214 0.17394878 -0.04862119 0.14813925
-0.15737715 0.023724735 -0.024011727 -1.0416955 0.04487524 0.29097888 -0.18092877 -0.086877756
0.08122367 -0.27491823 0.26410234 0.11725232 0.17498606 0.3118794 0.186636 -0.19152726

bias f4 [2]
00000000: d7fd 50bd a353 ffbc
-0.05102333 -0.03116781
