exp_local/gcbc_fixed/weights/24000.pt (torch, 274440 bytes, 6 tensors)

weight f4 [256, 4]
-0.2478185 -0.08332531 0.088400625 0.13805911 -0.102960065 0.2919794 -0.126282 0.018080818
-0.40202692 0.03218941 0.21593776 0.075218245 0.018305155 0.25975502 -0.088473745 -0.029514546
0.01846781 -0.07334466 -0.08827257 -0.0057970122 -0.105537914 -0.026565848 -0.01944681 -0.0534494
-0.38625407 0.061966382 0.17065325 0.098523706 0.27782944 0.21870194 -0.051295582 -0.105644256
-0.16733928 -0.22385064 0.0983082 0.13957648 0.23497395 0.14707531 -0.12562558 -0.067721024
-0.011253735 -0.004301011 0.044569578 -0.064691015 0.42225868 -0.064239465 -0.09553072 -0.09625248
0.26444614 -0.20772439 -0.10774245 0.04074872 0.16834654 0.24473567 0.003011493 -0.16481516
0.23900047 0.20492925 -0.031897765 -0.18254541 -0.11018767 0.295085 -0.03983838 0.0017570831
0.3602742 0.014370688 -0.04161893 -0.10764388 0.09134206 0.2380072 -0.043829218 -0.08288607
-0.010284376 0.28097597 -0.026820017 -0.08871827 -0.03180199 -0.2707054 0.10649923 0.09727165
-0.6766048 0.27357182 0.03950625 0.058585547 0.269593 0.013959621 -0.09187545 -0.042698395
0.17197819 0.19619653 -0.11455977 -0.07317268 0.044389565 0.30362776 -0.109955326 -0.0036953997
0.00022449286 -0.369741 0.02291763 0.23716217 0.35332146 0.08957234 -0.06432797 -0.14152658
-0.09493493 -0.03344957 -0.046940703 0.053051345 0.32059276 0.04800483 -0.09690823 -0.039564274
0.14021699 -0.31782264 -0.023283938 0.10458176 0.30301142 0.121015854 -0.08346954 -0.12147134
-0.075214565 -0.13031426 0.0039912043 -0.034021966 0.39853567 -0.067344904 -0.11105198 -0.09845634
-0.2314628 0.15701106 -4.8477246e-05 0.062358566 -0.257181 0.12991126 0.085793585 0.024876622
-0.011547367 -0.016130757 -0.04507966 0.018657267 -0.09385868 -0.05315998 -0.009505701 -0.019562459
0.022610247 -0.37514186 0.14966682 0.087886676 0.024129108 -0.01073962 -0.09722656 0.028391019
0.2409699 -0.020985395 0.050551765 -0.08779806 0.360115 -0.12880066 -0.1261857 0.010589073
0.07232698 0.28661728 -0.05098439 -0.09793046 0.2987848 -0.08612612 0.011424884 -0.10667543
0.1364019 0.29098073 -0.096497424 -0.091121495 -0.167833 0.13445261 0.046364855 0.1138234
-0.0979498 -0.30102473 0.19458514 -0.0021205193 -0.00062110386 0.008280091 -0.080203526 0.020492405
0.0027962984 -0.06378743 -0.07808231 -0.05105635 0.20111331 0.23781973 -0.07548909 -0.061661236
-0.08699799 -0.007446408 -0.07351607 -0.053810254 -0.025672026 -0.02056099 -0.019366954 0.022631321
0.18303853 -0.27996013 -0.020473683 -0.004730329 -0.05376882 -0.03936804 -0.060198817 -0.07584263
0.33858407 -0.039099354 -0.037038106 -0.034063138 0.059671238 -0.26718816 0.053651664 0.10733124
0.01689006 0.30578983 -0.07523541 -0.10280105 -0.034475684 0.18887171 -0.048078105 0.04014529
0.05016798 0.015837282 -0.11043367 -0.07418028 0.05797045 -0.006068691 -0.019431815 -0.0074616233
-0.3119208 0.12006693 0.15274316 0.04085392 -0.016157115 0.026768316 0.02120918 -0.078053266
-0.14644186 0.21169205 0.00044729287 0.008032317 0.30244133 -0.06918811 -0.08685629 -0.015201838
0.12703012 -0.3310975 0.04885324 0.034196034 -0.0068433583 -0.07549403 0.058135 -0.04797998
00000000: 22c4 7dbe 76a6 aabd 630b b53d 5e5f 0d3e
00000010: badc d2bd 537e 953e 1250 01be 391e 943c
00000020: 79d6 cdbe 0bd9 033d ca1e 5d3e 060c 9a3d
00000030: b1f4 953c 9cfe 843e b931 b5bd 7dc8 f1bc
00000040: ce49 973c ba35 96bd 40c8 b4bd ddf4 bdbb
00000050: 4324 d8bd 9fa0 d9bc eb4e 9fbc c2ed 5abd
00000060: 18c3 c5be 76d0 7d3d babf 2e3e ccc6 c93d
00000070: a93f 8e3e 67f3 5f3e 511b 52bd 045c d8bd
00000080: fd5a 2bbe 1a39 65be cf55 c93d 23ed 0e3e
00000090: 039d 703e e99a 163e fea3 00be 52b1 8abd
000000a0: 9661 38bc 7fef 8cbb 978e 363d b97c 84bd
000000b0: 4a32 d83e fb8f 83bd 9ca5 c3bd 0520 c5bd
000000c0: 7c65 873e b4b5 54be 13a8 dcbd 21e8 263d
000000d0: 0963 2c3e fd9b 7a3e 785c 453b 4ec5 28be
000000e0: 8abc 743e f9d8 513e 3ba7 02bd 2fed 3abe
000000f0: 13aa e1bd 6215 973e 922d 23bd ed4d e63a
00000100: dc75 b83e 0973 6b3c 9c78 2abd 6574 dcbd
00000110: 8c11 bb3d 29b8 733e 4486 33bd 2cc0 a9bd
00000120: cd7f 28bc 15dc 8f3e a7b5 dbbc edb1 b5bd
00000130: ce42 02bd e699 8abe 451c da3d 5c36 c73d
00000140: f935 2dbf 9b11 8c3e 4ed1 213d 66f7 6f3d
00000150: 1808 8a3e e5b6 643c 3229 bcbd 83e4 2ebd
00000160: 0d1b 303e bee7 483e 509e eabd 8fdb 95bd
00000170: d5d1 353d 1975 9b3e 4230 e1bd 852e 72bb
00000180: d865 6b39 b14e bdbe c1bd bb3c a4da 723e
00000190: 8de6 b43e b471 b73d 62be 83bd 58ec 10be
000001a0: 3f6d c2bd 6b02 09bd e544 40bd 5e4c 593d
000001b0: bc24 a43e b6a0 443d d277 c6bd 260e 22bd
000001c0: 0b95 0f3e a6b9 a2be f5bd bebc f62e d63d
000001d0: 5024 9b3e 29d7 f73d 14f2 aabd f7c5 f8bd
000001e0: 180a 9abd 1a71 05be a6c8 823b 9e5a 0bbd
000001f0: de0c cc3e 20ec 89bd 386f e3bd 7aa3 c9bd
00000200: 9604 6dbe 82c7 203e 0c54 4bb8 b26b 7f3d
00000210: 3aad 83be 7507 053e 8cb4 af3d 0fca cb3c
00000220: 2b31 3dbc a624 84bc 73a5 38bd 20d7 983c
00000230: fb38 c0bd 47be 59bd cdbd 1bbc 7341 a0bc
00000240: 2039 b93c 9812 c0be 4242 193e eefd b33d
00000250: 68aa c53c 3bf5 2fbc b81e c7bd 4894 e83c
00000260: d0c0 763e 90e9 abbc 5e0f 4f3d 78cf b3bd
00000270: fe60 b83e 52e4 03be d336 01be cb7d 2d3c
00000280: 2b20 943d 80bf 923e 02d5 50bd c48f c8bd
00000290: 52fa 983e e462 b0bd 702f 3b3c a678 dabd
000002a0: f1ac 0b3e 6dfb 943e 71a0 c5bd e89d babd
000002b0: 6adc 2bbe f2ad 093e 13e9 3d3d 3e1c e93d
000002c0: e899 c8bd ea1f 9abe 5441 473e 69f8 0abb
000002d0: 93d1 22ba 38a9 073c bf41 a4bd b0df a73c
000002e0: 1a42 373b fca2 82bd 9ee9 9fbd 7720 51bd
000002f0: a6f0 4d3e 0487 733e 069a 9abd 7e90 7cbd
00000300: 012c b2bd ff00 f4bb 988f 96bd 2468 5cbd
00000310: 244e d2bc 856f a8bc 72a7 9ebc 5265 b93c
00000320: 746e 3b3e ef56 8fbe 6db8 a7bc e000 9bbb
00000330: b23c 5cbd 6240 21bd 0993 76bd 6153 9bbd
00000340: e45a ad3e a526 20bd 45b5 17bd ca85 0bbd
00000350: d469 743d e3cc 88be d9c1 5b3d 7bd0 db3d
00000360: 065d 8a3c 7c90 9c3e 0615 9abd 5b89 d2bd
00000370: 6036 0dbd 9667 413e 8ced 44bd 636f 243d
00000380: f17c 4d3d 30bd 813c 0c2b e2bd d5eb 97bd
00000390: 6c72 6d3d dfdb c6bb 782f 9fbc a280 f4bb
000003a0: 15b4 9fbe a7e5 f53d b468 1c3e 7156 273d
000003b0: ed5b 84bc 3a49 db3c e0be ad3c 64da 9fbd
000003c0: dbf4 15be cdc5 583e a282 ea39 fb99 033c
000003d0: 97d9 9a3e 7fb2 8dbd b6e1 b1bd 2111 79bc
000003e0: 2f14 023e 9d85 a9be 561a 483d 2411 0c3d
000003f0: 403e e0bb 9d9c 9abd f71e 6e3d a886 44bd

bias f4 [256]
0.06465044 0.0059899064 0.06761191 -0.03644342 0.0 0.0 0.057693426 -0.12984814
0.07906973 -0.061737653 0.0 -0.08943101 0.014204859 -0.08208988 -0.1003362 -0.021147773
-0.104594976 -0.05864918 -0.03554686 0.056683045 0.08322176 -0.042606678 -0.04946707 -0.059865452
0.060153753 -0.11717253 0.0 -0.0707515 0.05376748 -0.10599692 0.0 -0.077945426
0.030441945 0.032072365 0.0 0.0 0.053979695 -0.006005504 -0.057977792 -0.06673643
-0.05575976 -0.0483101 -0.06385032 -0.008913154 0.08989901 0.0 0.0 -0.11231593
0.0 0.0 0.06044874 0.0 -0.07659396 0.03658097 -0.02957815 -0.026087174
-0.008048986 -0.04710217 0.027464455 -0.01554733 0.026462149 -0.05380971 0.058452666 -0.011050169
-0.024621192 -0.038342446 -0.012145894 0.04172464 -0.016458318 0.045113552 -0.010143126 -0.041793
-0.05483377 0.08667809 0.0 0.039238755 -0.017573232 -0.08357436 -0.08837794 0.0
0.08456718 0.019339506 -0.07308656 0.1612989 0.0 0.017263604 -0.03419126 -0.021015244
-0.018494295 -0.018749926 -0.00811065 0.0 -0.08598509 0.056941696 0.045580477 0.0
0.009343141 -0.020999962 0.0 0.041655555 0.05275648 -0.07382079 -0.063931294 0.0
0.0 -0.059365943 -0.0049481564 -0.043870382 -0.025698416 0.0 -0.081753366 0.108842485
0.03539369 -0.018234095 -0.0077664647 0.0028252825 -0.05715164 0.0 0.072872154 -0.009915158
-0.023320902 -0.05748876 0.08014364 0.054870825 -0.014158635 -0.06274997 0.060995046 0.0
0.0 -0.024964644 -0.00960935 -0.007811713 0.03846669 0.053024784 0.06562718 -0.006005507
0.0 -0.043524 0.0 0.043715954 -0.039116204 -0.020418556 0.059910085 -0.009569698
0.034328073 -0.017576508 0.0 0.055205274 0.0 -0.0376823 0.026401455 0.0
0.0003488912 0.07953116 0.10190352 -0.10667945 -0.0063530724 -0.045112226 -0.045752455 -0.034663837
-0.044991937 0.050629564 0.0 -0.018036425 -0.03480944 0.07464653 0.0 0.08402497
0.0 0.0 0.0 0.0835774 0.0 0.08000631 0.002721744 0.015378623
-0.04281816 -0.07408742 0.07062306 0.06520328 0.06435564 -0.06312432 0.056573495 0.078586236
-0.0062673483 -0.016517753 -0.07665518 0.104952015 0.0 0.0 -0.024334667 0.035532854
0.05008079 0.0877555 -0.089672774 -0.05850439 0.07689093 0.022535581 0.10427172 0.0
-0.09537011 0.04657457 -0.047096375 0.042458847 0.0 0.08857988 0.08177871 -0.06188057
-0.046339456 0.049302015 -0.0027932911 0.0 0.061007172 0.0810323 -0.012836668 0.0
0.0 -0.010102449 0.0 0.0 -0.097799525 -0.05429112 0.051102117 -0.10163178
-0.07358237 -0.051527236 0.0 0.0 0.078179546 0.0 0.0 -0.005558855
0.0 0.0 0.05001706 0.13109632 -0.034980007 0.0 0.06632957 -0.043203663
0.07393456 -0.050685607 -0.017507283 -0.009080998 -0.00995074 0.06937088 -0.06809831 -0.04683374
0.0 0.0 -0.06395221 -0.06805507 0.0 -0.034338113 0.02175467 -0.024211215
00000000: 7367 843d fa46 c43b 1d78 8a3d b245 15bd
00000010: 0000 0000 0000 0000 f14f 6c3d e9f6 04be
00000020: 50ef a13d 9fe0 7cbd 0000 0000 9b27 b7bd
00000030: 7fbb 683c bd1e a8bd 117d cdbd 183e adbc
00000040: e435 d6bd 1f3a 70bd 9699 11bd 7b2c 683d
00000050: 2c70 aa3d 5784 2ebd fb9d 4abd 7a35 75bd
00000060: c863 763d 27f8 efbd 0000 0000 2ae6 90bd
00000070: 4a3b 5c3d ea14 d9bd 0000 0000 daa1 9fbd
00000080: 6361 f93c 505e 033d 0000 0000 0000 0000
00000090: d019 5d3d d2c9 c4bb 1f7a 6dbd 1cad 88bd
000000a0: 5964 64bd d0e0 45bd f5c3 82bd 7a08 12bc
000000b0: f91c b83d 0000 0000 0000 0000 e505 e6bd
000000c0: 0000 0000 0000 0000 1999 773d 0000 0000
000000d0: 4bdd 9cbd edd5 153d e04d f2bc c5b4 d5bc
000000e0: e5df 03bc 34ee 40bd 23fd e03c 3aba 7ebc
000000f0: 26c7 d83c 9267 5cbd 106c 6f3d c50b 35bc
00000100: 62b2 c9bc f80c 1dbd 92ff 46bc 75e7 2a3d
00000110: 98d3 86bc fdc8 383d 5b2f 26bc 232f 2bbd
00000120: 6099 60bd 4884 b13d 0000 0000 d1b8 203d
00000130: bdf5 8fbc 0929 abbd 7eff b4bd 0000 0000
00000140: 8f31 ad3d e26d 9e3c 68ae 95bd 8a2b 253e
00000150: 0000 0000 676c 8d3c 220c 0cbd 2928 acbc
00000160: 5981 97bc 7299 99bc 88e2 04bc 0000 0000
00000170: f318 b0bd b23b 693d 98b2 3a3d 0000 0000
00000180: f913 193c 1d08 acbc 0000 0000 049f 2a3d
00000190: 2e17 583d 5b2f 97bd 69ee 82bd 0000 0000
000001a0: 0000 0000 b429 73bd 2524 a2bb 6eb1 33bd
000001b0: 7c85 d2bc 0000 0000 4f6e a7bd cfe8 de3d
000001c0: f9f8 103d ab5f 95bc d47d febb 6028 393b
000001d0: d717 6abd 0000 0000 ff3d 953d 3073 22bc
000001e0: 7a0b bfbc 5679 6bbd 5922 a43d 3bc0 603d
000001f0: 9ff9 67bc 0e83 80bd f1d5 793d 0000 0000
00000200: 0000 0000 a782 ccbc 8970 1dbc 66f9 ffbb
00000210: 3f8f 1d3d 8430 593d 8b67 863d d8c9 c4bb
00000220: 0000 0000 3946 32bd 0000 0000 800f 333d
00000230: 5038 20bd d144 a7bc 4764 753d 39ca 1cbc
00000240: 989b 0c3d 9cfc 8fbc 0000 0000 ed1e 623d
00000250: 0000 0000 c158 1abd dd47 d83c 0000 0000
00000260: 62eb b639 3ce1 a23d cbb2 d03d c17a dabd
00000270: 6f2d d0bb 99c7 38bd ed66 3bbd abfb 0dbd
00000280: 7749 38bd f260 4f3d 0000 0000 20c1 93bc
00000290: 5894 0ebd 48e0 983d 0000 0000 4915 ac3d
000002a0: 0000 0000 0000 0000 0000 0000 a12a ab3d
000002b0: 0000 0000 59da a33d 495f 323b 9ff6 7b3c
000002c0: 1862 2fbd 25bb 97bd d3a2 903d 4c89 853d
000002d0: e4cc 833d 5347 81bd 9cb9 673d d2f1 a03d
000002e0: 545e cdbb 3d50 87bc 64fd 9cbd 15f1 d63d
000002f0: 0000 0000 0000 0000 7f59 c7bc e68a 113d
00000300: 8421 4d3d 28b9 b33d 5ca6 b7bd 4da2 6fbd
00000310: fe78 9d3d 8a9c b83c 698c d53d 0000 0000
00000320: 6751 c3bd fac4 3e3d 21e8 40bd 54e9 2d3d
00000330: 0000 0000 5e69 b53d 997b a73d 7b76 7dbd
00000340: 71ce 3dbd e9f0 493d a60f 37bb 0000 0000
00000350: a8e2 793d 43f4 a53d e350 52bc 0000 0000
00000360: 0000 0000 be84 25bc 0000 0000 0000 0000
00000370: 1e4b c8bd 5e60 5ebd 7450 513d 5324 d0bd
00000380: 5bb2 96bd 390e 53bd 0000 0000 0000 0000
00000390: 991c a03d 0000 0000 0000 0000 0e27 b6bb
000003a0: 0000 0000 0000 0000 b0de 4c3d 1d3e 063e
000003b0: 3247 0fbd 0000 0000 ccd7 873d 53f6 30bd
000003c0: 016b 973d b69b 4fbd 6f6b 8fbc 77c8 14bc
000003d0: 6e08 23bc 5212 8e3d 2077 8bbd bcd4 3fbd
000003e0: 0000 0000 0000 0000 60f9 82bd 7560 8bbd
000003f0: 0000 0000 1fa6 0cbd da36 b23c 9956 c6bc

weight f4 [256, 256]
-0.16679542 -0.17033786 0.07901752 -0.0177429 0.12667213 0.11751121 0.02731003 -0.13760869
0.021748336 -0.12866177 -0.0027970076 -0.27240193 0.07973001 -0.05773629 0.15406452 -0.060182985
-0.122340016 -0.047563355 -0.041920636 0.031407416 -0.4106366 0.072069556 -0.193312 -0.050247125
0.02922579 -0.36527884 0.06077617 -0.075041115 0.04777203 0.15330166 0.022985436 0.25375068
0.07196147 0.040609777 -0.022244617 -0.009360723 0.0003645257 -0.035963047 -0.013660441 0.018702691
-0.09644496 -0.10074292 -0.119495474 0.1539627 0.02203409 0.0552308 -0.07653902 -0.12288531
-0.032466643 -0.051442683 0.008780982 0.04601147 0.05580844 0.03548974 -0.23677869 0.029826818
0.007962421 -0.008037549 -0.021318771 -0.057538696 -0.034248557 -0.036368787 -0.004654349 -0.056588713
0.029236425 0.16952062 -0.05325149 0.0005202646 -0.0099711055 0.017635224 -0.10080146 0.029498965
0.04908849 0.110345274 -0.0027166111 -0.05049476 0.11159773 -0.14943977 -0.012108071 -0.03406371
-0.06693674 -0.10345437 -0.012146575 -5.613265 -0.10270047 -0.017926248 -0.061185773 -0.0606716
-0.07825118 -0.10839013 -0.036998246 -0.00024584308 -0.1477933 0.055426393 0.0893438 0.05293599
-0.14076692 -0.06691692 -0.036022145 0.17397976 -0.022327572 -0.06759503 -0.032932553 0.043501988
-0.068206996 -0.09231344 0.07751468 -0.089555584 -0.03932177 -0.028815283 -0.09543861 0.112998456
0.048492268 -0.0016750398 -0.0959282 -0.063210405 -0.04512403 -0.06465626 -0.037845716 -0.097826734
-0.007324405 -0.06284228 -0.011399273 -0.07057213 0.09413442 -0.11721034 0.13183516 -0.061670396
0.023269197 -0.029866582 0.051714778 0.0006414342 0.076349705 0.043260396 -0.042735294 0.033387717
-0.07434575 -0.08015213 0.026918363 -2.94199 -0.028503524 -0.08431001 0.16167988 -0.012643731
-0.00874022 0.008613322 -0.05978308 -0.025030293 0.1090808 -0.002187253 0.040911946 -0.01108859
-0.0026049118 -0.014770316 0.16778322 -0.10689099 0.012920549 -0.1495859 -0.16389334 0.151212
0.04557457 -0.08185939 -0.030654753 -0.13698491 0.05926533 -0.044322066 0.09985915 -0.13057074
0.042014066 0.02641134 0.0852508 0.064500235 -0.08843462 -0.034268953 -0.078722306 -0.012141678
-0.009771163 0.02180697 0.16926202 0.05335613 0.14439236 -0.07565591 -0.016117984 0.043528784
-0.09969241 0.03379301 -0.0509948 -0.002309931 -0.029631775 0.002898465 0.085023165 -0.0034767177
-0.057530638 0.03948614 0.38559455 -0.02471326 -0.20055279 0.07033515 0.052178126 0.00587478
-0.10731342 -0.02951752 -0.15374027 -0.08660219 -0.032629214 -0.006987427 0.033151038 -0.15205914
-0.059972826 -0.03286835 0.46191114 0.016897693 -0.037505243 -0.22269636 -0.008026163 -0.026640505
0.14658171 0.034506295 0.017020795 -0.056802712 0.08821143 -0.066134326 0.04356935 -0.09774589
-0.14510809 -0.14215437 0.012344778 0.1035215 0.09553152 -0.05383311 0.01908377 0.011048339
-0.07059648 0.030178018 -0.0072475933 -0.631959 -0.15351194 0.022460127 -0.007879734 -0.07534422
-0.12950931 0.0067391912 -0.13971926 0.03957785 -0.060584452 -0.0006613073 0.051740345 -0.065731615
-0.0436467 0.02671707 -0.13762581 0.0058411798 0.05454019 0.099443495 0.0017442167 -0.04158083
00000000: 6bcc 2abe 0c6d 2ebe f0d3 a13d 8f59 91bc
00000010: 57b6 013e b8a9 f03d 49b9 df3c 4be9 0cbe
00000020: 9129 b23c e9bf 03be 004e 37bb 4478 8bbe
00000030: 7d49 a33d e37c 6cbd 17c3 1d3e 6f82 76bd
00000040: 678d fabd cbd1 42bd f9b4 2bbd 10a5 003d
00000050: f63e d2be 3499 933d 95f3 45be eecf 4dbd
00000060: ed6a ef3c d405 bbbe 6ff0 783d 28af 99bd
00000070: 9bac 433d 1cfb 1c3e f44b bc3c 9ceb 813e
00000080: 8960 933d 7056 263d 583a b6bc b85d 19bc
00000090: d01d bf39 fd4d 13bd 0bd0 5fbc 6336 993c
000000a0: ef84 c5bd 4e52 cebd 0bba f4bd 66a8 1d3e
000000b0: d680 b43c b139 623d 7dc0 9cbd 4bab fbbd
000000c0: befb 04bd 90b5 52bd 1cde 0f3c 8676 3c3d
000000d0: 6497 643d b15d 113d 1d76 72be 5f57 f43c
000000e0: d074 023c edaf 03bc b4a4 aebc b2ad 6bbd
000000f0: 3748 0cbd 70f7 14bd 8283 98bb 91c9 67bd
00000100: 3a81 ef3c d096 2d3e 3c1e 5abd 5e62 083a
00000110: d95d 23bc bf77 903c ff70 cebd d0a7 f13c
00000120: 0311 493d b4fc e13d 2c09 32bb 98d3 4ebd
00000130: 5a8d e43d bd06 19be ee60 46bc 6486 0bbd
00000140: 2116 89bd e2df d3bd 6e02 47bc de9f b3c0
00000150: a054 d2bd 11da 92bc ef9d 7abd c982 78bd
00000160: 2842 a0bd a5fb ddbd 798b 17bd 80e4 80b9
00000170: 2057 17be c906 633d e2f9 b63d 69d3 583d
00000180: 3425 10be bd0b 89bd f58b 13bd c027 323e
00000190: 50e8 b6bc 436f 8abd 49e4 06bd 242f 323d
000001a0: 1cb0 8bbd d40e bdbd 04c0 9e3d eb68 b7bd
000001b0: dd0f 21bd 070e ecbc 5175 c3bd bc6b e73d
000001c0: d49f 463d 028d dbba 0176 c4bd 7574 81bd
000001d0: fad3 38bd 806a 84bd 1c04 1bbd 6259 c8bd
000001e0: 9001 f0bb 74b3 80bd 04c4 3abc 1f88 90bd
000001f0: 8cc9 c03d fa0b f0bd ccff 063e 199a 7cbd
00000200: 0b9f be3c c3aa f4bc e0d2 533d ec25 283a
00000210: 3c5d 9c3d d031 313d 340b 2fbd 8fc1 083d
00000220: 9642 98bd cd26 a4bd e683 dc3c 9049 3cc0
00000230: 3980 e9bc baaa acbd 698f 253e a727 4fbc
00000240: 2433 0fbc e41e 0d3c 1adf 74bd 540c cdbc
00000250: c165 df3d 0458 0fbb 4993 273d ebac 35bc
00000260: 2bb7 2abb 32ff 71bc 5dcf 2b3e aae9 dabd
00000270: b6b0 533c 0c2d 19be a8d3 27be 52d7 1a3e
00000280: 66ac 3a3d e5a5 a7bd ad1f fbbc c645 0cbe
00000290: 34c0 723d 0e8b 35bd f482 cc3d 56b4 05be
000002a0: f116 2c3d 985c d83c f997 ae3d b318 843d
000002b0: 361d b5bd 9a5d 0cbd 2939 a1bd e3ed 46bc
000002c0: 3a17 20bc 88a4 b23c 0653 2d3e f58b 5a3d
000002d0: 97db 133e 7cf1 9abd dd09 84bc 3d4b 323d
000002e0: 892b ccbd 8a6a 0a3d ecdf 50bd 3662 17bb
000002f0: 56be f2bc 2cf4 3d3b a020 ae3d a5d9 63bb
00000300: 3fa5 6bbd 38bc 213d a66c c53e 7673 cabc
00000310: b65d 4dbe e00b 903d bbb8 553d 3a81 c03b
00000320: 23c7 dbbd bace f1bc 176e 1dbe 7d5c b1bd
00000330: 36a6 05bd c9f6 e4bb 62c9 073d 64b5 1bbe
00000340: 11a6 75bd f7a0 06bd 9e7f ec3e 086d 8a3c
00000350: 199f 19bd 840a 64be 2b80 03bc 303d dabc
00000360: 8419 163e 7956 0d3d 326f 8b3c f6a9 68bd
00000370: 32a8 b43d 6f71 87bd c675 323d ff2e c8bd
00000380: 3797 14be ea90 11be c041 4a3c 1503 d43d
00000390: 08a6 c33d 1b80 5cbd 9155 9c3c 1804 353c
000003a0: e394 90bd e437 f73c 387d edbb 11c8 21bf
000003b0: 3c32 1dbe 4dfe b73c 001a 01bc 124e 9abd
000003c0: 179e 04be 6fd4 dc3b 9112 0fbe 621c 223d
000003d0: 6727 78bd 955b 2dba afed 533d 4c9e 86bd
000003e0: e2c6 32bd c2dd da3c c8ed 0cbe 5e67 bf3b
000003f0: 8965 5f3d 08a9 cb3d 339e e43a a950 2abd

bias f4 [256]
0.07678216 -0.039580043 0.07354172 0.059896395 0.082338326 0.087472364 0.08760115 0.0779606
-0.009452257 0.07634268 0.04881003 -0.011371595 0.084893845 0.05524206 0.07111144 0.034963608
0.05492222 -0.031755056 -0.031595472 -0.006135041 0.089603834 0.077600315 0.06978751 -0.031695344
-0.04208567 0.03606481 -0.012962503 -0.0055942 0.078990236 0.0751138 -0.031727456 0.08516668
0.043576546 -0.0055588884 -0.0054987352 0.06892184 0.042441733 -0.008952825 -0.03807339 0.033866845
-0.006005506 0.05641954 0.05530547 0.076943435 -0.030602906 -0.027921733 0.005192883 0.08749585
0.06021391 0.05283556 0.05082666 0.06099834 -0.014994439 -0.013560469 0.08902708 0.07197787
0.02809055 0.05365297 -0.016658282 -0.031661738 0.04447316 -0.031899918 0.034767285 -0.008869866
-0.028272321 0.07652454 0.06304774 -0.0060114968 0.0 0.06541172 0.05283809 0.07963789
0.07660469 0.07280112 -0.04598289 -0.0057522873 0.06374961 -0.005161389 -0.015927576 -0.030507442
0.059550174 0.09044601 0.060038894 0.07199361 0.071958475 -0.009368386 -0.029707484 0.048870508
-0.0060055074 0.057380546 0.0 0.04885621 -0.052678462 0.055288333 0.06062425 0.07252393
-0.012235075 0.015074265 -0.007919312 0.08606157 0.031780202 0.087828696 -0.011518167 -0.011138004
0.06465843 0.06137197 0.0 0.065991506 0.07363619 0.094100565 0.05005541 0.07098352
0.06820922 0.0 0.05154986 0.07980705 0.07813246 0.07097672 -0.15514663 0.0
0.1549282 -0.033666153 0.03304832 0.07839164 -0.009208525 -0.02378091 -0.00906282 0.07573103
-0.01641893 0.05291474 0.063748404 0.114417516 0.08325116 -0.008129552 0.060951352 0.0
-0.026805364 -0.026741978 0.055195678 0.08771026 -0.0143093625 -0.013240418 -0.024891092 0.05926241
-0.02074848 -0.015083675 0.09928517 0.020129401 0.06686606 0.057450738 0.07680047 0.053134806
0.02806513 -0.024002474 0.02309665 0.038937856 -0.011427452 0.059062414 0.055591166 -0.022173041
0.05823641 0.061620906 0.078342676 -0.1921478 0.0 -0.014079709 0.06247372 0.05040655
-0.005346976 0.05028403 0.046724968 0.07992282 0.041916836 0.054414734 0.10080639 0.07455581
0.08923773 0.045714155 -0.006005507 0.0 0.067461394 0.063087344 0.06815518 0.08552048
0.060084827 0.06717348 -0.011865199 -0.022187348 0.06418381 -0.038868543 0.028821105 0.06664692
0.06922502 0.0642556 -0.010831457 0.04686342 -0.031653635 -0.02619484 -0.01989615 0.09502529
0.0683629 0.066344455 0.05251542 0.0 -0.017026054 -0.03812013 0.06687531 -0.05344326
-0.0111364 0.07064882 0.051050592 0.083438724 0.078781284 0.07731552 -0.031571154 -0.0061582453
0.01043607 0.0619034 -0.0310683 0.07743886 -0.030241102 0.0 -0.029607033 0.100520276
-0.03167943 0.05256495 -0.0067879925 0.08359441 -0.036578357 0.073394984 -0.010260098 0.060076334
0.04026037 0.0 -0.03408142 0.04482957 0.015254089 0.067374304 0.079352506 0.059362043
0.086067766 -0.020184664 -0.011317242 0.18080115 0.090421826 0.048139274 0.0442917 0.05482169
-0.037329007 0.040603254 0.04401386 0.063961826 0.049400095 0.07281875 0.049019694 0.06719671
00000000: f73f 9d3d af1e 22bd 0b9d 963d ec55 753d
00000010: ffa0 a83d b624 b33d 3b68 b33d cfa9 9f3d
00000020: a4dd 1abc 8d59 9c3d 07ed 473d ed4f 3abc
00000030: d3dc ad3d 8045 623d e0a2 913d 0036 0f3d
00000040: 1ff6 603d 9711 02bd 416a 01bd 7408 c9bb
00000050: 3782 b73d eaec 9e3d c1ec 8e3d fad2 01bd
00000060: 0662 2cbd b2b8 133d ae60 54bc 8d4f b7bb
00000070: a2c5 a13d 44d5 993d a6f4 01bd de6b ae3d
00000080: 527d 323d 5627 b6bb bc2e b4bb e526 8d3d
00000090: 62d7 2d3d dfae 12bc d8f2 1bbd f6b7 0a3d
000000a0: d6c9 c4bb 2d18 673d fd87 623d 8594 9d3d
000000b0: f2b2 fabc 1ebc e4bc 0f29 aa3b 0631 b33d
000000c0: dca2 763d 1a6a 583d 9e2f 503d 65d9 793d
000000d0: 3cab 75bc bb2c 5ebc d453 b63d 2269 933d
000000e0: 271e e63c 37c3 5b3d f376 88bc bdaf 01bd
000000f0: 7d29 363d 7da9 02bd 2468 0e3d ea52 11bc
00000100: 5b9b e7bc e6b8 9c3d 2c1f 813d 17fc c4bb
00000110: 0000 0000 94f6 853d c16c 583d 3119 a33d
00000120: ebe2 9c3d c118 953d 8e58 3cbd af7d bcbb
00000130: 288f 823d de20 a9bb 8c7a 82bc beea f9bc
00000140: e2ea 733d c23b b93d 58eb 753d 6371 933d
00000150: f75e 933d dc7d 19bc 1c5d f3bc 712c 483d
00000160: d9c9 c4bb dd07 6b3d 0000 0000 731d 483d
00000170: 5fc5 57bd 0576 623d 2251 783d 6d87 943d
00000180: a075 48bc 0dfa 763c 01c0 01bc 0c41 b03d
00000190: f52b 023d 88df b33d b2b6 3cbc 2d7c 36bc
000001a0: a46b 843d 2d61 7b3d 0000 0000 8e26 873d
000001b0: 92ce 963d ccb7 c03d e706 4d3d cf5f 913d
000001c0: 47b1 8b3d 0000 0000 f225 533d e171 a33d
000001d0: e903 a03d 3e5c 913d c2de 1ebe 0000 0000
000001e0: 80a5 1e3e 85e5 09bd ad5d 073d cc8b a03d
000001f0: 5adf 16bc 2fd0 c2bc 397c 14bc df18 9b3d
00000200: fe80 86bc 20bd 583d 868e 823d bb53 ea3d
00000210: 967f aa3d d031 05bc 20a8 793d 0000 0000
00000220: ec96 dbbc fe11 dbbc dd14 623d 70a1 b33d
00000230: d171 6abc 57ee 58bc 67e8 cbbc 24bd 723d
00000240: b7f8 a9bc 8521 77bc 0656 cb3d 6ae6 a43c
00000250: 13f1 883d 7751 6b3d 9149 9d3d e2a3 593d
00000260: d8e8 e53c d6a0 c4bc 3035 bd3c 4d7d 1f3d
00000270: 353a 3bbc 6eeb 713d 90b3 633d 3da4 b5bc
00000280: 4d89 6e3d 3466 7c3d 2072 a03d 65c2 44be
00000290: 0000 0000 94ae 66bc 72e4 7f3d 1977 4e3d
000002a0: b035 afbb a1f6 4d3d ae62 3f3d 93ae a33d
000002b0: fdb0 2b3d fce1 5e3d 9573 ce3d b7b0 983d
000002c0: 45c2 b63d c43e 3b3d d8c9 c4bb 0000 0000
000002d0: 3329 8a3d f033 813d f194 8b3d 5d25 af3d
000002e0: 821b 763d 4092 893d 4066 42bc 3ec2 b5bc
000002f0: cd72 833d 9f34 1fbd 3d1a ec3c 2e7e 883d
00000300: d9c5 8d3d 7198 833d 6c76 31bc dcf3 3f3d
00000310: 3ea7 01bd 9096 d6bc 40fd a2bc 9f9c c23d
00000320: d901 8c3d 9adf 873d 691a 573d 0000 0000
00000330: 397a 8bbc da23 1cbd ecf5 883d 52e7 5abd
00000340: 7275 36bc 54b0 903d 6d1a 513d ece1 aa3d
00000350: 1558 a13d 9957 9e3d c150 01bd 1bcb c9bb
00000360: 0dfc 2a3c 6b8e 7d3d f382 febc 4498 9e3d
00000370: 30bc f7bc 0000 0000 738a f2bc 93dd cd3d
00000380: 4ac2 01bd 584e 573d cf6d debb 8c33 ab3d
00000390: 30d3 15bd 1c50 963d f819 28bc 9a12 763d
000003a0: 0fe8 243d 0000 0000 f698 0bbd 369f 373d
000003b0: 49ec 793c 8afb 893d 9183 a23d 9d25 733d
000003c0: 4c44 b03d 4f5a a5bc f46b 39bc f023 393e
000003d0: 142f b93d b02d 453d 376b 353d b58c 603d
000003e0: 4de6 18bd 994f 263d e147 343d 6bfe 823d
000003f0: c157 4a3d ff21 953d e0c8 483d 6e9e 893d

weight f4 [2, 256]
-0.37824982 -0.10813317 -0.15042223 0.1939789 -0.33477238 -0.0861485 0.15352128 -0.25982645
0.04527402 0.09347187 -0.27250946 0.027106287 -0.33701095 0.21323986 0.258141 0.044632792
0.1636938 -0.03115219 -0.01905441 -0.021978494 -0.18810922 -0.05561576 -0.34159243 0.013834599
-0.025829382 -0.6659421 0.01035012 -0.036595605 0.27941084 0.29239303 -0.14474581 0.17935304
-0.06857791 -0.09510401 -0.9455196 -0.19190367 -0.12659535 -0.05723242 -0.058515865 0.111707315
-0.10369848 0.19486028 -0.39689663 -0.09910511 -0.034039058 -0.025779951 0.03126401 0.27802798
-0.42210874 0.21561345 0.18005191 -0.049703654 -0.027864492 -0.07066845 -0.09083192 0.31563702
-0.09046521 0.25226116 0.09654863 0.1823268 -0.28945062 0.0109210005 -0.3264022 0.039868224
0.04465175 -0.33387515 -0.17985968 -0.07330261 -0.057711203 0.299032 0.5494638 -0.11845542
-0.1622971 0.27477148 0.022322748 0.045967408 0.44240168 -0.051464878 -0.010546346 -0.009262953
-0.3579855 -0.45248207 0.13389009 0.12021878 -0.053628724 0.048091345 -0.20512813 0.16712247
-0.014885067 0.1706044 -0.022262702 -0.18869811 0.0019456594 -0.20447016 -0.044798363 -0.38918933
-0.043829545 -0.02415039 0.11284504 -0.21771519 0.16920099 0.3835573 0.012572828 -0.08727068
-0.04198687 0.3374057 -0.037285253 0.3769496 0.11375467 -0.13830239 -0.194544 0.2285238
-0.18148765 -0.071290426 0.23661943 -0.4326536 -0.094517365 0.2696675 1.3400338 -0.020111047
-0.9527728 -0.015030388 0.13821281 0.07870353 0.08257599 0.060186557 0.065235324 0.22070792
0.06290795 -0.32482597 0.36073282 -0.18138148 0.19014382 0.013790151 0.23632163 -0.023524929
0.058964193 -0.066404365 -0.31523544 0.21513046 0.011217795 0.035839707 0.007041174 -0.32991037
0.017441006 -0.05515288 0.312907 0.03423178 -0.8066635 -0.4161384 0.32436106 -0.45914567
0.19385941 0.044249464 0.06580218 0.117469944 0.06723493 -0.4364819 0.18705612 0.122048326
-0.33707318 0.19781575 0.25254628 -1.4548863 0.095649876 0.047511626 0.16003852 -0.37283108
0.0032361224 0.21361321 -0.31497526 -0.20172487 -0.09582107 0.17323051 0.15852736 -0.020200538
0.17200698 -0.3080393 -0.033022296 -0.025228795 -0.22482212 0.3198493 -0.14216715 0.25739706
0.15723775 -0.28454843 0.06962945 0.13002402 -0.060610928 -0.08774032 0.11322012 -0.3151776
-0.0840634 0.30477273 0.025890185 0.10757391 -0.09064141 -0.0208524 -0.039082456 -0.14129347
-0.41200185 -0.22835492 0.11871376 0.012490852 -0.069176085 -0.017141474 0.49885154 -0.020112172
-0.09649087 -0.39390317 -0.26790705 0.15722045 -0.2956214 0.038700707 0.04792623 0.018371545
0.175056 -0.23687094 -0.018909428 -0.33413643 -0.0775663 -0.010585959 0.0054299934 -0.073254436
-0.04331812 0.048445318 -0.045824096 -0.082445964 0.0061624604 -0.25901562 -0.06760875 0.4337537
0.09092581 -0.052820463 0.0019384391 -0.36161062 0.13480203 0.18720475 -0.065985344 0.14493582
-0.15765248 0.023724735 -0.024011727 -1.0695062 0.06938899 0.29844984 -0.1733232 -0.0901146
0.08122367 -0.28942698 0.27703762 0.117837615 0.17692943 0.31428212 0.20028809 -0.19085927
00000000: f6a9 c1be ec74 ddbd 4908 1abe 68a2 463e
00000010: 4967 abbe a06e b0bd af34 1d3e f907 85be
00000020: 4071 393d 2e6e bf3d 5c86 8bbe 010e de3c
00000030: b38c acbe 8d5b 5a3e 0f2b 843e e0d0 363d
00000040: 599f 273e e132 ffbc fe17 9cbc 3e0c b4bc
00000050: b49f 40be 5acd 63bd 34e5 aebe 84aa 623c
00000060: 2498 d3bc 2e7b 2abf 8d93 293c 46e5 15bd
00000070: f00e 8f3e 8ab4 953e 3f38 14be 53a8 373e
00000080: 9372 8cbd e4c5 c2bd 930d 72bf 6582 44be
00000090: 36a2 01be 8b6c 6abd 55ae 6fbd cec6 e43d
000000a0: de5f d4bd 7489 473e 0936 cbbe 9ff7 cabd
000000b0: 8a6c 0bbd 7a30 d3bc b10e 003d af59 8e3e
000000c0: a31e d8be c6c9 5c3e 875f 383e 0f96 4bbd
000000d0: 1344 e4bc 9fba 90bd 1606 babd 2d9b a13e
000000e0: d345 b9bd 6028 813e 4abb c53d e0b3 3a3e
000000f0: df32 94be ffed 323c 301e a7be dd4c 233d
00000100: c1e4 363d aff1 aabe 232d 38be ae1f 96bd
00000110: 9562 6cbd b91a 993e a9a9 0c3f c198 f2bd
00000120: 3631 26be d9ae 8c3e 32de b63c 5248 3c3d
00000130: 7982 e23e d6cc 52bd 95ca 2cbc a4c3 17bc
00000140: e049 b7be bbab e7be 7c1a 093e 4435 f63d
00000150: cba9 5bbd 6efb 443d 1c0d 52be 2722 2b3e
00000160: 7fe0 73bc ebb2 2e3e 4560 b6bc 143a 41be
00000170: 7f05 ff3a a060 51be 7d7e 37bd d343 c7be
00000180: 9c86 33bd 0ad7 c5bc 4d1b e73d bbf0 5ebe
00000190: 0643 2d3e 9f61 c43e 43fe 4d3c f8ba b2bd
000001a0: 6dfa 2bbd 71c0 ac3e 6cb8 18bd 8aff c03e
000001b0: 35f8 e83d 249f 0dbe 8b36 47be 2502 6a3e
000001c0: e6d7 39be b700 92bd 5d4c 723e c684 ddbe
000001d0: 5292 c1bd dc11 8a3e 3a86 ab3f ecbf a4bc
000001e0: ebe8 73bf 0442 76bc a987 0d3e 512f a13d
000001f0: 9a1d a93d 2e86 763d 199a 853d 4201 623e
00000200: e2d5 803d 974f a6be f9b1 b83e 11bc 39be
00000210: 10b5 423e 16f0 613c 4cfe 713e 5ab7 c0bc
00000220: 7084 713d 03ff 87bd 8a66 a1be 294b 5c3e
00000230: d8ca 373c a8cc 123d a6b9 e63b 03ea a8be
00000240: 71e0 8e3c fce7 61bd 5935 a03e 9f36 0c3d
00000250: 8081 4ebf 1810 d5be a712 a63e 2415 ebbe
00000260: 1583 463e ed3e 353d 4bc3 863d 1594 f03d
00000270: 78b2 893d 8e7a dfbe a48b 3f3e 79f4 f93d
00000280: db94 acbe 3690 4a3e bf4d 813e b739 babf
00000290: 15e4 c33d 8d9b 423d 23e1 233e b7e3 bebe
000002a0: 2015 543b 6cbd 5a3e 7044 a1be f790 4ebe
000002b0: d63d c4bd 5763 313e ff54 223e 997b a5bc
000002c0: 9922 303e 54b7 9dbe 6342 07bd 9eac cebc
000002d0: c537 66be 4ac3 a33e 4494 11be 8cc9 833e
000002e0: ef02 213e 55b0 91be e399 8e3d 0425 053e
000002f0: 2a43 78bd 32b1 b3bd f3df e73d f55e a1be
00000300: 6f29 acbd 2c0b 9c3e a717 d43c b64f dc3d
00000310: 34a2 b9bd a7d2 aabc ed14 20bd 3caf 10be
00000320: e8f1 d2be dfd5 69be 3320 f33d 6ea6 4c3c
00000330: 31ac 8dbd 476c 8cbc 7869 ff3e 48c2 a4bc
00000340: 019d c5bd adad c9be 1d2b 89be 66fe 203e
00000350: b05b 97be a284 1e3d 4b4e 443d ec7f 963c
00000360: e141 333e 4c8e 72be f2e7 9abc ee13 abbe
00000370: 15db 9ebd bb70 2dbc 16ee b13b 6c06 96bd
00000380: 576e 31bd 996e 463d 0cb2 3bbd 6ed9 a8bd
00000390: 77ee c93b b29d 84be 7576 8abd f714 de3e
000003a0: 5037 ba3d 455a 58bd 3913 fe3a 0725 b9be
000003b0: 8b09 0a3e 9ab2 3f3e 5323 87bd 0e6a 143e
000003c0: a76f 21be 605a c23c 3eb4 c4bc 94e5 88bf
000003d0: d11b 8e3d 6bce 983e a37b 31be 018e b8bd
000003e0: 9858 a63d c62f 94be e0d7 8d3e d954 f13d
000003f0: fd2c 353e 96e9 a03e 5218 4d3e 9d70 43be

bias f4 [2]
-0.059668083 -0.039244674
00000000: 8566 74bd 06bf 20bd
