exp_local/gcbc_fixed/weights/28000.pt (torch, 274440 bytes, 6 tensors)

weight f4 [256, 4]
0	0xbe80907f	-0.25110242
1	0xbdbe358c	-0.09287557
2	0x3db95d39	0.09050984
3	0x3e0f883f	0.14016818
4	0xbdbc3774	-0.09190264
5	0x3e9c730a	0.30556518
6	0xbe05d4fb	-0.13069527
7	0x3c5fed08	0.0136673525
8	0xbecfdde8	-0.4059899
9	0x3d17a368	0.03702107
10	0x3e5ad944	0.21371943
11	0x3d9580df	0.07299971
12	0x3c4c239f	0.012459665
13	0x3e8e5e9b	0.27806553
14	0xbdbf80a5	-0.09350709
15	0xbd0d81f1	-0.03454775
16	0x3c9749ce	0.01846781
17	0xbd9635ba	-0.07334466
18	0xbdb4c840	-0.08827257
19	0xbbbdf4dd	-0.0057970122
20	0xbdd82443	-0.105537914
21	0xbcd9a09f	-0.026565848
22	0xbc9f4eeb	-0.01944681
23	0xbd5aedc2	-0.0534494
24	0xbec90b04	-0.39266217
25	0x3d6ca110	0.05777079
26	0x3e301ac5	0.17197712
27	0x3dcc7ca1	0.099847086
28	0x3e9164d0	0.28397226
29	0x3e676e1b	0.22600596
30	0xbd5b4e3b	-0.053541403
31	0xbddcf57d	-0.10789011
32	0xbe31b51d	-0.17354245
33	0xbe6de247	-0.23230849
34	0x3dceadb7	0.10091727
35	0x3e119917	0.14218555
36	0x3e819f01	0.25316623
37	0x3e0ac7f7	0.13552843
38	0xbe022974	-0.12711126
39	0xbd8dbc7f	-0.069207184
40	0xbc386196	-0.011253735
41	0xbb8cef7f	-0.004301011
42	0x3d368e97	0.044569578
43	0xbd847cb9	-0.064691015
44	0x3ee46d7e	0.44614786
45	0xbd6b89ef	-0.05750459
46	0xbdcefc7f	-0.101067536
47	0xbdd076df	-0.10178923
48	0x3e8bd04d	0.27307358
49	0xbe53f638	-0.20699394
50	0xbdea21c5	-0.11432222
51	0x3d0bf465	0.03416862
52	0x3e2d3e56	0.1691831
53	0x3e860420	0.26175022
54	0x39027fd6	0.00012445389
55	0xbe2bba1d	-0.16770215
56	0x3e7b80f8	0.24560916
57	0x3e551a64	0.20810848
58	0xbd043c4a	-0.03228406
59	0xbe3b528c	-0.18293208
60	0xbdd23c36	-0.102653906
61	0x3e9d3012	0.30700737
62	0xbd301c31	-0.042995635
63	0xbab781ae	-0.001400044
64	0x3ec16785	0.37774292
65	0x3cb5b403	0.022180563
66	0xbd47a272	-0.048738904
67	0xbdeb0953	-0.11476388
68	0x3d9aa537	0.075510435
69	0x3e7e09e0	0.24808455
70	0xbd51b5af	-0.051198658
71	0xbdb8d7eb	-0.09025558
72	0xbb64dbdc	-0.0034921085
73	0x3e9a89d9	0.30183294
74	0xbd030fd7	-0.031997528
75	0xbdc04c6b	-0.093895756
76	0xbd141509	-0.036152873
77	0xbe916290	-0.2839551
78	0x3ddfd641	0.109295376
79	0x3dccf040	0.100067616
80	0xbf363741	-0.7117806
81	0x3e934c80	0.28769302
82	0x3d3d49c5	0.04621293
83	0x3d85b7e1	0.06529213
84	0x3e911663	0.28337392
85	0x3ca73faa	0.0204161
86	0xbdc0c1ad	-0.09411941
87	0xbd3815c0	-0.044942617
88	0x3e32f075	0.1747454
89	0x3e524bfd	0.205368
90	0xbdf29dcf	-0.11846506
91	0xbd9ddb1a	-0.07707806
92	0x3d2a096e	0.0415129
93	0x3ea72d22	0.3265162
94	0xbde70545	-0.11280302
95	0xbbd6685d	-0.006543203
96	0x3b8530a7	0.0040646377
97	0xbec7663e	-0.38945192
98	0x3cd03d34	0.025419809
99	0x3e756a88	0.2396642
100	0x3ec5b6f0	0.38616133
101	0x3d93891a	0.072038844
102	0xbd90e55f	-0.07074999
103	0xbe177fe9	-0.14794888
104	0xbdc26d3f	-0.09493493
105	0xbd09026b	-0.03344957
106	0xbd4044e5	-0.046940703
107	0x3d594c5e	0.053051345
108	0x3eac892a	0.33698398
109	0x3d56113b	0.052262526
110	0xbdcd5991	-0.10026849
111	0xbd2fd1ef	-0.042924818
112	0x3e134fce	0.14385912
113	0xbea9ec5d	-0.33188143
114	0xbcb21bb8	-0.021741733
115	0x3dd9576f	0.1061238
116	0x3ea424fd	0.3205947
117	0x3dee21cc	0.1162754
118	0xbdb44e92	-0.088040486
119	0xbe011141	-0.12604238
120	0xbd9a0a18	-0.075214565
121	0xbe05711a	-0.13031426
122	0x3b82c8a6	0.0039912043
123	0xbd0b5a9e	-0.034021966
124	0x3ed54df6	0.41661042
125	0xbd968279	-0.073491044
126	0xbde92946	-0.113848254
127	0xbdcf5d84	-0.101252586
128	0xbe72a7de	-0.23696849
129	0x3e291e3f	0.16515444
130	0x3ac88637	0.0015298788
131	0x3d82f164	0.06393698
132	0xbe8b6cbd	-0.27231398
133	0x3df7fdf6	0.12108986
134	0x3db94d67	0.090479665
135	0x3cf22de8	0.029562905
136	0xbc3d312b	-0.011547367
137	0xbc8424a6	-0.016130757
138	0xbd38a573	-0.04507966
139	0x3c98d720	0.018657267
140	0xbdc038fb	-0.09385868
141	0xbd59be47	-0.05315998
142	0xbc1bbdcd	-0.009505701
143	0xbca04173	-0.019562459
144	0x3ca50846	0.020145547
145	0xbeca2cfe	-0.3948745
146	0x3e1db6ec	0.1540181
147	0x3dbce749	0.09223802
148	0x3cc5aa68	0.024129108
149	0xbc2ff53b	-0.01073962
150	0xbdc71eb8	-0.09722656
151	0x3ce89448	0.028391019
152	0x3e80dfa5	0.25170627
153	0xbbf6c244	-0.0075304825
154	0x3d3c0da7	0.045911457
155	0xbdbd5060	-0.09243846
156	0x3ec432c8	0.38319993
157	0xbe10f5ec	-0.14156312
158	0xbe0444a5	-0.12916811
159	0x3bf942e6	0.007606852
160	0x3d8f6916	0.070024654
161	0x3e9ae5de	0.302535
162	0xbd57fcaa	-0.052731194
163	0xbdcc23ae	-0.09967743
164	0x3e9cafdb	0.30602917
165	0xbdb2d4d9	-0.08732004
166	0x3c0b0fbd	0.008487639
167	0xbde07caf	-0.109612815
168	0x3e0cf1a9	0.13764061
169	0x3e9b50db	0.30335125
170	0xbdcbf6d1	-0.09959186
171	0xbdc0f44d	-0.09421597
172	0xbe1e0630	-0.15432048
173	0x3e0d6dde	0.13811442
174	0x3d26d52f	0.04073065
175	0x3ddd9252	0.10818924
176	0xbdd17d6b	-0.10229
177	0xbea10ffe	-0.31457514
178	0x3e4ad5f7	0.19808184
179	0x3ab46320	0.0013762452
180	0xba22d193	-0.00062110386
181	0x3c07a938	0.008280091
182	0xbda441bf	-0.080203526
183	0x3ca7dfb0	0.020492405
184	0x3b37421a	0.0027962984
185	0xbd82a2fc	-0.06378743
186	0xbd9fe99e	-0.07808231
187	0xbd512077	-0.05105635
188	0x3e4a466e	0.1975343
189	0x3e848142	0.25879866
190	0xbda0ecac	-0.078576416
191	0xbd849aea	-0.0647486
192	0xbdb22c01	-0.08699799
193	0xbbf400ff	-0.007446408
194	0xbd968f98	-0.07351607
195	0xbd5c6824	-0.053810254
196	0xbcd24e24	-0.025672026
197	0xbca86f85	-0.02056099
198	0xbc9ea772	-0.019366954
199	0x3cb96552	0.022631321
200	0x3e3e286c	0.18570107
201	0xbe953885	-0.29144683
202	0xbc9f7d5d	-0.019468958
203	0xbb742a57	-0.0037256682
204	0xbd5c3cb2	-0.05376882
205	0xbd214062	-0.03936804
206	0xbd769309	-0.060198817
207	0xbd9b5361	-0.07584263
208	0x3eb1a00c	0.3469242
209	0xbccf6670	-0.0253174
210	0xbd2d76b8	-0.042349547
211	0xbd214741	-0.039374594
212	0x3d805174	0.06265536
213	0xbe9107c9	-0.28326252
214	0x3d6ae801	0.057350162
215	0x3de3637f	0.11102962
216	0x3c52d188	0.012867339
217	0x3ea7c034	0.32763827
218	0xbd9f0d34	-0.0776619
219	0xbdd78191	-0.1052276
220	0xbccad764	-0.02476091
221	0x3e40ac54	0.18815738
222	0xbd4fbb93	-0.050715994
223	0x3d19a15a	0.037507392
224	0x3d4d7cf1	0.05016798
225	0x3c81bd30	0.015837282
226	0xbde22b0c	-0.11043367
227	0xbd97ebd5	-0.07418028
228	0x3d6d726c	0.05797045
229	0xbbc6dbdf	-0.006068691
230	0xbc9f2f78	-0.019431815
231	0xbbf480a2	-0.0074616233
232	0xbeab90cc	-0.3350891
233	0x3dcf0da4	0.101100236
234	0x3e258e00	0.1616745
235	0x3d4bec47	0.04978588
236	0xbc845bed	-0.016157115
237	0x3cdb493a	0.026768316
238	0x3cadbee0	0.02120918
239	0xbd9fda64	-0.078053266
240	0xbe16413d	-0.14673324
241	0x3e5ef414	0.21772796
242	0xbb3c1ff0	-0.002870556
243	0x3b9a7bcc	0.004714465
244	0x3e9fa900	0.31183624
245	0xbd5c0589	-0.053716216
246	0xbdc0335a	-0.093847945
247	0xbcb5cf16	-0.022193473
248	0x3e0350b5	0.12823756
249	0xbeb14132	-0.34620053
250	0x3d533acb	0.05156974
251	0x3d17318e	0.036912493
252	0xbbe03e40	-0.0068433583
253	0xbd9a9c9d	-0.07549403
254	0x3d6e1ef7	0.058135
255	0xbd4486a8	-0.04797998

bias f4 [256]
0	0x3d88b94b	0.06675967
1	0x3ace9ec8	0.0015763873
2	0x3d85ecf5	0.065393366
3	0xbd29e364	-0.041476622
4	0x00000000	0.0
5	0x00000000	0.0
6	0x3d71bbbd	0.05901693
7	0xbe0743ba	-0.1320943
8	0x3da7473b	0.08167883
9	0xbd817b74	-0.06322375
10	0x00000000	0.0
11	0xbdc27e76	-0.09496777
12	0x3bf9d92a	0.007624765
13	0xbdae0872	-0.084977046
14	0xbdce4795	-0.10072247
15	0xbcc71b09	-0.024304884
16	0xbde4cad0	-0.11171496
17	0xbd8734cf	-0.06601869
18	0xbd26ce88	-0.040724307
19	0x3d73a07d	0.059479225
20	0x3db82c43	0.08992817
21	0xbd37b598	-0.044850916
22	0xbd5a9cd6	-0.053372227
23	0xbd806fc4	-0.062713176
24	0x3d8051c0	0.062655926
25	0xbdfd1f29	-0.12359459
26	0x00000000	0.0
27	0xbd97c7ef	-0.07411181
28	0x3d628c61	0.055309657
29	0xbde2715a	-0.11056776
30	0x00000000	0.0
31	0xbda55bf0	-0.08074176
32	0x3d0327be	0.032020323
33	0x3d169045	0.03675868
34	0x00000000	0.0
35	0x00000000	0.0
36	0x3d6eec86	0.058331035
37	0xbbc4c9d2	-0.006005504
38	0xbd803dee	-0.06261812
39	0xbd8ec8a8	-0.06971866
40	0xbd6b8bea	-0.05750648
41	0xbd51e8da	-0.051247455
42	0xbd891a54	-0.06694475
43	0xbc6e5837	-0.014547399
44	0x3dbf4656	0.093395874
45	0x00000000	0.0
46	0x00000000	0.0
47	0xbdec588b	-0.11540326
48	0x00000000	0.0
49	0x00000000	0.0
50	0x3d7bb68b	0.061453383
51	0x00000000	0.0
52	0xbda7be0f	-0.08190548
53	0x3d24fc08	0.04027942
54	0xbd031773	-0.032004785
55	0xbceb50ae	-0.028724995
56	0xbc03dfe5	-0.008048986
57	0xbd40ee34	-0.04710217
58	0x3d151468	0.036396414
59	0xbc7eba3a	-0.01554733
60	0x3cbd9945	0.023144374
61	0xbd790ad3	-0.06080134
62	0x3d7a8c7d	0.061169136
63	0xbc350bc5	-0.011050169
64	0xbcee81ff	-0.029114721
65	0xbd50321b	-0.050829034
66	0xbc46ff92	-0.012145894
67	0x3d2a30ad	0.041550327
68	0xbcb29950	-0.02180162
69	0x3d47d434	0.048786357
70	0xbc2e164e	-0.010625435
71	0xbd3f72c8	-0.046740323
72	0xbd6548e8	-0.055977732
73	0x3db8c01f	0.09021019
74	0x00000000	0.0
75	0x3d2731bb	0.04081891
76	0xbc9c904e	-0.019111779
77	0xbdb3cbe9	-0.08779127
78	0xbdbce15c	-0.092226714
79	0x00000000	0.0
80	0x3db38f33	0.087675475
81	0x3ca62502	0.020281319
82	0xbd9a2a9a	-0.07527657
83	0x3e27f1e0	0.16400862
84	0x00000000	0.0
85	0x3c9e3469	0.0193121
86	0xbd18c1ee	-0.03729432
87	0xbca93958	-0.020657226
88	0xbc8df25c	-0.01732748
89	0xbcc20525	-0.023684094
90	0xbc04e288	-0.00811065
91	0x00000000	0.0
92	0xbdbb93bd	-0.09159038
93	0x3d707f6d	0.058715273
94	0x3d48d010	0.04902655
95	0x00000000	0.0
96	0x3c2b71e3	0.010464164
97	0xbcc8d1dd	-0.024514133
98	0x00000000	0.0
99	0x3d22f17b	0.039781075
100	0x3d6712a8	0.056414276
101	0xbda253b9	-0.07926125
102	0xbd893ad5	-0.067006744
103	0x00000000	0.0
104	0x00000000	0.0
105	0xbd806194	-0.062686116
106	0xbc426f84	-0.011867408
107	0xbd3c3890	-0.04595238
108	0xbce79a13	-0.02827171
109	0x00000000	0.0
110	0xbdb08a3f	-0.08620118
111	0x3dd8ad12	0.105798855
112	0x3d0e38c5	0.03472211
113	0xbc96be24	-0.018401213
114	0xbbfe7dd4	-0.0077664647
115	0x3a91c4ed	0.001112131
116	0xbd967890	-0.07347214
117	0x00000000	0.0
118	0x3d9ceca1	0.07662321
119	0xbc227330	-0.009915158
120	0xbcd002b7	-0.02539192
121	0xbd66289a	-0.056191064
122	0x3daa8021	0.0832522
123	0x3d6a498f	0.057199057
124	0xbc455a60	-0.012045473
125	0xbd957d31	-0.07299269
126	0x3d6daa85	0.05802395
127	0x00000000	0.0
128	0x00000000	0.0
129	0xbcf4e45a	-0.029894043
130	0xbc1d7089	-0.00960935
131	0xbbfff966	-0.007811713
132	0x3d032ace	0.032023244
133	0x3d62ea5f	0.055399295
134	0x3d8902fc	0.06690022
135	0xbbc4c9d8	-0.006005507
136	0x00000000	0.0
137	0xbd461e8e	-0.048368983
138	0x00000000	0.0
139	0x3d2ac757	0.04169401
140	0xbd2177d5	-0.03942092
141	0xbca94f96	-0.020667832
142	0x3d441477	0.04787108
143	0xbc1cca39	-0.009569698
144	0x3d22e97c	0.03977345
145	0xbc8c8674	-0.017153956
146	0x00000000	0.0
147	0x3d5b3474	0.05351682
148	0x00000000	0.0
149	0xbd23a3b3	-0.039951038
150	0x3ca7a932	0.02046642
151	0x00000000	0.0
152	0xbbbdf02f	-0.0057964544
153	0x3da8cdb9	0.082423635
154	0x3dc685f6	0.0969352
155	0xbde01bb6	-0.109427854
156	0xbbd02d6f	-0.0063530724
157	0xbd426515	-0.04745968
158	0xbd503ea1	-0.050840978
159	0xbd1b0742	-0.03784872
160	0xbd4a0536	-0.049321376
161	0x3d5830bc	0.05278085
162	0x00000000	0.0
163	0xbc8f0abf	-0.017461179
164	0xbd0d5f37	-0.034514632
165	0x3d9f9bcb	0.07793387
166	0x00000000	0.0
167	0x3db476e6	0.088117406
168	0x00000000	0.0
169	0x00000000	0.0
170	0x00000000	0.0
171	0x3db06907	0.086137824
172	0x00000000	0.0
173	0x3da8396b	0.082140766
174	0x3a0165ab	0.0004936109
175	0x3c40b6e5	0.011762355
176	0xbd49f448	-0.04930523
177	0xbd9f9f77	-0.077940874
178	0x3d880818	0.06642169
179	0x3d847626	0.064678475
180	0x3d83d2ca	0.06436689
181	0xbd8f5239	-0.069981046
182	0x3d713983	0.058892738
183	0x3d9ba7bc	0.07600352
184	0xbbcd5e54	-0.0062673483
185	0xbca464d5	-0.020067612
186	0xbdac2c37	-0.08406871
187	0x3ddc1e6d	0.10747991
188	0x00000000	0.0
189	0x00000000	0.0
190	0xbcc7eada	-0.024403978
191	0x3d11686a	0.035499968
192	0x3d4cde90	0.05001694
193	0x3db6d953	0.0892817
194	0xbdb9779d	-0.090560175
195	0xbd5ba9d0	-0.053628743
196	0x3da2c773	0.07948198
197	0x3c9a07f3	0.018802619
198	0x3dca49ec	0.09877381
199	0x00000000	0.0
200	0xbdcc4572	-0.09974183
201	0x3d462b8e	0.04838138
202	0xbd512867	-0.05106392
203	0x3d35c6a4	0.04437889
204	0x00000000	0.0
205	0x3dbbf6e9	0.09177954
206	0x3dae2ea6	0.08504991
207	0xbd83cf91	-0.064360745
208	0xbd3d643d	-0.046238173
209	0x3d515616	0.05110749
210	0xbb85709f	-0.0040722634
211	0x00000000	0.0
212	0x3d818d07	0.06325727
213	0x3daf849c	0.08570215
214	0xbc5250e3	-0.012836668
215	0x00000000	0.0
216	0x00000000	0.0
217	0xbc2584be	-0.010102449
218	0x00000000	0.0
219	0x00000000	0.0
220	0xbdd23098	-0.10263175
221	0xbd6e659d	-0.058202375
222	0x3d50c7de	0.05097186
223	0xbdd6924b	-0.10477122
224	0xbd9b7567	-0.07590752
225	0xbd671506	-0.056416534
226	0x00000000	0.0
227	0x00000000	0.0
228	0x3da8f8a6	0.08250551
229	0x00000000	0.0
230	0x00000000	0.0
231	0xbbb6270e	-0.005558855
232	0x00000000	0.0
233	0x00000000	0.0
234	0x3d4b45af	0.049627002
235	0x3e0a8e1f	0.13530777
236	0xbd2713dc	-0.040790424
237	0x00000000	0.0
238	0x3d925594	0.07145229
239	0xbd3887cc	-0.04505138
240	0x3da05c2f	0.078300826
241	0xbd67d523	-0.056599747
242	0xbcc3d46e	-0.023905005
243	0xbc14c877	-0.009080998
244	0xbc23086e	-0.00995074
245	0x3d92549c	0.07145044
246	0xbd963d5b	-0.073359214
247	0xbd4e6232	-0.050386615
248	0x00000000	0.0
249	0x00000000	0.0
250	0xbd8d7533	-0.069071196
251	0xbd8b6075	-0.06805507
252	0x00000000	0.0
253	0xbd034119	-0.032044504
254	0x3ccdb9d0	0.025113016
255	0xbcf60b4f	-0.03003469

weight f4 [256, 256]
0	0xbe2d54fd	-0.16926952
1	0xbe23b9da	-0.15988865
2	0x3d8b8ebd	0.068143345
3	0xbc58dc7f	-0.013236164
4	0x3e01b657	0.12667213
5	0x3df0a9b8	0.11751121
6	0x3c94b3fb	0.018152228
7	0xbe0435e9	-0.1291119
8	0x3d0edd6c	0.034879133
9	0xbe074590	-0.1321013
10	0xbb374e00	-0.0027970076
11	0xbe93e0c7	-0.2888243
12	0x3db7f527	0.08982306
13	0xbd5a96ef	-0.053366598
14	0x3e1ec9c6	0.15506658
15	0xbd5965a6	-0.053075455
16	0xbe069167	-0.13141404
17	0xbcbfd7b1	-0.02341828
18	0xbcef1256	-0.029183548
19	0x3d1ba135	0.037995536
20	0xbf5664e6	-0.8374771
21	0x3d96d595	0.07364956
22	0xbe48e7e9	-0.19619717
23	0xbd63f3bc	-0.055652365
24	0x3d07536f	0.033038553
25	0xbec90af9	-0.39266184
26	0x3d78f06f	0.06077617
27	0xbd92383f	-0.07139634
28	0x3d51637c	0.051120266
29	0x3dd8c00e	0.105835065
30	0x3cbc4bf4	0.022985436
31	0x3e768c1f	0.2407689
32	0x3d65a16f	0.05606216
33	0x3d04a86c	0.032387182
34	0xbcb63a58	-0.022244617
35	0xbc195db8	-0.009360723
36	0x3b5dd15c	0.0033846712
37	0xbd134dfd	-0.035963047
38	0xbc738779	-0.014863842
39	0xbaa87baf	-0.0012854243
40	0xbdc722b0	-0.09723413
41	0xbdb93a36	-0.09044306
42	0xbdee8867	-0.116471104
43	0x3e19f8c2	0.150363
44	0x3d1d20dd	0.03836142
45	0x3d6239b1	0.0552308
46	0xbd9cc07d	-0.07653902
47	0xbe1d7d89	-0.15379919
48	0xbd04fbbe	-0.032466643
49	0xbd52b590	-0.051442683
50	0x3c194f46	0.009357279
51	0x3d3c7686	0.04601147
52	0x3d5e84cf	0.054325875
53	0x3d29aff9	0.041427586
54	0xbe6c7f61	-0.23095466
55	0x3d227538	0.03966257
56	0x3c0274d0	0.007962421
57	0xbc03afed	-0.008037549
58	0xbd00198a	-0.031274356
59	0xbd6badb2	-0.057538696
60	0xbcc51cd6	-0.024061602
61	0xbd061a4f	-0.032739934
62	0xba2ffe52	-0.0006713617
63	0xbd67c991	-0.056588713
64	0x3d25ae9f	0.040449735
65	0x3e2a1ae7	0.16611825
66	0xbd5a1e3c	-0.05325149
67	0xbc235bc2	-0.009970607
68	0x3b31f188	0.002715202
69	0x3cc0db8a	0.023542184
70	0xbdb951af	-0.09048783
71	0x3c9e0218	0.019288108
72	0x3d73d1ea	0.05952636
73	0x3e00ca20	0.12577105
74	0xbb32092c	-0.0027166111
75	0xbd42cee4	-0.047560588
76	0x3de0b097	0.10971182
77	0xbe1be61c	-0.15224499
78	0xbd89ae94	-0.06722751
79	0xbd0b8664	-0.03406371
80	0xbd521920	-0.051293492
81	0xbde5c38c	-0.11218938
82	0xbbaf0d19	-0.0053421375
83	0xc0bf9ff0	-5.9882736
84	0xbdd254a0	-0.10270047
85	0xbc499812	-0.012304323
86	0xbd558561	-0.052129153
87	0xbd7c6e0d	-0.06162839
88	0xbd774583	-0.060369026
89	0xbdba2539	-0.09089131
90	0xbd178b79	-0.036998246
91	0xb980e480	-0.00024584308
92	0xbe292eda	-0.16521779
93	0x3d6ac33b	0.057315093
94	0x3dc0e7e7	0.09419232
95	0x3d58d369	0.05293599
96	0xbe18d04c	-0.14923209
97	0xbd518593	-0.051152777
98	0xbd138bf5	-0.036022145
99	0x3e34b028	0.17645323
100	0xbc9528da	-0.018207956
101	0xbd9aadb7	-0.07552665
102	0xbd1ac372	-0.037784047
103	0x3d322f24	0.043501988
104	0xbd8bb01c	-0.068206996
105	0xbdc7b3f4	-0.0975112
106	0x3da8ff59	0.08251829
107	0xbd988301	-0.07446862
108	0xbd0f7d3e	-0.03503155
109	0xbcec0e07	-0.028815283
110	0xbd9b5137	-0.0758385
111	0x3def9fa1	0.11700369
112	0x3d5c0fad	0.053725887
113	0xbae02a24	-0.0017102403
114	0xbdc47601	-0.0959282
115	0xbd7d08ed	-0.06177609
116	0xbd38d3fa	-0.04512403
117	0xbd846a80	-0.06465626
118	0xbd0f3939	-0.03496668
119	0xbdc85962	-0.097826734
120	0xbc0d66f9	-0.008630508
121	0xbd651788	-0.055930644
122	0x3b4d3900	0.0031314492
123	0xbd883267	-0.066502385
124	0x3de10025	0.10986356
125	0xbdb3b1d6	-0.08774154
126	0x3e08e9b1	0.13370396
127	0xbd7c9a19	-0.061670396
128	0x3cbe9f0b	0.023269197
129	0xbc8473f7	-0.016168578
130	0x3d53d2e0	0.051714778
131	0x3a2825ec	0.0006414342
132	0x3d9e3081	0.07724095
133	0x3d38aebf	0.045088526
134	0xbd52e53f	-0.051488157
135	0x3d08c18f	0.033387717
136	0xbd984296	-0.07434575
137	0xbdb9f278	-0.0907945
138	0x3cdc83e6	0.026918363
139	0xc03af1b4	-2.9210024
140	0xbce009a1	-0.027348341
141	0xbdadf14f	-0.084932916
142	0x3e284977	0.16434275
143	0xbc4f27a7	-0.012643731
144	0xbc5a53ee	-0.013325674
145	0x3ac25fff	0.0014829634
146	0xbd74df1a	-0.05978308
147	0xbcd8a167	-0.02644415
148	0x3ddf65c1	0.1090808
149	0x39fba2c0	0.0004799571
150	0x3d358467	0.04431572
151	0xbc35aceb	-0.01108859
152	0x3aeff8b4	0.0018308372
153	0x39a10fa0	0.00030719955
154	0x3e305192	0.17218617
155	0xbdd83987	-0.105578475
156	0x3c53b0b6	0.012920549
157	0xbe1404ba	-0.14454928
158	0xbe16edb9	-0.14739121
159	0x3e1ead32	0.15495756
160	0x3d584f6e	0.052810125
161	0xbdb6093c	-0.0888848
162	0xbcfb1fad	-0.030654753
163	0xbe0d20ce	-0.13782045
164	0x3d6d5e3a	0.05795119
165	0xbd277a88	-0.04088834
166	0x3dcc82f4	0.09985915
167	0xbddc0bfc	-0.10744473
168	0x3d2c16f1	0.042014066
169	0x3cd85c98	0.02641134
170	0x3dae97f9	0.0852508
171	0x3d9f6570	0.077830195
172	0xbdb51d36	-0.08843462
173	0xbcca2c70	-0.024679393
174	0xbd937764	-0.07200506
175	0xbc61ed64	-0.0137895085
176	0x3bb2f9d9	0.005461913
177	0x3cc0e744	0.023547776
178	0x3e30a314	0.1724971
179	0x3d62a579	0.05533359
180	0x3e1459a6	0.14487323
181	0xbdbab1e0	-0.09115958
182	0xbc432aa7	-0.011912025
183	0x3d3e308f	0.046433028
184	0xbdcc2b89	-0.09969241
185	0x3d3b2478	0.045689076
186	0xbd896508	-0.06708723
187	0x3a05f387	0.0005109836
188	0xbcf2be56	-0.029631775
189	0x3b3df42c	0.002898465
190	0x3db98133	0.09057846
191	0xbc4bb504	-0.012433294
192	0xbd816484	-0.06318
193	0x3d285abe	0.041102163
194	0x3eab3df0	0.33445692
195	0xbd051e4e	-0.032499604
196	0xbe3ec662	-0.18630365
197	0x3d925196	0.071444675
198	0x3d63218c	0.055451915
199	0x3bc0813a	0.00587478
200	0xbda6e6a6	-0.081494614
201	0xbd0d511d	-0.034501184
202	0xbe10265a	-0.1407713
203	0xbdab3cd0	-0.083612084
204	0xbd05a636	-0.032629214
205	0x3c217266	0.009853935
206	0x3d3f2958	0.046670288
207	0xbe211a1e	-0.15732619
208	0xbd5103b0	-0.051028907
209	0xbcf0492c	-0.029331766
210	0x3ed27652	0.41105896
211	0x3c8a6d08	0.016897693
212	0xbcd17e0d	-0.025572801
213	0xbe61d0c3	-0.22052293
214	0xbc03802b	-0.008026163
215	0xbcda3d30	-0.026640505
216	0x3e161984	0.14658171
217	0x3d0d5679	0.034506295
218	0x3c8b6f32	0.017020795
219	0xbd68a9f6	-0.056802712
220	0x3d7d4295	0.061831076
221	0xbd679273	-0.05653615
222	0x3d077279	0.033068154
223	0xbe06596c	-0.13120049
224	0xbdf1c48c	-0.118050665
225	0xbe03bb11	-0.12864329
226	0x3c4a41c0	0.012344778
227	0x3dd40315	0.1035215
228	0x3dd534e4	0.10410479
229	0xbd5c801b	-0.05383311
230	0x3c9c5591	0.01908377
231	0x3c350418	0.011048339
232	0xbd9094e3	-0.07059648
233	0x3cf737e4	0.030178018
234	0xbbea7c86	-0.0071559576
235	0xbf193bdc	-0.59856963
236	0xbe08ada4	-0.13347489
237	0x3cb7fe4d	0.022460127
238	0xbbce6d72	-0.006299668
239	0xbd84479a	-0.064589694
240	0xbe014ea8	-0.12627661
241	0x3ca075d7	0.01958744
242	0xbdf3925f	-0.118931524
243	0x3d221c62	0.03957785
244	0xbd782767	-0.060584452
245	0x3ae3d77f	0.0017382948
246	0x3d7f08d2	0.06226427
247	0xbd891cf8	-0.066949785
248	0xbd32c6e2	-0.0436467
249	0x3cdaddc2	0.02671707
250	0xbe050eb5	-0.12993892
251	0x3bbf675e	0.0058411798
252	0x3d5f6589	0.05454019
253	0x3dd1297c	0.10212991
254	0xb8177e0a	-3.611859e-05
255	0xbd1f5a5a	-0.038904525

bias f4 [256]
0	0x3da96eaf	0.08273064
1	0xbd221eaf	-0.039580043
2	0x3da79346	0.08182387
3	0x3d8dd091	0.069245465
4	0x3db18e06	0.08669667
5	0x3dc38a48	0.095478594
6	0x3dc5e991	0.0966369
7	0x3db15cdd	0.086602904
8	0xbc1adda4	-0.009452257
9	0x3dae0604	0.08497241
10	0x3d4e841e	0.050418966
11	0xbc3a4fed	-0.011371595
12	0x3db71ac0	0.08940649
13	0x3d6c7c5f	0.057735797
14	0x3d9b790d	0.07591448
15	0x3d136c19	0.03599176
16	0x3d631612	0.05544097
17	0xbd021197	-0.031755056
18	0xbd016a41	-0.031595472
19	0xbbc90874	-0.006135041
20	0x3dcb7f64	0.09936407
21	0x3db01a8c	0.085988134
22	0x3d92089a	0.07130547
23	0xbd01d2fa	-0.031695344
24	0xbd2c6206	-0.04208567
25	0x3d2632ac	0.04057567
26	0xbc5460ae	-0.012962503
27	0xbbb74f8d	-0.0055942
28	0x3dad7d24	0.08471134
29	0x3d9da530	0.07697523
30	0xbd01f4a6	-0.031727456
31	0x3dbfce64	0.09365538
32	0x3d375623	0.04475988
33	0xbbb62756	-0.0055588884
34	0xbc70078d	-0.014650238
35	0x3d928b2e	0.07155453
36	0x3d2fa3da	0.04288087
37	0xbd26c28f	-0.04071289
38	0xbd1bf2d8	-0.03807339
39	0x3d025af9	0.03182504
40	0xbbc4c9d6	-0.006005506
41	0x3d6ab9e5	0.05730619
42	0x3d6f87a3	0.058478963
43	0x3db06a63	0.08614042
44	0xbcfab2f2	-0.030602906
45	0xbce4bc1e	-0.027921733
46	0x3b15fccd	0.0022886277
47	0x3dbd6b8c	0.092490286
48	0x3d83ac16	0.06429307
49	0x3d614721	0.054999474
50	0x3d6a1bf0	0.05715555
51	0x3d8ee1d2	0.069766656
52	0xbc75ab3c	-0.014994439
53	0xbc5e2cbb	-0.013560469
54	0x3dc67197	0.09689634
55	0x3d999cb5	0.075005926
56	0x3cf12c69	0.029440122
57	0x3d63bf31	0.055602256
58	0xbc8876f3	-0.016658282
59	0xbd01afbd	-0.031661738
60	0x3d37fb96	0.044917665
61	0xbd02a97d	-0.031899918
62	0x3d15ece1	0.03660286
63	0xbc1152ea	-0.008869866
64	0xbce79b5b	-0.028272321
65	0x3da30059	0.07959051
66	0x3d8311a9	0.06399853
67	0xbbc4fc17	-0.0060114968
68	0x00000000	0.0
69	0x3d909d11	0.07061208
70	0x3d74e865	0.05979194
71	0x3db5c16e	0.088747844
72	0x3dadd23b	0.08487364
73	0x3d93bf34	0.072142035
74	0xbd3c588e	-0.04598289
75	0xbbbc7daf	-0.0057522873
76	0x3d95207a	0.07281585
77	0xbba920de	-0.005161389
78	0xbc827a8c	-0.015927576
79	0xbcf9eabe	-0.030507442
80	0x3d8ad482	0.06778814
81	0x3dc4177f	0.09574794
82	0x3d89b087	0.06723123
83	0x3da0a905	0.07844738
84	0x3da2b1d7	0.079440765
85	0xbc197ddc	-0.009368386
86	0xbd0a283d	-0.03372978
87	0x3d5b8646	0.05359485
88	0xbbc4c9d9	-0.0060055074
89	0x3d76f69f	0.06029379
90	0x00000000	0.0
91	0x3d4a67e8	0.0494155
92	0xbd57c55f	-0.052678462
93	0x3d7190f8	0.058976144
94	0x3d8ec414	0.06970993
95	0x3d994740	0.07484293
96	0xbc4875a0	-0.012235075
97	0x3c8b748e	0.017023351
98	0xbc01c001	-0.007919312
99	0x3dc45eba	0.0958838
100	0x3d07555a	0.033040382
101	0x3db05194	0.0860931
102	0xbc3cb6b2	-0.011518167
103	0xbc367c2d	-0.011138004
104	0x3d905882	0.070481315
105	0x3d97e521	0.0741675
106	0x00000000	0.0
107	0x3d845604	0.06461719
108	0x3da608db	0.08107158
109	0x3dd45b0a	0.10368927
110	0x3d628058	0.05529818
111	0x3d9b536a	0.07584269
112	0x3d967798	0.073470294
113	0x00000000	0.0
114	0x3d649c58	0.055813164
115	0x3db4f5eb	0.08835968
116	0x3daf0b49	0.08547074
117	0x3d92fb48	0.07176834
118	0xbe31898a	-0.17337623
119	0x00000000	0.0
120	0x3e223097	0.15838848
121	0xbd09e585	-0.033666153
122	0x3d1ad20d	0.037797976
123	0x3db1b30d	0.08676729
124	0xbc16df5a	-0.009208525
125	0xbcc2d02f	-0.02378091
126	0xbc147c39	-0.00906282
127	0x3da69075	0.08133022
128	0xbc8680fe	-0.01641893
129	0x3d5bb9e0	0.05364406
130	0x3d7e4f58	0.062087387
131	0x3df1af1b	0.11800977
132	0x3dbf21c5	0.09332613
133	0xbc0531d0	-0.008129552
134	0x3d7eadf0	0.0621776
135	0xbce61f82	-0.028091196
136	0xbcdb96ec	-0.026805364
137	0xbcdb11fe	-0.026741978
138	0x3d68b968	0.056817442
139	0x3dbf98eb	0.09355339
140	0xbc6a71d1	-0.0143093625
141	0xbc58ee57	-0.013240418
142	0xbccbe867	-0.024891092
143	0x3d7d1ea5	0.061796803
144	0xbca9f8b7	-0.02074848
145	0xbc772185	-0.015083675
146	0x3dca7c3f	0.09886979
147	0x3c2b31b2	0.01044886
148	0x3d9062cc	0.07050094
149	0x3d878da2	0.06618811
150	0x3da9ca91	0.082905896
151	0x3d7e7567	0.062123682
152	0x3d0d40db	0.03448568
153	0xbcc4a0d6	-0.024002474
154	0x3ca5d888	0.020244852
155	0x3d155b3d	0.036463965
156	0xbc3b3a35	-0.011427452
157	0x3d794d7e	0.060864918
158	0x3d6eb7de	0.05828082
159	0xbcb5a43d	-0.022173041
160	0x3d86ea79	0.06587691
161	0x3d893079	0.066986986
162	0x3da9c885	0.08290199
163	0xbe4a5fa2	-0.19763044
164	0x00000000	0.0
165	0xbc66ae94	-0.014079709
166	0x3d8a2040	0.067444324
167	0x3d575490	0.05257088
168	0xbbaf35b0	-0.005346976
169	0x3d6fc0da	0.058533527
170	0x3d48b0c4	0.0489967
171	0x3dab3901	0.08360482
172	0x3d38c768	0.045112044
173	0x3d69e40a	0.05710224
174	0x3de16ccf	0.11007082
175	0x3da24358	0.07923001
176	0x3dc1f88d	0.094712354
177	0x3d30d6a2	0.04317344
178	0xbbc4c9d8	-0.006005507
179	0x00000000	0.0
180	0x3d929ad9	0.07158441
181	0x3d8b6e7d	0.06808183
182	0x3da1a7f0	0.0789336
183	0x3dbe5ed2	0.09295429
184	0x3d81c911	0.063371785
185	0x3d9021e4	0.07037714
186	0xbc426640	-0.011865199
187	0xbcb5c23e	-0.022187348
188	0x3d962791	0.073317654
189	0xbd1f349f	-0.038868543
190	0x3cf56b40	0.029958367
191	0x3d8a0fc0	0.06741285
192	0x3da262b6	0.07928984
193	0x3d8bfe63	0.0683563
194	0xbc31766c	-0.010831457
195	0x3d41df3c	0.047332034
196	0xbd01a73e	-0.031653635
197	0xbcd69690	-0.02619484
198	0xbca2fd40	-0.01989615
199	0x3dd46a1c	0.10371801
200	0x3d99bb2b	0.075064026
201	0x3d8d52fe	0.06900595
202	0x3d754223	0.059877526
203	0x00000000	0.0
204	0xbc8b7a39	-0.017026054
205	0xbd1c23da	-0.03812013
206	0x3d930be4	0.07180002
207	0xbd5ae752	-0.05344326
208	0xbc367572	-0.0111364
209	0x3d97b856	0.07408206
210	0x3d6193a1	0.05507243
211	0x3dba19fc	0.090869874
212	0x3da5ddf8	0.08098978
213	0x3dabfeae	0.08398186
214	0xbd0150c1	-0.031571154
215	0xbbc9cb1b	-0.0061582453
216	0x3b75180f	0.0037398373
217	0x3d823168	0.0635708
218	0xbcfe82f3	-0.0310683
219	0x3da6cb0a	0.081441954
220	0xbcf7bc30	-0.030241102
221	0x00000000	0.0
222	0xbcf28a73	-0.029607033
223	0x3de39506	0.11112408
224	0xbd01c24a	-0.03167943
225	0x3d5c9c46	0.05385997
226	0xbbde6dcf	-0.0067879925
227	0x3db2d05a	0.08731146
228	0xbd15d330	-0.036578357
229	0x3d99a090	0.07501328
230	0xbc2819f8	-0.010260098
231	0x3d966eaa	0.07345326
232	0x3d2bde1d	0.04195987
233	0x00000000	0.0
234	0xbd0b98f6	-0.03408142
235	0x3d513007	0.051071193
236	0x3cb7363c	0.022364728
237	0x3d8f1e83	0.069882415
238	0x3dba1a91	0.090870984
239	0x3d81eedd	0.06344388
240	0x3dc0f4e2	0.09421708
241	0xbca55a4f	-0.020184664
242	0xbc396bf4	-0.011317242
243	0x3e47c443	0.19508462
244	0x3dc9fc4f	0.09862577
245	0x3d5e6b38	0.05430147
246	0x3d372b22	0.04471887
247	0x3d804ab3	0.06264248
248	0xbd18e64d	-0.037329007
249	0x3d3136a7	0.04326501
250	0x3d43092e	0.047616176
251	0x3d8f0817	0.06983965
252	0x3d50f357	0.051013317
253	0x3d97cc9f	0.07412075
254	0x3d535531	0.051594917
255	0x3d90e58f	0.07075035

weight f4 [2, 256]
0	0xbebe2e2b	-0.37144598
1	0xbddd74ec	-0.10813317
2	0xbe16621c	-0.14685863
3	0x3e375c2f	0.17906259
4	0xbeb3ed85	-0.3514215
5	0xbdae8b43	-0.08522656
6	0x3e1c1298	0.15241468
7	0xbe8b030a	-0.27150756
8	0x3d397140	0.04527402
9	0x3db43b9e	0.088004336
10	0xbe990601	-0.29887393
11	0x3cde0e01	0.027106287
12	0xbeb4fbc9	-0.35348347
13	0x3e636690	0.22207093
14	0x3e89ad97	0.2689025
15	0x3d46fc83	0.048580658
16	0x3e253f1f	0.1613736
17	0xbcff32e1	-0.03115219
18	0xbc9c17fe	-0.01905441
19	0xbcb40c3e	-0.021978494
20	0xbe406c8a	-0.18791404
21	0xbd862cb7	-0.065514974
22	0xbeb8e9cd	-0.36115876
23	0x3c62aa84	0.013834599
24	0xbcd39824	-0.025829382
25	0xbf3220eb	-0.6958148
26	0x3c29938d	0.01035012
27	0xbd15e546	-0.036595605
28	0x3e92fe7c	0.2870978
29	0x3e93438e	0.28762478
30	0xbe14383f	-0.14474581
31	0x3e34e655	0.1766599
32	0xbd8c5380	-0.06851864
33	0xbdc2c5e4	-0.09510401
34	0xbf81152c	-1.0084586
35	0xbe7bb112	-0.24579266
36	0xbde821d4	-0.11334577
37	0xbcf2085a	-0.029544998
38	0xbd6fae55	-0.058515865
39	0x3de9c144	0.114138156
40	0xbdd45fde	-0.10369848
41	0x3e4779c8	0.1948005
42	0xbee39734	-0.44451296
43	0xbdcc7c94	-0.09984699
44	0xbd0b6c8a	-0.034039058
45	0xbcd3307a	-0.025779951
46	0x3cbdec94	0.023184098
47	0x3e93ba62	0.28853136
48	0xbedb326e	-0.42811912
49	0x3e5ce467	0.21571504
50	0x3e2d09be	0.16898248
51	0xbd7f5103	-0.06233312
52	0xbce44413	-0.027864492
53	0xbd90ba9f	-0.07066845
54	0xbdbcd0d3	-0.092195176
55	0x3ea5eec5	0.3240873
56	0xbd9a6a60	-0.07539821
57	0x3e878e79	0.26475886
58	0x3dc5bb4a	0.09654863
59	0x3e3ab3e0	0.1823268
60	0xbe97e4c4	-0.29666722
61	0x3c32edff	0.0109210005
62	0xbea6a727	-0.32549402
63	0x3d234cdd	0.039868224
64	0x3d36e4c1	0.04465175
65	0xbea8d169	-0.32972267
66	0xbe368804	-0.17825323
67	0xbd961fae	-0.07330261
68	0xbd6c6295	-0.057711203
69	0x3e99f7b8	0.30071807
70	0x3f203270	0.6257696
71	0xbdf8560d	-0.12125788
72	0xbe2786cd	-0.16360016
73	0x3e8c1f93	0.2736784
74	0x3cb6de32	0.022322748
75	0x3d3c4852	0.045967408
76	0x3ef8b779	0.4857748
77	0xbd52ccd6	-0.051464878
78	0xbc2cca95	-0.010546346
79	0xbc17c3a4	-0.009262953
80	0xbebe8da3	-0.37217435
81	0xbee56387	-0.44802496
82	0x3df9a6e8	0.12190038
83	0x3df08349	0.11743791
84	0xbd5482c5	-0.051882524
85	0x3d44fb6e	0.048091345
86	0xbe4b65af	-0.19863008
87	0x3e2d0eb4	0.1690014
88	0xbc73e07f	-0.014885067
89	0x3e2df511	0.16988017
90	0xbcb66045	-0.022262702
91	0xbe4e086d	-0.20120402
92	0x3aff057f	0.0019456594
93	0xbe551500	-0.20808792
94	0xbd72cbc6	-0.059276365
95	0xbed63d5c	-0.41843688
96	0xbd33869c	-0.043829545
97	0xbae03703	-0.0017106239
98	0x3de71b4d	0.11284504
99	0xbe68326f	-0.22675489
100	0x3e2e8618	0.1704334
101	0x3ec471dc	0.38368118
102	0x3c4dfe43	0.012572828
103	0xbdb2baf8	-0.08727068
104	0xbd225b4e	-0.039637856
105	0x3ec04b4f	0.37557456
106	0xbd18b86c	-0.037285253
107	0x3ec0c3c9	0.37649372
108	0x3dd5604b	0.10418757
109	0xbe1095e0	-0.14119673
110	0xbe7c586c	-0.24643105
111	0x3e73fb63	0.23826365
112	0xbe4aa913	-0.19791059
113	0xbd9200b7	-0.071290426
114	0x3e79ae5c	0.24382919
115	0xbee39e91	-0.44456914
116	0xbdc1bb22	-0.09459521
117	0x3e88221a	0.26588517
118	0x3fb28d3a	1.3949349
119	0xbca4bfec	-0.020111047
120	0xbf73597e	-0.9505843
121	0xbc764204	-0.015030388
122	0x3e08cf1c	0.13360256
123	0x3da13521	0.07871462
124	0x3da91d9a	0.08257599
125	0x3d76862e	0.060186557
126	0x3d859a19	0.065235324
127	0x3e646a1b	0.22306101
128	0x3d80d5e2	0.06290795
129	0xbeb6d285	-0.3570749
130	0x3eb9372f	0.36174914
131	0xbe3133ba	-0.17304888
132	0x3e41f52b	0.1894118
133	0x3c61f016	0.013790151
134	0x3e7eec50	0.24894834
135	0x3c2fa20f	0.01071979
136	0x3d718470	0.058964193
137	0xbd87ff03	-0.066404365
138	0xbea27198	-0.3172729
139	0x3e5fc6af	0.21853136
140	0x3c37cad8	0.011217795
141	0x3d12cca8	0.035839707
142	0x3be6b9a6	0.007041174
143	0xbea57e3c	-0.32322872
144	0x3c8ee071	0.017441006
145	0xbd61e7fc	-0.05515288
146	0x3e9f5a20	0.31123447
147	0x3cc2fd63	0.023802465
148	0xbf545f63	-0.8295805
149	0xbedefe4d	-0.4355339
150	0x3eac079c	0.33599555
151	0xbf110261	-0.56644255
152	0x3e4da329	0.20081772
153	0x3d353eed	0.044249464
154	0x3d2fc82a	0.0429155
155	0x3dec4c01	0.11537934
156	0x3d89b278	0.06723493
157	0xbef155d0	-0.47135782
158	0x3e40d1b6	0.18829998
159	0x3df9f479	0.122048326
160	0xbeb44f3d	-0.35216704
161	0x3e46f535	0.19429477
162	0x3e852e9b	0.2601212
163	0xbfbc55c1	-1.471367
164	0x3dc3e415	0.095649876
165	0x3d429b8d	0.047511626
166	0x3e1ef799	0.15524139
167	0xbec7f84f	-0.39056632
168	0x3b541520	0.0032361224
169	0x3e7ea535	0.24867709
170	0xbea2acaf	-0.31772372
171	0xbe62d73b	-0.22152416
172	0xbdb78ccd	-0.089624025
173	0x3e322e6f	0.17400526
174	0x3e217aae	0.15769455
175	0xbce317dc	-0.027721338
176	0x3e3a173d	0.18172927
177	0xbea1418a	-0.31495315
178	0xbd074263	-0.033022296
179	0xbcceac9e	-0.025228795
180	0xbe6fe1ad	-0.23425932
181	0x3ea3ee05	0.32017532
182	0xbe138512	-0.14406231
183	0x3e894f27	0.268182
184	0x3e2009fc	0.15628809
185	0xbe905e2a	-0.2819684
186	0x3d8e99e3	0.06962945
187	0x3e052504	0.13002402
188	0xbd72442d	-0.05914705
189	0xbdb3b132	-0.08774032
190	0x3dc7a3ba	0.09748025
191	0xbe9cb1cd	-0.306044
192	0xbdaea5f2	-0.08527745
193	0x3ea2bdc9	0.3178542
194	0x3cd417a7	0.025890185
195	0x3ddbdcf4	0.10735503
196	0xbdb9a234	-0.09064141
197	0xbcaad2a7	-0.0208524
198	0xbd2014ed	-0.039082456
199	0xbe170568	-0.14748156
200	0xbedd1040	-0.4317646
201	0xbe76fdff	-0.2412033
202	0x3de0c2b1	0.109746344
203	0x3c4ca66e	0.012490852
204	0xbd8dac31	-0.069176085
205	0xbc8c6c47	-0.017141474
206	0x3f0abd91	0.54195505
207	0xbca4c248	-0.020112172
208	0xbdc59d01	-0.09649087
209	0xbed34880	-0.4126625
210	0xbeb178cd	-0.34662476
211	0x3e19d86e	0.15023968
212	0xbe9515b9	-0.29118136
213	0x3cb91850	0.0225946
214	0x3d444e4b	0.04792623
215	0x3c967fec	0.018371545
216	0x3e460399	0.1933731
217	0xbe7132de	-0.2355456
218	0xbc9ae7f2	-0.018909428
219	0xbeb2d9b4	-0.3493172
220	0xbd9edb15	-0.0775663
221	0xbc2d70bb	-0.010585959
222	0x3bb1ee16	0.0054299934
223	0xbdb28e42	-0.0871854
224	0xbd316e57	-0.04331812
225	0x3d597ea8	0.053099304
226	0xbd3bb20c	-0.045824096
227	0xbdb59821	-0.08866907
228	0x3bc9ee77	0.0061624604
229	0xbe8eed65	-0.27915493
230	0xbd8a7675	-0.06760875
231	0x3ef4c72b	0.47808203
232	0x3d96a7e4	0.07356241
233	0xbd585a45	-0.052820463
234	0x3afe1339	0.0019384391
235	0xbec0d3c4	-0.37661564
236	0x3e172b59	0.1476263
237	0x3e4a91bc	0.19782156
238	0xbda2f3da	-0.07956667
239	0x3e0fae30	0.14031291
240	0xbe23c0e8	-0.15991557
241	0x3cc25a60	0.023724735
242	0xbcc4b43e	-0.024011727
243	0xbf8bc856	-1.0920513
244	0x3da98d36	0.08278887
245	0x3e9becc8	0.30454087
246	0xbe2c4608	-0.1682359
247	0xbdc02540	-0.09382105
248	0x3da65898	0.08122367
249	0xbe996f05	-0.29967514
250	0x3e930b5c	0.28719604
251	0x3de39a5e	0.111134276
252	0x3e340113	0.17578535
253	0x3e9e6cce	0.30942386
254	0x3e577a53	0.21042757
255	0xbe44e54d	-0.19228096

bias f4 [2]
0	0xbd87107e	-0.065949425
1	0xbd43c247	-0.0477927
