exp_local/gcbc_fixed/weights/8000.pt (torch, 274440 bytes, 6 tensors)

weight f4 [256, 4]
0	0xbe512f79	-0.20428266
1	0xbd4f921b	-0.050676446
2	0x3d954230	0.07288015
3	0x3dfaf5be	0.12253903
4	0xbdcd9a3b	-0.10039183
5	0x3e4c58c2	0.19955733
6	0xbdd41f89	-0.10357577
7	0x3d2710c7	0.040787484
8	0xbe85a271	-0.26100495
9	0xbc90a0e6	-0.017654847
10	0x3e4eed8e	0.20207807
11	0x3d7b5254	0.06135781
12	0x3c70c132	0.014694499
13	0x3e265334	0.16242677
14	0xbd86b756	-0.06577937
15	0xbbdf7a47	-0.0068199965
16	0x3c9749ce	0.01846781
17	0xbd9635ba	-0.07334466
18	0xbdb4c840	-0.08827257
19	0xbbbdf4dd	-0.0057970122
20	0xbdd82443	-0.105537914
21	0xbcd9a09f	-0.026565848
22	0xbc9f4eeb	-0.01944681
23	0xbd5aedc2	-0.0534494
24	0xbe6bebc0	-0.2303915
25	0x3c8b3df1	0.01699731
26	0x3e122357	0.14271294
27	0x3d908e31	0.07058371
28	0x3e4e2596	0.20131525
29	0x3df82f54	0.12118402
30	0xbc716adb	-0.014734949
31	0xbd8d7c07	-0.06908422
32	0xbe0b3f58	-0.13598382
33	0xbe275956	-0.16342673
34	0x3da0951e	0.07840942
35	0x3df51983	0.119677566
36	0x3e26c932	0.16287687
37	0x3df63b7b	0.12023064
38	0xbdc921ed	-0.09820924
39	0xbd251636	-0.040304385
40	0xbc386196	-0.011253735
41	0xbb8cef7f	-0.004301011
42	0x3d368e97	0.044569578
43	0xbd847cb9	-0.064691015
44	0x3e68a69f	0.22719811
45	0xbd449193	-0.047990393
46	0xbd24225e	-0.040071838
47	0xbd271745	-0.040793676
48	0x3e5e7c0d	0.21727009
49	0xbe18f22c	-0.14936131
50	0xbdda8f84	-0.10671905
51	0x3d2b1965	0.041772265
52	0x3e154b8f	0.14579605
53	0x3e27962f	0.16365884
54	0x3cf0b0a3	0.029381102
55	0xbe0dc453	-0.13844423
56	0x3e29caa0	0.16581202
57	0x3df46392	0.11933054
58	0x3b96b34e	0.0045990115
59	0xbe158dcb	-0.14604871
60	0xbdd49b52	-0.103811875
61	0x3e4f8def	0.20268987
62	0xbc9cfcc2	-0.019163493
63	0x3cb7c37c	0.022432081
64	0x3e410fb2	0.18853644
65	0xbd1035a2	-0.0352074
66	0x3c7d7bf1	0.015471444
67	0xbd4f1176	-0.05055376
68	0x3daffb50	0.08592856
69	0x3e2983a9	0.1655413
70	0xbcbc925b	-0.023019006
71	0xbd7e4360	-0.062075973
72	0xbca18a9d	-0.019719416
73	0x3e3956a9	0.18099464
74	0xbaa0e31f	-0.0012274719
75	0xbd814808	-0.06312567
76	0xbbb00210	-0.0053713396
77	0xbe364f0d	-0.17803593
78	0x3de03d2d	0.10949168
79	0x3dcd573e	0.10026406
80	0xbeb22dbd	-0.3480052
81	0x3dcd2605	0.10017017
82	0xbc4be53b	-0.0124447895
83	0x3bd96625	0.006634491
84	0x3e3e136d	0.18562098
85	0x3c233a7a	0.009962672
86	0xbd9386b2	-0.072034255
87	0xbcbb3e42	-0.022856835
88	0x3e0c1ec4	0.13683611
89	0x3e104620	0.1408925
90	0xbdbbefbf	-0.09176587
91	0xbd4e59b8	-0.05037853
92	0x3d61668b	0.055029433
93	0x3e4a59de	0.19760844
94	0xbdb2a6b2	-0.08723201
95	0x3c9be0e5	0.019028137
96	0xbd32ce29	-0.04365364
97	0xbe7045e1	-0.23464157
98	0x3b6971c5	0.003562079
99	0x3e5f08b7	0.21780668
100	0x3df298f8	0.11845583
101	0x3d8d0c3f	0.068871014
102	0xbc1b6842	-0.009485306
103	0xbdb187b4	-0.086684614
104	0xbdc26d3f	-0.09493493
105	0xbd09026b	-0.03344957
106	0xbd4044e5	-0.046940703
107	0x3d594c5e	0.053051345
108	0x3e71253c	0.2354936
109	0x3d8c0121	0.06836153
110	0xbda96762	-0.08271672
111	0xbccfd9b8	-0.025372371
112	0x3e010ff8	0.12603748
113	0xbe4c79aa	-0.19968286
114	0xbd32ccb2	-0.043652244
115	0x3dac7818	0.084213436
116	0x3e34386d	0.1759965
117	0x3ddbcb91	0.107321866
118	0xbd2dd512	-0.042439528
119	0xbda4be66	-0.08044128
120	0xbd9a0a18	-0.075214565
121	0xbe05711a	-0.13031426
122	0x3b82c8a6	0.0039912043
123	0xbd0b5a9e	-0.034021966
124	0x3e48443e	0.19557282
125	0xbbca6506	-0.0061765937
126	0xbd916567	-0.07099419
127	0xbd6f335b	-0.058398586
128	0xbe0828be	-0.13296792
129	0x3da87c22	0.082268015
130	0xbc03eefd	-0.008052585
131	0x3d5ea2d7	0.054354515
132	0xbe37a336	-0.17933354
133	0x3ddbde28	0.10735732
134	0x3d96f4a4	0.0737088
135	0x3c51968e	0.012792243
136	0xbc3d312b	-0.011547367
137	0xbc8424a6	-0.016130757
138	0xbd38a573	-0.04507966
139	0x3c98d720	0.018657267
140	0xbdc038fb	-0.09385868
141	0xbd59be47	-0.05315998
142	0xbc1bbdcd	-0.009505701
143	0xbca04173	-0.019562459
144	0x3d8cea44	0.0688062
145	0xbe33280b	-0.17495744
146	0x3dc16af2	0.09444226
147	0x3d05c896	0.032661997
148	0x3cc5aa68	0.024129108
149	0xbc2ff53b	-0.01073962
150	0xbdc71eb8	-0.09722656
151	0x3ce89448	0.028391019
152	0x3e4345d6	0.19069609
153	0xbd60470b	-0.05475525
154	0x3d8f7782	0.07005216
155	0xbd8bdfb3	-0.068297766
156	0x3e450e4e	0.19243738
157	0xbc1c7fff	-0.009552001
158	0xbdc42671	-0.095776446
159	0x3d27edbc	0.040998206
160	0x3d8064d4	0.062692314
161	0x3e5f06a1	0.21779872
162	0xbcf3dde1	-0.029768886
163	0xbd9d1cfb	-0.07671543
164	0x3e57e6d8	0.21084154
165	0xbdb00576	-0.085947916
166	0x3d11c996	0.035592638
167	0xbda8f9a1	-0.08250738
168	0x3dde7efd	0.10864065
169	0x3e6e06d0	0.23244786
170	0xbd9421d0	-0.07233012
171	0xbd891f5f	-0.06695437
172	0xbe18bae7	-0.14915048
173	0x3daaad7d	0.083338715
174	0x3d991d37	0.074762754
175	0x3e11a225	0.1422201
176	0xbdb727e3	-0.08943155
177	0xbe4b1d09	-0.19835295
178	0x3e2e0f98	0.16998136
179	0xbcdaeb05	-0.026723394
180	0xba22d193	-0.00062110386
181	0x3c07a938	0.008280091
182	0xbda441bf	-0.080203526
183	0x3ca7dfb0	0.020492405
184	0x3b37421a	0.0027962984
185	0xbd82a2fc	-0.06378743
186	0xbd9fe99e	-0.07808231
187	0xbd512077	-0.05105635
188	0x3e2c212f	0.16809534
189	0x3d9619e2	0.073291555
190	0xbceed2f1	-0.02915332
191	0xbc7b177b	-0.015325422
192	0xbdb22c01	-0.08699799
193	0xbbf400ff	-0.007446408
194	0xbd968f98	-0.07351607
195	0xbd5c6824	-0.053810254
196	0xbcd24e24	-0.025672026
197	0xbca86f85	-0.02056099
198	0xbc9ea772	-0.019366954
199	0x3cb96552	0.022631321
200	0x3e312f4c	0.17303199
201	0xbe431890	-0.19052339
202	0xbd150134	-0.0363781
203	0xbca909fb	-0.020634642
204	0xbd5c3cb2	-0.05376882
205	0xbd214062	-0.03936804
206	0xbd769309	-0.060198817
207	0xbd9b5361	-0.07584263
208	0x3e94c4cf	0.29056403
209	0xbcff6acc	-0.031178854
210	0xbcda6df6	-0.026663762
211	0xbcc20f11	-0.023688825
212	0x3db484eb	0.088144146
213	0xbe1bb350	-0.15205121
214	0x3cc8bca8	0.02450402
215	0x3da01ee4	0.07818392
216	0x3cb8323c	0.022484891
217	0x3e592821	0.21206714
218	0xbd58a9c7	-0.052896287
219	0xbda4c94f	-0.08046209
220	0xbd855eb7	-0.06512206
221	0x3e18b60b	0.14913194
222	0xbc4b2586	-0.012399083
223	0x3d9b49de	0.075824484
224	0x3d4d7cf1	0.05016798
225	0x3c81bd30	0.015837282
226	0xbde22b0c	-0.11043367
227	0xbd97ebd5	-0.07418028
228	0x3db54c76	0.088524744
229	0x3c655b1a	0.013998771
230	0x3cbeec60	0.023306072
231	0x3d107df6	0.035276376
232	0xbe2327e7	-0.1593319
233	0x3db6e630	0.089306235
234	0x3df89479	0.12137694
235	0x3c1b72f4	0.009487856
236	0xbc845bed	-0.016157115
237	0x3cdb493a	0.026768316
238	0x3cadbee0	0.02120918
239	0xbd9fda64	-0.078053266
240	0xbdfd831d	-0.123785235
241	0x3e177570	0.14790893
242	0x3c059bfd	0.008154866
243	0x3c80f0c7	0.015739812
244	0x3e4a2b43	0.19743066
245	0xbd978e35	-0.07400171
246	0xbd650dc9	-0.05592135
247	0x3c80e230	0.015732855
248	0x3df0201b	0.11724874
249	0xbe462270	-0.19349074
250	0x3cad4dec	0.02115532
251	0x3bd4ed79	0.0064980355
252	0xbbe03e40	-0.0068433583
253	0xbd9a9c9d	-0.07549403
254	0x3d6e1ef7	0.058135
255	0xbd4486a8	-0.04797998

bias f4 [256]
0	0x3d493c7a	0.04912994
1	0x3ceb151a	0.028696585
2	0x3d5c2a77	0.053751435
3	0xbc61429b	-0.01374879
4	0x00000000	0.0
5	0x00000000	0.0
6	0x3cf3bd38	0.029753312
7	0xbdbf0dd2	-0.09328808
8	0x3d725d52	0.05917103
9	0xbd0c9492	-0.034321375
10	0x00000000	0.0
11	0xbd0b2664	-0.03397216
12	0x3c7980b7	0.015228442
13	0xbd643b18	-0.05572042
14	0xbd82be33	-0.06383934
15	0xb9f7df46	-0.00047277863
16	0xbd42947f	-0.0475049
17	0xbd1afd0a	-0.037838973
18	0xbc2317f3	-0.00995444
19	0x3d746e8a	0.05967573
20	0x3d0015b8	0.031270713
21	0xbcba7df0	-0.02276513
22	0xbcda82a2	-0.026673619
23	0xbd18221d	-0.037141908
24	0x3d271c0f	0.040798243
25	0xbd7f4d68	-0.06232968
26	0x00000000	0.0
27	0xbd67abaf	-0.056560215
28	0x3d08cd49	0.0333989
29	0xbd850d63	-0.06496694
30	0x00000000	0.0
31	0xbd1b3015	-0.03788765
32	0x3cb7cf81	0.022437813
33	0x3ca3bdd6	0.019987982
34	0x00000000	0.0
35	0x00000000	0.0
36	0xbaa32437	-0.0012446706
37	0xbbc4c9d2	-0.006005504
38	0xbd1d9a6a	-0.03847734
39	0xbd14cbe5	-0.03632726
40	0xbd0d7e4f	-0.034544285
41	0xbcc5c65a	-0.024142433
42	0xbd228a46	-0.03968265
43	0x3c9f9e41	0.019484641
44	0x3d85ba09	0.06529624
45	0x00000000	0.0
46	0x00000000	0.0
47	0xbd872095	-0.065980114
48	0x00000000	0.0
49	0x00000000	0.0
50	0x3d36740c	0.044544265
51	0x00000000	0.0
52	0xbd879e1b	-0.06621953
53	0x3bf3932b	0.0074333153
54	0xbbed3560	-0.007239029
55	0x3c1d27fb	0.009592052
56	0xbc03dfe5	-0.008048986
57	0xbb8f004e	-0.00436405
58	0xbb7fb3eb	-0.0039017152
59	0xbc7eba3a	-0.01554733
60	0x3d0bf594	0.03416975
61	0xbcbb6461	-0.022875013
62	0x3cfbf171	0.030754777
63	0xbc350bc5	-0.011050169
64	0xbca40330	-0.020021051
65	0x3bd62067	0.0065346244
66	0xbc46ff92	-0.012145894
67	0x3cfa74f7	0.030573351
68	0xbc25a6f6	-0.010110607
69	0x3d17a926	0.037026547
70	0x3bfbf143	0.0076886727
71	0xbd0597a6	-0.032615326
72	0xbd02e9b4	-0.031961158
73	0x3d72808b	0.05920462
74	0x00000000	0.0
75	0x3ccfe075	0.025375584
76	0xbc829797	-0.015941424
77	0xbd4b8fd7	-0.049697723
78	0xbcec225c	-0.028824978
79	0x00000000	0.0
80	0x3d83a7ce	0.064284906
81	0x3ca6c709	0.02035858
82	0xbd432000	-0.04763794
83	0x3e00881a	0.12551919
84	0x00000000	0.0
85	0xbc20c4aa	-0.009812513
86	0xbc680139	-0.014160448
87	0xbb145c01	-0.0022637846
88	0xbcfc45ea	-0.030795056
89	0x3c08112f	0.008304878
90	0xbc04e288	-0.00811065
91	0x00000000	0.0
92	0xbd05f300	-0.032702446
93	0x3d1b4a9e	0.037912957
94	0x3d5e4d3f	0.054272886
95	0x00000000	0.0
96	0x3c6b5281	0.014362932
97	0x3a850852	0.0010149574
98	0x00000000	0.0
99	0x3d13c199	0.0360733
100	0x3c876b12	0.016530547
101	0xbd1033ee	-0.035205774
102	0xbd2da160	-0.042390227
103	0x00000000	0.0
104	0x00000000	0.0
105	0xbd097be1	-0.033565406
106	0x3cc607df	0.024173675
107	0xbca1fad8	-0.019772932
108	0xbba3d024	-0.0049991775
109	0x00000000	0.0
110	0xbcfa2978	-0.030537352
111	0x3dbb0bcc	0.091331095
112	0x3c81fb1e	0.015866812
113	0xbba85196	-0.005136679
114	0xbbfe7dd4	-0.0077664647
115	0x3cefedc8	0.029288188
116	0xbc677397	-0.01412668
117	0x00000000	0.0
118	0x3d0dd067	0.034622576
119	0xbc227330	-0.009915158
120	0xbc9b146b	-0.018930634
121	0xbd2d86f4	-0.04236503
122	0x3d5a8d1b	0.053357225
123	0x3cfd28d7	0.030903263
124	0xbd0fe9fd	-0.035135258
125	0xbcb00855	-0.021488348
126	0x3d780f7c	0.060561642
127	0x00000000	0.0
128	0x00000000	0.0
129	0xba6b233d	-0.00089697895
130	0xbc1d7089	-0.00960935
131	0xbbfff966	-0.007811713
132	0x3d500fcb	0.05079631
133	0x3d04ad8b	0.032392066
134	0x3d3fbfdc	0.04681383
135	0xbbc4c9d8	-0.006005507
136	0x00000000	0.0
137	0xbc855811	-0.016277345
138	0x00000000	0.0
139	0x3d4001c8	0.0468767
140	0xbceecd6d	-0.029150689
141	0x399ea1c4	0.00030256633
142	0x3d5c22bc	0.053744063
143	0xbc1cca39	-0.009569698
144	0x3ccf1cd4	0.025282301
145	0x3a73735c	0.0009286904
146	0x00000000	0.0
147	0x3d516586	0.05112221
148	0x00000000	0.0
149	0xbc7eb2ba	-0.015545541
150	0x3ccbb1a2	0.024864975
151	0x00000000	0.0
152	0x3cc93be5	0.024564693
153	0x3d6e36d0	0.058157742
154	0x3d80b330	0.06284177
155	0xbd765939	-0.060143683
156	0xbbd02d6f	-0.0063530724
157	0xbcb0e3da	-0.021593023
158	0xbcb1ec9b	-0.021719268
159	0xbc4e6c49	-0.012599059
160	0x3a4fedf6	0.0007931882
161	0x3cb1262b	0.021624645
162	0x00000000	0.0
163	0x3b63cd3c	0.003475978
164	0xbc8bbd06	-0.017057907
165	0x3d5348ce	0.051583104
166	0x00000000	0.0
167	0x3d83d405	0.06436924
168	0x00000000	0.0
169	0x00000000	0.0
170	0x00000000	0.0
171	0x3d840692	0.06446566
172	0x00000000	0.0
173	0x3d65c8b9	0.056099627
174	0x3ca28c0a	0.019842166
175	0x3cb1097d	0.02161097
176	0xbc5c91a6	-0.01346246
177	0xbd4c116b	-0.0498213
178	0x3d829df0	0.063777804
179	0x3d77cb14	0.060496405
180	0x3d68649b	0.05673657
181	0xbc30e694	-0.010797162
182	0x3ccdd2b3	0.025124883
183	0x3d5ea3a1	0.054355267
184	0xbbcd5e54	-0.0062673483
185	0xbc8bbbc2	-0.017057303
186	0xbcac98db	-0.02106898
187	0x3d863cbd	0.06554554
188	0x00000000	0.0
189	0x00000000	0.0
190	0xbc516a64	-0.012781713
191	0x3c49a81f	0.01230815
192	0x3d1cc6e8	0.03827563
193	0x3d404602	0.046941765
194	0xbd86d0a7	-0.06582766
195	0xbcdc04f9	-0.02685784
196	0x3d6e683a	0.058204867
197	0x3d291ccd	0.041287232
198	0x3dd73ff4	0.10510245
199	0x00000000	0.0
200	0xbd6bd133	-0.057572555
201	0x3cd9af52	0.026572857
202	0xbcc07749	-0.02349438
203	0x3cb52c33	0.022115802
204	0x00000000	0.0
205	0x3d887822	0.066635385
206	0x3d7518a4	0.059837952
207	0xbd1f64e4	-0.038914576
208	0xbce463dd	-0.02787965
209	0x3cf85dff	0.030318258
210	0xbcc182b8	-0.023621902
211	0x00000000	0.0
212	0x3d38df9e	0.045135133
213	0x3d092574	0.033482984
214	0xbc5250e3	-0.012836668
215	0x00000000	0.0
216	0x00000000	0.0
217	0xbc2584be	-0.010102449
218	0x00000000	0.0
219	0x00000000	0.0
220	0xbd808bfd	-0.06276701
221	0xbbc81ece	-0.006107188
222	0x3d51035d	0.051028598
223	0xbd4293ac	-0.047504112
224	0xbcac4c05	-0.021032343
225	0xbcd036a4	-0.02541668
226	0x00000000	0.0
227	0x00000000	0.0
228	0x3d3468bb	0.04404519
229	0x00000000	0.0
230	0x00000000	0.0
231	0xbbb6270e	-0.005558855
232	0x00000000	0.0
233	0x00000000	0.0
234	0x3d2bc78a	0.041938342
235	0x3d9f4c63	0.077782415
236	0xbc27d1e9	-0.010242918
237	0x00000000	0.0
238	0x3cd7c371	0.02633831
239	0xbcac81a9	-0.02105792
240	0x3cb0382c	0.02151116
241	0xbc93beb9	-0.01803528
242	0x3c1cf53f	0.009579956
243	0xbc14c877	-0.009080998
244	0xbc23086e	-0.00995074
245	0x3d68cc7a	0.05683563
246	0xbd0cd66c	-0.034384176
247	0xbcfa2e19	-0.03053956
248	0x00000000	0.0
249	0x00000000	0.0
250	0xbd09fe04	-0.033689514
251	0xbd4605a6	-0.04834523
252	0x00000000	0.0
253	0xbc784f14	-0.015155572
254	0xbc089075	-0.0083352225
255	0xbcdf32a1	-0.027245821

weight f4 [256, 256]
0	0xbe0e7afc	-0.13914102
1	0xbe362f1a	-0.17791405
2	0x3dff87a7	0.124770455
3	0xbcee647a	-0.029100645
4	0x3e01b657	0.12667213
5	0x3df0a9b8	0.11751121
6	0x3d9093f3	0.07059469
7	0x3ca6a841	0.020343902
8	0x3cb6c4c0	0.022310615
9	0xbda0dbfd	-0.078544594
10	0xbb374e00	-0.0027970076
11	0xbe2da8d3	-0.16958933
12	0x3e029880	0.12753487
13	0xbcfad22b	-0.030617794
14	0x3db040c6	0.086061046
15	0xbd6d2ba3	-0.057902943
16	0xbd972fdc	-0.07382175
17	0xbce2420f	-0.02761939
18	0xbd9c75a7	-0.07639628
19	0x3d63e6d4	0.055640057
20	0x3db410e0	0.08792281
21	0x3dce291d	0.100664355
22	0xbe2d2a1d	-0.16910596
23	0xbcb17457	-0.02166192
24	0x3d851c36	0.064995214
25	0xbd19a759	-0.03751311
26	0x3d78f06f	0.06077617
27	0xbd49b94c	-0.04924898
28	0x3db53763	0.08848455
29	0x3d86ed15	0.065881886
30	0x3cbc4bf4	0.022985436
31	0x3d7c6b82	0.061625965
32	0x3a626e99	0.0008637696
33	0xbcca0f29	-0.024665432
34	0xbcb63a58	-0.022244617
35	0xbc195db8	-0.009360723
36	0x3d76eaf8	0.060282677
37	0xbd134dfd	-0.035963047
38	0x3cb42cbb	0.021993985
39	0x3d99f416	0.07517259
40	0xbd93a44f	-0.07209074
41	0xbd90655b	-0.07050582
42	0xbdaf9659	-0.085735984
43	0x3e0eb446	0.13935956
44	0xbc933374	-0.01796887
45	0x3d6239b1	0.0552308
46	0xbd9cc07d	-0.07653902
47	0x3cb0fce6	0.021604966
48	0xbd04fbbe	-0.032466643
49	0xbd52b590	-0.051442683
50	0x3d827971	0.06370819
51	0x3d3c7686	0.04601147
52	0x3de47a25	0.1115611
53	0x3d898282	0.067143455
54	0xbe6ff0b6	-0.23431668
55	0x3c5e4123	0.0135653345
56	0x3c0274d0	0.007962421
57	0x3d667903	0.05626775
58	0xbdb31aae	-0.08745323
59	0xbd6badb2	-0.057538696
60	0xbda61757	-0.081099205
61	0xbc357dba	-0.011077339
62	0x3d216d1a	0.039410688
63	0xbd67c991	-0.056588713
64	0x3d40aadc	0.047037944
65	0x3e309acf	0.17246555
66	0xbd5a1e3c	-0.05325149
67	0x3ce033cd	0.02736845
68	0x3c70d257	0.014698586
69	0x3d12c7c9	0.03583506
70	0xbd745e37	-0.059660163
71	0x3d3e56c1	0.046469454
72	0x3d64ba91	0.055841986
73	0x3daac7bb	0.08338877
74	0xbb32092c	-0.0027166111
75	0xbde70b9a	-0.1128151
76	0x3e050ad3	0.1299241
77	0xbddb562c	-0.10709795
78	0x3c239321	0.009983809
79	0xbd0b8664	-0.03406371
80	0xbceb1096	-0.028694432
81	0xbd95fc5a	-0.07323523
82	0x3cef577b	0.029216519
83	0xc0556741	-3.334427
84	0xbdd254a0	-0.10270047
85	0x3ba16098	0.004924845
86	0xbd78c323	-0.060732972
87	0xbd47d7b0	-0.04878968
88	0xbd8be337	-0.06830447
89	0xbe1a6534	-0.15077668
90	0xbd178b79	-0.036998246
91	0xb980e480	-0.00024584308
92	0xbe1ffc24	-0.15623528
93	0x3dc7c262	0.097538725
94	0x3ddd608d	0.10809431
95	0x3d58d369	0.05293599
96	0xbe12c37c	-0.14332384
97	0xbda3a905	-0.07991222
98	0xbd138bf5	-0.036022145
99	0x3e1babd8	0.15202272
100	0x3cda726c	0.026665889
101	0x3bb0d904	0.005396964
102	0xbbf21551	-0.007387795
103	0x3d322f24	0.043501988
104	0xbd8bb01c	-0.068206996
105	0xbd7348e8	-0.0593957
106	0x3da0dc52	0.07854523
107	0xbdc82219	-0.097721286
108	0xbcab42cb	-0.020905873
109	0xbcec0e07	-0.028815283
110	0x3c09d745	0.008413141
111	0x3de6c6ab	0.11268362
112	0x3dac0872	0.08400048
113	0x3ce7c75b	0.028293302
114	0xbdc47601	-0.0959282
115	0xbd254908	-0.04035285
116	0xbc541404	-0.012944225
117	0xbd846a80	-0.06465626
118	0x3c80ba25	0.01571376
119	0xbdc85962	-0.097826734
120	0x3cca6e14	0.024710692
121	0xbd8439fe	-0.06456374
122	0xbcc7ef02	-0.02440596
123	0xbd1250c0	-0.03572154
124	0x3dce54ec	0.10074791
125	0xbdd3343f	-0.103126995
126	0x3e0c6bf0	0.1371305
127	0xbd7c9a19	-0.061670396
128	0x3cbe9f0b	0.023269197
129	0xbd925695	-0.071454205
130	0x3d53d2e0	0.051714778
131	0x3a2825ec	0.0006414342
132	0x3db03955	0.08604685
133	0x3dc8b8eb	0.09800895
134	0xbd1dd43d	-0.038532484
135	0x3d08c18f	0.033387717
136	0xbd984296	-0.07434575
137	0x3c4a6601	0.012353421
138	0x3cdc83e6	0.026918363
139	0xbfd90da2	-1.6957285
140	0xbccd5717	-0.025065942
141	0xbd88204f	-0.066467874
142	0x3e1ca38d	0.15296765
143	0xbc4f27a7	-0.012643731
144	0xbd92e7d6	-0.071731254
145	0x3c738087	0.014862186
146	0xbd74df1a	-0.05978308
147	0xbd1f2f56	-0.038863502
148	0x3ddf65c1	0.1090808
149	0x3c42cb9c	0.011889365
150	0x3c5a38a3	0.013319167
151	0xbc35aceb	-0.01108859
152	0x3c309a68	0.010779001
153	0xbd4a7d15	-0.049435694
154	0x3e1b40d0	0.15161443
155	0x3bd00f24	0.006349461
156	0x3c53b0b6	0.012920549
157	0xbe0967c2	-0.13418487
158	0xbe24aefa	-0.16082373
159	0x3e3ae1c2	0.18250182
160	0x3da83c8d	0.08214674
161	0xbe0a5e7a	-0.13512602
162	0xbcfb1fad	-0.030654753
163	0xbe003254	-0.12519199
164	0x3da1964c	0.07889995
165	0x3ae934bc	0.0017792205
166	0x3dcc82f4	0.09985915
167	0xbdf47f62	-0.11938359
168	0x3d2c16f1	0.042014066
169	0x3cd85c98	0.02641134
170	0x3dae97f9	0.0852508
171	0x3d2cb559	0.042165134
172	0xbdb51d36	-0.08843462
173	0xbcbf1c00	-0.023328781
174	0xbe018ea5	-0.12652071
175	0xbc7bbc5f	-0.015364735
176	0xbd16db38	-0.036830157
177	0x3d477d9c	0.048703775
178	0x3e34648a	0.17616478
179	0x3d6b8521	0.05750001
180	0x3e24c8e7	0.16092263
181	0xbbfc0786	-0.0076913266
182	0x3cf09202	0.029366497
183	0x3d09e2a5	0.03366341
184	0xbdcc2b89	-0.09969241
185	0x3d5f8aa1	0.054575566
186	0x3cd1363c	0.025538556
187	0xbc008e8d	-0.007846487
188	0xbcf2be56	-0.029631775
189	0x3b3df42c	0.002898465
190	0x3e116449	0.14198412
191	0xbbacc712	-0.0052727545
192	0xbd35276f	-0.04422706
193	0x3d4c5098	0.049881548
194	0x3e14697a	0.14493361
195	0xbd571602	-0.052511223
196	0xbe3d1fd6	-0.18469176
197	0x3d8e34a3	0.069436334
198	0x3d5c5591	0.05379254
199	0x3bc0813a	0.00587478
200	0x3d2ea0a2	0.04263366
201	0xbdade6bd	-0.084912755
202	0xbe14e562	-0.14540628
203	0xbd4bab05	-0.049723644
204	0xbd05a636	-0.032629214
205	0xbd533832	-0.051567264
206	0x3bcea927	0.0063067856
207	0xbe003d75	-0.12523444
208	0xbd31623c	-0.043306574
209	0x3b3c91f4	0.0028773518
210	0xbbb5ee91	-0.005552121
211	0x3c8a6d08	0.016897693
212	0x3c1b83e7	0.009491897
213	0xbe2307f7	-0.15921007
214	0xbc03802b	-0.008026163
215	0xbcda3d30	-0.026640505
216	0x3e161984	0.14658171
217	0x3d0d5679	0.034506295
218	0x3c8b6f32	0.017020795
219	0xbd68a9f6	-0.056802712
220	0xbd48d219	-0.04902849
221	0xbd384413	-0.044986796
222	0x3d27297a	0.04081104
223	0xbdcc533c	-0.09976813
224	0xbd9179a0	-0.07103276
225	0xbe1b859d	-0.15187688
226	0x3c4a41c0	0.012344778
227	0x3dd40315	0.1035215
228	0x3dd8e83d	0.10591171
229	0xbd5c801b	-0.05383311
230	0x3c9c5591	0.01908377
231	0x3c350418	0.011048339
232	0xbd9094e3	-0.07059648
233	0x3cf737e4	0.030178018
234	0xbc939cb6	-0.018019062
235	0xbea3c3b6	-0.31985253
236	0xbe2ff70d	-0.17184086
237	0x3cb7fe4d	0.022460127
238	0x3d553a16	0.05205735
239	0xbd6e2989	-0.05814508
240	0xbd7bc8fb	-0.061470967
241	0xbc2d9370	-0.010594234
242	0xbe30aebd	-0.17254157
243	0x3d221c62	0.03957785
244	0xbd782767	-0.060584452
245	0xbb9eefa6	-0.0048503457
246	0x3d28ea30	0.041238964
247	0xbce93b54	-0.028470673
248	0xbd32c6e2	-0.0436467
249	0x3cdaddc2	0.02671707
250	0xbe1570fd	-0.14593883
251	0xba6e3c40	-0.00090879574
252	0x3d5f6589	0.05454019
253	0x3dccb46b	0.099953495
254	0x3dc6f42e	0.09714542
255	0xbc4895ac	-0.012242716

bias f4 [256]
0	0x3d745be9	0.059657965
1	0xbc04bced	-0.008101684
2	0x3cb2469f	0.02176219
3	0x3d098428	0.0335733
4	0x3d2f61df	0.042817947
5	0x3d0051cf	0.03132802
6	0x3d6a1833	0.057151984
7	0x3cffbdac	0.031218372
8	0xbc1adda4	-0.009452257
9	0x3d1266c5	0.03574254
10	0x3cbd9a8a	0.023144979
11	0xbc3a4fed	-0.011371595
12	0x3d473497	0.048634138
13	0x3d5119cb	0.05104999
14	0x3d609c5f	0.054836627
15	0x3d0b16e0	0.033957362
16	0x3d5b1f55	0.053496677
17	0x00000000	0.0
18	0xbd016a41	-0.031595472
19	0xbbc90874	-0.006135041
20	0x3d1557b1	0.036460582
21	0x3d015c43	0.03158213
22	0x3d10c1d7	0.03534111
23	0xbd01d2fa	-0.031695344
24	0xbbca5fe5	-0.0061759823
25	0x3c55a735	0.013040354
26	0xbc5460ae	-0.012962503
27	0xbbb74f8d	-0.0055942
28	0x3d803f8f	0.06262123
29	0x3d8b7646	0.06809668
30	0x00000000	0.0
31	0x3d67dcbb	0.05660699
32	0x3d287dba	0.041135527
33	0xbbb62756	-0.0055588884
34	0xbad6bd5a	-0.0016383335
35	0x3c8d7f7a	0.0172727
36	0x3d041fe1	0.032256965
37	0xbc12aedf	-0.008952825
38	0xbbd39b3a	-0.0064577134
39	0xbc185b49	-0.009299108
40	0xbbc4c9d6	-0.006005506
41	0x3d79e3b0	0.061008155
42	0x3cbfe70b	0.0234256
43	0x3cbfac98	0.023397729
44	0xbcfab2f2	-0.030602906
45	0xbce4bc1e	-0.027921733
46	0x3c096bc1	0.008387507
47	0x3d9d7f7a	0.0769033
48	0x3d20be39	0.03924391
49	0x3d32689b	0.04355679
50	0x3cfaebc2	0.030629996
51	0x3c947700	0.01812315
52	0xbc75ab3c	-0.014994439
53	0xbc5e2cbb	-0.013560469
54	0x3d006775	0.031348664
55	0x3d80342b	0.0625995
56	0x3d1d624a	0.038423814
57	0x3d3b4728	0.045722157
58	0xbc8876f3	-0.016658282
59	0xbd01afbd	-0.031661738
60	0x3ce2519f	0.02762681
61	0xbd02a97d	-0.031899918
62	0x3cde1b8e	0.027112748
63	0xbc1152ea	-0.008869866
64	0xbce79b5b	-0.028272321
65	0x3d7cffe6	0.06176748
66	0x3d52204c	0.051300332
67	0xbbc4fc17	-0.0060114968
68	0x00000000	0.0
69	0x3d62b59f	0.05534899
70	0x3cc03a03	0.023465162
71	0x3cf9b10d	0.030479932
72	0x3cb4ca08	0.022068992
73	0x3d800cbc	0.06252429
74	0xbbd33ccb	-0.006446456
75	0xbbbc7daf	-0.0057522873
76	0x3d1f920f	0.03895765
77	0xbba920de	-0.005161389
78	0xbc827a8c	-0.015927576
79	0xbc548170	-0.012970313
80	0x3d5d20a9	0.053986225
81	0x3d743e0c	0.059629485
82	0x3d2ffad4	0.042963818
83	0x3d404e79	0.046949837
84	0x3cdd2287	0.026994003
85	0xbc197ddc	-0.009368386
86	0xbcb06770	-0.021533698
87	0x3d3aff92	0.045653887
88	0xbbc4c9d9	-0.0060055074
89	0x3d573f14	0.05255039
90	0x00000000	0.0
91	0x3cd8b758	0.026454613
92	0xbc8f18d7	-0.0174679
93	0x3d58ea84	0.052958027
94	0x3cc97025	0.024589607
95	0x3d1b0063	0.037842166
96	0xbc4875a0	-0.012235075
97	0x3c2dd8dc	0.010610785
98	0xbc01c001	-0.007919312
99	0x3d0075d1	0.03136236
100	0x3cc94820	0.024570525
101	0x3da4b75a	0.08042784
102	0xbc3cb6b2	-0.011518167
103	0xbc367c2d	-0.011138004
104	0x3ca21f7b	0.019790402
105	0x3d22ff4a	0.039794244
106	0x00000000	0.0
107	0x3d6f78c8	0.058464795
108	0x3d534ea4	0.05158867
109	0x3d0939cd	0.03350239
110	0x3cb59f53	0.022170698
111	0x3d67cb06	0.056590103
112	0x3cc49c9a	0.024000455
113	0x00000000	0.0
114	0x3d0f30f3	0.03495879
115	0x3d757e79	0.059935067
116	0x3ce26dba	0.027640212
117	0x3d715269	0.058916483
118	0xbd8b044e	-0.067879304
119	0x00000000	0.0
120	0x3dc5793d	0.09642265
121	0xbbe972f5	-0.0071242996
122	0x3c24ffa8	0.010070719
123	0x3d3eedc0	0.046613455
124	0xbc16df5a	-0.009208525
125	0xbcc2d02f	-0.02378091
126	0xbc147c39	-0.00906282
127	0x3d659c27	0.05605712
128	0x00000000	0.0
129	0x3cba1919	0.022717046
130	0x3d649427	0.05580535
131	0x3dc394a5	0.09549836
132	0x3d5708f5	0.052498776
133	0xbc0531d0	-0.008129552
134	0x3d5b60d2	0.053559132
135	0x00000000	0.0
136	0x00000000	0.0
137	0xbcdb11fe	-0.026741978
138	0x3d2b46d5	0.041815598
139	0x3d9eb02e	0.07748447
140	0xbc6a71d1	-0.0143093625
141	0xbc58ee57	-0.013240418
142	0xbc472c2f	-0.01215653
143	0x3d1261a9	0.035737667
144	0xbbc4c9d8	-0.006005507
145	0xbc772185	-0.015083675
146	0x3db39d85	0.08770279
147	0x3c8c3cf1	0.017118903
148	0x3cea3b25	0.028592655
149	0x3d576924	0.052590504
150	0x3d66fef8	0.0563955
151	0x3cdd2a8a	0.026997823
152	0x3c3073eb	0.0107698245
153	0xbcc4a0d6	-0.024002474
154	0x3cc8bed0	0.024505049
155	0x3d2c1fb2	0.042022415
156	0xbc3b3a35	-0.011427452
157	0x3cec6c07	0.028860105
158	0x3d4cece6	0.05003061
159	0xbcb5a43d	-0.022173041
160	0x3d5fbb30	0.054621875
161	0x3d555687	0.052084472
162	0x3d70c9ac	0.05878608
163	0xbdab4860	-0.08363414
164	0x00000000	0.0
165	0xbc66ae94	-0.014079709
166	0x3d62a9de	0.05533778
167	0x3cdfe1a2	0.02732927
168	0xbbaf35b0	-0.005346976
169	0x3d2e01d2	0.042482205
170	0x3d00a8f5	0.03141113
171	0x3d13e882	0.03611041
172	0x3cadc940	0.021214128
173	0x3d42bc9b	0.04754315
174	0x3d7ec632	0.062200733
175	0x3d120c35	0.035656173
176	0x3d9f2a15	0.077716984
177	0x3d23c7dc	0.039985523
178	0xbbc4c9d8	-0.006005507
179	0x00000000	0.0
180	0x3cf5a5e0	0.029986322
181	0x3d3cbf61	0.04608095
182	0x3cb0e9bf	0.021595834
183	0x3d881efa	0.06646533
184	0x3d70fabc	0.05883287
185	0x3d5f54d6	0.054524265
186	0xbc426640	-0.011865199
187	0xbcb5c23e	-0.022187348
188	0x3cc298fd	0.023754591
189	0xbd1f349f	-0.038868543
190	0x3cd12ebe	0.025534984
191	0x3d6f81ad	0.058473278
192	0x3cab9ba2	0.020948235
193	0x3d3126ad	0.043249775
194	0xbc31766c	-0.010831457
195	0x3c106531	0.008813188
196	0xbd01a73e	-0.031653635
197	0xbcd69690	-0.02619484
198	0xbca2fd40	-0.01989615
199	0x3d0673a5	0.03282513
200	0x3d5cfa8a	0.05394987
201	0x3cf315d2	0.02967349
202	0x3d14c78d	0.03632312
203	0x00000000	0.0
204	0xbc763dad	-0.015029353
205	0xbbd5570f	-0.0065106223
206	0x3d0f80e0	0.035035014
207	0xbd5ae752	-0.05344326
208	0xbc367572	-0.0111364
209	0x3d11aa9c	0.035563096
210	0x3cd7184d	0.026256705
211	0x3d79cd65	0.060986895
212	0x3d927a59	0.07152242
213	0x3d7ba7af	0.061439212
214	0xbd0150c1	-0.031571154
215	0xbbc9cb1b	-0.0061582453
216	0x3c97bc3f	0.01852238
217	0x3d4a0b0c	0.04932694
218	0xbcfe82f3	-0.0310683
219	0x3d2880ea	0.041138567
220	0x00000000	0.0
221	0x00000000	0.0
222	0xbcf28a73	-0.029607033
223	0x3d4d3713	0.05010135
224	0x00000000	0.0
225	0x3d57da83	0.052698623
226	0xbbde6dcf	-0.0067879925
227	0x3d8e606f	0.06951987
228	0xbd15d330	-0.036578357
229	0x3d2bd555	0.041951496
230	0xbc2819f8	-0.010260098
231	0x3d3440fd	0.04400729
232	0x3d024a29	0.031809006
233	0x00000000	0.0
234	0xbc463821	-0.012098343
235	0x3d3606c3	0.044440042
236	0x3ca9f882	0.02074838
237	0x3d8732df	0.066015
238	0x3cfabd62	0.030607883
239	0x3d7f80b9	0.06237862
240	0x3cdec3af	0.027192919
241	0xbca55a4f	-0.020184664
242	0xbc396bf4	-0.011317242
243	0x3dbaf1bd	0.09128139
244	0x3d35ca63	0.044382464
245	0x3d0dc035	0.03460713
246	0x3ccecd03	0.025244242
247	0x3ca34c06	0.019933712
248	0xbd18e64d	-0.037329007
249	0x3d0d047a	0.034428097
250	0x3cd85051	0.026405485
251	0x3d55a2e7	0.05215731
252	0x3d499c99	0.04922161
253	0x3d612a90	0.05497223
254	0x3d3f2fe7	0.046676543
255	0x3d74907b	0.0597081

weight f4 [2, 256]
0	0xbe9540e0	-0.29151058
1	0xbe002ff5	-0.12518294
2	0xbe0d0a79	-0.13773526
3	0x3e0c118e	0.13678572
4	0xbe49d8e2	-0.1971164
5	0xbdccd683	-0.10001852
6	0x3d9f83ac	0.07788786
7	0xbe46d969	-0.19418873
8	0x3d397140	0.04527402
9	0x3cee0c41	0.029058577
10	0xbddfd9c4	-0.10930207
11	0x3cde0e01	0.027106287
12	0xbe1c710e	-0.15277502
13	0x3da7b34a	0.081884935
14	0x3e2f0e03	0.17095189
15	0x3d00503a	0.03132651
16	0x3dbdd85e	0.092697844
17	0xbd1e03d3	-0.038577866
18	0xbc9c17fe	-0.01905441
19	0xbcb40c3e	-0.021978494
20	0xbe2c4cf2	-0.16826227
21	0xbb17b0d0	-0.002314616
22	0xbe482cf5	-0.195484
23	0x3c62aa84	0.013834599
24	0xbd7647c4	-0.060127035
25	0xbe0cefe8	-0.13763392
26	0x3c29938d	0.01035012
27	0xbd15e546	-0.036595605
28	0x3e372d9a	0.1788849
29	0x3e717acb	0.23581998
30	0xbe250c71	-0.16118027
31	0x3dfbcd0a	0.122949675
32	0xbd15eb59	-0.0366014
33	0xbdc2c5e4	-0.09510401
34	0xbf5c8e95	-0.8615506
35	0xbd3a56b1	-0.04549283
36	0xbe040cc9	-0.12895502
37	0xbd6a6c8b	-0.05723242
38	0xbd7121f2	-0.058870263
39	0x3d0d99ee	0.034570627
40	0xbdd45fde	-0.10369848
41	0x3dcc8cbd	0.09987781
42	0xbddbc170	-0.10730255
43	0xbda4c528	-0.08045417
44	0xbd0b6c8a	-0.034039058
45	0xbcd3307a	-0.025779951
46	0x3d544421	0.051822785
47	0x3e2deb27	0.16984235
48	0xbe34018c	-0.17578715
49	0x3e16cc65	0.14726408
50	0x3e4d05ec	0.2002179
51	0xbcd8882e	-0.026432123
52	0xbce44413	-0.027864492
53	0xbd90ba9f	-0.07066845
54	0xbdb8e695	-0.09028355
55	0x3e65a3fb	0.22425835
56	0xbe2d4098	-0.16919172
57	0x3d9b9058	0.07595891
58	0x3dc5bb4a	0.09654863
59	0x3e3ab3e0	0.1823268
60	0xbdf467d4	-0.11933866
61	0x3c32edff	0.0109210005
62	0xbe816e71	-0.25279573
63	0x3d234cdd	0.039868224
64	0x3d36e4c1	0.04465175
65	0xbe86444a	-0.26223975
66	0xbe292629	-0.16518463
67	0xbd961fae	-0.07330261
68	0xbd6c6295	-0.057711203
69	0x3e67bf91	0.2263167
70	0x3e0036bc	0.1252088
71	0xbdb08eb9	-0.08620972
72	0xbe1ceb52	-0.15324143
73	0x3e598e0c	0.21245593
74	0x3d3df522	0.046376355
75	0x3d3c4852	0.045967408
76	0x3e856118	0.2605064
77	0xbd52ccd6	-0.051464878
78	0xbc2cca95	-0.010546346
79	0xbd0786fd	-0.03308772
80	0xbe78a9c1	-0.24283506
81	0xbea50dc8	-0.32237077
82	0x3e1d8063	0.15381007
83	0x3d8db5b0	0.0691942
84	0xbd8549e5	-0.06508235
85	0x3d44fb6e	0.048091345
86	0xbe852d99	-0.2601135
87	0x3db91ec6	0.09039073
88	0xbc73e07f	-0.014885067
89	0x3db686b1	0.08912409
90	0xbcb66045	-0.022262702
91	0xbde113e6	-0.109901235
92	0x3b470d14	0.0030372785
93	0xbe1bd10a	-0.15216461
94	0xbc68ad1e	-0.014201431
95	0xbe057f46	-0.13036832
96	0xbd33869c	-0.043829545
97	0xbe03bfbd	-0.12866111
98	0x3de71b4d	0.11284504
99	0xbe05ec81	-0.130785
100	0x3dd8584a	0.10563715
101	0x3e9b97ba	0.30389196
102	0x3c4dfe43	0.012572828
103	0xbdb2baf8	-0.08727068
104	0xbd7b580a	-0.061363257
105	0x3e1347c4	0.14382845
106	0xbd18b86c	-0.037285253
107	0x3e9846dd	0.29741564
108	0x3d1350d1	0.035965744
109	0xbdb5587a	-0.08854766
110	0xbdc77932	-0.09739913
111	0x3e0544b0	0.13014483
112	0xbe0470a7	-0.12933598
113	0xbd9200b7	-0.071290426
114	0x3e10f39b	0.14155428
115	0xbe87993e	-0.26484102
116	0xbd984c51	-0.07436431
117	0x3e4f259a	0.20229188
118	0x3f8fbf81	1.1230317
119	0xbca4bfec	-0.020111047
120	0xbf37fcc3	-0.7187006
121	0xbce68bf6	-0.02814291
122	0x3db8acb2	0.09017314
123	0x3d0671c4	0.03282334
124	0x3da91d9a	0.08257599
125	0x3d76862e	0.060186557
126	0x3d859a19	0.065235324
127	0x3dfeed12	0.12447561
128	0x3d342f8e	0.043990664
129	0xbd9f1f8c	-0.07769689
130	0x3e90a06c	0.28247392
131	0xbe60d985	-0.21957977
132	0x3e02175e	0.12704226
133	0x3c61f016	0.013790151
134	0x3dd128a4	0.1021283
135	0xbcc0b75a	-0.023524929
136	0x3db3da20	0.087818384
137	0xbd87ff03	-0.066404365
138	0xbe506daa	-0.20354334
139	0x3e118a97	0.14213024
140	0x3c37cad8	0.011217795
141	0x3d12cca8	0.035839707
142	0xbad07726	-0.001590465
143	0xbe8173f8	-0.2528379
144	0x3d855337	0.065100126
145	0xbd61e7fc	-0.05515288
146	0x3e6185e2	0.22023728
147	0x3d9e8d8e	0.07741843
148	0xbe2fb766	-0.17159805
149	0xbe974e0b	-0.2955173
150	0x3e61f652	0.2206662
151	0xbe311f22	-0.17297032
152	0x3dc8802a	0.0979007
153	0x3d353eed	0.044249464
154	0x3dd4e726	0.103956506
155	0x3dbb2f75	0.09139911
156	0x3d89b278	0.06723493
157	0xbdf8eb1a	-0.12154217
158	0x3dd1695a	0.10225172
159	0x3df9f479	0.122048326
160	0xbe593dfa	-0.21215048
161	0x3e158256	0.146005
162	0x3e2719fd	0.16318507
163	0xbf9f9420	-1.2467079
164	0x3dc3e415	0.095649876
165	0x3d429b8d	0.047511626
166	0x3dc69f94	0.09698406
167	0xbe5ef210	-0.21772027
168	0x3b541520	0.0032361224
169	0x3d94b02a	0.07260163
170	0xbe7d04e0	-0.24708891
171	0xbe0afca5	-0.13572939
172	0xbd5fe691	-0.054663245
173	0x3dd0300f	0.101654164
174	0x3dba2f3b	0.0909104
175	0xbd10678c	-0.035255
176	0x3d9fe833	0.0780796
177	0xbe6ceb8f	-0.23136733
178	0xbd074263	-0.033022296
179	0xbcceac9e	-0.025228795
180	0xbe145a44	-0.14487559
181	0x3e7d841d	0.24757428
182	0xbe124075	-0.14282401
183	0x3e23b761	0.15987922
184	0x3da63dbb	0.08117243
185	0xbe56e687	-0.20986377
186	0x3d8e99e3	0.06962945
187	0x3e052504	0.13002402
188	0xbd940f66	-0.072294995
189	0xbdb3b132	-0.08774032
190	0x3e0c78b1	0.13717915
191	0xbe6af20c	-0.22943896
192	0xbdb9900d	-0.09060679
193	0x3e317a8e	0.17331907
194	0x3cd417a7	0.025890185
195	0x3e095566	0.13411483
196	0xbdb9a234	-0.09064141
197	0xbcaad2a7	-0.0208524
198	0xbd2014ed	-0.039082456
199	0xbdd79f9b	-0.10528489
200	0xbe804e61	-0.25059798
201	0xbdf8a0e8	-0.121400654
202	0x3e127f76	0.14306435
203	0x3c4ca66e	0.012490852
204	0xbd8f01d2	-0.06982769
205	0xbd0a0913	-0.03370006
206	0x3ea1f754	0.3163401
207	0xbca4c248	-0.020112172
208	0xbdc59d01	-0.09649087
209	0xbe39d47e	-0.18147466
210	0xbdb90b10	-0.09035313
211	0x3dc5f467	0.09665757
212	0xbe5555fa	-0.20833579
213	0x3d0d59a4	0.034509316
214	0x3d444e4b	0.04792623
215	0x3c967fec	0.018371545
216	0x3e2b9c69	0.16758884
217	0xbe34ed8f	-0.17668746
218	0xbc9ae7f2	-0.018909428
219	0xbe3edc38	-0.18638694
220	0xbc9a2b73	-0.018819546
221	0xbc2d70bb	-0.010585959
222	0x3bb1ee16	0.0054299934
223	0xbcb239a2	-0.021755997
224	0xbcec0a6a	-0.02881356
225	0x3cdff176	0.027336817
226	0xbd3bb20c	-0.045824096
227	0xbdb30657	-0.087414436
228	0x3bc9ee77	0.0061624604
229	0xbdf24cef	-0.1183108
230	0xbd8a7675	-0.06760875
231	0x3e895475	0.26822248
232	0x3df5be99	0.11999244
233	0xbd585a45	-0.052820463
234	0x3afc892f	0.0019266958
235	0xbe8e9e2d	-0.27855054
236	0x3e05c045	0.13061626
237	0x3d85bdbf	0.06530332
238	0xbcb2152b	-0.02173861
239	0x3dc0dbaf	0.09416901
240	0xbe036c81	-0.1283436
241	0x3cc25a60	0.023724735
242	0xbcc4b43e	-0.024011727
243	0xbf328723	-0.6973745
244	0x3b7f0f12	0.0038918895
245	0x3e54f476	0.2079638
246	0xbe2c2357	-0.16810356
247	0xbd93293c	-0.07185599
248	0x3da65898	0.08122367
249	0xbe08d4c2	-0.1336241
250	0x3e30c01b	0.17260782
251	0x3c28b35b	0.010296668
252	0x3d651c26	0.055935048
253	0x3e721019	0.23638953
254	0x3d6b2452	0.057407685
255	0xbe27af95	-0.16375573

bias f4 [2]
0	0xbd01fdda	-0.031736232
1	0xbca73a9f	-0.020413695
